save_results/autoformer_short_term_90d_run1.pt (torch, 437661 bytes, 28 tensors)

input_embedding.weight f4 [64, 12]
00000000: 0602 4bbe b18a 1bbd 132d f53c a579 013e
00000010: 7f87 c6bd 6ff3 babd 9d5e 833e 8e3f 263e
00000020: f3cb 533e 816e 3ebe ec36 80ba e030 543e
00000030: db87 bfbd 2246 133e 5aac 54ba 93fd 133e
00000040: d871 dfbd 8543 2c3e bff2 28be fb9e 5fbd
00000050: 1dab 81be 1622 85bd 1d00 863e 80a6 35be
00000060: e54a 8cbe d8c7 213e 9e73 94bc 36b7 293e
00000070: 4687 bfbc e15c 333e 9cd0 b33d 5e99 9b3d
00000080: 69a6 8cbe 8e2f 7d3d bf2d d93d e867 aabd
00000090: 1fea 983e 59da 4ebe 9360 5e3b c2f8 573e
000000a0: 2c8e 8c3e 9a6e 8b3c 5209 523e 71f9 293e
000000b0: 782c 963d 891d 6bbe 5dbb 86be 1c9c b4bc
000000c0: cbca 9ebd 676d 3dbe 9774 6e3e 95b2 37bc
000000d0: 97c3 c9bd 5907 1abe 0216 86be a34b 9f3d
000000e0: 51bd 7b3e 293d 7ebd fb91 703e 89f4 7f3e
000000f0: fc7e 903d 08dd 0dbe b441 3abe cf3b 7ebe
00000100: fe2a b83d ecf5 5e3e 6e52 303e 7fee 7abe
00000110: 9f4e 723d 87d6 293e cc65 bb3d 385e 1bbe
00000120: 88b2 843c 64dc e6bd f4b1 5bbd 7f92 2abe
00000130: 838f 87bd 3dfb 443d c62c 433b b01e 493e
00000140: c177 013e cfec 273e a41c b7bc 00da a33d
00000150: efa9 7b3e f87a 69bd 2a6c 81be 36b2 783e
00000160: 21f4 6d3e caf4 6f3e 0049 3bbd bb7a 8e3d
00000170: 5bf8 02be 5400 c3bd cdc8 1b3e 2667 21be
00000180: 11b1 70be b19e 0fba ca23 62bd d63b 7d3d
00000190: 0ddb d53d 5f93 abbd 4061 0fbd 3480 943e
000001a0: 6ba9 a33d 24c1 483e 4467 563e 22c3 27be
000001b0: a997 fabd 15a0 823e 940b 8a3e 1a0c 923d
000001c0: e800 163e a13d 7bbd 836f 32bd 1aa9 dbbc
000001d0: df6f 42be ac17 803d 1e8b 113d 7711 1c3e
000001e0: 3fe8 8a3e 21ab b2bd fd82 dc3d 1f41 85be
000001f0: c071 8b3e 86df a83d 4e66 67be d472 813e
00000200: 0e2c 2f3e 41fe 653d be07 08bc 3bc6 32bd
00000210: 50cd b6bd b839 1fbc 7b46 70be c148 46be
00000220: 4dc9 5ebe 0084 1cbe 71ad ae3d 3e89 ea3b
00000230: 1d91 15be da2d 6a3e a4fd 59be 1169 81bc
00000240: f208 2d3e 02ce eb3d cffd f5bd f996 943c
00000250: c921 143e 766f 393b c629 8ebe ed4e 12bd
00000260: 9896 64be 1f5d 70be ef80 743e 3c90 75be
00000270: 4c8a a23d bd8c 4a3d 048d 5f3e 7601 873d
00000280: 893e 953d 2128 6b3e 3540 8f3e 0902 883e
00000290: 983e 13be 85a5 ea3d 0ea8 903d a8d5 9bbd
000002a0: 4ab8 513e 61a0 f13d 7377 2bbe 954b 283e
000002b0: 70ac 1c3c bd95 02be ff12 f5bd b094 65be
000002c0: 7fb7 213e e48b b0bd e8ec a7bd 658e d8bb
000002d0: 88a8 79be 045c f4bc d24e c93d b38b 663e
000002e0: a1c0 23be 845e 0ebd a480 203e e367 2f3e
000002f0: b743 a2b9 8404 4fbd 1b39 793c df86 1dbe
00000300: 1023 8abe c92c 633e 1726 5c3e 7356 24be
00000310: 7bca 423e de09 253e 0385 5e3e 7193 b93b
00000320: 8be1 1b3e 45d1 70be fe45 8b3e 0ec4 473e
00000330: 25d5 0bbe b286 7f3e 051c 87bc 208a 833e
00000340: f853 f43d bfde 1fbe 78c2 43bd 8531 4cbe
00000350: 0955 8fbd 986b 013e 9f57 283e 639b 2dbe
00000360: fbf7 b83d 32e8 05bd ef75 353e 3480 7ebe
00000370: e15f 64be c972 463e ac88 83bd 53e5 90be
00000380: 0397 6a3d 7821 853c 20a6 a03d ba9b ecbd
00000390: 77ad ee3d 8df5 86be a382 d1bd 471a b13c
000003a0: 7c81 163d 14ce fd3d f489 6a3e 97d3 793e
000003b0: f200 45bd 3309 2ebe 08c4 c63d c1ab acbb
000003c0: 51f3 8dbd dce2 33be b9e2 a0ba ec71 8aba
000003d0: ec85 73be a455 01be aae0 3e3d 098e 603e
000003e0: 3f37 29bd 8fbe 473e 2d81 503d 3241 99bc
000003f0: 7fae d6bc 06ba 48be 4edf 5ebe b1e2 043e
-0.1982499 -0.037974063 0.02992872 0.1264406 -0.096938126 -0.091284625 0.25658122 0.16235182
0.20683269 -0.18596841 -0.0009781993 0.2072177 -0.09352084 0.14382222 -0.00081128406 0.144522
-0.10910386 0.16822632 -0.1649885 -0.054594975 -0.25325862 -0.06500642 0.2617196 -0.17739296
-0.2740089 0.1579889 -0.018121537 0.16573796 -0.023379933 0.17515899 0.087800235 0.07597612
-0.2747071 0.06181293 0.106044285 -0.083206 0.2986612 -0.2020048 0.0033932074 0.21090987
0.2745222 0.017020512 0.20511368 0.1659906 0.073327005 -0.22960486 -0.26314822 -0.022047095
-0.077535234 -0.18498765 0.23286663 -0.011212011 -0.09851759 -0.15041865 -0.26188666 0.077780984
0.24583937 -0.062070046 0.23493187 0.24995627 0.0705547 -0.13853848 -0.18189126 -0.24827503
0.08992575 0.21773499 0.17218944 -0.24505042 0.05915701 0.16585742 0.091502756 -0.1517266
0.016198412 -0.11272505 -0.053636506 -0.16657446 -0.066191696 0.048091162 0.0029781326 0.19640613
0.12643339 0.16398929 -0.022352524 0.080005646 0.24576543 -0.057002038 -0.25277835 0.24286732
0.23237659 0.23433223 -0.045723915 0.06957003 -0.12790053 -0.09521547 0.15213318 -0.15762004
-0.23505045 -0.0005478664 -0.055209912 0.061824642 0.10442171 -0.08377718 -0.035004854 0.2900406
0.07991298 0.19604927 0.2093783 -0.16383031 -0.12235958 0.25512758 0.26961958 0.071312144
0.14648783 -0.06133807 -0.043563377 -0.026814032 -0.18987988 0.06254515 0.035533063 0.15241037
0.27130315 -0.087240465 0.107671715 -0.26026246 0.27235222 0.08245759 -0.2259762 0.2528292
0.1710665 0.05615068 -0.008302627 -0.04364608 -0.08925879 -0.009718351 -0.23464386 -0.19363691
-0.21756478 -0.15284729 0.08529175 0.007157474 -0.14606138 0.22869053 -0.21288162 -0.01579717
0.16897944 0.11513902 -0.12011301 0.018138396 0.14466013 0.0028295196 -0.27766246 -0.0357198
-0.22323072 -0.23473023 0.2387731 -0.23980802 0.07936534 0.049450625 0.21831137 0.065920755
0.07287318 0.22964527 0.27978674 0.26564053 -0.14379346 0.114573516 0.07063304 -0.07609111
0.20480457 0.11798168 -0.16744785 0.16435082 0.009562597 -0.12752433 -0.11966514 -0.22420001
0.15792654 -0.08620432 -0.08199483 -0.0066087716 -0.24380696 -0.029829033 0.09829487 0.22514229
-0.15991451 -0.034758106 0.15674073 0.17129473 -0.000309495 -0.050541416 0.015211369 -0.1538348
-0.26979876 0.22185053 0.21498905 -0.16048603 0.19022553 0.16117045 0.21730427 0.0056633283
0.15222757 -0.2351733 0.27201837 0.19508383 -0.13655527 0.24953726 -0.016492853 0.2569132
0.11930078 -0.15612315 -0.04779288 -0.19940765 -0.06998641 0.126387 0.16439675 -0.16953807
0.090316735 -0.03269214 0.1772077 -0.24853593 -0.223022 0.19379725 -0.064225525 -0.2829996
0.057272922 0.01625131 0.07844186 -0.1155314 0.116541795 -0.26359215 -0.10229995 0.021618975
0.03674458 0.12392822 0.22904187 0.24397121 -0.048096605 -0.16995697 0.09705359 -0.005269498
-0.069311745 -0.17567009 -0.00122746 -0.0010562516 -0.23781556 -0.12630326 0.046600975 0.21929182
-0.041312452 0.19506286 0.05090444 -0.018707845 -0.026206253 -0.19602212 -0.21764871 0.12977101

input_embedding.bias f4 [64]
00000000: 6e29 623e 103f 12be e9e3 b63d 2432 743e
00000010: d387 7dbe f142 47be 58e2 d33d b7c1 67be
00000020: a933 a4bc 82ff 953d 3d7f 583c d369 b2bc
00000030: 56c2 19be 590e b93d c30d 5e3e 01f8 933c
00000040: b53b 703e a010 85be 5ee1 7a3d d668 8bbe
00000050: 4cf1 9fbd 1f16 0ebe 1169 67be ccb0 0c3d
00000060: 92c2 bcbd 809f ffbd f3f6 5f3e be1a 02bd
00000070: 4478 413e e611 1c3e 20f0 2d3e 181a e03d
00000080: b3e1 58be 7472 463d 5f87 4fbe 46a4 cbbd
00000090: 4da3 883d 0239 3c3e 91b9 4e3e bce0 c43d
000000a0: 6c90 973e 545c 67bd e1ea 6f3c 2aec c03c
000000b0: be9d 74bc f206 8f3e 7217 bc3d b2dd 0c3e
000000c0: f46a e73c 723c b83d a727 4abe 75f7 c83c
000000d0: eee8 693e 8236 8e3e 9d8d a2bd 4233 d7bd
000000e0: 1f43 8ebc bcb8 25be 9b23 66bd 1fb3 363e
000000f0: 0d7a 5abe ae3b 3b3e 1eb9 14be ed68 85be
0.22086117 -0.14281869 0.08930189 0.23847252 -0.24758844 -0.1945913 0.10345906 -0.2263249
-0.020044165 0.07324125 0.01321393 -0.021778977 -0.1501554 0.0903594 0.21684937 0.018062593
0.23460276 -0.25989246 0.061250083 -0.2722842 -0.078096956 -0.13875626 -0.22598673 0.034348294
-0.09216799 -0.12481594 0.21871547 -0.031763785 0.18893534 0.15241203 0.16986132 0.10942477
-0.21179847 0.048448995 -0.20266484 -0.09943442 0.06671772 0.18381122 0.20187975 0.09613177
0.29602373 -0.056484535 0.014643402 0.023550112 -0.014930187 0.27934986 0.09184159 0.13756445
0.028249241 0.08995904 -0.19741689 0.02453206 0.22842762 0.2777596 -0.07937167 -0.105078235
-0.01736599 -0.16183752 -0.0561863 0.17841767 -0.21335621 0.18284485 -0.14523742 -0.26056615

encoder.layers.0.self_attn.in_proj_weight f4 [192, 64]
00000000: fb79 2dbd e9dc 6dbc cda3 0a3e a05f cf3d
00000010: 6e03 443d 3aba c33b adb4 fcbd 53fc 3b3e
00000020: 0c19 143c b16c 9f3d 4c18 043e b53c 123d
00000030: c97c b73c 6567 2e3e dc81 b63c c8eb 5b3d
00000040: f4f0 713d 1db7 30bd a28b c23d 1fd9 74bc
00000050: bd56 2fbe d72d 16be 3ed7 9b3d 640c 34bd
00000060: ca98 d83d a65d 7dbd f0ca 6b3e 7652 4cbd
00000070: bd8a 20be 0696 0bbe f409 2e3d b42d 9e3c
00000080: 9840 d53c ab6a 603e 4bf6 b13c f116 a4bd
00000090: 8a19 b0bd caf4 e6bc f3dd 40bd 60ca 263b
000000a0: aea4 113e 0b29 9cbd 040b ea3c b198 9c3c
000000b0: 95dd d73d dbdb b9bd 40d3 4c3e f226 053e
000000c0: 883d ebbd bdcf 1dbe 7871 29be 7382 b4bd
000000d0: dd79 cd3d efcc 5c3d d1e9 0ebe ea65 85bd
000000e0: bd84 cfbd 8bcf 26be 0c0b ac3d 27d9 00bd
000000f0: 6529 443c 2b56 bfbd 2545 aabd 6ce3 683d
00000100: 72f2 2d3c 1d79 a4bd 8142 b2bd dd86 9cbd
00000110: bc3b 82bd 038d 1f3e 2254 d73d 37fa 423d
00000120: 19c1 263e 1a72 6c3d 36db 753d 822e 043d
00000130: 8b8d 13be 4c3a 55bd 3d13 43bd 6e36 8d3c
00000140: 48f2 f63d 9e19 92bc 43e8 313e 57c1 c33c
00000150: 0d52 ddbc 03e0 06be ee4f eb3c 35d0 ae3d
00000160: fdd8 c83d 8ab4 ed3d 06ee 533e 5b4e c43d
00000170: a2fe 84bd 2c32 233c 0768 113d 574a 86bc
00000180: f3e6 073e 57bd 403d 06dc 0bbe bd8b 9dbd
00000190: 731c 9cbd 49eb 1b3e f377 823c de0e efbd
000001a0: cbd4 ffbc 82e9 85bd a9b4 d2bd a023 9a3d
000001b0: 20f6 b03d 0cb3 2ebe 87db e9bd 3fe9 213e
000001c0: b0ad c03d b1de f03d cb28 0bbd a92a c5bb
000001d0: 4021 b4bd af92 243e 3be0 8cbd 2eda 3fbd
000001e0: 09b2 e2bb 89c2 e5bd dff9 54bd 5ce5 cbbd
000001f0: 50f3 d93d f158 71bd c5a6 0fbe cccf 0e3b
00000200: ffc2 f3bc a71c 09be d1e4 e5bc 0ea1 a03c
00000210: 7e46 4e3d 7196 1f3c 8557 d63d 1594 27be
00000220: 8ffa 06be c921 ed3d c1b4 ecbd b0b6 48bd
00000230: f1ff 58bb ebe9 17bc 72ab 96bd d7f8 fdbc
00000240: 2697 01be 8de1 af3c d2c6 0f3c 65d0 b03c
00000250: b3e1 8abd b271 dc3c 966b b3bb 2d8b ddbd
00000260: 8380 a3bc ec9a cdbc 95dc b43c 6daa 1c3e
00000270: 3672 363d 6887 70bd 5c43 ee3c 1e49 3bbe
00000280: 729a 68bd 8437 dc3b 530a a2bd c3e7 193c
00000290: e496 3cbd d2c9 9cbc 9cc0 9fbd 5c49 d9bd
000002a0: 3118 d3bd a3d2 d23c 3d3a 973d 7ae0 e4bb
000002b0: 5475 e83c fe09 b93d c64f 843d ecda 2bbd
000002c0: 0722 d3bd 48a7 9bbd 4dae dd3d b54d b83d
000002d0: 5b22 4dbd 1d7b 143d c2c8 933d 531f aabd
000002e0: 8da1 bf3c 850f d9bd 8e7c c4bd cdde 06be
000002f0: 8b53 063d a6f9 f03d 3c6e a0bd 9738 95bd
00000300: 5c8b a03d e18f c13c 5c71 09be e44c 91bd
00000310: 2447 59bd 5154 873d e272 d03d 3d44 ecbd
00000320: 8c9c 653d 2cb8 8abd ac34 d03d c657 d9bd
00000330: cc49 073e c6eb c53c b3ec 9f3d f8b1 5cbd
00000340: 7867 003d 602a 073e 82be ac3d 04ee b63d
00000350: e82f 993d 9583 07be 99b1 04bd af11 83bd
00000360: 30ef 88bd cc6e 0c3e 2955 c0bd 3da6 0f3e
00000370: 821f b2bd 69f1 d1bd 4942 f4bd 28fc 4bbe
00000380: 5838 99bd 4629 cbbd f4f3 b3bd 00e4 0d3d
00000390: 0d2d c5bd 0721 333c 2975 fabc 9533 f3bd
000003a0: eb33 04be 5686 0b3d f6eb 333c 68f4 313d
000003b0: 5c04 3bbe 59dd f2bd 5954 0f3e bee8 06be
000003c0: 95d6 9ebd cc95 eabb a353 b63d f49b 053e
000003d0: 1196 0ebe 8715 353c bcd7 ca3d aff6 f2bd
000003e0: 7b67 90bd 417b debd ec8c 2ebe 3e0a 0c3d
000003f0: b2d3 dcbd 5ae0 b13d b431 d9bd bbd5 6fbb
-0.042352658 -0.014518001 0.13539048 0.10125661 0.047854833 0.0059731277 -0.12339149 0.18357973
0.009039175 0.07784403 0.12899894 0.035702426 0.02239837 0.1703163 0.022278719 0.053691655
0.05906768 -0.04314338 0.09499289 -0.014944344 -0.17122932 -0.14665924 0.076094136 -0.04395713
0.10576017 -0.06185689 0.23026633 -0.04988333 -0.15677924 -0.13631448 0.04248996 0.019308902
0.026031777 0.2191569 0.021723887 -0.08012188 -0.08598621 -0.028192896 -0.047086667 0.0025450215
0.14222977 -0.07625016 0.028569706 0.019115778 0.1054031 -0.09075137 0.2000246 0.13003138
-0.114863455 -0.15411277 -0.16547191 -0.08813944 0.10033009 0.053906377 -0.13956381 -0.06513579
-0.1013274 -0.16290109 0.084005445 -0.031457093 0.01197276 -0.09342607 -0.083139695 0.05685751
0.0106168855 -0.08030913 -0.08704091 -0.07642911 -0.0635905 0.15581135 0.10514094 0.047601905
0.16284598 0.057726003 0.06002351 0.032270916 -0.14409463 -0.05205755 -0.04762577 0.017237868
0.1205793 -0.01783448 0.17373757 0.023895903 -0.027016664 -0.13171391 0.028724637 0.08535806
0.09807012 0.11606701 0.20696267 0.095852576 -0.0649388 0.009960692 0.0354996 -0.01639287
0.13271694 0.04705557 -0.13658151 -0.076926686 -0.07622614 0.15226473 0.015926337 -0.116727576
-0.031229397 -0.06538679 -0.102883644 0.07526326 0.086406946 -0.17060488 -0.11418825 0.15811633
0.09408128 0.11761225 -0.03397445 -0.0060170484 -0.087954044 0.1607158 -0.06878706 -0.04683893
-0.006918196 -0.11218745 -0.05199611 -0.09955856 0.10642111 -0.05892271 -0.14028461 0.0021791337
-0.029756067 -0.13389836 -0.02806321 0.019608047 0.050360195 0.009740458 0.10465912 -0.16365083
-0.13181518 0.1157871 -0.115579136 -0.04900235 -0.0033111537 -0.009272079 -0.07356919 -0.031002445
-0.12655315 0.021469856 0.00877543 0.021583745 -0.0678133 0.026909683 -0.0054754717 -0.10817561
-0.01995874 -0.025098287 0.022077838 0.15299387 0.044542514 -0.058722883 0.029084854 -0.1828961
-0.056787916 0.006720485 -0.079121254 0.009393635 -0.046042338 -0.019139204 -0.07800409 -0.10609695
-0.103073485 0.025735205 0.07384155 -0.0069847675 0.028376259 0.09035109 0.06460528 -0.041956827
-0.103092246 -0.07600266 0.10824261 0.089991964 -0.050081592 0.036250222 0.07216026 -0.08306756
0.023392463 -0.10598663 -0.095940694 -0.13170929 0.032794517 0.11766367 -0.078335255 -0.07286184
0.07839081 0.023628177 -0.1342215 -0.07094744 -0.05304636 0.06607879 0.10178162 -0.11536453
0.056057498 -0.06773409 0.10166296 -0.106124446 0.13211745 0.024160277 0.07808819 -0.05388066
0.031348675 0.13199759 0.08434774 0.08932117 0.074798405 -0.13233788 -0.032395933 -0.06399857
-0.066862464 0.1371414 -0.09391243 0.14028259 -0.08697416 -0.102511235 -0.119267054 -0.19920409
-0.0748145 -0.09919982 -0.08786765 0.034641266 -0.096277334 0.010933167 -0.030573444 -0.11875073
-0.1291043 0.03406366 0.01098155 0.043445975 -0.18263382 -0.11858625 0.1399702 -0.13174722
-0.07755772 -0.0071589705 0.08902671 0.13047773 -0.13924433 0.011052496 0.09904429 -0.118634574
-0.07050987 -0.108633526 -0.17045945 0.034189455 -0.10782565 0.0868537 -0.10605183 -0.00365959

encoder.layers.0.self_attn.in_proj_bias f4 [192]
00000000: fbc9 2f3c 77d0 c7bb 1ece 40bc 2894 8cbc
00000010: 8140 b73c d515 683c 68c5 a2bc 60e7 82bc
00000020: f479 f93b 80cb bbba 2312 9a3c e14b 87bb
00000030: a9f1 9bbc d4f5 a8bc 1107 2dbd 980b 6a3c
00000040: 658e 4a3d bf8c 82bd fb3a 873c 261c c6bd
00000050: 668e cf3c f08a 72bd 9b45 713d 8016 65bd
00000060: 243f dd3d dbe7 503d 70a6 30bd 08d3 963d
00000070: 385c 47bd 9711 d73d 9c63 74bd 2f08 9f3d
00000080: 856c b53d 7590 9ebd fc40 dabd 43eb 013d
00000090: 555d 53bd 9c0c d03d f8d7 26bd 6cc7 acbd
000000a0: a54d dcbd fb60 e23d 5d64 513d e0c3 ab3d
000000b0: a712 d3bd 3295 e73d ec14 95bd a3f3 e33d
000000c0: 767f 5ebc 2cc0 b73d 2716 403d bfd6 8e3d
000000d0: d520 323d da7c d3bd 1a2f dabc 0432 41bd
000000e0: a052 3f3d cefd 8abc 46b3 04bd 2fb8 913d
000000f0: 6ef6 81bd 3776 933d 371c 783d 65c4 26bd
00000100: f2a4 4ab4 afaf d632 9ab7 2335 ccb4 0235
00000110: 9c2a e7b4 e72e ba34 a04a 8133 e84e afb4
00000120: 8c39 ae34 9390 d7b4 74d9 29b3 c20a 7434
00000130: d2be 8834 8a90 18b3 249e f634 b673 8bb4
00000140: 28f4 4ab4 b131 01b5 4a63 03b5 bd88 b135
00000150: 0051 c2b4 c63f 85b2 9bd1 af35 44b0 2435
00000160: a6f9 dd34 7a45 3e34 2d5d 10b3 e1d3 cfb5
00000170: 165c 6fb5 7f26 5136 c0f0 1235 634e a435
00000180: acc0 35b6 ed03 0f36 da38 a836 7917 f3b5
00000190: 3df2 9135 f2c4 50b6 ae1d f035 6736 9136
000001a0: 87b2 3536 f0c0 2eb6 2a42 c2b5 ab4b 23b6
000001b0: a271 7236 1277 27b6 5256 5a36 dcbd 08b6
000001c0: 2414 3934 fdbf c8b5 4ed3 47b5 e313 00b6
000001d0: 5314 8eb4 e10b 20b5 0ca4 69b4 83e9 e235
000001e0: acf4 9d35 a7c1 e933 d6ae dbb5 40bc ea33
000001f0: 360e ee35 f30e acb5 8687 06b4 4dcf 9d35
00000200: 5d5f 1f3c 3d26 a13b 5ee6 febb 0630 0abc
00000210: 002e 1fbc f0db 3f3c e68b 3e3b e676 2e3c
00000220: fc97 40bc 53ab 07bc b76a fdbb 6e2a 00bc
00000230: 0cae 293c 830b 14bc 666f 1b3b 7c20 2fbc
00000240: 3493 243a d624 183c 42b7 e73b 5aa6 fb3a
00000250: 20ce fc3b e7e7 ec3b 3da0 75bc 2bc7 24bc
00000260: 8788 263c b782 49ba d6a7 0bbc 9c7e 873b
00000270: bb68 6fbb d7e4 58bc da4b 0d3c 8568 09bc
00000280: 81cc 55bb 6b6c 923a 3963 3cbc d152 92bc
00000290: e906 2b3c 133f 72bb 9858 d73b b0b1 82bc
000002a0: d25e 423c c3fe 91bb 44e0 2b3b 3879 f9bb
000002b0: 4e85 76bb e9c9 303c b71e 293c 5e1f ed3a
000002c0: f3cd afba 43ee 0dbc 47ed 41bc 15be 15bc
000002d0: cf71 f73b e86f 5fbb 0626 483a 8061 833b
000002e0: aec0 fe3a 6a4a 1a3c a074 233c 5899 85bb
000002f0: 0efb 2a3c 985d 643a 25e8 48bc c27c cfba
0.010729308 -0.006097849 -0.011767892 -0.01716049 0.022369625 0.014165361 -0.019869521 -0.015979469
0.007613415 -0.0014327615 0.018807476 -0.0041289185 -0.019036131 -0.020625032 -0.042243067 0.014284991
0.049452204 -0.063745014 0.016507616 -0.09673338 0.025336456 -0.059214532 0.05890427 -0.05592966
0.10803059 0.051002365 -0.043127477 0.0736447 -0.04867193 0.10501402 -0.059665307 0.07765233
0.08858589 -0.07742397 -0.10656926 0.031718504 -0.05160268 0.10158655 -0.040733308 -0.08436474
-0.10756997 0.11053654 0.051121105 0.083869696 -0.10306292 0.113077536 -0.07279381 0.111304544
-0.013580194 0.08972201 0.046896126 0.06974553 0.043488342 -0.10326548 -0.026633788 -0.04716684
0.046709657 -0.016966727 -0.03239753 0.07115208 -0.06345831 0.07200282 0.060573783 -0.04071464
-1.8872723e-07 2.499277e-08 6.098941e-07 4.869187e-07 -4.3058105e-07 3.4679326e-07 6.020605e-08 -3.2653702e-07
3.2451896e-07 -4.0152062e-07 -3.954615e-08 2.2728184e-07 2.5470814e-07 -3.5521715e-08 4.5936133e-07 -2.5974958e-07
-1.890154e-07 -4.8128555e-07 -4.894579e-07 1.3227324e-06 -3.619425e-07 -1.5512239e-08 1.3099519e-06 6.135126e-07
4.13461e-07 1.7720404e-07 -3.3612356e-08 -1.5484367e-06 -8.916844e-07 3.1165835e-06 5.4739576e-07 1.2241766e-06
-2.7083252e-06 2.1310946e-06 5.0134086e-06 -1.8111742e-06 1.0873842e-06 -3.1109053e-06 1.7890031e-06 4.32767e-06
2.7075018e-06 -2.6040325e-06 -1.4473383e-06 -2.4332937e-06 3.6126953e-06 -2.4954247e-06 3.2534776e-06 -2.0376092e-06
1.7236795e-07 -1.4957037e-06 -7.4440766e-07 -1.9085062e-06 -2.646435e-07 -5.962193e-07 -2.1759496e-07 1.6906273e-06
1.176862e-06 1.0885133e-07 -1.6367655e-06 1.09307166e-07 1.7736518e-06 -1.2819349e-06 -1.2529026e-07 1.1757744e-06
0.009727326 0.0049178884 -0.0077789268 -0.008434301 -0.009715557 0.011710152 0.0029075085 0.010648465
-0.011754986 -0.008280593 -0.0077336687 -0.007822616 0.010356437 -0.009035948 0.0023717522 -0.010688897
0.00062780385 0.009286126 0.0070714066 0.0019199357 0.0077150017 0.0072297934 -0.014991817 -0.010057251
0.010164387 -0.00076870195 -0.008523902 0.004134966 -0.003653093 -0.013238153 0.008624041 -0.008386736
-0.0032623115 0.0011171227 -0.011498266 -0.017861756 0.010438659 -0.0036963865 0.0065718405 -0.015953869
0.011863427 -0.004455419 0.0026226202 -0.0076133274 -0.0037616077 0.010790327 0.010322264 0.0018091013
-0.0013412818 -0.008662763 -0.0118363565 -0.009139557 0.007551409 -0.00340938 0.00076350605 0.0040094256
0.0019436085 0.009417156 0.009976536 -0.004077118 0.010435833 0.00087114563 -0.012262379 -0.0015830027

encoder.layers.0.self_attn.out_proj.weight f4 [64, 64]
00000000: 91b3 7cbd 28e8 d0bd 941c e1bd f07b 81bd
00000010: 01f0 2c3d bc9a a53d 9989 bebd 9de8 c93d
00000020: ed6f 76bd ab03 243d 01db 823b 9234 be3d
00000030: 6a69 493b 2cae 4aba 0ba1 f8bb 2b4a 733c
00000040: 11fe 7f3d cf08 2ebd 1bab d93d 2d78 78bd
00000050: 997e 033c 350d 09bc 29aa 313c 5e82 8e3c
00000060: 0eca dd3d fd1b b43d 2e29 943c ca78 80bd
00000070: c09f 2ebd 47c5 cc3d fc29 073d ac1c e73a
00000080: d4aa e4bd 5c1c 3f3d d7f9 c13d 3209 eabb
00000090: 3bd6 c9bd 341e b1bd c86c 38bd 8338 a7bb
000000a0: 1039 073d 31fa 2b3d 93c9 903d 190c a9bd
000000b0: 65c5 98bd 2edc 1b3d 84f6 99bd f2e2 5fbd
000000c0: 3192 da3d b5f2 463c 2ca3 953d 396c 273c
000000d0: 0dfd d53c eb12 8cbd 493b aa3b 8ae7 26bd
000000e0: 3eef 89bb 9715 5d3d 575a 8a3d de88 76bd
000000f0: 3598 9a3d 3e72 c5bd 54e3 dcbd e9e0 e13c
00000100: 3f72 383d 82ed 013e 1256 503c e9f9 66bd
00000110: 88fe 9cbd 3385 d8bc 5078 33bd 7f9f 3b3d
00000120: e25f 633d 391b 803c 641e 8dbd 07fe 20bb
00000130: 1401 aab7 b89d b23d d725 263d d930 e5bb
00000140: d1c5 f5bc 0f40 123e 6db1 e63d f576 d03d
00000150: d921 38bd 9983 9cbb 3dfa ce3b 6ea5 9fbd
00000160: 14ec b5bd 78a5 e8bd 065f 9b3d 3759 bf3c
00000170: 0d42 bcbd 363d 0abe 04f8 023e 0614 d4bd
00000180: 2a74 fd3d 1e1b a03d 8f6a ddbc ec08 b33c
00000190: 514c f4bc b174 aabc 726b 173d 5f89 00be
000001a0: d62e d13d b7bb f13d 322e 93bd b6ad b13c
000001b0: b257 14be 2187 35bd 6669 3f3d cc6b d3bc
000001c0: c818 533d ac86 b3bd 90e4 f7bd 803c a53d
000001d0: 290f d03d 5c40 453c e068 cb3d b8f9 98bd
000001e0: bd59 eebd d2ea ed3d 4623 d7bd 164d 663a
000001f0: 8f3f e6bd 1eae a23d 1570 9c3b b818 6f3d
00000200: a162 f33c 44de f1bd 4d01 23bd 2870 20bd
00000210: 4b99 6a3d f177 013b 6a08 73bc 4ea6 623d
00000220: 70ae 17bd ef45 e2bd e27c 543d d8d6 4bbd
00000230: 980c aabd bdc3 27bb 905c bfbc 6fb1 903c
00000240: 97e7 ef3c 0cec b7bd 7500 febd d312 973d
00000250: 1b4c 1ebc 05a2 d7bd a787 013d 3350 bd3d
00000260: 7584 f93d 6ac9 c6bd cd5c 1a3b e696 2abd
00000270: 17d7 4dbc 018d 4fbd 9b3b e0ba 0ba3 dcbd
00000280: 60f9 7a3c d191 e6bd 7fdd f33d 3760 883d
00000290: 32d2 06bd 30cc 20bd 4bb3 2cbd e512 b63d
000002a0: 8493 713d 3590 d43d b752 e73d 1cb9 093d
000002b0: 1711 ba3d a7fa adbd c47b ad3d bd19 db3d
000002c0: e697 aa3d e896 a33d 4b53 5e3d 8506 11bd
000002d0: 0eaa eabd effa 8f3d b79a a23d 53fd babd
000002e0: 85e9 c5bd 2469 d03d 36a4 453d 9b86 2ebd
000002f0: 7ef2 9b3d 4d44 d43d 6298 3dbd 2430 713d
00000300: 5f18 a1bd 8353 78bd 036d d1bd 3e91 803c
00000310: d7c1 ba3b e248 de3b 2e6a 9ebd ff6f ab3d
00000320: ea9a ccbd e753 6e3c 53ac f1bd 36f5 83bc
00000330: 01c9 b6bc 2cdc 8c3d c1a7 893d 983f 4abb
00000340: 7f59 b23d e91c e83d f872 9b3d c557 afbd
00000350: d3e2 7abd d03b 953d 6f61 11bd 89ff 8a3d
00000360: de02 8dbd 4d3d 8a3c 9fa5 9f3d aee3 0c3e
00000370: b0ac debd 5945 32bd 5d8b ae3d bb1e e63d
00000380: c80c eabd 1565 013e 2247 f53b 4679 e0bd
00000390: b192 92bd bf2c 3dbc 4245 9f3c 4ea9 a6ba
000003a0: 6d8f ae3c 0042 613d d932 813d 551d fdbd
000003b0: 8e9b 0cbe 7810 9dbd a44a eebc f804 713d
000003c0: 1c2a 8ebd 3ba5 8c3d 0415 3dbb a692 b63d
000003d0: c0ef dc3d d4dd d2ba 1eb1 be3c ac5e a13d
000003e0: 8dc3 b0bd f4a9 673b 2283 8f3d 5307 13bd
000003f0: 5671 9abd ab30 913c 781f efbd 82e9 d7bd
-0.061694685 -0.1020053 -0.10991779 -0.06322467 0.042221073 0.08086154 -0.093035884 0.098588206
-0.060165334 0.04004256 0.0039933925 0.09287371 0.0030732998 -0.0007731642 -0.007587557 0.014849226
0.062498156 -0.04248887 0.10628339 -0.060661484 0.008025789 -0.008364965 0.010843792 0.017396148
0.108295545 0.08794401 0.018086042 -0.06273039 -0.04263282 0.09998565 0.032999024 0.0017632446
-0.111653954 0.046657905 0.09471481 -0.0071422094 -0.09855314 -0.08648339 -0.045025617 -0.0051031723
0.033013403 0.041986648 0.07069697 -0.082542606 -0.07459525 0.038051777 -0.07517722 -0.05465979
0.10672415 0.012142827 0.07306513 0.010218673 0.02612164 -0.06839546 0.0051950556 -0.040748157
-0.004209428 0.053975668 0.06755512 -0.06018912 0.075485624 -0.096409306 -0.10785547 0.027573066
0.04503083 0.12688258 0.012715833 -0.056390677 -0.076657355 -0.026430702 -0.04381591 0.045806404
0.055511363 0.01563798 -0.06890562 -0.0024565475 -2.0266081e-05 0.08721489 0.04056343 -0.0069943485
-0.030001553 0.14282249 0.1126431 0.10178939 -0.044954155 -0.00477643 0.006316452 -0.07795225
-0.08882919 -0.11359686 0.07586484 0.02335797 -0.09192286 -0.13499913 0.12789923 -0.10355382
0.12375672 0.07817672 -0.02702835 0.02185484 -0.029821547 -0.020807596 0.036967702 -0.12552403
0.10214011 0.11803382 -0.071865454 0.021689277 -0.14486578 -0.044318322 0.046731375 -0.025808237
0.051537305 -0.08765921 -0.12104142 0.0806818 0.101591416 0.01203927 0.09932113 -0.07469505
-0.1163821 0.11617054 -0.10504775 0.00087852904 -0.112425916 0.079433665 0.0047741034 0.058373183
0.029710116 -0.11809972 -0.039796162 -0.03916946 0.057275098 0.0019755329 -0.014833549 0.05533438
-0.03703159 -0.11048495 0.05187691 -0.049765438 -0.08303183 -0.0025598847 -0.023359567 0.017662732
0.029285235 -0.08980569 -0.12402431 0.07376637 -0.0096617 -0.1052895 0.03162351 0.092438124
0.12183467 -0.097063854 0.0023553849 -0.041647814 -0.012563488 -0.05067158 -0.0017107608 -0.107732855
0.015318245 -0.11258281 0.119074814 0.066589765 -0.0329153 -0.03925723 -0.042163175 0.088903226
0.058978572 0.10379068 0.112950735 0.0336238 0.09085291 -0.08495074 0.08470872 0.106982686
0.083297536 0.079877675 0.054278653 -0.035406608 -0.114582166 0.07030284 0.07939666 -0.09130349
-0.09663681 0.10176304 0.048252307 -0.04260884 0.07614611 0.1036459 -0.0462879 0.0588838
-0.078659765 -0.060626518 -0.102258705 0.015694257 0.005699377 0.0067835907 -0.07735096 0.08370971
-0.09990485 0.014546371 -0.11800446 -0.016108137 -0.022312643 0.06877932 0.0672145 -0.0030860659
0.08708476 0.11333639 0.07590288 -0.085616626 -0.061251473 0.07286799 -0.03549331 0.06787021
-0.068853125 0.016874934 0.077952616 0.13758728 -0.10872781 -0.043523166 0.08522675 0.1123633
-0.11428219 0.12636216 0.0074852863 -0.10960631 -0.071568854 -0.011546313 0.019442204 -0.0012715252
0.021308625 0.054994583 0.063085265 -0.1235911 -0.13731214 -0.07669157 -0.029088326 0.05884263
-0.069416255 0.06867453 -0.0028851638 0.0891469 0.10787916 -0.0016087838 0.023277815 0.07879385
-0.08631048 0.0035349103 0.070074335 -0.035895657 -0.07541148 0.017723402 -0.11675924 -0.10542585

encoder.layers.0.self_attn.out_proj.bias f4 [64]
00000000: f639 00bb 08e5 fd3b a01c e7bb 7f8e 343c
00000010: d5b4 aa3b b990 94bb 725a d33b de61 b538
00000020: 9920 5e3a ef3b 643b 88be 44bc cd35 ecbb
00000030: 9ee0 1b3c 4bcb 9a3b 19ca e13a 67ea a13b
00000040: a188 9bb8 0582 1abc b89b 67bc c07d 87bb
00000050: abf9 c23b 935a 42bc 122a 293b 413b 983b
00000060: 67ad 41bc 5b88 26bc 9447 333c cc8c 123c
00000070: 28a5 41bc 6598 c6bb 2e38 c2bb fd1d 5f3b
00000080: b02f adbb 4e5e 313b 6a1c 13bb 790a fe39
00000090: efd9 9f37 87c6 bbbb 649b 1a3c 10f3 a13a
000000a0: 2d16 603c b113 653b 31ad 75bc 96db b53b
000000b0: 7158 d93b 23ce dabb 01b4 dc3a bd9f 52bc
000000c0: 970f be3b 7430 07bc b7f5 38bc ff61 d53b
000000d0: ea51 453b fc2d d93c 3f84 3d3a 0e58 393c
000000e0: 618f bbbb 93f5 86bb d860 84ba 702b 33ba
000000f0: 5089 c9bb 702f 23bc 29e2 403c 3a8a 453b
-0.0019565797 0.00774825 -0.007052973 0.011020302 0.005209545 -0.004533854 0.006449991 8.648982e-05
0.00084734854 0.0034825762 -0.012008317 -0.007208562 0.009514002 0.0047239414 0.0017226367 0.004941273
-7.416425e-05 -0.009430413 -0.014136247 -0.0041348636 0.005950173 -0.011862415 0.002581243 0.0046457355
-0.0118211275 -0.010164346 0.0109423585 0.008944701 -0.0118191615 -0.0060606473 -0.0059271073 0.0034044974
-0.005285226 0.0027064267 -0.0022447356 0.00048454458 1.905576e-05 -0.0057304534 0.009436462 0.0012355763
0.013677162 0.0034954364 -0.014994905 0.0055498583 0.0066328575 -0.0066774054 0.0016838313 -0.012855467
0.0058001983 -0.008251298 -0.011289052 0.006511926 0.003010864 0.026511185 0.0007229484 0.011312498
-0.005723879 -0.00411863 -0.0010099662 -0.0006834781 -0.006150402 -0.00996004 0.011772671 0.0030142204

encoder.layers.0.linear1.weight f4 [256, 64]
00000000: a47e cb3d 1a61 3abd 1847 febc 45fc c03d
00000010: 5d6b 453d e337 e53d 46c7 5d3d 35e6 173d
00000020: d650 43bd 06d7 aabd 47c6 f7bd df7b a63d
00000030: 71af 933d 7399 983d c2f8 e73b d3f3 903d
00000040: 2358 9dbc bee7 103d db3c 6dbd 656c c3bd
00000050: 57fa 593d 154a b5bd 4c53 603d beae 26be
00000060: 5d30 b03d 6784 f2bd 4722 5abd 0e3d 99bc
00000070: eb53 7b3d 5039 04be a093 adbc 1c5e efbc
00000080: 58e3 5ebc 1d64 013d 8f65 623d 22e0 903d
00000090: af4c 82bd 9794 c33c 7f69 bfbd eb99 8abd
000000a0: c53d c2bd 3b4f 96bd c7ea 98bc af58 9a3d
000000b0: 2f3c b33d 3295 d9bc 3f1a c63d 42fd cf3d
000000c0: 64f6 cabc 35d3 a63d 94ea db3d 223b 8f3b
000000d0: dded 9b3b 3b2d 333b b46b 11bc eca4 09bd
000000e0: f612 4e3a 0b52 9fbd c8cc 89bd bbb4 a0bd
000000f0: d4fc 98bd 60e7 60bd c290 73bd ff9f 3f3d
00000100: 9d8b a83c c78d 003e 0b8a 853d c3c5 dfbc
00000110: 9830 033e c1da b73d 74bf 76bd 74c6 85bd
00000120: 30e3 25bd 6c5d 01be 23d3 933d a4aa a5bd
00000130: 2c64 af3d 9316 b43d dca3 9cbc 8af9 bc3d
00000140: 7c84 cdbb a845 ac3c a374 1fbb 96c9 ba3c
00000150: 7ceb 95bc 89ed b93c 34c3 8cbd 1102 7f3d
00000160: 6579 6f3c 995b abbd 225a 43bd 88ea 2cbd
00000170: a190 9f3c 4075 c5bc d78b c9bd c68c fabd
00000180: 44e7 e03c 93df 093c 1405 7dbd d65d bebd
00000190: 0eca a8bd 384e a9bd 9774 5e3d e7b4 673d
000001a0: 7694 8dbd abb1 96bd 2aa4 33bd 134a e8bd
000001b0: 0640 a8bd c7c0 d13d af47 5b3d 75a1 aabd
000001c0: ad2e f8bd b20e 893d 90bc 84bc 634f 32bd
000001d0: ad50 083d ecac e03d 4918 d8bd 5126 bf3c
000001e0: a375 68bd c6e1 143d e46e a83d 5405 17bd
000001f0: 8cc3 7dbd 3bab 8abd 23a5 30bc de2f d23d
00000200: e0a2 993d 1198 de3d 517e 1c3d 3113 bd3d
00000210: c4b1 5fbc 7aa9 95bc ceb3 c0bd 7427 3b3c
00000220: 5987 61bd aa4b 84bd 16c2 cabd e4b6 02be
00000230: b64b 8fbd da37 f13d 9e4a d43c 691b 02be
00000240: 9105 803c 85e5 27bd a9ea 9e3d ea41 e8bd
00000250: ea76 84bd bd1f 393d 88bc 06bd 8f3a 0ebe
00000260: be18 413d 0852 a73d f006 083e 13d5 b83d
00000270: a4b7 01be b2cf 4b3d 2c4b c0bd c7a2 b6bd
00000280: 916b 2cbc fe97 f83d cf77 e3bc 422b a03c
00000290: a40e c83a 59cd d9bc 9b4a 933d 5aa1 d03c
000002a0: 324e dd3d 7a84 583d 876a 85bc 6eb8 c73c
000002b0: fb8e a4bd 90f0 763c d43d ce3d 7df5 723d
000002c0: 1bd7 813d 5de6 b5bd 4b5e 14be 74c1 1e3d
000002d0: d975 da3d be20 883d 4b3e 07bd a927 a1bd
000002e0: 2178 be3c 9585 b9bc 6f66 a5bc fbfa b23d
000002f0: b80b 573c 6ff6 57bd a4b4 1bbd 2cb2 bebb
00000300: 5f75 c6bd a124 d03d 7781 cebd 582b 45bc
00000310: ecf0 95bd 43d3 35bd d6c9 743d 6db3 25bd
00000320: cf1f 423d 0322 c4bd 5ecf 70bd c0d5 ed3c
00000330: f044 963d 70cf 023e e2f3 38bd 49ef 0abd
00000340: 6485 bc3d 7e31 5cbc ceb4 cf3d e6fb f9bd
00000350: 8ab5 4dbd 7f2d 37bd 097c ff3d cfae 88bd
00000360: de83 74bd 2d04 a8bc 3330 96bc 43c0 e4bd
00000370: 9c49 bc3c b090 31bd ebb3 b53d 4d14 0c3e
00000380: def1 a63d 93ab f4bd 6e15 b83d e0b2 a33c
00000390: 92d2 323c 586b 083e ce94 e3bb 6466 0d3e
000003a0: 0a04 aa3c 82e2 6dbd 1dc4 3c3d 87af e33d
000003b0: 568d dd3c 7b48 ef3d 22f7 1dbd a4d1 b2bc
000003c0: f03f bebd 2282 aa3d dc40 c7bd 7066 0d3e
000003d0: 9b47 cc3d ffc5 553d 43d9 15be 49dc 6bbd
000003e0: ff90 b1bd 4921 c83d daa2 fcbd e0bb fa3b
000003f0: 20f7 d43c db52 eb3d eda7 6dbc cf3b 883d
0.09936264 -0.04550276 -0.03103976 0.094231166 0.048198093 0.111923 0.05414512 0.037084777
-0.047684513 -0.08341794 -0.12098365 0.08129095 0.07211197 0.07451143 0.007079215 0.07077756
-0.019207066 0.035377257 -0.057919364 -0.09542159 0.05321726 -0.08852021 0.054766938 -0.16277596
0.086029746 -0.1184166 -0.053255346 -0.018705871 0.061359327 -0.12912488 -0.021188557 -0.02921968
-0.013604008 0.031589616 0.055272635 0.07074 -0.063622825 0.023874564 -0.09346294 -0.06767639
-0.09484438 -0.07339331 -0.018666638 0.07536446 0.087517135 -0.0265604 0.09672975 0.10155727
-0.024775691 0.08145753 0.107381016 0.004371063 0.00475858 0.0027340192 -0.008875776 -0.033604547
0.0007861102 -0.0777932 -0.06728512 -0.078469716 -0.07470098 -0.054908156 -0.059464224 0.046783444
0.020574385 0.12554084 0.0652047 -0.02731598 0.12811506 0.08977271 -0.060241178 -0.065319926
-0.040499866 -0.12633294 0.072180055 -0.08089188 0.08564028 0.08793368 -0.019121103 0.09227283
-0.006271897 0.021029308 -0.0024330996 0.022801202 -0.018300764 0.022696273 -0.068731695 0.06225783
0.014616345 -0.0836708 -0.04769338 -0.042215854 0.019478144 -0.02410376 -0.098411255 -0.12233882
0.027454026 0.008415121 -0.06177242 -0.092952415 -0.08241664 -0.08266872 0.054310407 0.056569006
-0.06913082 -0.07358106 -0.04385773 -0.113422535 -0.082153365 0.102418475 0.05353516 -0.08331577
-0.12118278 0.06692256 -0.016203195 -0.04353274 0.033280063 0.10970482 -0.10551507 0.0233337
-0.056752812 0.036348127 0.08224276 -0.036870316 -0.061954066 -0.06770941 -0.010781559 0.10263036
0.07501769 0.10868848 0.038206402 0.09232176 -0.0136532225 -0.01826929 -0.09409295 0.011422981
-0.05506072 -0.06459744 -0.099003 -0.1276508 -0.069968626 0.11778231 0.025914486 -0.12705769
0.015627654 -0.04099037 0.077596016 -0.11340697 -0.064679936 0.045196284 -0.03289464 -0.13889526
0.047142737 0.08169943 0.13283896 0.09025016 -0.1266771 0.04975862 -0.09389338 -0.08917766
-0.010523693 0.12138365 -0.02776709 0.019551877 0.0015263152 -0.026587175 0.07191964 0.025467563
0.1080593 0.052860714 -0.016286148 0.024379935 -0.08035084 0.015072003 0.100703865 0.059316147
0.06339856 -0.08881829 -0.14489095 0.03875871 0.10667009 0.0664687 -0.03301839 -0.07868893
0.023250641 -0.022646705 -0.020190446 0.08739277 0.013125353 -0.05272525 -0.03801407 -0.0058195796
-0.096903555 0.101632364 -0.10083287 -0.01203426 -0.07321343 -0.044390928 0.0597628 -0.040454317
0.047393616 -0.095768 -0.05879151 0.029032588 0.073373675 0.12774444 -0.04515446 -0.033919606
0.0920513 -0.013439534 0.10141908 -0.12206249 -0.050221957 -0.044721123 0.1247483 -0.06673967
-0.05969607 -0.020509804 -0.01833353 -0.111694835 0.022984318 -0.043350875 0.08872207 0.13679619
0.08151601 -0.11946788 0.089884624 0.019982755 0.010914462 0.13322198 -0.006945229 0.1380859
0.02075388 -0.058077343 0.046085466 0.111174636 0.027044933 0.116837464 -0.038565762 -0.02182848
-0.09289539 0.08325602 -0.09729168 0.13808608 0.09974595 0.052190777 -0.1463366 -0.057583127
-0.08670234 0.09771974 -0.12335749 0.007651791 0.025996745 0.11490413 -0.014505369 0.066520326

encoder.layers.0.linear1.bias f4 [256]
00000000: 53cc 0fbd 0d2e bfbd 8fdb de3d b173 2d3d
00000010: dc60 9b3c 87c8 d7bb 1523 e43d d53c 02bc
00000020: 59ab f9bd 208e 7cbd 2fea 5bbd 37b0 17bd
00000030: 0861 a1bc 5ba0 253c 1286 083d 481a c43d
00000040: 472f 84bd 9f63 a3bd 87ab ca3d 2f90 ed3c
00000050: 7323 1ebd 67dd 9b3c 68ca 88bc 52b1 26bd
00000060: e393 3fbd edfc d3bd 47dd b7bd 6807 b4bb
00000070: 095e 1dbd bca8 b93c e351 eb3d 1032 b03d
00000080: a315 d9bd 4772 b7bc 9d55 d5bd 87b4 af3d
00000090: 5c54 aabd 89f9 0a3e f286 6dbd 17ed ef3d
000000a0: 3411 d83d e3be 2cbd 2f23 b03d bf8a 62bd
000000b0: f911 94bd a56c fbbd 2c1a 0c3e fc26 c23d
000000c0: ff0d b03d a160 863b cd8e ef3d 80e4 a33d
000000d0: 5869 af3d 5341 783c 8388 c8bc 9d1a 8fbd
000000e0: f51a a6bc 21f4 923d 3207 033d 0563 a03d
000000f0: 51aa 85bd b4ef 9dbd 0b7f cfbc 14fd 7c3b
00000100: 3e3c aebc ea3f e93d 37e6 fb3d 2034 98bd
00000110: 6812 d8bd 1fa8 db3d 8c8c a6bc 297e 023e
00000120: 83e5 0a3c 9109 d03d e7d3 bcbc 025b 953c
00000130: 8040 733d 194b 93bd dabc 003d 4d35 d0bd
00000140: dd40 653d 140a cc3d d5c8 1f3c 02db 853d
00000150: 3ce8 283d 6e0c 89bc 6c79 dc3c c438 103d
00000160: 996f 00bd dbca 343d 521f 123d 6c37 41bd
00000170: 129d 173d 5663 063d 8b44 b83d 992d abbc
00000180: 6b39 723d 6705 70bb d6b2 fcbc 7823 853d
00000190: 5f15 b03d facc 6abd 3432 613d 858e 0e3d
000001a0: 0d93 dcbd 586d cebd 483e 8b3c d287 2fbc
000001b0: 34e6 75bd 9721 de3d a54b 33bd 89f0 873d
000001c0: 42da b1bc c3b5 813d 11d3 20bd e985 963d
000001d0: 5be7 e8bd aa0e b73d 6b98 b5bd 6f4f b33d
000001e0: c133 233c 7d45 d73b d673 ae3c d3d9 18bd
000001f0: ae3e a93d 4539 e83c d243 9b3d ef82 c6bd
00000200: 7386 b8bc bd6e f53d c1af 4fbd 82c4 d8bd
00000210: c86a 9d3d da92 163e 24f7 69bd db0d 39bd
00000220: 1bac 9f3b 35ae a33d af2d ef3d 8f9e c5bc
00000230: bb92 19bd 7192 babd 0790 02bd 52be 8bbc
00000240: 25ac f73c f1ab 7a3d 8bfe ebbd 0424 3abd
00000250: 5c2c 8a3c 0e2f 81bd 58ec a13d 2266 8bbd
00000260: fde0 ff3d 0093 703b 871d 033e d555 083e
00000270: a948 d6bc cb32 f63c b181 bb3d 9c64 9dbd
00000280: 8124 f13d b518 5b3d 78e7 b83c 337d 2ebd
00000290: 4caa 0cb9 ee5c a43d 417b d43c 1455 b0bd
000002a0: 9924 ac3d be17 89bd 56ea a83d 649b 7cbd
000002b0: b568 913b 2339 c6bd c438 323d f113 aabd
000002c0: 4e3c 39bd 7886 f7bd a4b3 bcba 86c1 14bd
000002d0: 52a0 b2bd 961b 02bc 90d7 ea3c 68e8 fab9
000002e0: 5d51 3a3d fc7d afbd f584 40bd 669b fdbd
000002f0: eda1 d2bd 77ad 89bc 1396 473d ed16 53bd
00000300: 06f1 58bd a9b4 98bd 60dc e7bd e9f3 98bd
00000310: d1ca e33d b97f fabb cf1b 9bbd ae7b ff3d
00000320: 248d a1bd 873d 83bd f908 09bd b1eb aab8
00000330: c23e 0c3d bf42 64bd ba81 f7bc 7a49 043e
00000340: 5c0d a7bd 0352 eb3c 52cb 61bd 31f4 d3bd
00000350: 0959 133b d0dc 653d 906f 04bd 56e9 af3c
00000360: 8d78 983d 4005 f5bc c828 82bd 8b42 90bd
00000370: feda 943d 3f7e 76bc 4fd2 863d bc93 943c
00000380: 282b e43c 9022 013e 54f0 3c39 f0dc f6bd
00000390: 372c 6d3c 08c3 31bc 4bd6 7b3c 1177 cd3d
000003a0: 651e 583d d550 28bc 031d d43c f059 193d
000003b0: 91fa fabb 5dec edbd 057c d73d 8021 723d
000003c0: 317a af3d 3f5d b23d 552c c6bd d9a0 263d
000003d0: 16aa 3abd 683b 3cbd e53c dfbd 03de 13bd
000003e0: 339c f4bc 2b0e 6ebd 3a6a cf3c 92f4 a9bd
000003f0: 9a19 843d 958c b23d 9f73 eb3d 17dc 913d
-0.035106968 -0.09334955 0.10881721 0.04234666 0.018967085 -0.006585184 0.11139504 -0.007949074
-0.12190885 -0.06165898 -0.05369013 -0.037033286 -0.019699588 0.0101090325 0.033330984 0.09575325
-0.0645433 -0.079779856 0.098959975 0.028999416 -0.038608026 0.019026471 -0.016698077 -0.04069645
-0.046771895 -0.10350976 -0.08977752 -0.005494047 -0.038419757 0.022663467 0.11490228 0.08603299
-0.1059983 -0.022393359 -0.1041672 0.08579355 -0.083168715 0.13571753 -0.057990022 0.11715143
0.10550156 -0.04217423 0.08600461 -0.0553081 -0.072299905 -0.12276582 0.13681859 0.09480092
0.085964195 0.0041008745 0.11697159 0.08002567 0.085650146 0.015152293 -0.024479156 -0.06987498
-0.020276526 0.0717547 0.031989284 0.078313865 -0.06526626 -0.07711735 -0.025329133 0.0038602995
-0.02126896 0.11389144 0.12299769 -0.07431817 -0.10550386 0.10725426 -0.02033069 0.12743439
0.008477571 0.10158075 -0.023050262 0.018231872 0.059387684 -0.07192058 0.031430103 -0.10166416
0.05597006 0.0996286 0.009752472 0.06535913 0.0412371 -0.01672956 0.026913367 0.035210386
-0.031356428 0.04413877 0.0356744 -0.047171995 0.03701503 0.032809578 0.089974485 -0.020895766
0.05913679 -0.0036624314 -0.030846994 0.06500906 0.08597826 -0.057324387 0.054979518 0.034803886
-0.10770235 -0.100794494 0.016997471 -0.010713534 -0.060033992 0.108462505 -0.043773312 0.06637675
-0.021710519 0.063334964 -0.03926379 0.0734976 -0.113722526 0.08938344 -0.08866962 0.08755385
0.00996107 0.006569563 0.02129547 -0.03731711 0.08263908 0.02834762 0.07581295 -0.09692942
-0.022525048 0.11984012 -0.05070472 -0.10584356 0.076863825 0.14704457 -0.057120457 -0.04517923
0.0048728115 0.07992212 0.11678635 -0.024123458 -0.03749345 -0.09109963 -0.031875636 -0.017058525
0.030233452 0.061199132 -0.115231596 -0.045444503 0.016866855 -0.06307803 0.07906407 -0.0680659
0.12494085 0.0036708713 0.12804233 0.13313992 -0.026157694 0.030053517 0.09155596 -0.07685205
0.11774541 0.05349036 0.02257131 -0.042599868 -0.00013414881 0.080255374 0.025937678 -0.08609977
0.08405418 -0.066939816 0.08247821 -0.06167163 0.004437531 -0.09678867 0.043511167 -0.08304585
-0.045223527 -0.12086195 -0.0014396799 -0.03631737 -0.08721985 -0.007941147 0.028667241 -0.00047856872
0.04548775 -0.085689515 -0.047001798 -0.123831555 -0.10284791 -0.016806347 0.048727106 -0.051535536
-0.052964233 -0.07456333 -0.1132133 -0.07468397 0.111226685 -0.0076446203 -0.075736634 0.12474762
-0.078882486 -0.0640822 -0.033455823 -8.1501326e-05 0.034239538 -0.055727717 -0.030213226 0.12918654
-0.08156845 0.02872563 -0.055125542 -0.1034931 0.002248349 0.056118786 -0.032332957 0.021473568
0.07444868 -0.02990973 -0.06355435 -0.07043942 0.07268332 -0.015044748 0.06583082 0.018136851
0.02785261 0.12610841 0.00018018606 -0.12053859 0.014475874 -0.010849722 0.015370916 0.10032476
0.05276336 -0.010273178 0.02589274 0.037439287 -0.0076592644 -0.11617348 0.10521702 0.05911398
0.08568228 0.087091915 -0.096764244 0.04068074 -0.045572363 -0.04595509 -0.109002866 -0.0361004
-0.029859638 -0.05811898 0.025319207 -0.08298601 0.064501956 0.0871822 0.11496662 0.07122057

encoder.layers.0.linear2.weight f4 [64, 256]
00000000: b6e0 d6bc bac2 d0bc f4a7 233d f4e6 b7bc
00000010: b8c7 d53c 7eb8 81b9 e043 743d 65d2 13bd
00000020: 1066 643d 86e8 8e3d 831f 8ebd 2262 143d
00000030: f0a9 9d3c 59bb e8bc 9532 143d c033 913b
00000040: 925b 243c b6e9 893d c1e1 8f3c 403d 79bb
00000050: 236a 723c 9487 7c3d 43b3 273d 64b6 b4bd
00000060: 03f3 f73c 58cf 4dbd e869 193d ec5f 243d
00000070: 93c1 f53c a51c 8d3c 8b72 2f3d 8d8d 3c3a
00000080: 6b89 393c ed83 05bc 3dfc b7bc 2a3f 19bd
00000090: 2b7d 08bc 5a61 b23c 58e4 01bd 1fa2 d9bc
000000a0: 0c47 6abd 053f 253d f020 7f3d fc45 55bd
000000b0: 76f7 8cbb bbf9 4fbd 63f5 5cbd 9d08 83bd
000000c0: fe8e 9bbd d822 743d aa12 563d b27d dd3c
000000d0: dead 29bd 99c1 bebc ebb6 1f3d 5df5 3dbc
000000e0: 9f25 74bd c493 7c3c 582f 74bd 4dbf 473d
000000f0: 8a23 dd3a 55a8 6fbb f610 043d 91b1 e83c
00000100: adbf f23c 7df9 d03c 1e1d d33b 6045 c0bc
00000110: 9883 01bd 6fb3 bebc a8d7 3dbd 0eba 0f3d
00000120: 56ff a23c 2e7c 8dbc a33b 2d3c fb96 3f3d
00000130: b3e7 4cbc 6903 67bd 500e 01bc 8f21 7dbb
00000140: 5e8e 053d 8c5b 8d3d d1bf 3ebd bcaf 4d3c
00000150: 98a5 a33c 4c62 0f3d 39b8 b03c 8e82 c2bb
00000160: 399a 413d 06ec 95bd 2b83 2ebb 328a 69bd
00000170: a7ca 1d3d 44db 15bd 9e52 4cbc 6bf7 cb3c
00000180: 48bf 20bd 4c38 2e3d 0b5d 723d b9cd c6bc
00000190: e2ce 37bd 207f 633d bb92 88bd 56a3 17bb
000001a0: cf21 673c 0f7a 513d 8e23 03bd 499d 8f3d
000001b0: 207c c1bb 9b78 8dbb 9db9 223d c482 ebbb
000001c0: e240 6c3d f38d 09bd fc88 f2bc 2868 173b
000001d0: 9f3f 663c d8d2 2fbd f3f0 873c 5bda 3cbd
000001e0: f783 7b3c 749f 3bba 188f 96bc 3a37 8abd
000001f0: 91aa cf3b a189 243d 3c7b a63c 3dc0 57bc
00000200: 9e79 12bd 48b6 36bd 13c6 8cbd dff3 cb3b
00000210: 5172 93bc 0b09 f9bc 9889 f43c b977 06bd
00000220: 5813 163d 29ed f43b cfd0 4dbd 95e1 5e3c
00000230: 264b 46bd 85ba 483d 56b7 263c bbd6 223c
00000240: 0394 6a3d e5b9 b1bb 9d2e 2dbd e73d afbd
00000250: e6af 1fbd 1af9 febc 7593 973c 6881 763d
00000260: 0176 e5bc a7d0 ddbc af76 17bc e12e 8bbd
00000270: a745 493c 5418 03bd 0637 04bd 3c15 eb3c
00000280: 396b a13d 387b 573d 49aa 683d 3325 77bd
00000290: fdab 51bc 1cf5 15bd fdb5 9abd dc73 05bd
000002a0: 405f 0c3d d9ce 7bbd e283 053d 85a8 8b3c
000002b0: d84e 8e3d 974c 963d b1db 563d b0a8 5d3c
000002c0: eaa5 313d bed7 a93a 31c3 c6bb 5493 1cbd
000002d0: 78a1 a4bc 0c17 1bbd 338b b7bc 5c1e 243d
000002e0: 331a 823d aa0f 0a3c 3c3c edbc 4f29 1e3d
000002f0: 54cd b5bc 3133 a3bb 546f 88bd de14 17bd
00000300: 7b75 c83b 8104 d33c be7c 853d 921a 8e3b
00000310: 1dae cfbc ae83 2cbd 3e33 cebc 4362 6abd
00000320: 3d26 193d 2d85 cabb 7e2c 473c 267f 29bd
00000330: cb78 f43c 0208 fa39 5628 23bc 1c96 47bd
00000340: baf5 133d 4b64 31bc f535 4f3c df6b 9e3b
00000350: 74ce 28bd 2b2c 46bd 151f f6bb 4ed3 573d
00000360: 6733 ea39 676c dfbc e6be 44bc f939 3a3d
00000370: 8b52 54bd a1b2 8b3d 2802 2ebc 2cb2 483d
00000380: 3d99 57bd 2981 6abd 007e 22bd 1081 81bc
00000390: 7ff9 2bbc 1ca6 b7bc 4590 463d d6b2 fa3c
000003a0: e637 babc 26d1 40bd d2a1 3f3d b2b0 94b9
000003b0: 1d0e 813c fc2e cfb9 c2eb ad3c f80c 5ebd
000003c0: 816d c33c f85f 9ebc 6cf2 35bd 57c4 0d3d
000003d0: 0650 ebbb e090 8a3d e3f2 c9bc 972e 8bba
000003e0: b616 8b3b d7f1 d4bb b8e4 4abd dd71 143d
000003f0: fb0f 1abd 1777 d8bb 093f bbbc 7f00 833d
-0.026230197 -0.025483478 0.039955094 -0.022448994 0.02609621 -0.00024742255 0.059635043 -0.03608932
0.055761397 0.06977944 -0.06939604 0.0362264 0.019246072 -0.028409647 0.03618105 0.004431218
0.010031598 0.0673403 0.017563703 -0.0038030893 0.014795813 0.061652735 0.04094244 -0.08823851
0.030267244 -0.050246567 0.037454516 0.04013054 0.02999953 0.017225573 0.042833846 0.00071927236
0.011324267 -0.008149129 -0.022459144 -0.037413754 -0.008330624 0.021774936 -0.031711906 -0.026566563
-0.05719666 0.040343303 0.06228727 -0.052068695 -0.0043019606 -0.05077527 -0.053944957 -0.06398127
-0.07595633 0.059603542 0.052263893 0.027037475 -0.04142558 -0.023285674 0.038992804 -0.011594144
-0.05960619 0.015416089 -0.059615463 0.048766423 0.0016871553 -0.003656884 0.032242738 0.028404983
0.029632414 0.02550959 0.00644268 -0.02347058 -0.03161964 -0.02327892 -0.046348244 0.035089545
0.019897144 -0.017271128 0.0105733005 0.046774846 -0.012506413 -0.056399737 -0.0078769475 -0.0038624739
0.032606475 0.06902227 -0.04656965 0.012554105 0.019976422 0.035005853 0.02157222 -0.0059359735
0.04726622 -0.073204085 -0.0026628475 -0.05701656 0.038523342 -0.03658606 -0.012470869 0.024898252
-0.03924492 0.042534158 0.059170764 -0.024268018 -0.044875033 0.055541158 -0.066686116 -0.0023138127
0.014107182 0.051141795 -0.03201633 0.07012422 -0.0059046894 -0.004317356 0.039727796 -0.0071872193
0.057679065 -0.03358264 -0.029606335 0.0023102853 0.014053254 -0.042925686 0.016594386 -0.046106678
0.015351287 -0.0007157244 -0.01837878 -0.06748815 0.006337472 0.040170316 0.020322435 -0.013168392
-0.035760514 -0.04460743 -0.06873717 0.00622414 -0.017998846 -0.03039982 0.029850766 -0.03282902
0.03663954 0.0074745608 -0.050247964 0.013603588 -0.04841151 0.049006004 0.010175547 0.009938891
0.05727006 -0.0054237717 -0.042280782 -0.08556729 -0.03898611 -0.03112464 0.01850293 0.060182005
-0.02801037 -0.027077032 -0.009244605 -0.06796051 0.012284673 -0.032005623 -0.032279037 0.028696649
0.07881779 0.052607745 0.05680302 -0.06033821 -0.012797353 -0.036610708 -0.07554243 -0.032581195
0.034270525 -0.061476562 0.032596476 0.01704813 0.06948632 0.07338827 0.052455608 0.013528988
0.04337112 0.0012957973 -0.006065749 -0.03822644 -0.020096526 -0.037863776 -0.022405243 0.040068015
0.06352653 0.008426586 -0.028959386 0.038613614 -0.022192635 -0.0049804677 -0.06661859 -0.036885135
0.0061175204 0.025758984 0.06517933 0.0043366635 -0.025351578 -0.042117767 -0.025170919 -0.057222616
0.037389982 -0.0061804266 0.012156604 -0.041381024 0.029842755 0.00047689682 -0.009958347 -0.04872714
0.036123015 -0.010827134 0.012647142 0.0048346366 -0.041212514 -0.048381966 -0.0075110295 0.05269175
0.00044670256 -0.02727337 -0.012008404 0.045465443 -0.05183653 0.0682118 -0.010620631 0.048998043
-0.052636374 -0.057252083 -0.039670944 -0.015808612 -0.010496496 -0.022418074 0.04847743 0.030602854
-0.022731733 -0.04707446 0.046785183 -0.00028360408 0.0157538 -0.00039517123 0.021230582 -0.054211587
0.023855926 -0.01933287 -0.044420645 0.034611072 -0.0071811704 0.06765914 -0.02465195 -0.0010618743
0.0042446507 -0.006498556 -0.04953453 0.0362414 -0.037612896 -0.0066059935 -0.022857206 0.06396579

encoder.layers.0.linear2.bias f4 [64]
00000000: 3b8b 51bc 8fa1 39bd 628d 9d3c 11fd a6bc
00000010: 5185 0bbd a2c6 1f3d a61d 26bd 0209 25bd
00000020: 077e 093d 3fe6 18bd 8fd5 7ebd 7488 123d
00000030: 5437 873d 0992 a73c 38e6 f2bc 8a8d fe3c
00000040: 6c35 8c3c 0279 74bd 4886 2ebd 056d 23bd
00000050: b935 52bc dd7e 123d 5602 debb a5bd 17bd
00000060: b5f4 7a3d e47a 433b 9fc4 31bd f026 053d
00000070: b394 0d3d 1836 5cbd 9cb1 d6bc 002c e93b
00000080: b621 55bd 2303 123d 20b9 5ebd a84a 62bd
00000090: 9fd1 f3bb c93f 5fbc 423d 35bd af08 10bd
000000a0: b39a 17bd ddf0 8a3d 611f 40bb 1482 8e3c
000000b0: 54cd 63bc 98a6 633d 81c8 27bd fa1f 8b3c
000000c0: 6f64 2abc e1be c33c 5c0f 463d 03f3 3fbd
000000d0: 8169 893b 352b a3bc 0f3c 2a3d 1db4 b9bc
000000e0: f216 dfbc 65ae bd3c c332 00bd 1af6 9b3c
000000f0: 9665 a93b 03ac 65bd 6efa cb3c fa2b fa3c
-0.012789543 -0.04532009 0.019232456 -0.020384343 -0.034062687 0.03900779 -0.04055562 -0.040291794
0.033567455 -0.037328955 -0.062215384 0.035774663 0.0660235 0.020455377 -0.029650792 0.03107335
0.017115317 -0.059685715 -0.04260853 -0.03989889 -0.012830191 0.035765518 -0.006775181 -0.037046093
0.061268527 0.0029827887 -0.043400403 0.032507837 0.03456564 -0.053762525 -0.026207738 0.007115841
-0.052034102 0.035647523 -0.054375768 -0.05524698 -0.0074407603 -0.013626047 -0.044247873 -0.03516453
-0.037012767 0.06784222 -0.0029315578 0.01739601 -0.0139039345 0.055578798 -0.0409627 0.016983021
-0.010399922 0.02389473 0.04835449 -0.046862613 0.0041934852 -0.019918064 0.041561183 -0.022668893
-0.02723262 0.023154447 -0.03129841 0.019038249 0.0051695807 -0.056072246 0.024899688 0.030538548

encoder.layers.0.norm1.weight f4 [64]
00000000: 663f 813f b8a9 7c3f a8ef 7a3f 49fe 813f
00000010: cd53 803f 95af 7a3f e34f 803f b418 7f3f
00000020: 58c4 7b3f 771e 7f3f 999b 7b3f 653f 7a3f
00000030: 4020 7c3f 75ea 813f f5d6 803f ce23 7d3f
00000040: ba23 7d3f 06f3 823f 68e3 7e3f 9484 823f
00000050: 1e41 7c3f e796 803f 5409 7c3f 8f1b 7a3f
00000060: 914c 803f a6ad 803f 6043 813f 13a8 7c3f
00000070: 2245 823f 1f70 7a3f 94ad 7e3f 807d 803f
00000080: c54f 823f 56c5 7a3f ce4d 7f3f ac14 7e3f
00000090: 275c 803f e043 7d3f c3e4 813f fdb8 7b3f
000000a0: d86b 843f e871 7e3f 4c20 793f 7925 7f3f
000000b0: 0750 803f 311d 7c3f 2702 7c3f ff55 7b3f
000000c0: 5da7 7d3f f0c0 7c3f ee13 813f 7408 763f
000000d0: 8de0 7f3f 954b 873f f389 843f c948 813f
000000e0: 2aef 813f fb8a 7d3f 7843 803f 0c67 7b3f
000000f0: 5987 813f c46e 773f 5cbe 7e3f cf3e 7f3f
1.0097473 0.9869647 0.98021936 1.0155727 1.0025574 0.97924167 1.002438 0.9964707
0.9834647 0.9965586 0.982843 0.9775298 0.9848671 1.0149676 1.00656 0.9888276
0.9888264 1.0230415 0.99565744 1.019671 0.9853686 1.0046052 0.98451734 0.976983
1.0023366 1.0052993 1.0098686 0.9869396 1.0177348 0.97827333 0.9948361 1.00383
1.0180594 0.9795736 0.99728096 0.9925029 1.0028123 0.98931694 1.0147938 0.98329145
1.0345411 0.9939256 0.97314906 0.99666554 1.0024422 0.9848204 0.98440784 0.98178095
0.990835 0.987319 1.0084207 0.9610665 0.9995201 1.0569941 1.0354599 1.0100337
1.0151112 0.9904019 1.002059 0.9820411 1.011943 0.9665339 0.99509215 0.99705213
