save_results/autoformer_short_term_90d_run2.pt (torch, 437661 bytes, 28 tensors)

input_embedding.weight f4 [64, 12]
0	0x3e40ca5f	0.18827198
1	0x3db14d34	0.086573035
2	0xbd2a891c	-0.041634664
3	0x3cd6f5b0	0.0262402
4	0x3d5a2f96	0.053268038
5	0xbd59664d	-0.053076077
6	0xbe37e6c1	-0.1795912
7	0x3da7bb6c	0.08190045
8	0x3ddd4f36	0.10806124
9	0xbe87278f	-0.26397368
10	0x3dbfe3b8	0.09369606
11	0xbd7354a8	-0.059406906
12	0xbe4e6a13	-0.20157652
13	0x3e43d4b3	0.19124107
14	0x3e1f5df0	0.15563178
15	0x3d330f84	0.04371597
16	0x3e7c2a6e	0.2462556
17	0xbe1df922	-0.15427068
18	0x3e3b8993	0.18314199
19	0xbe34f4b4	-0.17671472
20	0xbdfb2ec4	-0.12264779
21	0xbe0bdff8	-0.13659656
22	0xbe820c74	-0.25400126
23	0xbd183dd8	-0.037168354
24	0x3e8908c2	0.26764494
25	0x3dbc159b	0.091838084
26	0x3e4935c3	0.19649415
27	0xbda8e684	-0.08247092
28	0x3dca2471	0.09870232
29	0xbe32a420	-0.17445421
30	0x3e747bc5	0.2387534
31	0xbe4b4464	-0.19850308
32	0x3d8077f1	0.06272877
33	0x3d6b663b	0.05747054
34	0x3e13dd34	0.14439851
35	0x3defe7df	0.11714148
36	0xbd8f30de	-0.069917426
37	0x3e904ce4	0.28183663
38	0x3e564c3d	0.2092752
39	0xbe8fff0b	-0.2812427
40	0xbe57f3dc	-0.21089119
41	0xbdc879b2	-0.097888365
42	0xbe555354	-0.20832568
43	0x3c4b4000	0.0124053955
44	0x3d2230f6	0.039597474
45	0x3d3539da	0.044244625
46	0xbd768881	-0.060188774
47	0xbe6767a2	-0.22598127
48	0xbe8d8cfe	-0.2764663
49	0x3df2597c	0.11833474
50	0x3e8cf3b1	0.27529672
51	0xbe07112e	-0.13190147
52	0xbe2ce100	-0.16882706
53	0x3e7e99c1	0.2486334
54	0x3e5d6114	0.21619064
55	0xbe29cea9	-0.16582741
56	0xbe35cf7f	-0.17754935
57	0x3e66679d	0.22500463
58	0xbe74156f	-0.23836301
59	0xbe44f6dc	-0.19234794
60	0x3d85544c	0.06510219
61	0xbe3a189e	-0.18173453
62	0xbe841101	-0.25794223
63	0x3e57094b	0.20999639
64	0x3dcfc15f	0.101443045
65	0x3dc95c25	0.09832028
66	0x3c7f1884	0.01556981
67	0x3e3ad15c	0.18243927
68	0x3d8b2cbb	0.06795641
69	0xbe65f4f3	-0.22456722
70	0x3db55f6c	0.08856091
71	0x3e302ace	0.17203829
72	0x3e8a39ed	0.2699732
73	0x3e3e3dc8	0.18578255
74	0x3df40af4	0.11916152
75	0x3c9bdac1	0.019025208
76	0xbda1c310	-0.07898533
77	0x3e846bd2	0.2586351
78	0x3dd5a037	0.10430949
79	0x3d00bca6	0.03142991
80	0xbe8bd3e4	-0.27310097
81	0xbe304070	-0.17212081
82	0xbe00c2cf	-0.12574314
83	0xbe195b1c	-0.14976162
84	0x3d93342f	0.071876876
85	0x3d0aa429	0.03384796
86	0x3d16c642	0.036810167
87	0x3d965638	0.07340664
88	0xbd0268f5	-0.031838376
89	0xbcc9bda9	-0.02462657
90	0x3e94b937	0.29047558
91	0x3dff23b6	0.12457983
92	0x3d3b4e93	0.04572923
93	0x3e8b1b98	0.2716949
94	0xbe92f33d	-0.287012
95	0x3e550fde	0.20806834
96	0xbe75fc8d	-0.24022122
97	0x3d1ac8c0	0.037789106
98	0xbe5590fd	-0.2085609
99	0x3e443dfe	0.19164273
100	0x3e81bfed	0.2534174
101	0xbe54e392	-0.20789936
102	0xbe4a7196	-0.19769892
103	0xbc1dcd81	-0.0096315155
104	0xbe1cdfc2	-0.15319732
105	0xbe71bea1	-0.23607875
106	0xbde609cc	-0.11232337
107	0x3e34dd3b	0.17662518
108	0x3de30e8e	0.110867605
109	0x3e2dbf06	0.16967401
110	0x3c0f4b02	0.008745911
111	0x3dfcec1d	0.123497225
112	0xbe735690	-0.2376349
113	0xbd58ba3a	-0.052911974
114	0x3d154e60	0.036451697
115	0xbe47e16e	-0.19519588
116	0x3e826779	0.25469568
117	0xbe7c1b70	-0.24619842
118	0x3d668724	0.056281224
119	0x3e58ae09	0.21160139
120	0x3dcf6b8f	0.10127937
121	0x3daac7aa	0.08338864
122	0x3e85452b	0.26029333
123	0x3e75c372	0.24000338
124	0xbe8ddb37	-0.2770631
125	0x3d470877	0.048592057
126	0x3e4b6ff1	0.19866921
127	0xbe7ab02f	-0.24481271
128	0x3e898314	0.26857817
129	0x3dcfa658	0.101391494
130	0x3df51af6	0.11968033
131	0x3e51bd60	0.20482397
132	0xbe383bad	-0.17991515
133	0x3dd67577	0.104716234
134	0xbe696f49	-0.22796358
135	0xbe0722ac	-0.1319682
136	0xbde2cf04	-0.11074641
137	0x3b57e0d1	0.0032940398
138	0x3e437abf	0.19089793
139	0xbc89297a	-0.01674341
140	0x3d339c55	0.04385026
141	0x3e3e7476	0.18599114
142	0x3e8048b2	0.25055462
143	0xbe24c4ad	-0.16090651
144	0xbe3b7305	-0.18305595
145	0x3e607bea	0.2192227
146	0x3d80152e	0.0625404
147	0xbc6e920e	-0.014561189
148	0x3e320fec	0.17388886
149	0x3e62bc43	0.22142129
150	0x3dfa2814	0.122146755
151	0x3dab6d08	0.083704054
152	0xbda35d02	-0.07976724
153	0x3da8da23	0.08244731
154	0xbe941555	-0.28922525
155	0x3e6ab2ab	0.22919719
156	0x3e71cc17	0.2361301
157	0x3e53a283	0.20667462
158	0x3e1082e7	0.14112435
159	0xbd6d4ee7	-0.057936575
160	0xbdec92f8	-0.115514696
161	0xbe257381	-0.16157342
162	0x3dd5f6b1	0.10447443
163	0x3e802874	0.25030863
164	0xbcb4782b	-0.022029957
165	0xbdd736d3	-0.10508504
166	0xbdfa8d55	-0.12233988
167	0x3d943c12	0.0723802
168	0xbdffc8ef	-0.12489497
169	0x3d80f68b	0.06297024
170	0xbcad6885	-0.021168003
171	0xbe2e47b6	-0.17019543
172	0xbd6215ed	-0.05519669
173	0x3dc3b515	0.09556023
174	0x3e86d7f2	0.26336628
175	0x3df7bf23	0.12097003
176	0xbe773f7c	-0.24145311
177	0xbd29e407	-0.04147723
178	0xbcca2a36	-0.02467833
179	0x3d67a73c	0.05655597
180	0x3d0c5f68	0.034270674
181	0xbd63c287	-0.055605438
182	0xbe94fcb1	-0.29099038
183	0xbd634050	-0.055481255
184	0x3d5224f5	0.051304776
185	0x3d01bda9	0.031675015
186	0x3e59ddad	0.21275969
187	0xbe0bdcef	-0.13658498
188	0x3beb8a8d	0.0071881474
189	0xbe725a9a	-0.23667374
190	0xbe6d7215	-0.2318805
191	0x3e256a2b	0.16153781
192	0xbcee6408	-0.029100433
193	0x3e0d48c2	0.13797286
194	0x3e83c69a	0.25737458
195	0x3db73199	0.08945007
196	0xbe2328a7	-0.15933476
197	0x3e67a2fe	0.2262077
198	0x3e8e3cea	0.2778085
199	0xbe03ee79	-0.12883939
200	0x3e17bcbb	0.14818089
201	0xbe626ba8	-0.2211138
202	0xbb84ec72	-0.004056507
203	0xbdf7e39a	-0.121039584
204	0x3c011fc9	0.007881113
205	0xbd07e88e	-0.033180766
206	0xbcc68806	-0.024234783
207	0x3e704ae0	0.23466063
208	0xbe5a1e9e	-0.21300742
209	0x3e8e5e01	0.27806094
210	0x3dd2da2c	0.10295519
211	0x3e0a4394	0.13502342
212	0x3e923177	0.28553364
213	0x3e00e245	0.12586315
214	0xbd0b2bf0	-0.03397745
215	0x3e0def86	0.13860902
216	0xbe56edb7	-0.20989119
217	0x3d2b16b2	0.04176969
218	0xbe375427	-0.17903195
219	0xbe589ffa	-0.21154776
220	0xbd9679da	-0.0734746
221	0xbe74b601	-0.23897554
222	0x3d644735	0.05573197
223	0x3c85ef7d	0.016349548
224	0x3e880adf	0.26570794
225	0xbe815c7a	-0.25265867
226	0x3df03bad	0.11730132
227	0xbd4a2565	-0.04935207
228	0xbddaee61	-0.106899984
229	0xbe4db0de	-0.20087
230	0x3c22512c	0.009907048
231	0x3e2dba4e	0.16965601
232	0xbe66e53b	-0.22548382
233	0xbd5c7479	-0.053822014
234	0x3de62f02	0.11239435
235	0xbe44382f	-0.19162057
236	0xbe8bcd56	-0.27305096
237	0x3de21e59	0.110409446
238	0xbe87778a	-0.2645839
239	0x3e29773a	0.16549388
240	0xbde30488	-0.11084849
241	0xbdfb0d84	-0.12258437
242	0xbe6121d5	-0.21985562
243	0x3e1d1ddc	0.15343422
244	0x3e71e5bd	0.23622794
245	0x3d214f3e	0.039382212
246	0xbe4064b6	-0.18788418
247	0x3da11376	0.0786504
248	0xbd9fe3f5	-0.07807151
249	0xbe6a006f	-0.22851728
250	0x3e3e9ade	0.18613765
251	0x3e63aefd	0.22234721
252	0x3d919005	0.07107548
253	0x3e2a51b1	0.16632725
254	0xbe943613	-0.28947505
255	0xbdc27d86	-0.09496598

input_embedding.bias f4 [64]
0	0x3dd450c9	0.10366971
1	0x3e259077	0.1616839
2	0x3e582ec9	0.21111597
3	0xbcb2a7f0	-0.021808594
4	0x3e980084	0.29687893
5	0xbd6adbf8	-0.057338685
6	0xbd3ab93c	-0.04558681
7	0xbe37af8f	-0.17938064
8	0x3e10e064	0.14148098
9	0x3e3316df	0.17489193
10	0xbd844179	-0.064578004
11	0xbdf6f458	-0.120583236
12	0x3b14209f	0.0022602451
13	0xbe8af3e8	-0.2713921
14	0x3c7212cc	0.014774989
15	0xbd987f0c	-0.07446107
16	0xbd8ee3fe	-0.0697708
17	0x3d9e39f4	0.077258974
18	0xbe5414b0	-0.20711017
19	0xbd509b67	-0.050929453
20	0x3d9c2a28	0.07625228
21	0x3e7173f2	0.23579386
22	0x3e6d17eb	0.23153655
23	0xbdcdd9b0	-0.10051286
24	0x3dee1d06	0.116266295
25	0x3d701d0c	0.05862145
26	0x3e8a0dbe	0.2696361
27	0xbceee850	-0.02916351
28	0x3ccca496	0.024980824
29	0x3e9302cc	0.2871307
30	0x3d755579	0.059895966
31	0x3e802eac	0.25035608
32	0x3e498199	0.19678344
33	0xbe0b4c95	-0.13603432
34	0xbe804112	-0.25049645
35	0x3e4e143e	0.2012491
36	0x3e3e856b	0.18605582
37	0xbd896c11	-0.06710065
38	0xbd43e1c1	-0.047822718
39	0x3d985b90	0.07439339
40	0x3e9301dc	0.28712356
41	0x3c0eacb7	0.008708171
42	0xbda727ce	-0.08161889
43	0xbdddc32b	-0.10828241
44	0x3d3e7901	0.046502117
45	0xbe46929e	-0.19391868
46	0xbdf3daa6	-0.11906938
47	0xbe8408f2	-0.25788075
48	0x3cfe9a7d	0.031079525
49	0x3e89e73f	0.2693424
50	0x3ca3efc9	0.0200118
51	0x3d970f70	0.07375991
52	0xbe7b4a13	-0.24539976
53	0x3e6eab90	0.23307633
54	0xbe4c5a3f	-0.19956301
55	0x3c487ffb	0.012237544
56	0xbc4bf676	-0.012448898
57	0xbe8081a1	-0.250989
58	0x3e8f5d71	0.28000978
59	0xbe3dd0ff	-0.18536757
60	0x3e8c6882	0.27423483
61	0x3e34481b	0.17605631
62	0x3e849056	0.2589137
63	0xbe0c4e15	-0.13701661

encoder.layers.0.self_attn.in_proj_weight f4 [192, 64]
0	0x3e8153fc	0.25259387
1	0x3df2fbaa	0.11864407
2	0x3b020dba	0.0019844607
3	0x3df02715	0.11726204
4	0x3e809ce8	0.2511971
5	0x3c436259	0.011925303
6	0xbda9369e	-0.082623705
7	0xbd01e21e	-0.031709783
8	0xbe11c522	-0.14235356
9	0xb900b2f9	-0.00012273704
10	0xbd16392a	-0.03667561
11	0xbd6ba574	-0.057530835
12	0xbd2a6482	-0.041599758
13	0xbe0e13f8	-0.13874805
14	0x3de76d2e	0.11300121
15	0xbe382c58	-0.17985666
16	0xbc199c80	-0.009375691
17	0x3df3c740	0.11903238
18	0xbdc9a9fa	-0.098468736
19	0xbe7767b2	-0.2416065
20	0xbe387e21	-0.18016864
21	0xbc7a53a0	-0.015278727
22	0x3d31d1e5	0.04341306
23	0xbe03350c	-0.12813205
24	0x3caf5c54	0.02140633
25	0x3e09519b	0.13410036
26	0x3e45e872	0.19326952
27	0xbc70939f	-0.014683633
28	0xbcfaec12	-0.030630145
29	0xbb66fe14	-0.0035246657
30	0xbd26f3b3	-0.040759753
31	0x3e555899	0.20834579
32	0x3c7d6b10	0.01546742
33	0x3d7577e5	0.059928793
34	0xbe656910	-0.2240336
35	0x3d80fae3	0.06297853
36	0xbc81b91d	-0.01583534
37	0xbce5282c	-0.027973257
38	0xbbf10997	-0.0073558795
39	0x3d30192b	0.042992752
40	0x3e458de2	0.19292405
41	0x3daeac25	0.08528928
42	0xbdb9001b	-0.09033223
43	0xbdd6ce7a	-0.10488601
44	0x3ded1a57	0.115772896
45	0xbe657367	-0.22407304
46	0xbdd63ee2	-0.10461213
47	0x3a7cfb3c	0.0009650474
48	0x3d4d7d7e	0.050168507
49	0xbdc41f3a	-0.095762685
50	0x3e8447b1	0.25835946
51	0xbd57a02f	-0.052642997
52	0xbd8a91b7	-0.06766074
53	0x3d1395ff	0.03603172
54	0xbe6024e3	-0.21889071
55	0x3da6142f	0.081093185
56	0x3cc11758	0.023570701
57	0x3d84b807	0.06480413
58	0x3e26875b	0.16262572
59	0xbe215d55	-0.1575826
60	0x3d4d2ade	0.05008971
61	0x3c35573b	0.011068161
62	0xbd445689	-0.04793409
63	0xbdf6ccfa	-0.12050815
64	0x3db51c4c	0.08843288
65	0x3e337d7b	0.17528336
66	0xbd9a9b63	-0.07549169
67	0x3e2ffa6d	0.17185374
68	0x3dae03ad	0.08496795
69	0x3d940e93	0.07229342
70	0xbddc5d43	-0.10759976
71	0x3dfe36ea	0.12412818
72	0x3cdab3e3	0.026697105
73	0x3e4df1bb	0.20111744
74	0x3a5d8840	0.0008450784
75	0x3e27027b	0.1630954
76	0x3d1ff820	0.03905499
77	0xbdffb3ec	-0.12485489
78	0x3d20d0a7	0.039261486
79	0xbdc3cebe	-0.09560917
80	0xbd61282e	-0.05496996
81	0xbd2c2491	-0.04202706
82	0xbe38ca04	-0.18045813
83	0xbe197d38	-0.14989173
84	0xbdebeb7d	-0.11519525
85	0x3e3c40bf	0.18384074
86	0x3d9b7750	0.075911164
87	0xbe039d2d	-0.12852927
88	0x3e2f6692	0.17128971
89	0x3c2b6869	0.010461905
90	0x3df34b3c	0.11879584
91	0x3cc2c36f	0.02377483
92	0xbe3bbf3d	-0.1833467
93	0x3dc9e5fa	0.09858318
94	0x3c48f6a2	0.012265833
95	0x3dd01b6a	0.10161479
96	0x3db0d12b	0.086336456
97	0x3d1d13ab	0.038348835
98	0xbd776661	-0.06040037
99	0xbdcef8f9	-0.101060815
100	0x3d037e74	0.032103017
101	0x3d84f60b	0.064922415
102	0x3db19ffe	0.08673094
103	0xbcc39731	-0.023875805
104	0xbc65d2fa	-0.0140273515
105	0x3e294892	0.1653159
106	0xbdc6b884	-0.09703162
107	0x3d944a4f	0.07240736
108	0x3cd28ed8	0.025702879
109	0xbe350155	-0.1767629
110	0xbe143829	-0.14474548
111	0x3dcc237c	0.099677056
112	0x3ad6306b	0.0016341334
113	0xbb987574	-0.0046526734
114	0x3dd2b4be	0.1028838
115	0xbd7f8c29	-0.062389527
116	0xbdbe76d1	-0.09300006
117	0xbdf01404	-0.11722568
118	0xbe4438e6	-0.1916233
119	0xbe10e75f	-0.14150761
120	0xbcd0409b	-0.025421431
121	0x3ded57eb	0.11589035
122	0x3d7ae408	0.061252624
123	0x3d93899e	0.07203983
124	0x3e0c1811	0.13681056
125	0x3e12541c	0.14289898
126	0xbd3c08e5	-0.04590692
127	0xbe3b4666	-0.18288574
128	0xbd606811	-0.054786745
129	0x3e35bbac	0.17747372
130	0xbdbf7ca3	-0.093499444
131	0xbd22bbbf	-0.03972983
132	0xbdb11fbe	-0.086486325
133	0xbb45717a	-0.0030127452
134	0x3de1819d	0.1101105
135	0x3ce0d34f	0.02744451
136	0xbd4c0d83	-0.049817573
137	0x3d41a65d	0.047277797
138	0xbdaa089b	-0.083024226
139	0x3dd881bd	0.105716206
140	0x3d4f4a34	0.050607875
141	0xbe223227	-0.15839444
142	0x3df1a7d0	0.11799586
143	0xbdc33658	-0.095318496
144	0xbd31afa7	-0.043380406
145	0x3d005460	0.031330466
146	0xbd261886	-0.04055073
147	0xbd251f5c	-0.04031311
148	0x3df1c0a4	0.118043214
149	0xbd22b2d9	-0.039721344
150	0x3db9f8b8	0.090806425
151	0xbd85d683	-0.065350555
152	0x3dc18425	0.09449033
153	0x3dadd973	0.08488741
154	0xbda684e6	-0.08130817
155	0x3df57041	0.11984301
156	0xbc599ad0	-0.013281539
157	0xbd9b257a	-0.075755075
158	0xbdd605e0	-0.10450339
159	0x3e158a9d	0.14603658
160	0x3e1a44d3	0.15065317
161	0x3a91a848	0.0011112774
162	0xbe00e5e9	-0.12587704
163	0xbc3c2b77	-0.011484972
164	0xbd8c91b2	-0.06863727
165	0xbc048571	-0.008088456
166	0xbdaf7bff	-0.08568572
167	0x3d8935fa	0.06699748
168	0xbd6065db	-0.054784637
169	0xbc9fcd92	-0.019507203
170	0xbe206b42	-0.15665916
171	0x3dce4e6d	0.10073552
172	0x3e0815e5	0.13289602
173	0xbe023e2e	-0.12719032
174	0x3d4b60b1	0.04965276
175	0xbdec81af	-0.11548173
176	0xbded52f2	-0.11588086
177	0x3d0b0436	0.033939563
178	0x3ddac001	0.10681153
179	0xbe0df1b3	-0.13861732
180	0xbe0a5fda	-0.13513127
181	0xbdcfc50f	-0.10145008
182	0xbe0c963a	-0.13729182
183	0xbddf7f3f	-0.10912942
184	0xbdcd8ca1	-0.100365885
185	0x3d833e29	0.064083405
186	0x3e07a492	0.13246372
187	0x3da58168	0.08081323
188	0x3dc3abfb	0.09554287
189	0xbde0e649	-0.109814234
190	0xbde4b635	-0.11167566
191	0xbdf49bbf	-0.11943769
192	0x3b5a6aef	0.0033327898
193	0x3c6e0328	0.01452712
194	0x3c82ce52	0.015967522
195	0xbde08b41	-0.109640606
196	0x3e4634b2	0.19356039
197	0xbdfd1e3e	-0.12359284
198	0x3e3dc7b2	0.18533209
199	0x3dacbb99	0.08434219
200	0x3d19e6b6	0.03757354
201	0x3e36feff	0.17870711
202	0x3dbae242	0.091251865
203	0x3d84d52e	0.06485973
204	0x3e151970	0.14560485
205	0xbd5a7b8f	-0.05334049
206	0xbe11fa44	-0.14255625
207	0x3d13c707	0.03607848
208	0x3e29798c	0.16550273
209	0x3daebeb8	0.085324705
210	0xbe074fac	-0.13213986
211	0x3d8d0785	0.068862
212	0xbe376c17	-0.17912327
213	0xbce8f4bd	-0.028437013
214	0x3e42bb45	0.1901675
215	0x3e03b466	0.12861785
216	0xbccc8a39	-0.024968253
217	0x3e2ce204	0.16883093
218	0x3e149b2d	0.1451232
219	0xbd099e11	-0.03359801
220	0x3de1773a	0.11009069
221	0xbda960e6	-0.08270435
222	0xbe351ea6	-0.17687473
223	0xbd49dcd6	-0.04928287
224	0x3ddd1cb7	0.107964925
225	0xbdfbaa9d	-0.12288401
226	0xbdf82385	-0.1211615
227	0x3e03cb55	0.12870534
228	0xbdd6020e	-0.10449611
229	0xbda0542a	-0.07828553
230	0xbddacf6d	-0.106840946
231	0x3d8ac0d8	0.06775063
232	0x3d851f3b	0.06500097
233	0x3e13f7b3	0.14449959
234	0x3e16f2de	0.14741084
235	0x3d03cca4	0.032177582
236	0xbd029302	-0.03187848
237	0x3ddc6865	0.10762099
238	0xbdb3afe9	-0.087737866
239	0xbcb18e40	-0.021674275
240	0x3e2ec41b	0.17066996
241	0xbd8898c1	-0.066697605
242	0x3df226a3	0.118237756
243	0x3d6379c4	0.055536047
244	0xbdfc8002	-0.12329103
245	0x3d9f9b50	0.077932954
246	0x3ceb1a15	0.02869896
247	0x3d9c6585	0.07636551
248	0xbb604327	-0.0034219713
249	0x3d6e8300	0.0582304
250	0x3e2781b2	0.16358069
251	0x3db88693	0.09010043
252	0x3de79cc0	0.113091946
253	0xbd732d2f	-0.059369262
254	0x3dcd70c2	0.100312725
255	0xbd10f65c	-0.035391197

encoder.layers.0.self_attn.in_proj_bias f4 [192]
0	0x3e0c0299	0.13672866
1	0x3db2934e	0.087195024
2	0x3d7196b6	0.05898162
3	0x3d83ab32	0.06429137
4	0x3e180606	0.14846048
5	0xbb2f1278	-0.002671389
6	0x3cdffc19	0.02734189
7	0x3c8297a9	0.015941458
8	0xbce0a982	-0.027424578
9	0x3ccc61be	0.02494895
10	0xbcac056e	-0.020998683
11	0xbc500c7c	-0.012698289
12	0xb83b663e	-4.4679495e-05
13	0xbd84448f	-0.06458389
14	0xbb31049c	-0.0027010804
15	0x3d9611de	0.07327627
16	0xbd62f0e9	-0.05540553
17	0xbcafcef4	-0.021460988
18	0x3b4edc0a	0.003156426
19	0xbd2e15e7	-0.042501356
20	0x3d6fe751	0.05857021
21	0x3b9f3338	0.0048584007
22	0x3d175514	0.03694637
23	0x3d9331af	0.07187211
24	0xbb54b061	-0.0032453763
25	0xbd0c2540	-0.034215212
26	0x3d7815c8	0.060567647
27	0xbd8b573c	-0.06803748
28	0xbd3e7d6e	-0.046506338
29	0x3c78ffad	0.015197677
30	0xbcc25a1e	-0.023724612
31	0x3d16ad20	0.0367862
32	0xbd3c9c2e	-0.046047382
33	0xbc72da1e	-0.014822511
34	0xbd90da23	-0.07072856
35	0x3cb2aa8a	0.021809835
36	0xbda4133c	-0.08011481
37	0xbd700669	-0.058599863
38	0x3cab41c2	0.02090538
39	0xbce196ee	-0.02753779
40	0x3c28820d	0.010284913
41	0x3c195e80	0.009360909
42	0x3cb5edd6	0.022208136
43	0xbd4f3b3c	-0.0505936
44	0x3daf76f3	0.0856761
45	0x3d8ae245	0.06781439
46	0x3db94f71	0.09048355
47	0x3df89c8a	0.121392325
48	0x3d4e0520	0.050297856
49	0x3e08562b	0.1331412
50	0xbe0c909b	-0.13727038
51	0x3dc03429	0.09384949
52	0xbcafbebc	-0.021453254
53	0x3c82a29c	0.015946679
54	0x3c270cc7	0.010195917
55	0xbd85bd06	-0.06530194
56	0xbda64578	-0.08118719
57	0x3d54f086	0.051987194
58	0xbd711e48	-0.05886677
59	0x3c432003	0.011909488
60	0x3e08685b	0.13321058
61	0xbda62296	-0.081120655
62	0xbd7ad683	-0.06123973
63	0x3db9b76a	0.090681866
64	0xb4d81397	-4.024739e-07
65	0x349a50b4	2.8743455e-07
66	0xb368293b	-5.4054208e-08
67	0xb4e75062	-4.308559e-07
68	0xb4e4b456	-4.259952e-07
69	0xb3d903c7	-1.0105537e-07
70	0x356288d3	8.4390666e-07
71	0x34a2d5fc	3.0330546e-07
72	0x3511b2c5	5.4276853e-07
73	0x333e634f	4.4328143e-08
74	0x3590e61f	1.079581e-06
75	0x33487bfb	4.667889e-08
76	0xb487b7d5	-2.5279465e-07
77	0x35870a0b	1.0061207e-06
78	0x3484b56f	2.4718926e-07
79	0xb2664955	-1.3404436e-08
80	0xb5a8aa5d	-1.2566558e-06
81	0x3484f7b2	2.4767138e-07
82	0xb41e7368	-1.4756881e-07
83	0xb591c60e	-1.0860983e-06
84	0x34a4819c	3.0641684e-07
85	0x349625b2	2.7967104e-07
86	0x35166fc3	5.604199e-07
87	0xb28b26cd	-1.6199374e-08
88	0x342618e7	1.5469014e-07
89	0xb455bcff	-1.9905927e-07
90	0x35727a85	9.0330315e-07
91	0xb5804084	-9.55552e-07
92	0x339c2b6d	7.272215e-08
93	0x3596512d	1.1199496e-06
94	0xb4af352a	-3.2634972e-07
95	0x34cc181a	3.8015497e-07
96	0x33c6a0bd	9.2493316e-08
97	0xb429484e	-1.5765656e-07
98	0x34d02545	3.8770136e-07
99	0xb58f866a	-1.069345e-06
100	0x359bd8ad	1.1611461e-06
101	0x3500c774	4.797396e-07
102	0x34c2c274	3.62768e-07
103	0xb3d22725	-9.7860074e-08
104	0x345713ac	2.0030592e-07
105	0x34a9cd4e	3.1628082e-07
106	0x3584febe	9.908906e-07
107	0xb43fdae6	-1.7867896e-07
108	0xb43be727	-1.7499825e-07
109	0xb6174569	-2.2541155e-06
110	0xb5ba8a53	-1.3898338e-06
111	0x3461ea48	2.1039989e-07
112	0xb49794c7	-2.8234192e-07
113	0xb5d16b47	-1.5602935e-06
114	0x3610a6d3	2.1554777e-06
115	0x345de562	2.0665678e-07
116	0x352b220f	6.3752026e-07
117	0x34dc4997	4.1031737e-07
118	0x356dc890	8.8581237e-07
119	0xb4073348	-1.2591511e-07
120	0xb486daa0	-2.5118516e-07
121	0x3508f3c3	5.101867e-07
122	0xb44623e8	-1.845325e-07
123	0xb5646344	-8.508107e-07
124	0xb5247e84	-6.1278865e-07
125	0x34af9a86	3.270872e-07
126	0xb4e1eca5	-4.2081697e-07
127	0xb5fe1ae4	-1.8932301e-06
128	0x3c8076d3	0.01568166
129	0x3c84fa0c	0.016232513
130	0xb9c4f273	-0.00037564672
131	0x3b882098	0.004154276
132	0xbbaeed58	-0.005338352
133	0xbc3deb1c	-0.011591699
134	0xbbc764de	-0.0060850224
135	0x3c7abff5	0.015304555
136	0x3c0f7aec	0.008757334
137	0x3b0a7ab3	0.0021130263
138	0xbbdf5bb7	-0.006816353
139	0xbbf1f3f5	-0.0073838183
140	0xbc3c9bd8	-0.011511765
141	0xbb85af3c	-0.0040797275
142	0xbc1ef7dd	-0.00970265
143	0xbb477693	-0.0030435666
144	0x3c412185	0.011787777
145	0x3c357908	0.011076219
146	0xbaadd455	-0.0013262132
147	0x3bb23917	0.0054389345
148	0xbbb448a3	-0.005501823
149	0x3bfcbe74	0.0077131335
150	0xbc622d49	-0.013804742
151	0xbafb71fc	-0.001918375
152	0xbcb3289b	-0.021869948
153	0xbb82df38	-0.003993895
154	0xbbb3d9aa	-0.005488594
155	0xbb31805b	-0.0027084562
156	0xbbc6e001	-0.006069184
157	0xbc8ed944	-0.017437585
158	0x3a19a02d	0.0005860355
159	0xbc1c945d	-0.009556857
160	0x3bf7ad74	0.007558519
161	0xbc1c1952	-0.009527521
162	0x3c0123ce	0.007882072
163	0xbc01ee64	-0.007930372
164	0xbc5fe6ef	-0.013665899
165	0x3b8bd01c	0.004266752
166	0xbbb2efb4	-0.0054607037
167	0xba8b0ab0	-0.0010608044
168	0xbc265d1f	-0.010154038
169	0x3a923edd	0.0011157651
170	0xbc04d2c5	-0.008106892
171	0xbc526f7a	-0.012843961
172	0x3c43b418	0.011944793
173	0x3b3eba50	0.002910275
174	0x3c3722df	0.0111777475
175	0xba45b6b2	-0.00075421773
176	0x3c019e42	0.007911267
177	0xbc3cb3fc	-0.011517521
178	0x3c973ca1	0.018461527
179	0xbc923ceb	-0.017851314
180	0xbc76fbc8	-0.015074678
181	0xbc71aaf5	-0.014750232
182	0xbc58935a	-0.013218725
183	0x3b05e8d6	0.002043297
184	0x3c7944af	0.015214129
185	0xbb752069	-0.003740335
186	0x3bd40ba6	0.006471115
187	0xbbd25002	-0.006418229
188	0x3c43dfdd	0.011955229
189	0x3c148e67	0.0090671545
190	0xbab05304	-0.0013452475
191	0xbbd03600	-0.0063540936

encoder.layers.0.self_attn.out_proj.weight f4 [64, 64]
0	0xbdc6b538	-0.097025335
1	0x3d07a15f	0.03311288
2	0x3cdf7001	0.027275087
3	0xbdc64e6b	-0.09682926
4	0x3d5849ba	0.052804686
5	0xbd710f23	-0.058852326
6	0xbd7ea91d	-0.062172998
7	0x3b8f8a1d	0.004380478
8	0xbe036694	-0.12832099
9	0xbd2c3983	-0.042047035
10	0x3dddc50f	0.108286016
11	0xbdaa38bc	-0.083116025
12	0x3daa58e0	0.08317733
13	0xbd8acd3e	-0.06777428
14	0xbc9a421c	-0.018830352
15	0x3d4a1003	0.049331676
16	0xbd9637a1	-0.07334829
17	0xbd8f79b2	-0.070056334
18	0x3d51c180	0.051209927
19	0x3da6f801	0.08152772
20	0x3cdac4a2	0.02670509
21	0x3b631941	0.0034652504
22	0xbc2d29ad	-0.010569018
23	0xbcc34928	-0.023838595
24	0x3ddbdfe2	0.10736062
25	0xbdfac844	-0.12245229
26	0xbd86b60f	-0.06577694
27	0x3ce8a1f2	0.028397534
28	0x3d2986ac	0.0413882
29	0x3caa581a	0.020793963
30	0x3d8fd945	0.07023863
31	0x3d43730f	0.04771715
32	0x3c9b4289	0.018952625
33	0x3e0436ad	0.12911482
34	0xbd1b8508	-0.037968665
35	0xbcec5e19	-0.028853463
36	0xbd7c877d	-0.06165265
37	0x3d7b1dbf	0.061307665
38	0xbde323b3	-0.110907935
39	0xbd37c71e	-0.044867627
40	0x3bd6191c	0.006533755
41	0x3bc3cda9	0.0059754443
42	0xbd4604bd	-0.048344363
43	0xbd8a8498	-0.067635715
44	0xbda313d8	-0.07962769
45	0x3dddc50a	0.10828598
46	0xbddfe0f4	-0.10931578
47	0xbd4d6c2a	-0.05015198
48	0xbdcfac6b	-0.10140308
49	0x3c692dc7	0.014232106
50	0x3d83b632	0.064312354
51	0x3d3a2581	0.045445923
52	0x3dac1013	0.084015034
53	0xbd452c51	-0.048137967
54	0xbd76354e	-0.06010943
55	0x3cb2cc57	0.021825952
56	0x3d11676c	0.03549902
57	0x3d588ded	0.052869726
58	0xbd88e38b	-0.066840254
59	0xbdc54c92	-0.09633745
60	0x3cfa3f99	0.030547904
61	0x3e01399e	0.12619635
62	0xbdb7e3cf	-0.08978998
63	0xbda977b0	-0.08274782
64	0x3daa61c4	0.083194286
65	0x3d9f9a27	0.07793074
66	0x3d9a9e68	0.07549745
67	0x3c7385ea	0.014863471
68	0x3df502c6	0.119634196
69	0x3bc6300a	0.006048207
70	0x3d264013	0.04058845
71	0x3c5ca23a	0.013466412
72	0xbd9644c9	-0.073373385
73	0x3da06166	0.07831077
74	0x3d6fe7ff	0.058570858
75	0xbd15ac32	-0.03654117
76	0x3c88de4f	0.016707567
77	0x3cffcbd3	0.03122512
78	0x3c14c884	0.00908101
79	0x3cb15ba4	0.021650143
80	0x3bddacd5	0.006764988
81	0x3db4d917	0.08830469
82	0xbda1c882	-0.07899572
83	0xbd0e6b72	-0.034770437
84	0xbdbbb614	-0.09165588
85	0xbd66cafd	-0.05634593
86	0xbd041381	-0.032245163
87	0xbe0655eb	-0.13118713
88	0xbd9ceb13	-0.07662024
89	0x3db3f6f0	0.08787334
90	0x3ce51c1b	0.027967503
91	0x3c00f0d8	0.007869922
92	0x3d0f8156	0.035035454
93	0xbe00d952	-0.12582901
94	0xbc677689	-0.014127382
95	0x3d921839	0.07133526
96	0xbda5f2b6	-0.08102934
97	0xbdd84dbf	-0.10561704
98	0x3db9e009	0.090759344
99	0xbb3289e0	-0.0027242824
100	0xbd55ad41	-0.05216718
101	0xbd90958f	-0.07059776
102	0xbd6fabb0	-0.058513343
103	0xbd2e5d97	-0.042569723
104	0xbd637a3f	-0.055536505
105	0xbcc38d5e	-0.02387112
106	0xbd01b923	-0.0316707
107	0xbdca10e7	-0.09866505
108	0x3dfc2528	0.123117745
109	0x3cfdffef	0.031005828
110	0x3d424788	0.0474315
111	0xbd290b78	-0.041270703
112	0xbda4d0f5	-0.08047668
113	0x3cb36d05	0.02190257
114	0x3df250b5	0.118318
115	0xbe01e54f	-0.1268513
116	0xbda70d09	-0.08156783
117	0x3c3bdf3c	0.011466797
118	0xbd75d458	-0.06001696
119	0x3d6a18d2	0.057152577
120	0xbc613e02	-0.013747694
121	0x3d24bf01	0.040221218
122	0x3d1212a5	0.035662312
123	0xbbe76f66	-0.0070628403
124	0x3e030df6	0.12798294
125	0x3d6ceaf6	0.057841264
126	0x3d48283e	0.048866503
127	0x3dce1fb5	0.100646414
128	0x3e05cdaa	0.13066736
129	0xbdade57d	-0.08491037
130	0x3db8412d	0.08996806
131	0xbaa8cb39	-0.0012877948
132	0xbc584a7d	-0.013201353
133	0xbe0187f4	-0.12649518
134	0x3d4a53b7	0.049396243
135	0x3dd4b862	0.10386731
136	0xbb0966b0	-0.0020965748
137	0xbd257234	-0.040392116
138	0xbcb4343c	-0.021997564
139	0xbd771932	-0.060326762
140	0xbd3e3368	-0.046435744
141	0x3d8b3030	0.067963004
142	0x3c551a60	0.013006777
143	0x3d14378c	0.036185786
144	0x3e0675c3	0.1313086
145	0x3c47ccf5	0.012194862
146	0xbd9fd363	-0.07803991
147	0x3ddfe6b5	0.10932676
148	0x3ca730c3	0.020408994
149	0xbd5af087	-0.05345204
150	0xba8ae946	-0.0010598085
151	0xbd6661b6	-0.05624553
152	0xbbdf6994	-0.006818006
153	0xbdbf71a6	-0.093478486
154	0xbe09812a	-0.13428178
155	0x3d651381	0.055926803
156	0x3be6b94f	0.0070411335
157	0xbc0f4e68	-0.008746721
158	0xbdc990f5	-0.098421015
159	0xbdad0542	-0.084482685
160	0xbd0f105f	-0.034927722
161	0xbd991103	-0.07473948
162	0x3cacf594	0.021113195
163	0xbd9bc21b	-0.07605382
164	0x3d3e02d4	0.046389416
165	0xbdc0c057	-0.09411686
166	0x3e07eea3	0.13274626
167	0x3d9d0e63	0.0766876
168	0x3da7f025	0.08200101
169	0xbd61bc43	-0.05511118
170	0x3dbbc7c4	0.09168962
171	0xbd2f9f07	-0.04287627
172	0xbd172b79	-0.036906693
173	0xbb998896	-0.0046854718
174	0x3d1fca4c	0.039011285
175	0x3d6b8457	0.057499256
176	0xbd66d225	-0.056352753
177	0x3b8d13bf	0.0043053324
178	0x3dfbbeb2	0.122922316
179	0xbd0b1689	-0.033957038
180	0xbd89c5a7	-0.06727152
181	0xbdd890bd	-0.10574482
182	0x3db4702b	0.08810457
183	0xbd939e9d	-0.072079875
184	0xbdba33bf	-0.09091901
185	0xbcbccd64	-0.023047157
186	0xbd79ecc3	-0.06101681
187	0x3d6a13d6	0.057147823
188	0xbddb87f3	-0.1071929
189	0xbda6dada	-0.081472114
190	0xbdd1fb66	-0.102530286
191	0xbdb59ef8	-0.088682115
192	0x3df55eff	0.1198101
193	0xbd102568	-0.035191923
194	0xbdfb61a6	-0.12274484
195	0x3d8cc32a	0.06873162
196	0x3c335f09	0.010947951
197	0xbd8d26ba	-0.06892152
198	0xbbe2e7dd	-0.006924613
199	0xbd70930b	-0.05873398
200	0xbd8f79b5	-0.07005636
201	0xbd3df48d	-0.0463758
202	0xbd59979d	-0.053123105
203	0xbd775265	-0.060381312
204	0x3d2f2eef	0.04276937
205	0xbd9c67fc	-0.07637021
206	0xbe02df33	-0.12780456
207	0x3d9f9c88	0.07793528
208	0xbd891b3b	-0.06694647
209	0xbd158dc8	-0.036512166
210	0xbc4e0da0	-0.012576491
211	0x3d1d25f8	0.038366288
212	0x3b91374a	0.00443164
213	0xbda4bc1c	-0.080436915
214	0x3da61277	0.08108991
215	0xbde891bf	-0.11355924
216	0x3d910ce0	0.07082534
217	0xbd32f299	-0.04368839
218	0xbda3b57c	-0.079936
219	0xbdffaaef	-0.12483775
220	0xbdbb6bb7	-0.09151404
221	0xbdc3236a	-0.09528239
222	0x3ddd45ba	0.10804315
223	0xbd85a4a8	-0.06525546
224	0x3da6e545	0.081491984
225	0xba4c7565	-0.00077994756
226	0x3d701282	0.0586114
227	0x3d8f5ed3	0.07000508
228	0xbd4307e3	-0.047614943
229	0xbc5d5801	-0.013509751
230	0xbd36c64f	-0.044622716
231	0x3e0227b3	0.12710457
232	0xbd7a652c	-0.06113164
233	0x3c9ae06e	0.018905845
234	0xbdec2bf7	-0.11531823
235	0xbd9910c8	-0.07473904
236	0x3de9e9b5	0.11421529
237	0xbdcbe7f9	-0.09956355
238	0x3de0805b	0.10961982
239	0x3dcd4c2c	0.10024294
240	0x3e028499	0.12745894
241	0x3d4de22f	0.050264534
242	0xbdc3b25d	-0.095555045
243	0xbd98683f	-0.07441758
244	0xbe08264b	-0.13295858
245	0xbd89fa50	-0.067371964
246	0xbd956e73	-0.07296457
247	0xbd16f78e	-0.03685718
248	0xbc58b14e	-0.0132258665
249	0x3b951a95	0.004550288
250	0x3e0f082d	0.13967963
251	0xbdc8b1de	-0.097995505
252	0x3ddbb8c5	0.10728601
253	0x3ddae457	0.106880836
254	0x3deb688e	0.114945516
255	0x3d8e33a4	0.069434434

encoder.layers.0.self_attn.out_proj.bias f4 [64]
0	0x3bcb9aa6	0.006213504
1	0x3c3188bb	0.010835822
2	0x3bdabf3a	0.006675628
3	0x3c27878f	0.010225191
4	0x3b4fedf3	0.0031727522
5	0xbc04b60a	-0.008100042
6	0xbbdfa327	-0.006824869
7	0xbab00afe	-0.001343101
8	0xb9296162	-0.00016153374
9	0x3c0d57f5	0.008626928
10	0xbb54195a	-0.0032363744
11	0x3bca2d64	0.0061699618
12	0x3c270179	0.010193222
13	0xbbeb04a3	-0.0071721836
14	0x3bbb030a	0.0057071494
15	0xbc479a38	-0.012182765
16	0xbc0bb3f8	-0.008526795
17	0x3c093125	0.008373533
18	0xbc585bb1	-0.013205455
19	0x3b65ec80	0.0035083592
20	0x3bb93c73	0.005652958
21	0xbc59aa72	-0.013285266
22	0x3b092708	0.0020927805
23	0x3c01a9df	0.007914036
24	0xbbf37e35	-0.0074308165
25	0xbba08f9c	-0.004899932
26	0xbbb7e757	-0.0056122947
27	0xbba3e4c6	-0.005001637
28	0xbbbbe5ac	-0.005734166
29	0x3c3e4c0a	0.011614809
30	0xbbda9617	-0.006670724
31	0xbbc8dcfd	-0.0061298595
32	0xbc2213ee	-0.009892447
33	0x3ac70c41	0.0015186147
34	0xbc098eb4	-0.0083958395
35	0x3bd3c4c5	0.0064626657
36	0x3a7c450f	0.00096233276
37	0xbc0686ab	-0.008210818
38	0xbc24bc60	-0.010054678
39	0xbbf87472	-0.0075822407
40	0x3c8e9a5a	0.017407585
41	0x3c3a12b5	0.011356999
42	0xbc02e0f7	-0.007988206
43	0x3c1af0b0	0.009456798
44	0xbc68246e	-0.014168842
45	0x3c2206d9	0.009889328
46	0x3aa1789b	0.0012319268
47	0xbb931139	-0.004488137
48	0xbbd51a57	-0.006503384
49	0x3b9c6109	0.0047723097
50	0x3c58b83a	0.013227517
51	0xbc02c0ca	-0.007980535
52	0xbc5628f7	-0.01307129
53	0xbae2ba34	-0.0017297924
54	0xbb9457ee	-0.0045270836
55	0x3c4dc248	0.012558527
56	0x3b87eaec	0.004147878
57	0x3c3ef322	0.011654647
58	0xbafe5b69	-0.0019405904
59	0xbbd3c172	-0.0064622695
60	0x3c3346d8	0.010942183
61	0xba4a2c51	-0.0007712292
62	0xbc467b99	-0.012114429
63	0x3be4d11b	0.006982935

encoder.layers.0.linear1.weight f4 [256, 64]
0	0x3bbec2f7	0.0058215815
1	0xbd8c5c71	-0.06853569
2	0xbd9636d9	-0.0733468
3	0xbd9750cc	-0.07388458
4	0x3d804783	0.0626364
5	0xbdc5fbf2	-0.096671954
6	0x3de02196	0.10943906
7	0x3ca68c3d	0.020330543
8	0xbd3a054d	-0.04541521
9	0xbce707c5	-0.028201947
10	0x3df38f84	0.11892608
11	0xbd9ece95	-0.07754246
12	0x3d4b1457	0.049579944
13	0x3c485e49	0.012229511
14	0xbd055dd2	-0.032560177
15	0x3d2bf640	0.04198289
16	0xbd46f743	-0.04857565
17	0x3dbfe44a	0.093697146
18	0xbd993966	-0.07481651
19	0x3a106e2b	0.00055095804
20	0x3dc9be75	0.0985078
21	0xbc8591b2	-0.016304825
22	0x3da165ba	0.07880731
23	0xbd3460aa	-0.0440375
24	0xbc86a740	-0.016437173
25	0xbdd88a44	-0.10573247
26	0xbddd499d	-0.10805056
27	0xbd9f8c8c	-0.07790479
28	0xbda27267	-0.07931977
29	0x3de7165f	0.11283564
30	0x3d082bfb	0.033245068
31	0x3d72620d	0.05917554
32	0x3d1737e0	0.03691852
33	0x3dc587be	0.096450314
34	0x3bae3389	0.005316202
35	0x3d31e5c5	0.043432016
36	0x3c4dcf8c	0.01256169
37	0x3c269b46	0.010168856
38	0xbdcb732a	-0.09934075
39	0x3da03b4d	0.07823811
40	0xbdfb6f50	-0.122770905
41	0xbde036d3	-0.10947957
42	0xba844f98	-0.0010094522
43	0x3dbc0cf9	0.09182162
44	0x3d029c6f	0.031887468
45	0x3c46d3ed	0.012135488
46	0xbd1187dc	-0.035529956
47	0x3dc3f634	0.09568444
48	0x3db3888a	0.08766277
49	0xbde5ed7c	-0.11226937
50	0x3d76bb5d	0.060237277
51	0x3d28bb11	0.041194025
52	0x3b24536d	0.002507414
53	0x3d52153d	0.051289786
54	0x3d79387c	0.060844883
55	0x3bac21fd	0.005253075
56	0x3ded0a99	0.11574287
57	0x3ddf41f9	0.10901255
58	0xbd80f9c3	-0.06297638
59	0xbd96ad6a	-0.07357295
60	0x3d9e180f	0.077194326
61	0x3df14a72	0.117817774
62	0xbd4726df	-0.048621055
63	0x3be058c9	0.0068465215
64	0x3da92643	0.08259251
65	0xbc04dc77	-0.008109204
66	0x3d8fee13	0.07027831
67	0xbca2c098	-0.019867226
68	0xbd3e89be	-0.04651808
69	0xbdccb4f2	-0.0999545
70	0xbd4c1e1e	-0.04983341
71	0x3db4dd37	0.08831256
72	0x3d88b3e1	0.06674934
73	0xbd97d0a9	-0.07412846
74	0xbdfab4ec	-0.12241539
75	0x3d0b4ea7	0.034010556
76	0x3d6dec21	0.05808652
77	0x3d18da59	0.037317608
78	0x3d8af785	0.06785492
79	0xbd6c0895	-0.057625372
80	0xbdee7bbb	-0.116446935
81	0xbb64ebf6	-0.0034930683
82	0xbcc09cf1	-0.023512335
83	0xbc63b24b	-0.013897489
84	0x3c51cb37	0.012804798
85	0xbe061b25	-0.13096292
86	0x3d8b2a0b	0.067951284
87	0x3d1965df	0.037450667
88	0x3dd29ba1	0.1028359
89	0xbdb18e02	-0.08669664
90	0xbdefb7f8	-0.11705011
91	0x3dbd505d	0.09243844
92	0x3c2a3bb1	0.010390208
93	0xbd322425	-0.0434915
94	0x3d5b3a35	0.053522307
95	0xbd5c7bbe	-0.053828947
96	0xbde34bc0	-0.110984325
97	0x3d27aaa3	0.040934216
98	0x3c9b31c1	0.018944623
99	0x3ced8b18	0.02899699
100	0x3d35f06c	0.044418737
101	0xbdf77647	-0.120831065
102	0x3d8b662a	0.068065956
103	0x3d731a1f	0.059351083
104	0x3d9c1628	0.076214135
105	0x3c7326e5	0.014840816
106	0x3d5b63f2	0.053562112
107	0xbdd50db2	-0.10403003
108	0xbd0e7407	-0.03477862
109	0xbddd43e0	-0.10803962
110	0xbd0294ec	-0.031880304
111	0xbdef519c	-0.11685488
112	0x3d066ab4	0.032816604
113	0x3d686f02	0.05674649
114	0x3c415e67	0.011802292
115	0x3da8f024	0.08248928
116	0x3dac4491	0.084115155
117	0xbd1afaeb	-0.03783695
118	0x3c2f1ba3	0.010687741
119	0x3cfa8466	0.03058071
120	0xbd967355	-0.073462166
121	0xbd1752e5	-0.03694429
122	0xbd3360fd	-0.043793667
123	0x3ddf14a7	0.10892611
124	0xbdf75b10	-0.12077916
125	0x3d9dacf3	0.07699003
126	0x3e16dd30	0.14732814
127	0xbd0d96f2	-0.03456778
128	0xbdce78ba	-0.100816205
129	0x3db40c34	0.0879139
130	0x3d34673a	0.044043757
131	0x3db9cd8c	0.09072408
132	0xbdb84c9a	-0.089989856
133	0x3cad41d5	0.021149555
134	0xbdbb34e3	-0.09140947
135	0x3d83216a	0.064028576
136	0x3dc1eab0	0.09468591
137	0x3ddf960b	0.1091729
138	0xbd98acb8	-0.074548185
139	0x3dfe1bd1	0.12407649
140	0xbdea07e3	-0.114272855
141	0xbd874f28	-0.06606895
142	0x3da8075d	0.082045294
143	0x3d9f9315	0.077917255
144	0xbd14d86c	-0.03633921
145	0x3d891387	0.06693178
146	0x3d38fbdb	0.045162063
147	0x3ce5a9ae	0.028035011
148	0x3e0110f4	0.12604123
149	0x3e054441	0.13014318
150	0xbd095540	-0.033528566
151	0x3c795713	0.015218514
152	0x3dcee6d3	0.1010262
153	0x3de32219	0.11090488
154	0xbd762408	-0.060092956
155	0xbcd09ca4	-0.025465317
156	0xbdb05fcd	-0.086120225
157	0xbdacb661	-0.084332235
158	0x3d898728	0.06715232
159	0x3b3925ba	0.0028251247
160	0x3e039f1e	0.12853667
161	0xbda5998d	-0.08085928
162	0x3d83fd7b	0.06444832
163	0x3de2b3b7	0.11069434
164	0xbdd4ee4a	-0.103970125
165	0x3deae465	0.11469344
166	0xbd99f140	-0.07516718
167	0x3d4b38f2	0.049614854
168	0xbdbc05b6	-0.09180777
169	0x3c80b452	0.015710983
170	0x3dec0892	0.11525072
171	0x3d17388d	0.036919165
172	0x3d965e69	0.07342226
173	0xbd320f63	-0.043471705
174	0x3dae9b02	0.08525659
175	0xbdb16647	-0.08662086
176	0xbde09fc1	-0.10967971
177	0x3d6ecbe5	0.058299918
178	0x3dcfb233	0.10141411
179	0xbdc46b35	-0.095907606
180	0xbc93c967	-0.018040372
181	0xbcc93716	-0.0245624
182	0xbd919999	-0.071093746
183	0xbd82d16e	-0.06387602
184	0xbd3e9e91	-0.04653794
185	0xbd8e18b3	-0.06938305
186	0x3d5af3c5	0.053455133
187	0x3ccf085b	0.025272539
188	0xbdd5b52f	-0.10434949
189	0x3d6ac04c	0.057312295
190	0xbd51a024	-0.051178113
191	0xbdd744bb	-0.10511156
192	0xbdf408dc	-0.11915752
193	0xbcb77209	-0.022393243
194	0x3dd4813e	0.103762135
195	0xbd94076e	-0.072279796
196	0xbc90e548	-0.017687455
197	0xbd9860e2	-0.07440354
198	0xbdda2d2a	-0.106531456
199	0xbda220b6	-0.07916395
200	0xbd473a4c	-0.04863958
201	0x3ddfd2c6	0.10928874
202	0xbda4dfb1	-0.08050478
203	0x3d55a292	0.052156992
204	0xbdc739e5	-0.097278394
205	0xbd0ffc23	-0.035152566
206	0xbdbf80a3	-0.093507074
207	0xbd502eb7	-0.0508258
208	0xbd192410	-0.037387908
209	0x3d13e806	0.036109947
210	0x3dbbd806	0.091720626
211	0xbcad9475	-0.021188954
212	0x3cc6c057	0.024261637
213	0xbdafdcf4	-0.08587065
214	0x3d5dfc44	0.054195657
215	0x3cbde1f4	0.023179032
216	0x3cfc0727	0.03076513
217	0x3e027d97	0.12743221
218	0xbd6a3c35	-0.057186324
219	0x3df8951f	0.121378176
220	0xbcc23bc6	-0.023710143
221	0x3d268a0d	0.040659
222	0xbcdc299a	-0.026875306
223	0x3d07e9e7	0.03318205
224	0xbd70bfee	-0.05877679
225	0xbd5f7fe3	-0.05456532
226	0xbca3f7bf	-0.020015595
227	0xbd6e4381	-0.058169845
228	0xbd5833ad	-0.052783657
229	0x3dfb3eef	0.12267863
230	0xbe0cb008	-0.13739026
231	0xbd3dad1d	-0.04630767
232	0x3d54c3ce	0.051944546
233	0x3e14fe64	0.14550167
234	0xbd58a020	-0.052887082
235	0xba14c25a	-0.00056747126
236	0x3def4dc9	0.11684758
237	0xbdf79633	-0.12089195
238	0xbd8b2f13	-0.06796088
239	0xbdcde8f9	-0.10054202
240	0x3dde5ae9	0.108571835
241	0xbc03be35	-0.008040954
242	0xbd04e597	-0.032445516
243	0xbd74aa19	-0.05973253
244	0x3cd62e52	0.026145134
245	0xbdd87408	-0.10569006
246	0x3d6ebc2b	0.05828492
247	0xbbf17708	-0.007368926
248	0x3de45aef	0.11150157
249	0xbd94be5b	-0.0726287
250	0xbd9f3ce7	-0.07775288
251	0x3db1b5b0	0.08677232
252	0xbcf93d90	-0.030424863
253	0x3dd7dbee	0.10539995
254	0x3d6e1ea2	0.058134682
255	0x3c510069	0.012756445

encoder.layers.0.linear1.bias f4 [256]
0	0x3dc34f52	0.095366135
1	0xbde7c090	-0.11316025
2	0xbd159e38	-0.036527842
3	0xbda26ef7	-0.07931321
4	0x3bb7075f	0.0055855955
5	0xbc9a731a	-0.018853713
6	0xbdbd0ed7	-0.09231346
7	0xbd232044	-0.039825693
8	0x3ded3602	0.11582567
9	0x3dbd3889	0.09239299
10	0x3de977d3	0.11399808
11	0x3d440a44	0.047861353
12	0xbded62bf	-0.115911
13	0x3c19df86	0.009391671
14	0x3d90ca54	0.07069841
15	0xbd142903	-0.036171924
16	0x3d2ec7cd	0.042671014
17	0x3d63d51b	0.055623155
18	0x3e06dd4f	0.1317036
19	0x3d966952	0.07344307
20	0x3c68e90f	0.014215722
21	0xbcb4aefa	-0.022056092
22	0x3c7084e5	0.014680122
23	0x3c9f8a4b	0.019475123
24	0xbd8cc318	-0.06873149
25	0xbc641fcc	-0.013923597
26	0xbdf25409	-0.11832435
27	0x3d852cbc	0.06502673
28	0x3d4a240e	0.04935079
29	0xbcc013ee	-0.023447003
30	0xbd015eac	-0.031584427
31	0xbd394a25	-0.045236725
32	0x3e12cc58	0.14335763
33	0xbdc902f4	-0.098150164
34	0xbd09ba6f	-0.033625063
35	0xbdc39bf3	-0.09551229
36	0x3d869df0	0.06573093
37	0xbd7c1790	-0.06154591
38	0x3a621fdc	0.0008625963
39	0x3cfcfd9e	0.030882653
40	0xbd0d3751	-0.034476582
41	0x3ce774d0	0.028253943
42	0xbdb78893	-0.08961596
43	0x3cd41c0f	0.025892286
44	0x3dae2ee1	0.08505035
45	0xbe017d2d	-0.12645407
46	0xbdca352f	-0.09873425
47	0xbdc09bfc	-0.09404752
48	0xbdbd5266	-0.09244232
49	0x3cc393d9	0.02387421
50	0xbd6d4ca3	-0.057934415
51	0x3dfa2000	0.12213135
52	0x3ab47cd4	0.0013770112
53	0x3d3f914d	0.04676943
54	0x3d96a52e	0.07355724
55	0x3d478d3f	0.048718687
56	0xbcc49a73	-0.023999428
57	0xbd88c119	-0.066774555
58	0xbd3f5875	-0.04671522
59	0x3d8df76f	0.0693196
60	0xbb770b8f	-0.0037696098
61	0x3ddc3a8e	0.10753356
62	0x3e0447fc	0.12918085
63	0xbb801838	-0.003909137
64	0xbddd11aa	-0.10794385
65	0x3d25bd7c	0.04046391
66	0x3dcac9b5	0.09901754
67	0x3d9f0d60	0.07766223
68	0xbdcdd1ba	-0.10049768
69	0x3da77331	0.08176268
70	0xbaa4e85e	-0.0012581458
71	0xbda99a12	-0.0828134
72	0x3d9f53f6	0.07779686
73	0x3dd2a28d	0.1028491
74	0x3b5f4c32	0.0034072516
75	0xbc6f7826	-0.014616048
76	0xbd827c44	-0.06371358
77	0x3b513603	0.0031923063
78	0x3daea96e	0.0852841
79	0xbd9673d5	-0.07346312
80	0xbdb96906	-0.09053235
81	0x3d83c278	0.06433576
82	0x3d7519b8	0.05983898
83	0xbc3a6c8c	-0.011378419
84	0xbd84d931	-0.064867385
85	0xbd99924d	-0.07498608
86	0xbdac2540	-0.084055424
87	0x3dc8e7ac	0.09809813
88	0xbdc4e861	-0.09614635
89	0xbd5baaba	-0.053629614
90	0x3d0807fc	0.03321074
91	0xbc014aac	-0.007891338
92	0x3d28fa13	0.041254114
93	0xbc772ef2	-0.015086876
94	0xbcefe004	-0.029281624
95	0x3d88aec2	0.066739574
96	0xbd933a07	-0.07188802
97	0x3dcab8d9	0.09898538
98	0xbd97a5a3	-0.074046396
99	0xbcf0c9d3	-0.029393112
100	0xbbaee006	-0.0053367643
101	0xbd9de311	-0.07709325
102	0xbd3e23a4	-0.04642071
103	0x3ded93ea	0.11600478
104	0xbcba0f2c	-0.022712313
105	0x3d8f8710	0.07008183
106	0x3b55f093	0.0032644614
107	0x3d7b0b89	0.061290298
108	0x3da174c6	0.07883601
109	0x3e02513a	0.12726298
110	0x3b2599d8	0.00252687
111	0xbd7f5b09	-0.062342677
112	0x3d25a408	0.040439636
113	0x3da51e94	0.08062473
114	0x3dfb3866	0.122666165
115	0x3d8670c5	0.06564478
116	0x3deae8e5	0.11470202
117	0xbc83d181	-0.01609111
118	0xbd303ea7	-0.0430285
119	0xbce9abde	-0.028524335
120	0xbd55b6d2	-0.052176304
121	0xbdf117f2	-0.11772145
122	0xbb64a292	-0.0034886939
123	0xbd4b2337	-0.04959413
124	0xbb302b3d	-0.002688124
125	0xbd30a6e5	-0.043127913
126	0x3ded2929	0.11580116
127	0x3d88c459	0.06678075
128	0x3db51e66	0.08843689
129	0x3dfacb2e	0.12245785
130	0xbde80733	-0.11329498
131	0x3db63ebb	0.08898684
132	0x3bbb3b64	0.005713867
133	0xbd7a1bb4	-0.061061576
134	0xbdb5ff31	-0.088865645
135	0xbcce21fc	-0.02516269
136	0x3da579d2	0.08079876
137	0xbd7d4a05	-0.06183817
138	0xbdc2d25a	-0.095127776
139	0xbd4083b1	-0.04700059
140	0x3d3b4101	0.04571629
141	0xbbe5b5e2	-0.0070102075
142	0xbd018a23	-0.031625878
143	0xbde1cdef	-0.11025607
144	0x3b401230	0.0029307716
145	0x3deb98b1	0.11503733
146	0xbdfd4255	-0.123661675
147	0x3c10ee31	0.008845852
148	0x3dd471d8	0.103732765
149	0x3c56f127	0.013119019
150	0xbcb089d5	-0.021550098
151	0x3da29f77	0.07940572
152	0xbdb742a9	-0.08948261
153	0x3bbdfb03	0.005797745
154	0x3c20f8dc	0.009824958
155	0x3d1dd523	0.03853334
156	0x3cb258b9	0.021770822
157	0x3dab5c1a	0.08367176
158	0x3debeef8	0.11520189
159	0x3d7f93c0	0.062396765
160	0x3ab08d67	0.0013469876
161	0xbcf7908b	-0.03022029
162	0xbb3e6245	-0.0029050272
163	0xbdbfc38c	-0.093634695
164	0xbd90790a	-0.07054336
165	0x3c6a5a4d	0.014303756
166	0xbc809a33	-0.015698528
167	0x3e035266	0.12824401
168	0x3d44cee5	0.048048873
169	0xbcd43d75	-0.025908211
170	0x3d6eab51	0.05826885
171	0xbd4f74cc	-0.050648496
172	0xbd90c54a	-0.0706888
173	0x3df6f10e	0.12057696
174	0x3dfa38b9	0.1221785
175	0xbd6bfd2b	-0.057614487
176	0x3db800d5	0.08984534
177	0xbdb2641a	-0.08710499
178	0x3d181aea	0.037135042
179	0x3d04724a	0.032335557
180	0xbda19b58	-0.078909576
181	0xbc65215f	-0.013985007
182	0xbde15a43	-0.11003544
183	0x3d3dd621	0.046346787
184	0xbd938634	-0.072033316
185	0xbdf6ce08	-0.12051016
186	0xbd62e568	-0.05539456
187	0xbdf45100	-0.11929512
188	0x3de80d3e	0.11330651
189	0xbd91dc0b	-0.07122048
190	0x3dc8527d	0.097813584
191	0x3e04547c	0.12922853
192	0xbcaa1a06	-0.020764362
193	0x3d8b363d	0.067974545
194	0x3d11b8ed	0.03557675
195	0xbb742350	-0.0037252493
196	0xbd5ed704	-0.054404274
197	0x3dc2f281	0.0951891
198	0x3d0088b8	0.031380385
199	0xbd62dba9	-0.055385265
200	0xbde98004	-0.1140137
201	0x3d7c457c	0.061589703
202	0xbddd42d4	-0.10803762
203	0xbcd0945c	-0.025461368
204	0x3de5195d	0.11186478
205	0xbb493896	-0.0030703894
206	0x3d82c35e	0.063849196
207	0xbd3cb625	-0.046072144
208	0x3c1a89ab	0.009432237
209	0x3d348046	0.044067644
210	0x3cb90bba	0.0225886
211	0x3dd2c2b5	0.10291044
212	0x3d9339bb	0.071887456
213	0x3dfebdf5	0.12438575
214	0xbc50df46	-0.012748545
215	0xbe001106	-0.12506494
216	0x3d4586c8	0.04822424
217	0x3c700ec6	0.01465196
218	0x3c6baeb2	0.014384912
219	0xbdddd3dc	-0.108314246
220	0x3d5e6aba	0.054301
221	0x3dc803ae	0.09766327
222	0xbdd1ce02	-0.10244371
223	0xbdc70027	-0.09716826
224	0xbd8f51c2	-0.06998016
225	0xbd2af3cb	-0.041736405
226	0x3d746bfc	0.059673294
227	0x3d8731be	0.066012844
228	0x3db5cd85	0.0887709
229	0x3db8b521	0.090189226
230	0x3d6dc6a2	0.05805076
231	0x3d46fc35	0.048580367
232	0x3d87a9f9	0.066242166
233	0xbd8183fa	-0.06324001
234	0x3d7b9250	0.06141883
235	0x3dc810a4	0.09768799
236	0xbc0fad0f	-0.008769288
237	0x3d295fc6	0.041351102
238	0x3de37ab9	0.11107392
239	0xbd79df06	-0.061003707
240	0x3dc69b84	0.09697631
241	0xbdbaaefd	-0.091154076
242	0xbd677040	-0.056503534
243	0x3d2e9a6c	0.042627737
244	0x3de66419	0.11249561
245	0x3b845f4e	0.0040396815
246	0xbc92840a	-0.017885227
247	0xbcccb557	-0.024988813
248	0xbde121f8	-0.10992807
249	0x3c26138d	0.010136497
250	0xbda8e574	-0.0824689
251	0x3de8002e	0.11328159
252	0xbdb8d166	-0.090243146
253	0x3dd9a02e	0.10626255
254	0xbcfd853c	-0.03094732
255	0xbd45d796	-0.048301302

encoder.layers.0.linear2.weight f4 [64, 256]
0	0xbd680bf4	-0.056652024
1	0x3d0e15f4	0.034688905
2	0xbd2499a3	-0.040185582
3	0xbd0b5e29	-0.034025345
4	0xbc9d1cb5	-0.019178728
5	0xbd029e6e	-0.03188937
6	0x3d609ef4	0.05483909
7	0xbc353918	-0.0110609755
8	0x3d0452ce	0.03230553
9	0x3bf82e4e	0.0075738793
10	0xba8472ff	-0.0010105072
11	0x3c442489	0.011971601
12	0xbc9ea0db	-0.019363811
13	0xbd67fb74	-0.05663629
14	0xbd136391	-0.035983626
15	0xbd29dbb4	-0.04146929
16	0xbc4f958c	-0.012669932
17	0x3d306e36	0.043073855
18	0xbd504ec3	-0.050856363
19	0x3d4f61fd	0.05063056
20	0x3d421343	0.04738165
21	0x3d07dfcc	0.033172414
22	0x3d2f2ab4	0.042765334
23	0xbd2663f7	-0.040622678
24	0x3d46886e	0.048469953
25	0x3a6d16f2	0.00090442516
26	0xbccb9a64	-0.024853893
27	0xbc1c9c4e	-0.00955875
28	0x3d6833f9	0.05669019
29	0xba6d44ce	-0.0009051085
30	0x3c334495	0.010941644
31	0xbc3f5209	-0.011677274
32	0x3d2475b5	0.040151317
33	0xbc309259	-0.0107770795
34	0x3d34b111	0.044114176
35	0x3c73a1b3	0.014870095
36	0x3bdfd5ea	0.0068309205
37	0x3c293ceb	0.010329465
38	0x3d301ea0	0.042997956
39	0x3ce09fd5	0.027419964
40	0x3ac1791b	0.0014760824
41	0xbcd56d90	-0.02605322
42	0x3a6a212b	0.0008931334
43	0xbc773fed	-0.015090925
44	0x3d1ae2a0	0.037813783
45	0xbd02e582	-0.031957157
46	0xbd36e6cd	-0.044653703
47	0xba8d2aac	-0.0010770163
48	0xbd650155	-0.055909473
49	0xbd302f21	-0.043013696
50	0x3ba4e301	0.005031944
51	0x3d8a69c6	0.06758456
52	0x3c9876f6	0.018611412
53	0xbc85a9f9	-0.0163164
54	0x3d7c7fba	0.061645247
55	0xbc88d9d2	-0.016705427
56	0xbc8d7811	-0.017269166
57	0xbd117318	-0.035510153
58	0xbc86d9fd	-0.016461367
59	0xbca7eac8	-0.020497695
60	0xbc372f88	-0.011180766
61	0xbd0409dc	-0.032235965
62	0xbcd607e1	-0.026126804
63	0x3b346ed5	0.0027531881
64	0x3d10c74a	0.035346307
65	0x3d15cd39	0.03657267
66	0x3da197c9	0.07890279
67	0x3c4e3b47	0.012587375
68	0x3d6b94ba	0.057514884
69	0x3d411c35	0.04714604
70	0xbd28828b	-0.04114012
71	0x3c847f23	0.016173905
72	0xbc67e449	-0.0141535485
73	0x3b624a44	0.003452913
74	0xbcfccf15	-0.030860463
75	0xbd49eeea	-0.04930011
76	0x3c08d5c5	0.008351748
77	0x3d2bad3f	0.041913267
78	0x3d396edd	0.045271743
79	0x3d0d1773	0.03444619
80	0x3cea5e8f	0.028609542
81	0x3bfefe15	0.007781754
82	0x3d640c32	0.055675693
83	0x3d4bd2e6	0.049761675
84	0xbc0c1c1f	-0.0085516265
85	0xbd687942	-0.056756265
86	0x3d40a9da	0.047036983
87	0xbc581231	-0.013187931
88	0x3d10787a	0.035271145
89	0xbc91d565	-0.01780195
90	0xbc32dbe7	-0.010916687
91	0xbd841a39	-0.06450314
92	0xbd48e94f	-0.049050625
93	0xbc800cb1	-0.015631052
94	0x3d4b88cf	0.049691018
95	0xbbb9de3b	-0.005672244
96	0xbcf39ec1	-0.029738786
97	0x3c0662ae	0.008202238
98	0x3cff2394	0.031144895
99	0x3d03b30e	0.03215318
100	0xbd449f66	-0.048003577
101	0xbcd898d5	-0.026440063
102	0x3c891739	0.016734706
103	0xbd56e213	-0.052461695
104	0x3bd045c1	0.0063559716
105	0xbb752a4d	-0.0037409246
106	0x3d513949	0.051080022
107	0xbbbc512e	-0.005746982
108	0x3d5a657d	0.053319443
109	0x3c4c5e47	0.012473649
110	0x3ceb2dac	0.028708301
111	0xbd81b8ac	-0.063340515
112	0x3d90ae83	0.070645355
113	0x3cdb28a3	0.026752776
114	0xbccbc1a6	-0.024872612
115	0x3d25731d	0.040392984
116	0x3d41be9a	0.047300912
117	0xbd8f0184	-0.06982711
118	0xbce0cccb	-0.027441403
119	0x3c9c7cfb	0.019102564
120	0xbd683105	-0.056687374
121	0xbca20cb1	-0.019781442
122	0x3d4f319a	0.050584413
123	0x3bccddac	0.0062520113
124	0xbd3962b6	-0.045260154
125	0x3c46d0fc	0.012134787
126	0xbca0fd55	-0.019652048
127	0x3d3a6c4b	0.045513432
128	0x3cb16275	0.021653393
129	0x3bd91242	0.006624491
130	0x3d4efeba	0.050535895
131	0x3d0fdbb9	0.035121653
132	0x3cf14e36	0.02945624
133	0xbbb5d313	-0.0055488436
134	0xbcd1dded	-0.025618518
135	0xbd6deebc	-0.058089003
136	0x3d92c616	0.07166688
137	0xbd528899	-0.0513998
138	0x3b46c97a	0.0030332492
139	0xbd103a68	-0.03521195
140	0xb9e14275	-0.0004296486
141	0x3d228802	0.03968049
142	0xbd272a2d	-0.040811706
143	0x3cefb17b	0.029259434
144	0x39a4325e	0.00031318044
145	0xbd158766	-0.03650608
146	0x3d676f1c	0.056502447
147	0xbd18324c	-0.03715734
148	0x3be8b044	0.0071010906
149	0x37a5a454	1.9746054e-05
150	0xbc28e057	-0.010307393
151	0x3c0258bb	0.007955725
152	0x3d46b9f4	0.048517182
153	0xbc823b17	-0.015897317
154	0x3d9cda06	0.07658772
155	0x3d90c342	0.070684925
156	0x3bcaf83b	0.006194142
157	0x3d050871	0.032478753
158	0xbc36350b	-0.011121045
159	0xbd29ce38	-0.04145643
160	0x3c40abf4	0.011759747
161	0xbcaafaea	-0.020871598
162	0x3d1fac09	0.038982425
163	0x3ba8bb52	0.0051492834
164	0x3d5371cc	0.051622197
165	0xbc444f73	-0.011981833
166	0x3d53f0ce	0.05174332
167	0x3d4e7cfa	0.050412156
168	0xbce12573	-0.027483677
169	0x3d5dfbfc	0.05419539
170	0x3d0e9c2e	0.034816913
171	0xbd315b1e	-0.043299787
172	0xbd804718	-0.0626356
173	0x3d679393	0.056537222
174	0xbce9d5ea	-0.028544385
175	0xbc104e8e	-0.008807791
176	0x3c7bd262	0.015369983
177	0x3d4c0c3b	0.04981635
178	0x3d16542a	0.03670136
179	0x3d2f1547	0.0427449
180	0x3d0059c2	0.0313356
181	0x3cc8acc9	0.024496453
182	0xbccebe2c	-0.025237165
183	0xbd0929f9	-0.033487294
184	0x3c25c03d	0.010116634
185	0x3d99ab86	0.075034186
186	0xbbd2680a	-0.006421094
187	0x3cb9b48b	0.022669097
188	0xbd5f5cdf	-0.05453193
189	0xbb9f0b75	-0.0048536607
190	0xbd3ac051	-0.045593563
191	0xbc68d6e7	-0.014211393
192	0xbca63511	-0.020288976
193	0xbce7dee7	-0.02830453
194	0x3bd04393	0.0063557117
195	0x3d5b82f4	0.053591684
196	0x3c873f11	0.016509565
197	0xbcc2dfa6	-0.023788285
198	0x3c15a5bc	0.009133752
199	0x3c7d9f52	0.015479879
200	0x3d8bd2b1	0.068272956
201	0x3b795041	0.003804222
202	0x3c9c43f3	0.01907537
203	0x3cd347fe	0.025791164
204	0x3d88928d	0.06668577
205	0x3d82399d	0.06358645
206	0x3c8310be	0.015999194
207	0xbd8050a9	-0.06265385
208	0xbd0b7c2c	-0.034053966
209	0xbcb6d328	-0.022317484
210	0xbc1e0096	-0.009643694
211	0xbca0bb38	-0.019620523
212	0xbcbc60fe	-0.022995468
213	0x3d0c53a2	0.034259446
214	0x3d02c7a5	0.031928677
215	0x3d234b2c	0.03986661
216	0xbce4f5ad	-0.027949179
217	0x3bedb62c	0.0072543826
218	0x3d45f5a3	0.04832996
219	0xbcd7a316	-0.026322883
220	0x3d6529e1	0.055948142
221	0xbccd41d2	-0.0250558
222	0xbca7bce5	-0.020475814
223	0xbd839249	-0.06424386
224	0x3d2af79d	0.04174005
225	0xbbba1f42	-0.0056799958
226	0xbd399b25	-0.045313973
227	0xba8d8581	-0.0010797234
228	0x3cad98b0	0.021190971
229	0x3d05b3ce	0.03264218
230	0xbc92ab97	-0.017904086
231	0x3d94f253	0.07272782
232	0xba123868	-0.0005577863
233	0xbd2bd406	-0.04195025
234	0xbcd253a1	-0.025674643
235	0x3cb1ccea	0.021704156
236	0x3d23b566	0.039967917
237	0xbd522ff9	-0.05131528
238	0xbd67063e	-0.056402437
239	0x3c77a67b	0.015115376
240	0xbcd463e3	-0.025926536
241	0xbc33f90e	-0.010984672
242	0xbbe7f115	-0.0070782998
243	0xbd4e1f1c	-0.050322637
244	0xbc877f1e	-0.016540106
245	0xbc236768	-0.009973384
246	0x3d8156bb	0.06315371
247	0xbca7ff5a	-0.020507503
248	0xbd43f87b	-0.04784439
249	0x3d660ee8	0.05616656
250	0xbd22de84	-0.03976299
251	0xbc5c1a56	-0.013434013
252	0x3cdbdf7a	0.02683996
253	0xbca6475e	-0.020297702
254	0x3d7777f2	0.060417123
255	0x3be25a67	0.0069077495
