save_results/autoformer_short_term_90d_run5.pt (torch, 437661 bytes, 28 tensors)

input_embedding.weight f4 [64, 12]
0	0x3cf3cf46	0.029761922
1	0x3e7c2857	0.24624763
2	0x3e2d19e5	0.16904409
3	0xbe36963a	-0.17830744
4	0xbe7661c8	-0.24060738
5	0xbd900830	-0.07032812
6	0xbd5efa0b	-0.05443768
7	0xbd92da08	-0.071704924
8	0xbe88dc8b	-0.2673076
9	0x3e1a2c49	0.15055956
10	0x3e869864	0.2628814
11	0xbc9c7b76	-0.01910184
12	0x3e395dd5	0.181022
13	0x3e805f67	0.25072786
14	0x3e0dfa9a	0.13865128
15	0x3e35ae3d	0.17742248
16	0x3e28e3db	0.1649317
17	0x3e3ae624	0.18251854
18	0xbd62a8e1	-0.055336837
19	0x3d7affee	0.06127923
20	0xbc0c4604	-0.008561615
21	0x3dbad4d6	0.091226265
22	0x3a9deb8e	0.001204835
23	0x3deb5a9d	0.114918925
24	0xbe187318	-0.14887655
25	0x3e14d93c	0.14535993
26	0xbe5b9347	-0.214429
27	0x3e2f0805	0.17092903
28	0x3df3f05e	0.11911081
29	0xbe86d781	-0.2633629
30	0x3db30d27	0.08742743
31	0x3d2b4269	0.04181138
32	0xbd5f8b71	-0.05457634
33	0x3d7cedf4	0.061750367
34	0x3e7947a0	0.24343729
35	0xbe0ad264	-0.1355682
36	0xbe461855	-0.1934522
37	0xbe42f4e9	-0.19038738
38	0x3e6b3269	0.22968449
39	0xbc9907e5	-0.018680522
40	0x3e170c4e	0.14750788
41	0x3e73c4ae	0.23805496
42	0xbe0c9808	-0.1372987
43	0x3e3e78aa	0.18600717
44	0xbe02321b	-0.12714426
45	0xbe123fc5	-0.14282139
46	0xbe904c22	-0.28183085
47	0x3d83e096	0.06439321
48	0x3e31dd7f	0.1736965
49	0xbe572cd9	-0.21013202
50	0xbdfdbe31	-0.12389792
51	0xbe63f44c	-0.2226116
52	0xbe229472	-0.1587694
53	0xbe329a4c	-0.17441672
54	0xbd7672c0	-0.060168028
55	0xbdcafa8f	-0.099110715
56	0xbe84a6d8	-0.25908542
57	0x3e5bf301	0.21479417
58	0xbc801779	-0.015636193
59	0x3e4a50a5	0.19757326
60	0x3e035c5b	0.128282
61	0xbe53ffb8	-0.20703018
62	0xbe7174c0	-0.23579693
63	0xbe8be087	-0.27319738
64	0x3e684dfe	0.22686002
65	0xbd9195f1	-0.07108677
66	0x3e4ea0ce	0.2017853
67	0x3e7c6fb9	0.24651994
68	0xbe8feffb	-0.28112778
69	0xbdcdca02	-0.100482956
70	0x3e142380	0.14466667
71	0x3e9174ab	0.28409323
72	0x3e340fc1	0.17584135
73	0xbda107c5	-0.0786281
74	0xbca32d8e	-0.019919183
75	0x3e7de125	0.24792917
76	0xbe5054e0	-0.20344877
77	0x3dff6953	0.12471261
78	0x3d1f6f34	0.03892441
79	0xbe1389db	-0.14408056
80	0x3d22f1f1	0.039781515
81	0x3db38961	0.08766437
82	0x3e470698	0.19436109
83	0xbe846602	-0.25859076
84	0xbe8ecdb6	-0.2789132
85	0x3d0b0be3	0.033946883
86	0xbd5cf95f	-0.053948756
87	0x3dddad69	0.10824091
88	0x3e2df9c8	0.16989815
89	0x3e02cb44	0.12772852
90	0x3ca7f423	0.020502156
91	0xbe177b8e	-0.14793226
92	0xbe8215bd	-0.2540721
93	0xbdc4bac0	-0.09605932
94	0xbdcff323	-0.101537965
95	0x3daa68f4	0.083207995
96	0x3da4e790	0.080519795
97	0x3e2e8525	0.17042978
98	0x3e23bc42	0.15989783
99	0x3cf73ae6	0.030179452
100	0xbe177338	-0.14790046
101	0x3e1d8d63	0.15385966
102	0x3e821617	0.25407478
103	0xbaa0a5e9	-0.0012256476
104	0x3ccfe4d7	0.025377674
105	0xbe87d4e4	-0.2652961
106	0xbe74b219	-0.23896064
107	0x3e851e7e	0.25999826
108	0xbd133a12	-0.035944052
109	0x3e4e5d69	0.2015282
110	0x3d0f852f	0.035039123
111	0x3da83e14	0.082149655
112	0x3e667495	0.2250541
113	0x3dc3e724	0.09565571
114	0xbaa146ab	-0.0012304386
115	0x3df339d7	0.118762664
116	0xbe8a7251	-0.27040341
117	0x3dbaa79a	0.09113999
118	0xbe633ff7	-0.2219237
119	0x3e28e84b	0.16494863
120	0x3e7af541	0.2450762
121	0x3e4925d2	0.19643334
122	0xbdbd6044	-0.09246877
123	0x3e01962c	0.12654942
124	0xbd2ae96e	-0.041726522
125	0xbdbc2b29	-0.0918792
126	0xbe2be5ef	-0.16786931
127	0xbda0d26a	-0.07852633
128	0x3e843d15	0.25827852
129	0x3d854b2f	0.06508481
130	0xbe141389	-0.14460577
131	0x3e9337d2	0.28753525
132	0xbbc4fa23	-0.006011264
133	0xbdbedc41	-0.09319354
134	0xbd0dc08e	-0.034607463
135	0x3e2c9e83	0.16857342
136	0xbe809fb6	-0.2512185
137	0x3e50cfb7	0.20391737
138	0xbdd4121b	-0.10355016
139	0x3cba247b	0.022722473
140	0x3e2cfd52	0.16893509
141	0xbc761e04	-0.015021805
142	0x3e7fbd38	0.24974525
143	0x3dc2f381	0.09519101
144	0xbe2e65b6	-0.17030987
145	0xbdea99b8	-0.11455101
146	0x3dd5fc3d	0.10448501
147	0xbe119fb1	-0.14221074
148	0xbe502a26	-0.20328578
149	0xbe5ab1e9	-0.2135693
150	0x3e1a4d4c	0.15068549
151	0xbc9b2590	-0.01893881
152	0xbe4d039d	-0.2002091
153	0xbe5dcd51	-0.21660353
154	0xbda0f2ba	-0.078587964
155	0x3d88b16e	0.06674467
156	0x3e7cfe85	0.24706466
157	0xbdab2df4	-0.08358374
158	0xbde0ec37	-0.109825544
159	0xbdf5ba71	-0.119984515
160	0x3d88ca54	0.06679216
161	0xbd3f760a	-0.04674343
162	0xbe35010c	-0.1767618
163	0xbe8bf372	-0.27334172
164	0x3e66996d	0.22519465
165	0xbe246eb3	-0.16057853
166	0x3d8f40d8	0.0699479
167	0xbd41a74f	-0.0472787
168	0xbe7953bc	-0.24348348
169	0x3e53716e	0.20648739
170	0x3e602b62	0.21891549
171	0x3e1e3f33	0.15453796
172	0x3d382a8a	0.044962443
173	0xbe2c9fcd	-0.16857834
174	0x3e22d9cb	0.15903394
175	0x3de54fdc	0.111968726
176	0xbdba3cd2	-0.09093632
177	0x3df2082e	0.118179664
178	0x3e8957b5	0.26824728
179	0xbe448df1	-0.19194771
180	0x3e75d637	0.24007498
181	0x3c4ad859	0.012380683
182	0x3d5b58e9	0.05355159
183	0x3df8dcdd	0.12151501
184	0x3ddcf8a3	0.10789611
185	0x3c642b46	0.013926333
186	0x3e4e2045	0.20129497
187	0xbe4f91a0	-0.20270395
188	0xbe387d08	-0.18016446
189	0xbd6457ca	-0.055747785
190	0x3d4b99eb	0.049707334
191	0xbd8bea2a	-0.068317726
192	0xbe596e2a	-0.2123343
193	0x3e3d3d74	0.18480474
194	0x3e6b18ea	0.22958723
195	0xbe87fb77	-0.2655904
196	0xbd924735	-0.07142488
197	0xbe0409f9	-0.1289443
198	0xbe2697d1	-0.16268851
199	0x3de57acd	0.11205063
200	0xbe7b426d	-0.24537058
201	0x3e4108dc	0.18851036
202	0x3deeb92b	0.11656412
203	0x3e821469	0.25406197
204	0xbe078c16	-0.13237032
205	0xbdf16920	-0.11787629
206	0xbe1a86b4	-0.15090448
207	0xbe052958	-0.13004053
208	0xbdc9b398	-0.09848708
209	0xbe13415c	-0.14380401
210	0x3e7b187a	0.24521056
211	0xba350cf3	-0.00069065316
212	0xbe1510a9	-0.14557137
213	0x3e1355ce	0.143882
214	0x3d4385b3	0.047734927
215	0x3e838cce	0.25693363
216	0xbd548951	-0.051888768
217	0x3e90e2df	0.2829809
218	0xbe56486b	-0.20926063
219	0xbe81518a	-0.25257522
220	0x3e8cc024	0.27490342
221	0x3e7350c0	0.23761272
222	0x3e50de71	0.20397355
223	0x3e8c76d4	0.2743441
224	0xbd24aa9d	-0.040201772
225	0xbd76826a	-0.060182966
226	0x3dfaf6e8	0.12254125
227	0xbe29ff29	-0.16601242
228	0xbde9536e	-0.11392866
229	0xbde11db9	-0.10991997
230	0xbcf5b242	-0.029992227
231	0xbe519acc	-0.20469207
232	0xbe8774e1	-0.2645636
233	0xbe15d226	-0.14630947
234	0xbe170f6e	-0.1475198
235	0x3df52749	0.11970384
236	0xbdfd5164	-0.1236904
237	0x3df2eee1	0.11861969
238	0x3cce28b6	0.025165897
239	0x3e03e243	0.12879281
240	0xbca9e279	-0.020737873
241	0x3d23d667	0.039999392
242	0xbdd56e5a	-0.104214385
243	0x3e683c8d	0.22679348
244	0xbe5de05d	-0.21667619
245	0x3d63480a	0.055488624
246	0xbe30f66b	-0.17281501
247	0xbe825b4d	-0.25460282
248	0x3e518c3c	0.20463651
249	0xbe37cd08	-0.17949307
250	0x3d1fea2b	0.03904168
251	0xbe614f0e	-0.22002813
252	0xbde09d58	-0.10967511
253	0x3e77dbc4	0.24204928
254	0xbc79f33b	-0.015255745
255	0xbcb6fb29	-0.02233656

input_embedding.bias f4 [64]
0	0xbe587e4c	-0.21141928
1	0xbe7a5307	-0.24445735
2	0x3e23e100	0.160038
3	0x3ca56eb4	0.020194389
4	0xbe8ce3cc	-0.27517545
5	0x3e83ac43	0.25717363
6	0xbe56beea	-0.20971265
7	0x3e26cd7b	0.16289322
8	0x3e5e9255	0.21735509
9	0x3db40c96	0.08791463
10	0xbbd3a376	-0.006458695
11	0xbe3de364	-0.18543774
12	0x3e046f9b	0.12933199
13	0x3dde07f1	0.108413585
14	0x3dcf35e8	0.10117704
15	0x3e81d422	0.25357157
16	0xbe12e0d0	-0.14343572
17	0xbda766ac	-0.0817388
18	0x3e3ba240	0.18323612
19	0x3e871359	0.2638195
20	0x3d250a73	0.04029317
21	0xbe367c01	-0.17820741
22	0xbd5f0490	-0.05444771
23	0xbe71691a	-0.2357525
24	0xbd079e37	-0.03310987
25	0xbe8c223a	-0.27369863
26	0xbdc0647e	-0.09394167
27	0x3e8c57ab	0.27410635
28	0xbe018f03	-0.12652211
29	0x3e8206f7	0.2539594
30	0x3e768790	0.2407515
31	0x3e29a560	0.16566992
32	0x3e0da1d9	0.13831271
33	0xbd9b728e	-0.07590209
34	0x3dcf6b18	0.101278484
35	0xbd9e22ac	-0.07721457
36	0x3dcf9ec2	0.101377025
37	0x3e0b9392	0.13630512
38	0x3df9b8e6	0.1219347
39	0x3e63872c	0.22219533
40	0x3e2e73d8	0.17036378
41	0xbdf67d48	-0.12035614
42	0xbe33a7f5	-0.1754454
43	0xbe7cc044	-0.24682719
44	0xbe7536e5	-0.23946722
45	0xbe0381d6	-0.12842497
46	0xbe27f83f	-0.16403292
47	0x3dd800e2	0.105470434
48	0x3c8ddbb0	0.01731667
49	0x3da502c3	0.080571674
50	0x3e62e2e2	0.22156861
51	0x3e795c69	0.24351658
52	0x3c837ff9	0.016052233
53	0x3e54b001	0.20770265
54	0xbc4f905a	-0.012668693
55	0x3ddb4dad	0.10708175
56	0x3d160151	0.03662235
57	0xbc94bb75	-0.018155793
58	0xbe12a3fc	-0.14320368
59	0x3e449dac	0.19200772
60	0x3d3d8c47	0.046276357
61	0xbe85b2e8	-0.26113057
62	0x3d06782c	0.03282945
63	0xbd0da9c2	-0.03458572

encoder.layers.0.self_attn.in_proj_weight f4 [192, 64]
0	0xbe0643d3	-0.1311181
1	0x3da079ee	0.07835756
2	0xbd8b0c49	-0.067894526
3	0xbd74a8f1	-0.059731428
4	0x3d9a4e14	0.075344235
5	0x3e2c0b45	0.16801174
6	0xbe209ba2	-0.15684369
7	0xbbe5731f	-0.007002249
8	0x3e228a7d	0.15873142
9	0x3d3315ee	0.043722086
10	0x3dc5aca1	0.09652067
11	0x3e063faa	0.13110223
12	0x3d31c90f	0.043404635
13	0xbd73f8f8	-0.059563607
14	0x3da3dcf4	0.08001128
15	0x3e4a88f8	0.19778812
16	0xbd5186c3	-0.05115391
17	0xbca262d1	-0.01982251
18	0x3da7c74b	0.08192309
19	0x3c8a3dac	0.01687511
20	0x3d5c702a	0.053817905
21	0x3dc48c84	0.09597114
22	0x3caf3121	0.021385731
23	0xbc7e2f06	-0.015514141
24	0x3b98fc54	0.0046687517
25	0xbdfb8507	-0.12281232
26	0xbe4333f7	-0.19062792
27	0x3c111652	0.008855419
28	0xbc25b577	-0.010114065
29	0x3dae0d7f	0.08498668
30	0x3e5a42ba	0.21314517
31	0x3dcf593d	0.10124443
32	0x3dc0d21b	0.094150744
33	0x3deb4050	0.11486876
34	0x3e331b98	0.17490995
35	0x3d50610f	0.050873812
36	0x3cec6066	0.02885456
37	0x3dbb04d5	0.09131781
38	0xbd9c3166	-0.076266095
39	0x3e8a5e80	0.27025223
40	0x3d4482ea	0.047976412
41	0x3d4d3494	0.05009897
42	0x3e214b0e	0.15751287
43	0x3bf52278	0.0074809156
44	0x3d74d3d9	0.059772346
45	0x3d88098a	0.066424444
46	0xbe238998	-0.15970457
47	0x3d8ed04c	0.06973323
48	0x3dd65bd0	0.104667306
49	0x3c88db62	0.016706172
50	0xbb9b1301	-0.00473249
51	0x3c5a25c5	0.013314669
52	0x3d837344	0.064184695
53	0x3d711e6f	0.058866914
54	0xbe09808a	-0.1342794
55	0xbd202147	-0.039094236
56	0x3dedba05	0.11607746
57	0x3c0fc23c	0.008774336
58	0x3c8dafe3	0.017295783
59	0x3d6ac0ce	0.05731278
60	0x3d8ea6d6	0.06965415
61	0xbe210c9e	-0.1572747
62	0xbd570730	-0.05249709
63	0xbb1fc77a	-0.0024380372
64	0x3c4a1e53	0.012336331
65	0xbca7d66e	-0.02048799
66	0x3c94d3b8	0.018167362
67	0xbd8ac7cb	-0.06776389
68	0x3cd80cf2	0.02637336
69	0xbdfd427f	-0.12366199
70	0x3e560eaa	0.20904031
71	0xbe4ecb87	-0.20194827
72	0xbdf84e39	-0.12124295
73	0xbd457149	-0.04820374
74	0xbe734c1a	-0.23759499
75	0x3cbf9555	0.023386637
76	0xbdc74784	-0.097304374
77	0xbe2f1a31	-0.17099835
78	0x3c1d9ddf	0.009620159
79	0xbe56a270	-0.20960402
80	0x3d4bb84b	0.049736302
81	0x3d667d0a	0.05627159
82	0xbdbbb3f1	-0.091651805
83	0x3c874d02	0.016516212
84	0x3d62f122	0.055405743
85	0x3d224228	0.039613873
86	0xbda21c04	-0.079155
87	0x3d612ca8	0.05497423
88	0x3da0e741	0.07856608
89	0x3dcc54e0	0.09977126
90	0x3e434089	0.19067587
91	0xbe354536	-0.17702183
92	0x3d52ed9b	0.05149613
93	0xbe8f28cc	-0.27960813
94	0xbe44c628	-0.19216216
95	0xbba2d22e	-0.004968903
96	0xbe6ba2a9	-0.23011269
97	0xbd8ce9a5	-0.06880502
98	0xbd8b5864	-0.068039685
99	0xbdadf701	-0.08494378
100	0xbd8c7c5f	-0.068596594
101	0xbe629e9e	-0.2213082
102	0xbd2a7985	-0.041619796
103	0xbe79ad18	-0.24382436
104	0xbc0d9edf	-0.008643835
105	0x3cd05ce5	0.02543492
106	0x3e024376	0.12721047
107	0xbd802802	-0.06257631
108	0x3d405465	0.046955485
109	0xbc92898e	-0.017887857
110	0xbc9b4ff7	-0.018959029
111	0x3db0d1c2	0.08633758
112	0xbca04f19	-0.019568967
113	0xbe04096e	-0.12894222
114	0xbe8cce26	-0.2750103
115	0xbe8fd42c	-0.28091562
116	0x3d51c50b	0.051213305
117	0x3d84f900	0.064928055
118	0x3ccf8d3b	0.025335899
119	0x3c03620c	0.008018982
120	0x3cf5f1c7	0.030022515
121	0x3e1dd998	0.15415037
122	0xbcaceab7	-0.021108015
123	0xbe2036f5	-0.15645964
124	0xbe8eb7f4	-0.2787472
125	0x3e5daf87	0.2164899
126	0xbe0fe051	-0.14050414
127	0xbdd0d6e5	-0.10197238
128	0x3cebbfd7	0.028778
129	0xbcb7df11	-0.022445234
130	0x3e375388	0.17902958
131	0xbcd49640	-0.025950551
132	0xbe289525	-0.16463144
133	0x3d03e65d	0.032202113
134	0xbe43c470	-0.19117904
135	0xbd93dbeb	-0.072196804
136	0x3e4d38b8	0.20041168
137	0x3e8206e4	0.25395882
138	0x3dc65bbb	0.09685465
139	0x3c99a87b	0.018757096
140	0x3d5f5c5f	0.05453145
141	0x3d5ab9d0	0.05339986
142	0xbd1e93c2	-0.03871513
143	0x3e0a27ba	0.13491717
144	0xbe5fd0f9	-0.2185706
145	0xbdeabceb	-0.114618145
146	0x3d8fd460	0.07022929
147	0xbcfd7b8c	-0.0309427
148	0x3bde9119	0.0067921993
149	0xbb1edb58	-0.0024239626
150	0x3e88bab5	0.26704946
151	0xbdec116d	-0.11526761
152	0x3e3ca97c	0.18424028
153	0xbe0234dd	-0.12715478
154	0xbe88b659	-0.2670162
155	0x3e2f4550	0.17116284
156	0xbe0633c5	-0.13105686
157	0xbb8b6a7c	-0.0042546373
158	0x3e76d653	0.24105196
159	0x3d8ab6d9	0.06773157
160	0x3d78f28d	0.06077819
161	0x3db55bb5	0.08855382
162	0x3d80aa67	0.06282502
163	0x3df56bb5	0.11983434
164	0x3d5d9cef	0.05410474
165	0x3e9be87e	0.30450815
166	0x3ce3d65f	0.027812181
167	0x3e94462a	0.2895978
168	0x3c4f7d74	0.012664188
169	0xbda343cc	-0.079719156
170	0x3d68d370	0.056842268
171	0x3d3aa566	0.045567892
172	0x3e859e84	0.260975
173	0xbe745aaa	-0.2386271
174	0x3a8b090a	0.0010607552
175	0xbdb4cecc	-0.08828506
176	0x3df94bcc	0.1217266
177	0x3db33a86	0.08751397
178	0x3d034aff	0.032053944
179	0x3e79d641	0.24398138
180	0xbe3e885b	-0.18606703
181	0x3d5494d1	0.051899735
182	0x3b59dda7	0.0033243687
183	0x3e7c3756	0.24630484
184	0x3d5d2590	0.0539909
185	0xbdc25ebf	-0.09490728
186	0xbd86e46f	-0.06586539
187	0xbc3645b3	-0.011125016
188	0x3cf63f33	0.030059433
189	0xbdc71d04	-0.09722331
190	0x3e7ac65e	0.24489734
191	0xbd3cf275	-0.046129663
192	0x3c031b81	0.008002163
193	0x3d47a8e0	0.048745036
194	0xbb6757c6	-0.003530012
195	0xbde0125e	-0.10941003
196	0xbdd69667	-0.10477906
197	0x3e619a46	0.22031507
198	0xbdaab4bf	-0.08335256
199	0x3c8a0beb	0.016851386
200	0x3db68ab6	0.08913176
201	0xbc1f1f63	-0.009712073
202	0xba9084f8	-0.0011025956
203	0x3d0e6d1d	0.034772027
204	0xbe595e92	-0.21227482
205	0x3df88b12	0.121359006
206	0xbd5a22a2	-0.053255685
207	0x3d236824	0.039894238
208	0xbe09d695	-0.13460763
209	0xbc40a6d2	-0.011758523
210	0x3e316dee	0.17327091
211	0x3df91de5	0.12163905
212	0xbd4b2e05	-0.049604435
213	0x3cde3692	0.02712563
214	0x3e03f50f	0.12886451
215	0xbe5aa1a8	-0.2135073
216	0xbd71a71d	-0.058997262
217	0xbea3f0f3	-0.32019767
218	0xbd7dcc61	-0.06196249
219	0x3e7952da	0.24348012
220	0xbe6350fa	-0.22198859
221	0x3e05bf74	0.13061315
222	0x3e23b7f8	0.15988147
223	0x3d08612e	0.033295803
224	0x3e836e59	0.25670126
225	0xbdd33209	-0.10312278
226	0x3d39575f	0.04524934
227	0x3db1b5af	0.086772315
228	0x3d855ae6	0.06511478
229	0x3dfe8ccf	0.12429201
230	0xbd114771	-0.035468522
231	0x3e87224b	0.2639335
232	0x3e4cff7e	0.20019338
233	0x3e31188e	0.17294523
234	0xbd64e8de	-0.055886142
235	0x3d0c7c29	0.034298096
236	0xbc527451	-0.012845115
237	0xbdc5403b	-0.096313916
238	0xbe147738	-0.14498603
239	0x3c0e6363	0.008690688
240	0x3d20c9a7	0.03925481
241	0x3de11af2	0.109914675
242	0x3e3d5177	0.18488108
243	0x3e2fbd7a	0.17162123
244	0xbc32f2e5	-0.010922168
245	0x3cbb3572	0.022852633
246	0xbe2e47b5	-0.17019542
247	0x3e4f3017	0.20233189
248	0x3e107972	0.14108828
249	0xbd1a39f5	-0.03765293
250	0xbe3cbe8f	-0.18432067
251	0x3de8600b	0.11346444
252	0x3e00d6b4	0.12581903
253	0xbdfc297e	-0.123126015
254	0x3e78842c	0.2426917
255	0x3d898d8a	0.067164496

encoder.layers.0.self_attn.in_proj_bias f4 [192]
0	0x3cd99830	0.026561826
1	0xbd5c42a5	-0.053774495
2	0x3dcd829b	0.10034677
3	0x3dc44c36	0.095848486
4	0x3dc9a9f3	0.09846868
5	0x3df6fb3a	0.120596364
6	0xbde6c3f9	-0.112678476
7	0xbdd508f0	-0.10402095
8	0x3dfb419a	0.12268372
9	0x3c850499	0.016237544
10	0xbe1168bf	-0.14200114
11	0xbcf9a4db	-0.030474117
12	0x3dc32284	0.09528068
13	0x3dc972b2	0.098363295
14	0x3da10388	0.07862002
15	0xbde6e176	-0.11273472
16	0xbd95d78e	-0.073165044
17	0x3dbfa30c	0.093572706
18	0x3c95e09c	0.018295579
19	0xbda06eff	-0.07833671
20	0xbd2c9b9d	-0.042140592
21	0xbcb7fee8	-0.022460416
22	0xbd07f712	-0.03319461
23	0x3d446267	0.047945406
24	0x3cf57a3f	0.029965518
25	0x3cd00c23	0.025396412
26	0x3d804526	0.06263189
27	0xbd875cb2	-0.06609477
28	0x3b9ea1c4	0.0048410613
29	0x3d0bf906	0.034173034
30	0x3c691771	0.01422678
31	0xbdbd7ce0	-0.09252334
32	0xbd0d178a	-0.034446277
33	0x3d17e63c	0.037084803
34	0x3d5ef9e3	0.05443753
35	0x3d80ba6c	0.06285557
36	0x39e5e466	0.00043848454
37	0x3d8b4513	0.06800284
38	0x3db552af	0.08853661
39	0xbcc57f25	-0.024108479
40	0xbd109d47	-0.03530624
41	0xbd75370e	-0.059866957
42	0xbcd42078	-0.025894389
43	0x3d3c64b2	0.045994468
44	0x3d3e19ea	0.046411432
45	0xbd5b3ebb	-0.05352662
46	0x3d56d8d5	0.05245288
47	0xbd1d874b	-0.038459104
48	0xbbdc1e5a	-0.0067174854
49	0x3d37734e	0.044787697
50	0xbbea832e	-0.007156751
51	0x3bedc3bf	0.007256001
52	0x3c02d81b	0.007986094
53	0xbd0323ab	-0.032016438
54	0x3c487db1	0.012236998
55	0x3d5759f9	0.05257604
56	0xbbff6d56	-0.0077950163
57	0xbd0c17a0	-0.034202218
58	0xbc123bda	-0.008925403
59	0x3cca3caa	0.02468713
60	0x3a763501	0.00093920535
61	0xbcfbbae2	-0.030728761
62	0x3bb77480	0.0055986047
63	0xbb7a8717	-0.0038227492
64	0xb041149b	-7.0242273e-10
65	0x34a6d493	3.1074578e-07
66	0x34d6b97a	3.9995558e-07
67	0xb56abf48	-8.7450144e-07
68	0xb5248b12	-6.1297135e-07
69	0xb60e98ad	-2.1248518e-06
70	0x352f5ec2	6.533047e-07
71	0x35522ab6	7.829325e-07
72	0xb37a9922	-5.8346934e-08
73	0xb51dcd46	-5.878577e-07
74	0x343f0604	1.779045e-07
75	0x35678a99	8.625589e-07
76	0xb5cf1d67	-1.5431259e-06
77	0xb5aafea5	-1.2740098e-06
78	0x3483db57	2.4560242e-07
79	0xb41609e8	-1.3973442e-07
80	0xb5fcf8a1	-1.8847824e-06
81	0x3687a125	4.042073e-06
82	0x34819696	2.4137688e-07
83	0xb5a76b84	-1.2473761e-06
84	0xb613629c	-2.1962105e-06
85	0xb5d1df80	-1.563676e-06
86	0xb603c6fa	-1.963634e-06
87	0x35bc9844	1.4051407e-06
88	0x36356d6f	2.70348e-06
89	0x35eaafde	1.7485543e-06
90	0x361653c6	2.2400504e-06
91	0xb6142740	-2.2076565e-06
92	0x35166ef8	5.6040835e-07
93	0x35de0d6a	1.6544193e-06
94	0x3564954e	8.5153886e-07
95	0xb5a90e93	-1.2595723e-06
96	0xb5b56cd9	-1.351723e-06
97	0x35bb4be3	1.3954672e-06
98	0x3549ea77	7.5219526e-07
99	0xb5b40a52	-1.3414049e-06
100	0xb50a0f19	-5.1430976e-07
101	0x34b05b82	3.2849135e-07
102	0x34e3c848	4.242777e-07
103	0xb2a59310	-1.9275404e-08
104	0x35014625	4.815832e-07
105	0x3552b1c2	7.848977e-07
106	0xb583318b	-9.77468e-07
107	0x3501622d	4.819911e-07
108	0xb4e3a3dd	-4.240127e-07
109	0xb54f94b9	-7.732993e-07
110	0xb45b370e	-2.0415993e-07
111	0xb54d5179	-7.648701e-07
112	0x33bfaf14	8.925977e-08
113	0x3443c304	1.8231736e-07
114	0xb49845d3	-2.836301e-07
115	0xb51a7b50	-5.7548914e-07
116	0xb44f57d0	-1.9310323e-07
117	0x340c8fd4	1.309084e-07
118	0x33aec366	8.138049e-08
119	0x34799dba	2.3247313e-07
120	0x35fc1f1c	1.8784517e-06
121	0x340f2e1c	1.3334687e-07
122	0xb5265dcf	-6.197633e-07
123	0xb533e8fe	-6.7021745e-07
124	0x356e0ab8	8.8677507e-07
125	0x34e29b7f	4.220892e-07
126	0xb522ee2a	-6.069628e-07
127	0x34f18855	4.4988943e-07
128	0x3944ce8f	0.00018768966
129	0xbb5339c0	-0.0032230467
130	0xbc2f9c8f	-0.010718479
131	0x3c3a3bac	0.011366766
132	0xbacbec06	-0.0015558011
133	0x3b6c92f7	0.003609834
134	0xbbb8b811	-0.005637177
135	0xbc80652e	-0.015673246
136	0xbb268a90	-0.002541218
137	0xbafd75f9	-0.0019337527
138	0x3bcbdfdd	0.006221755
139	0xbc12ad8e	-0.0089525115
140	0x3ad16961	0.001597684
141	0xbc446063	-0.011985871
142	0xba908329	-0.0011025417
143	0xbaa3ce30	-0.0012497362
144	0x3c45aa10	0.012064472
145	0xbba9352f	-0.0051638107
146	0x3c5e89ed	0.013582689
147	0xbae2d808	-0.0017306814
148	0x3c3711e2	0.011173697
149	0x3b581870	0.003297355
150	0x3af773cf	0.0018879118
151	0x3ad2ed0a	0.0016092372
152	0xbbee1315	-0.0072654583
153	0x3c2c2aaa	0.010508219
154	0xbba49ed9	-0.005023819
155	0xbb8fc61e	-0.004387631
156	0xbb17e7c6	-0.002317892
157	0x3a6c13f9	0.00090056617
158	0x3c0f1ca6	0.008734858
159	0xbb332963	-0.00273379
160	0x3caf9b5f	0.021436391
161	0x3c2694d8	0.010167323
162	0xbc1b50c2	-0.009479703
163	0x3b956ac0	0.0045598447
164	0xbb4cd698	-0.0031255838
165	0x3b82d7db	0.003993017
166	0x3c0016ed	0.007817966
167	0x3c14e0f1	0.009086833
168	0xbc5cb59b	-0.0134710325
169	0xba99fc13	-0.0011748098
170	0x3c5d82f5	0.013519992
171	0x3c20c3f2	0.009812342
172	0x3bdbf1b4	0.006712163
173	0x3bc48cca	0.0059982287
174	0x3a672e52	0.0008818853
175	0x3bb7ff1d	0.0056151287
176	0xbb3a541a	-0.0028431476
177	0x3bccdce8	0.00625192
178	0xbc8db449	-0.01729788
179	0xbb9e3999	-0.0048286435
180	0xbc4bb06f	-0.012432202
181	0xbbfcb00c	-0.007711416
182	0x3b8a9d1d	0.004230155
183	0x3c0dfb01	0.008665801
184	0xbbf99c40	-0.0076175034
185	0x3b927d90	0.0044705346
186	0xbc11ee62	-0.008906933
187	0xbc206571	-0.0097898105
188	0xbb987ef7	-0.0046538073
189	0xbab68ac6	-0.0013926856
190	0x3c826e43	0.015921718
191	0x3c9f7160	0.019463241

encoder.layers.0.self_attn.out_proj.weight f4 [64, 64]
0	0xbd257db1	-0.04040307
1	0x3df1ed38	0.11812824
2	0xbdd8dd1b	-0.105890475
3	0xbd133257	-0.03593668
4	0x3d9b436f	0.07581221
5	0x3d4c9d08	0.049954444
6	0xbd8b08e2	-0.06788804
7	0x3cd11f1d	0.025527531
8	0x3d589a9a	0.052881815
9	0xbd71f4e0	-0.05907142
10	0x3de7a90f	0.11311542
11	0x3d9c15aa	0.076213196
12	0x390c4396	0.00013376618
13	0x3cfe5859	0.031047987
14	0x3c9c5822	0.019084994
15	0xbd5a1973	-0.053246927
16	0x3d4c09d9	0.04981408
17	0xbd890fc5	-0.06692461
18	0xbd1d4a80	-0.038401127
19	0x3c780c30	0.0151396245
20	0x3d7aa0ed	0.061188627
21	0xbc636f3c	-0.013881501
22	0x3d85c752	0.06532158
23	0xbc29815c	-0.010345783
24	0xbdab3dc5	-0.08361391
25	0xbd95f206	-0.07321553
26	0x3cd3238f	0.025773792
27	0x3c75bd9f	0.0149988225
28	0xbd1bb538	-0.03801462
29	0xbdb83b81	-0.089957245
30	0x3bfe2342	0.007755668
31	0x3dcf8aa7	0.10133868
32	0x3d4b4bcb	0.04963283
33	0xbe11cdcd	-0.14238663
34	0x3c57640b	0.013146411
35	0x3deab2cd	0.11459885
36	0x3d1e2bf3	0.038616132
37	0xbd09b33d	-0.0336182
38	0xbce4bb99	-0.027921485
39	0xbb60d175	-0.0034304534
40	0xbdc26af6	-0.094930574
41	0x3d77a83c	0.060463175
42	0xbe03121d	-0.12799878
43	0x3bc26b8e	0.0059332317
44	0x3bdf3107	0.0068112644
45	0x3ca3317c	0.019921057
46	0x3c87e022	0.016586367
47	0xbce6eb1a	-0.028188277
48	0xbc5c0288	-0.013428338
49	0x3d9d788b	0.07689007
50	0xbdb43c6b	-0.08800586
51	0x3cdbdbe5	0.026838252
52	0x3bb6b88d	0.0055761994
53	0xbd8e0404	-0.0693436
54	0x3da3c896	0.07997243
55	0xbd8cf383	-0.06882384
56	0xbd9fe8be	-0.07808064
57	0x3d83ede8	0.064418614
58	0xbe003d53	-0.12523393
59	0xbdab3a6e	-0.08360754
60	0x3d374c7b	0.04475067
61	0x3ddacfd6	0.10684173
62	0x3d30828e	0.043093257
63	0xbc80baf7	-0.015714152
64	0x3d4f003b	0.05053733
65	0xbdb4f7ae	-0.08836304
66	0x3dddbadc	0.10826656
67	0x3c8da579	0.017290818
68	0x3d62867f	0.055304047
69	0x3d14fcf5	0.03637405
70	0xbdf54904	-0.11976817
71	0xbda48952	-0.08034004
72	0x3d4dc005	0.050231952
73	0x3bb976a1	0.0056598936
74	0x3defe21c	0.11713049
75	0xbd5c4196	-0.053773485
76	0x3db35d29	0.08758003
77	0x3dbf5a8e	0.09343444
78	0x3c75f328	0.015011586
79	0x3d468b5b	0.048472743
80	0x3d769544	0.060200945
81	0x3dbb256d	0.09137998
82	0x3d8f40b7	0.06994765
83	0x3c454fc7	0.012042946
84	0xbd8cbb50	-0.068716645
85	0xbcbc0dfb	-0.022955885
86	0xbdf11b89	-0.1177283
87	0xbdf4dccb	-0.119561754
88	0xbdd64c9a	-0.10463829
89	0x3be7d54e	0.0070749884
90	0xbda16e4e	-0.07882367
91	0xbd4c1994	-0.04982908
92	0xbda6fc60	-0.081536055
93	0x3db43026	0.08798246
94	0x3d24bfc9	0.040221963
95	0x3d4d84da	0.050175525
96	0x3aaea3ef	0.0013324003
97	0xbc9035ef	-0.017603843
98	0xbdb9a5f8	-0.09064859
99	0xbd265188	-0.040605098
100	0x3d7da5cc	0.061925694
101	0x3df6e22d	0.12054858
102	0x3db66e29	0.0890773
103	0x3ba42254	0.005008975
104	0x3b91d141	0.004449994
105	0x3b49e73a	0.0030807988
106	0x3c5174ba	0.012784177
107	0x3dd3f018	0.103485286
108	0x3d1bb938	0.038018435
109	0xbd967f63	-0.07348516
110	0xbd5f3732	-0.054495998
111	0x3df17e82	0.117917076
112	0xbd870816	-0.06593339
113	0xbd87a061	-0.06622387
114	0x3dd6563e	0.10465668
115	0x3d9cf618	0.07664126
116	0xbdc501a3	-0.09619453
117	0xbd870949	-0.06593568
118	0x3d085990	0.03328854
119	0xbb5f72e3	-0.0034095577
120	0xbca8cc26	-0.020605158
121	0xbddfbd50	-0.1092478
122	0x3d793c44	0.06084849
123	0x3e0830a4	0.13299805
124	0x3c589b8c	0.013220679
125	0xbcb3d8c3	-0.021953946
126	0xbdb6d75d	-0.08927796
127	0x3bdfceb8	0.0068300627
128	0xbdad2cf7	-0.08455842
129	0x3cf3df27	0.029769493
130	0x3d81ee1a	0.063442424
131	0x3d3ae1a1	0.045625333
132	0xbde284c6	-0.11060481
133	0xbbdd55bc	-0.006754605
134	0x3d52f9ac	0.051507637
135	0x3c8d81fe	0.0172739
136	0x3d4a4fcf	0.049392518
137	0xbdc47335	-0.095922865
138	0xbddb84fb	-0.107187234
139	0x3d07f3f1	0.033191625
140	0x3c4de5cc	0.012566995
141	0x3d091842	0.0334704
142	0xbe0c4cda	-0.13701192
143	0xbc052df8	-0.008128636
144	0xbd8980fb	-0.06714054
145	0x3df7a951	0.120928414
146	0xbd081a0f	-0.033227976
147	0x3b37409d	0.0027962097
148	0xbddae9e8	-0.10689145
149	0xbdc334d7	-0.09531563
150	0x3da6cd4f	0.08144628
151	0xbd2c4313	-0.042056154
152	0xbd8802ea	-0.06641181
153	0x3d37155a	0.044698097
154	0xbcc9643e	-0.024583932
155	0xbd2fb1c0	-0.042894125
156	0xbde5936d	-0.1120976
157	0xbd82dc71	-0.06389702
158	0x3cf20767	0.029544545
159	0xbcaa9f78	-0.020827994
160	0x3d8ba1eb	0.06817993
161	0xbda5a46f	-0.08088004
162	0x3dd77bcd	0.1052166
163	0xbddbc527	-0.10730963
164	0xbd026a4e	-0.03183966
165	0x3da6da8f	0.081471555
166	0x3dc72702	0.09724237
167	0xbd689bb2	-0.056789108
168	0xbd32f6af	-0.043692287
169	0xbd58e5fe	-0.052953713
170	0x3dbb2977	0.09138768
171	0x3d7fb697	0.06242999
172	0x3a88715b	0.0010409759
173	0x3d9bb8e1	0.07603622
174	0x3d4c9625	0.049947876
175	0x3d0c8a1c	0.0343114
176	0x3ddec49e	0.108773455
177	0xbdca404b	-0.09875544
178	0xbd100c1d	-0.035167802
179	0x3cf13c71	0.029447766
180	0x3d7aae13	0.061201166
181	0x3dc22429	0.09479553
182	0xbde4e4d2	-0.111764565
183	0x3d4e7a0f	0.050409373
184	0xbce756bd	-0.028239602
185	0x3ddca48d	0.10773573
186	0x3dcc8f8b	0.09988316
187	0x3d328483	0.043583404
188	0x3da07047	0.07833915
189	0x3df08c9d	0.1174557
190	0x3d92db9a	0.07170792
191	0x3d7f34b9	0.06230614
192	0xbd11fd9d	-0.035642255
193	0x3c8bc0a8	0.01705964
194	0x3d81b8d1	0.06334079
195	0xbc91ffa3	-0.017822092
196	0xbc4a9365	-0.012364243
197	0xbd6c8a25	-0.057748932
198	0x3d312439	0.043247435
199	0x3d172129	0.03689686
200	0x3d9704e9	0.073739834
201	0x3daf45f6	0.08558266
202	0x3be4157f	0.0069605703
203	0x3cf81862	0.030285064
204	0x3d87f157	0.06637829
205	0xbd9daf4d	-0.076994516
206	0xbd130967	-0.03589764
207	0xbde60f44	-0.112333804
208	0x3df098aa	0.11747868
209	0xbd646b8b	-0.055766623
210	0x3dfd92d3	0.1238152
211	0xbc536188	-0.012901671
212	0x3cae1e69	0.021254735
213	0x3cc7ce37	0.024390323
214	0x3dabeaa6	0.08394365
215	0xbc829a84	-0.01594282
216	0x3da64505	0.08118633
217	0x3d82286c	0.06355366
218	0x3bed4876	0.007241304
219	0x3cf3e8d8	0.029774114
220	0xbdaa39d2	-0.083118096
221	0x3b81e168	0.003963638
222	0x3d3ea90c	0.046547934
223	0xbca1ddc4	-0.019759066
224	0xbdf91000	-0.12161255
225	0x3c59ae10	0.013286129
226	0x3daea7fd	0.08528135
227	0x3da4c3aa	0.080451325
228	0xbdb4069e	-0.08790325
229	0x3d7275b9	0.0591943
230	0x3d743b5d	0.059626926
231	0xbd8538c4	-0.06504968
232	0xbdc5a22b	-0.09650072
233	0x3d20529e	0.03914129
234	0x3ab824fd	0.0014049109
235	0xbdb38e84	-0.08767417
236	0x3dc6112b	0.09671243
237	0xbdc6bc95	-0.09703938
238	0xbda122f9	-0.07867999
239	0xbca50ded	-0.020148242
240	0x3d3bfd24	0.04589571
241	0xbcfb5774	-0.03068135
242	0x3da0759b	0.078349315
243	0xbdb1e1da	-0.08685656
244	0xbdee081a	-0.11622639
245	0x3ba31c87	0.004977766
246	0x3d59336b	0.05302755
247	0x3c5749cd	0.013140154
248	0xbd41b2f2	-0.047289796
249	0xbbdb55a3	-0.0066935583
250	0x3db42084	0.08795264
251	0x3d6dc56a	0.058049597
252	0xbd6dca9f	-0.058054563
253	0xbda4f51c	-0.080545634
254	0xbdd1d9ee	-0.10246645
255	0xbd7c5ea5	-0.061613698

encoder.layers.0.self_attn.out_proj.bias f4 [64]
0	0xba82c371	-0.0009976459
1	0x3bb80d96	0.005616854
2	0xbc2fb70c	-0.010724794
3	0xbbe174ff	-0.006880402
4	0xbb39bca9	-0.002834121
5	0xbb938542	-0.0045019696
6	0xbc1b8ede	-0.009494511
7	0xbbed75dd	-0.0072467164
8	0x3b9a857a	0.0047156187
9	0x3c19f6d1	0.0093972245
10	0xbaf62b58	-0.0018781228
11	0xbc4b0bc9	-0.0123929465
12	0x3b1d0218	0.0023957547
13	0x3ba82834	0.0051317457
14	0x3c4a6350	0.0123527795
15	0xbc22cfd3	-0.0099372445
16	0xba2a9c68	-0.00065082917
17	0xbc1461d4	-0.009056527
18	0x3c049b8f	0.008093729
19	0xbb770ff7	-0.0037698725
20	0x3ae3ff62	0.0017394836
21	0x39f883db	0.00047400486
22	0xbb77f2eb	-0.0037834
23	0x3b00bc98	0.001964366
24	0xbc737348	-0.014859028
25	0xbb9174fe	-0.0044389954
26	0xbc2e1274	-0.010624517
27	0x3bfe1ac9	0.007754658
28	0xbbda36bb	-0.0066593564
29	0x3ba0851a	0.0048986794
30	0xbb86ca57	-0.0041134763
31	0x3bba8f8d	0.005693382
32	0x3ba597d8	0.0050535016
33	0xbc29bcea	-0.010359982
34	0x3be7fadf	0.0070794667
35	0x3be74c78	0.0070586763
36	0xbc6c3537	-0.014416984
37	0x3a5bcbf3	0.0008384578
38	0x3c5fe98e	0.013666524
39	0x3ae24ebd	0.0017265897
40	0x3a01675c	0.0004936361
41	0xbb9dd0ba	-0.004816142
42	0xbae3844e	-0.0017358155
43	0xbbd2b17b	-0.0064298487
44	0x3c0e782c	0.008695643
45	0x3b250e76	0.0025185621
46	0x3bd2c4e8	0.0064321645
47	0xbb2dd313	-0.0026523515
48	0x3b61229a	0.00343529
49	0x3c83d6f1	0.016093703
50	0xbba5c12c	-0.0050584283
51	0x3c3dc6ef	0.011583074
52	0xbb0c4a35	-0.0021406536
53	0x3bc2e4ec	0.0059477
54	0x3b9e522c	0.004831573
55	0x3b44c634	0.0030025365
56	0xbbd871e4	-0.0066053737
57	0xbc8d1f1e	-0.017226752
58	0x3b9b3518	0.004736554
59	0xbc268343	-0.010163131
60	0xbc846008	-0.016159073
61	0x3c14b6fe	0.009076832
62	0xbbcc1ab7	-0.0062287706
63	0x3c131349	0.008976766

encoder.layers.0.linear1.weight f4 [256, 64]
0	0xbb8417ea	-0.004031171
1	0xbdcb0a7a	-0.099141076
2	0x3e0af3a2	0.13569501
3	0x3d298244	0.041383997
4	0x3d8290b3	0.063752554
5	0x3cca8b0c	0.024724506
6	0x3d7b4ac1	0.061350588
7	0xbdf0b145	-0.117525615
8	0x3caafd83	0.020872837
9	0xbc9039f6	-0.017605763
10	0xbd7f0d21	-0.06226838
11	0x3c6917b9	0.014226847
12	0x3d93e1c7	0.07220798
13	0x3d8857ff	0.06657409
14	0x3df84c67	0.121239476
15	0xbd6f5bda	-0.058437206
16	0xbd96004d	-0.07324276
17	0x3d9e7d37	0.077387266
18	0x3c824d7e	0.015906092
19	0xbd8fc9a1	-0.070208795
20	0xbc951b64	-0.018201537
21	0x3da401f9	0.08008189
22	0x3da76fdd	0.08175633
23	0x3c854b70	0.016271323
24	0x3dbff2b9	0.093724675
25	0xbd04b326	-0.03239741
26	0x3d904fae	0.07046448
27	0x3e112f41	0.14178182
28	0x3e00c0aa	0.12573496
29	0xbd24729d	-0.040148366
30	0x3d8b994a	0.06816347
31	0xbc187bc9	-0.009306856
32	0xbd6fab88	-0.058513194
33	0x3df26f99	0.11837692
34	0xbde95f4f	-0.11395132
35	0xbd7688b1	-0.060188953
36	0xbe0a7d76	-0.13524422
37	0x3d9ccb11	0.07655919
38	0xbca5e453	-0.020250475
39	0xbdd94588	-0.10608965
40	0x3d1355fa	0.035970666
41	0xbd3adbac	-0.04561965
42	0xbdd65d17	-0.10466974
43	0xbde0c2f4	-0.10974684
44	0xbda70a47	-0.08156257
45	0xbd618aa6	-0.055063866
46	0xbd161801	-0.036643986
47	0xbdcf88fa	-0.10133548
48	0x3e2a9f09	0.1666223
49	0x3cfceb21	0.030873837
50	0xbbddfdae	-0.0067746257
51	0x3d2379d0	0.03991109
52	0xbe0745c0	-0.13210201
53	0xbdc62678	-0.09675306
54	0x3d908f37	0.07058566
55	0x3d7e48bc	0.062081084
56	0x3dc11785	0.09428314
57	0x3c46e618	0.01213982
58	0x3d87269f	0.06599163
59	0x3d7d11b0	0.061784446
60	0xbddef672	-0.108868495
61	0xbc407a81	-0.011747957
62	0x3dd82bd1	0.10555232
63	0x3dcf73fb	0.101295434
64	0x3dc42b57	0.09578579
65	0x3d8e398b	0.06944569
66	0x3a966774	0.0011474923
67	0xbd312c39	-0.043255065
68	0xbda127f4	-0.078689486
69	0x3ca920a7	0.020645453
70	0xbc495b0a	-0.012289772
71	0x3ca4dd08	0.020124927
72	0x3ac5581e	0.0015056168
73	0xbca2def0	-0.019881696
74	0x3d9dd588	0.077067435
75	0x3dd7d021	0.10537744
76	0xbd1d13bd	-0.038348902
77	0x3bae7c87	0.0053249034
78	0xbde7db32	-0.11321105
79	0x3d702842	0.058632143
80	0xbdc51bed	-0.09624467
81	0xbbd9619f	-0.006633952
82	0x3ddeb7d4	0.10874906
83	0x3cc5ca19	0.02414422
84	0xbdf1d1a0	-0.11807561
85	0x3df3c436	0.11902659
86	0xbdf563d8	-0.11981934
87	0xbd1a0eae	-0.037611656
88	0x3d735e62	0.059416182
89	0x3ca0ad6e	0.019613948
90	0x3d05f7a8	0.032706887
91	0x3d55290f	0.05204111
92	0xbdb7ecba	-0.08980699
93	0x3c234855	0.009965976
94	0x3de4457f	0.11146068
95	0x3d5a9844	0.053367868
96	0xbda6c58d	-0.081431486
97	0x3dba7158	0.0910365
98	0xbced7441	-0.028986098
99	0xbdcd5111	-0.10025228
100	0xbc40da08	-0.011770733
101	0xbdbe8f34	-0.093046576
102	0xbd0c0360	-0.034182906
103	0x3cf913c4	0.030404933
104	0x3c992454	0.01869408
105	0x3db23acf	0.08702623
106	0x3c7e165d	0.0155082615
107	0x3dcad4e1	0.09903885
108	0xbbcb8f8d	-0.006212181
109	0x3d40eff4	0.047103837
110	0xbd4aca35	-0.049509246
111	0xbc11c112	-0.008896129
112	0x3d22b383	0.039721977
113	0x3e03be62	0.12865594
114	0xbab8a874	-0.0014088289
115	0x3ddb571b	0.107099734
116	0x3dbd50a0	0.092438936
117	0xbda4a056	-0.08038394
118	0xbde36855	-0.11103884
119	0x3cfc2abc	0.030782096
120	0x3c564855	0.013078769
121	0x3d2a2cb5	0.041546542
122	0x3db2966e	0.087200984
123	0x3d4c07a1	0.049811963
124	0x3d737aa7	0.059443142
125	0xbd95ab4a	-0.073080614
126	0xbd672b6b	-0.05643789
127	0x3ddc822f	0.10767018
128	0xbdee972e	-0.11649929
129	0xbd749838	-0.05971548
130	0xbaa77180	-0.0012774915
131	0xbc009590	-0.0078481585
132	0x3d694e18	0.05695924
133	0x3c71160c	0.014714729
134	0x3d1eef18	0.038802236
135	0x3dc6841e	0.09693168
136	0x3cba4607	0.02273847
137	0xbd77b899	-0.06047878
138	0x3dcdc028	0.100464165
139	0x3c502ac8	0.012705512
140	0x3c21df7a	0.009879941
141	0xbda24e44	-0.07925084
142	0x3ccc27e1	0.02492136
143	0x3c6cc1a4	0.014450464
144	0xbddaca6e	-0.10683142
145	0xbd280862	-0.04102362
146	0xbceab925	-0.028652737
147	0x3d2f8f2f	0.04286116
148	0x3d10b8d0	0.0353325
149	0x3c9e1958	0.019299194
150	0xbbeec620	-0.007286802
151	0xbcb921ec	-0.022599183
152	0xbd6bb9c7	-0.057550218
153	0xbd3dd5e2	-0.046346553
154	0xbd234814	-0.03986366
155	0xbdc732da	-0.09726496
156	0x3d632396	0.05545386
157	0xbe078adc	-0.13236564
158	0xbdd15c62	-0.10222699
159	0xbde30f0b	-0.110868536
160	0x3c84f0ad	0.016228044
161	0x3db5b572	0.088724986
162	0xbdb8e87d	-0.090287186
163	0x3cf089f8	0.029362664
164	0xbde0b861	-0.109726675
165	0x3dc87870	0.09788597
166	0xbd82e90e	-0.06392108
167	0xbc713a03	-0.014723304
168	0x3cd0cf17	0.025489373
169	0xbdeca171	-0.1155423
170	0xbdefe1d8	-0.11712998
171	0x3d4b367e	0.049612515
172	0x3d97fbda	0.07421084
173	0x3daddc61	0.084892996
174	0x39fc9aeb	0.00048180608
175	0x3b8180a8	0.0039521046
176	0x3d899876	0.06718533
177	0xbdc2ce01	-0.095119484
178	0x3dde9c08	0.10869604
179	0x3d472d85	0.048627395
180	0x3db05c8a	0.086114004
181	0xbdba1bf7	-0.09087365
182	0x3d60b561	0.054860476
183	0xbd2ba7b0	-0.041907966
184	0x3d8ef700	0.06980705
185	0xbcec4be8	-0.028844789
186	0xbd362d17	-0.044476595
187	0xbcea7405	-0.028619776
188	0xbe1fb9aa	-0.15598169
189	0x3dec9863	0.11552503
190	0x3d9336be	0.071881756
191	0x3df7f39e	0.12107013
192	0xbdd271a3	-0.10275581
193	0xbda2e554	-0.07953897
194	0xbd82a0d6	-0.06378333
195	0xbce22ea3	-0.027610129
196	0xbdaebf98	-0.08532637
197	0xbda2b5ab	-0.07944807
198	0x3ceeefe4	0.029167123
199	0x3dd0980a	0.10185249
200	0xbdc38c1a	-0.095482066
201	0xbb4af4f3	-0.0030968755
202	0x3cd8099c	0.02637177
203	0xbd12c480	-0.03583193
204	0x3dbfbdcb	0.09362372
205	0x3cb93990	0.022610456
206	0xbd92d43e	-0.07169388
207	0xbd1e0184	-0.038575664
208	0x3e0a8da7	0.13530599
209	0xbd34a1b7	-0.044099536
210	0xbdfa3133	-0.12216415
211	0xbda354eb	-0.07975181
212	0xbc846704	-0.016162403
213	0xbdb62af4	-0.088949114
214	0xbc8ebca3	-0.017423933
215	0x3dae60e5	0.08514575
216	0xbdce9a43	-0.10088017
217	0xbd847855	-0.06468264
218	0xbddcde1e	-0.10784553
219	0xbd8c1926	-0.06840734
220	0xbde31ddf	-0.11089682
221	0xbd95cd10	-0.07314503
222	0xbdc5dfcd	-0.09661827
223	0xbe039ef4	-0.12853605
224	0xbd184a43	-0.037180196
225	0xbd416295	-0.047213156
226	0x3c7418df	0.014898508
227	0xbd57a8fb	-0.052651387
228	0x3d384c77	0.044994798
229	0xbdc4a5ff	-0.09601974
230	0xbdd8a480	-0.10578251
231	0xbdb16620	-0.08662057
232	0xbd970e33	-0.07375755
233	0xbd9b1c8b	-0.075738035
234	0xbd8e1903	-0.06938364
235	0xbd3a0060	-0.045410514
236	0xbdc5e049	-0.096619196
237	0xbdabd488	-0.083901465
238	0x3d891f7c	0.06695458
239	0x3df6f588	0.1205855
240	0xbe052679	-0.13002957
241	0x3c9dda16	0.01926903
242	0x3cb406fb	0.021975985
243	0x3d36186a	0.044456877
244	0x3dd29adf	0.102834456
245	0x3c5328df	0.012888162
246	0xbdb3f716	-0.08787362
247	0x3dcd99a0	0.10039067
248	0xbe053cfd	-0.13011546
249	0x3dd742b1	0.10510767
250	0x3c58fb7b	0.013243551
251	0xbdcc301e	-0.09970115
252	0x3cc13dc9	0.023589032
253	0x3da875db	0.08225604
254	0x3ba733d4	0.005102614
255	0x3d0ddcd9	0.034634445

encoder.layers.0.linear1.bias f4 [256]
0	0xbc45144e	-0.012028767
1	0x3d68083d	0.05664848
2	0xbd3ca829	-0.046058808
3	0xbdf460c3	-0.11932518
4	0x3d1d3352	0.03837902
5	0x3ddf3d1d	0.10900328
6	0xbd730a05	-0.059335727
7	0x3d3586f7	0.044318166
8	0xbd1e1e03	-0.03860284
9	0x3d2be202	0.041963585
10	0x3d991cf5	0.07476226
11	0x3d289485	0.041157264
12	0x3d6bbcae	0.057552986
13	0xbdbed528	-0.09318
14	0xbd05c2ad	-0.03265636
15	0x3be56685	0.0070007467
16	0x3dd544a1	0.104134806
17	0xbc0bf3cb	-0.0085420115
18	0xbda5f619	-0.0810358
19	0x3e0020af	0.12512468
20	0x3dc2dc31	0.095146544
21	0xbdec5bc0	-0.115409374
22	0x3cdcd763	0.026958173
23	0x3d43dc1e	0.047817342
24	0x3d7c05a9	0.061528835
25	0x3d156cce	0.036480717
26	0x3dc41371	0.09574021
27	0xbd85aefb	-0.065275155
28	0xbd37ba11	-0.04485518
29	0xbd330d8a	-0.043714084
30	0x3d3d892c	0.046273395
31	0x3dc849ae	0.09779678
32	0x3d9dc117	0.077028446
33	0x3dea4381	0.114386566
34	0x3d57faac	0.052729294
35	0x3be19b0a	0.006884937
36	0x3d0fb260	0.03508222
37	0x3dc9f5da	0.098613456
38	0x3da2f8bc	0.079575986
39	0x3d9d252d	0.07673106
40	0x3cd02301	0.025407316
41	0xbcecf95e	-0.028927501
42	0x3cc7b5c5	0.024378667
43	0xbda31b02	-0.07964136
44	0xbdb0326b	-0.086033665
45	0x3cd78ad2	0.026311312
46	0xbd859e09	-0.065242834
47	0x3da10320	0.07861924
48	0x3d4754e0	0.048664927
49	0x3d47e78c	0.048804805
50	0xbdaea9bf	-0.0852847
51	0xbd152e2c	-0.036420986
52	0xbd8309e4	-0.06398371
53	0xbd9358b3	-0.071946524
54	0x3d4070af	0.046982463
55	0xbdb08d27	-0.08620673
56	0x3d1aa877	0.037758317
57	0x3d09c708	0.033637077
58	0x3c6c2315	0.014412661
59	0xbbea92f9	-0.007158634
60	0xbdacecad	-0.0844358
61	0x3e139a2c	0.1441428
62	0xbc7296bc	-0.014806446
63	0x3c214c64	0.009844873
64	0xbce28f3a	-0.027656186
65	0xbdd17b21	-0.10228563
66	0x3d5700a0	0.05249083
67	0x3d664c0e	0.056224875
68	0xbd1db010	-0.038497984
69	0x3d54bd08	0.051938087
70	0x3b147aa3	0.0022656105
71	0xbcf4a9cc	-0.029866122
72	0xbca0c4e9	-0.019625144
73	0xbde880ef	-0.11352717
74	0x3d8cadfe	0.06869124
75	0xbce62bcf	-0.028097061
76	0x3d0e96ab	0.034811657
77	0x3db34dfb	0.08755108
78	0x3deaf884	0.11473182
79	0x3df2e86f	0.118607394
80	0xbcbf27f0	-0.023334473
81	0xbdce60d8	-0.10077065
82	0xbd9304b2	-0.0717863
83	0x3dbdabbd	0.09261272
84	0xbd941fe9	-0.07232649
85	0xbc740a11	-0.014894978
86	0xbdf2c8b6	-0.11854689
87	0xbd8c46da	-0.06849451
88	0x3d19d75f	0.03755891
89	0xbc224835	-0.009904911
90	0xbd9cb17d	-0.07651041
91	0x3c49b9ea	0.012312392
92	0xbd5dddf7	-0.05416676
93	0xbd830c80	-0.063988686
94	0xba6b820c	-0.0008983917
95	0x3db5ae52	0.088711396
96	0x3d94ae81	0.072598465
97	0x3dab1a10	0.083545804
98	0x3aeaf9f2	0.0017927273
99	0xbbec7581	-0.007216156
100	0x3dbe4919	0.09291286
101	0xbdce2b72	-0.1006688
102	0x3ca248db	0.01981013
103	0x3b4d032c	0.0031282408
104	0x3dad5e85	0.08465294
105	0x3d5ace83	0.0534196
106	0xbd450a56	-0.04810556
107	0xbd7a889c	-0.061165437
108	0x3dd669bd	0.10469387
109	0x3c25fd90	0.010131255
110	0x3da3b820	0.079941034
111	0x3d4be5d3	0.049779724
112	0x3e01934e	0.12653849
113	0xbd11feb5	-0.0356433
114	0x3dd4ec9e	0.10396694
115	0xbd0ffdde	-0.035154216
116	0xbd90cc9d	-0.07070277
117	0xbdb29f2a	-0.087217644
118	0x3ddad127	0.10684424
119	0xbd3289a7	-0.043588307
120	0x3dc90ca8	0.09816867
121	0xbc952f80	-0.018211126
122	0xbdc17ddb	-0.09447833
123	0xbe00f032	-0.12591627
124	0x3cc5edd2	0.024161253
125	0x3c45d671	0.012075053
126	0xbdad11a7	-0.084506325
127	0x3da83e47	0.082150035
128	0xbdecce08	-0.11562735
129	0x3ddc0d4e	0.10744725
130	0x3df85022	0.12124659
131	0xbd163e7a	-0.036680676
132	0xbd4321e2	-0.047639735
133	0x3d9b5cc6	0.075860545
134	0xbd8d20c5	-0.06891016
135	0x3d96f722	0.073713556
136	0xbd4375f5	-0.047719914
137	0xbce65df3	-0.02812097
138	0xbd40780f	-0.046989497
139	0xbdc78afc	-0.09743306
140	0x3d6c7189	0.057725463
141	0xbd3e1819	-0.0464097
142	0xba7d76f8	-0.0009668912
143	0xbdd270bf	-0.10275411
144	0x3e02de59	0.12780131
145	0x3d406d5a	0.046979286
146	0xbc3269a9	-0.010889449
147	0xbd54c3d9	-0.051944587
148	0xbd95b488	-0.07309824
149	0x3bf61bd9	0.007510644
150	0xbdcf9c49	-0.10137231
151	0xbddaf2d7	-0.10690849
152	0xbd32b659	-0.04363093
153	0xbc2a18c3	-0.01038188
154	0x3d3066ce	0.043066792
155	0x3df3fe94	0.11913791
156	0xbc65dc9f	-0.014029651
157	0x3d0d6adf	0.03452575
158	0xbd3f4971	-0.0467009
159	0x3cf9b446	0.030481469
160	0xbbd36f15	-0.006452451
161	0x3c23bcbf	0.009993731
162	0x3d000524	0.031254902
163	0x3d3f455a	0.046697
164	0xbd3a2ed7	-0.045454826
165	0x3bfb934b	0.007677471
166	0xbbbb587d	-0.0057173357
167	0xbd69b37a	-0.057055928
168	0x3da0f3f9	0.07859034
169	0xbdb86db6	-0.09005301
170	0xbcc6dee4	-0.024276204
171	0x3db0e1fa	0.086368516
172	0x3dde445c	0.10852882
173	0xbd5bbdce	-0.05364781
174	0xbd8025e4	-0.06257227
175	0x3da386c8	0.07984692
176	0x3d54415f	0.051820155
177	0x3de6fafb	0.112783395
178	0xbdc498fc	-0.09599492
179	0x3dc3597a	0.09538551
180	0x3d1261f9	0.035737965
181	0xbd995253	-0.07486405
182	0xbd4e59c0	-0.05037856
183	0xbda7b4c2	-0.08188774
184	0x3de4110f	0.11136066
185	0xbc7062ab	-0.014671962
186	0xbc1eb2cf	-0.009686186
187	0xbd3c7b04	-0.046015754
188	0xbd795db2	-0.06088037
189	0x3e07981f	0.13241623
190	0xbccdcbfb	-0.02512168
191	0xbd30c9c9	-0.043161187
192	0x3d43e704	0.047827736
193	0x3da62814	0.08113113
194	0x3dec403e	0.11535691
195	0xbc175091	-0.009235517
196	0xbdd9ad83	-0.10628798
197	0x3db6c1ce	0.08923684
198	0x3b13d84b	0.002255934
199	0xbccb052f	-0.024782745
200	0xbe00f51d	-0.12593503
201	0x3d1eebde	0.03879916
202	0x3da1af85	0.07894806
203	0x3d0f5a2e	0.03499811
204	0x3db8748f	0.09006607
205	0x3d1f65cb	0.038915437
206	0x3d1dc98d	0.038522292
207	0xbc016017	-0.007896445
208	0xbd0fc2d5	-0.035097916
209	0xbdb244a5	-0.08704499
210	0xbdda2681	-0.10651875
211	0xbc515d8a	-0.012778649
212	0xbd26c680	-0.040716648
213	0xbc27023a	-0.010193402
214	0xbd694720	-0.056952596
215	0xbd97bb04	-0.07408717
216	0x3cd3b618	0.025843665
217	0xbb379f48	-0.0028018523
218	0xbc174cb4	-0.009234596
219	0xbd596bac	-0.0530812
220	0xbd324384	-0.04352142
221	0x3d0d2d74	0.034467176
222	0xbdc9d73b	-0.09855505
223	0x3bb4388e	0.005499906
224	0xbd40e242	-0.047090776
225	0x3d0d09f0	0.034433305
226	0x3db796ed	0.08964334
227	0xbd1f604f	-0.038910206
228	0xbc8105ac	-0.015749775
229	0x3db5d1de	0.088779196
230	0x3d2d8fd8	0.04237351
231	0x3d8af910	0.06785786
232	0x3dbb1b3c	0.09136054
233	0xbd828e7f	-0.06374835
234	0x3dcc9e9e	0.09991191
235	0x3d8bf12f	0.068331115
236	0xbc121bcc	-0.00891776
237	0xbcad5475	-0.021158436
238	0x3da2af7e	0.07943629
239	0x3cd54bfd	0.02603721
240	0xbdc739b8	-0.09727806
241	0xbd5f3f03	-0.054503452
242	0xbdba6eb7	-0.091031484
243	0x3d79b7e5	0.06096639
244	0xbd07c6a9	-0.03314844
245	0x3cc3fb2c	0.023923479
246	0xbdd99427	-0.10623961
247	0x3d91c151	0.0711695
248	0xbdb8ceec	-0.09023842
249	0x3d3d36c2	0.0461948
250	0x3c8c610a	0.017136116
251	0x3cdd1576	0.026987772
252	0x3d177d16	0.036984526
253	0xbdc615b5	-0.09672109
254	0x3d902925	0.07039098
255	0xbddc3326	-0.10751943

encoder.layers.0.linear2.weight f4 [64, 256]
0	0xbd06498c	-0.032784984
1	0xbd65e957	-0.056130733
2	0x3c1b2989	0.009470352
3	0x3d2a4829	0.041572724
4	0x3cbbf74d	0.02294507
5	0x3a5b5378	0.0008366625
6	0x3d2fdb77	0.042933907
7	0xbd0afb01	-0.033930782
8	0xbd856f73	-0.06515398
9	0xbc337efc	-0.010955568
10	0xbd5643b5	-0.052310664
11	0xbd2cfa5e	-0.042230956
12	0xbc9dc079	-0.019256817
13	0x3d30c2df	0.043154594
14	0x3d1006bc	0.035162672
15	0x3cc41676	0.023936491
16	0xbcdd970e	-0.027049568
17	0x3ce818cb	0.028332135
18	0x3cbe4075	0.023224095
19	0xbce13613	-0.027491605
20	0x3d45e552	0.0483144
21	0x3ceb411c	0.02871757
22	0xbc976705	-0.01848174
23	0x3d054b2c	0.032542393
24	0xbd0a9349	-0.03383187
25	0xbd0980aa	-0.03356997
26	0xbd0c9b41	-0.03432775
27	0xbb40ee33	-0.0029438853
28	0x3d722edd	0.059126724
29	0x3c8a77fd	0.016902918
30	0xbd8fe861	-0.07026745
31	0xbc3b17aa	-0.011419216
32	0x3d559766	0.052146338
33	0xbcaa3d64	-0.020781226
34	0x3d8bbb85	0.06822876
35	0xbd872b24	-0.06600025
36	0x3d86ed8d	0.06588278
37	0x3d097849	0.03356198
38	0x3adfc51d	0.0017072294
39	0xbcac7844	-0.02105344
40	0x3d0cdd40	0.034390688
41	0x3d8730c9	0.06601102
42	0x3c7d8c18	0.0154752955
43	0xbd0ab1aa	-0.03386084
44	0x3bc0791d	0.005873813
45	0xbc73a19e	-0.0148700755
46	0xbd3622ab	-0.044466656
47	0xbc860e6e	-0.016364302
48	0xbc94020e	-0.018067386
49	0x3d111f87	0.035430457
50	0xbd104736	-0.035224162
51	0xbd61e180	-0.055146694
52	0xbd78d970	-0.06075424
53	0x3d05f355	0.032702763
54	0x3cb42c3e	0.021993753
55	0xbca0bdbb	-0.01962172
56	0xbc9c20a4	-0.019058533
57	0x3d8162d5	0.06317679
58	0xbd111db9	-0.035428736
59	0x3d201ac7	0.039088037
60	0xbd7dd913	-0.061974596
61	0x3cc5c049	0.02413954
62	0x3d1003b2	0.035159774
63	0x3c2aba63	0.010420415
64	0xbd175701	-0.036948208
65	0xbd8a014b	-0.06738528
66	0xbaa69fe2	-0.0012712444
67	0x3d2cb99e	0.042169206
68	0x3cfc88b5	0.030826906
69	0xbd841a28	-0.064503014
70	0x3d392419	0.04520044
71	0x3b58fa34	0.0033108117
72	0xbd19cec2	-0.037550695
73	0xbd0da870	-0.034584463
74	0x3d418565	0.047246356
75	0x3d46bd77	0.04852053
76	0xbd1f740a	-0.038929023
77	0x3c6c49d8	0.014421903
78	0xbc38e456	-0.011284908
79	0xbd5632ee	-0.052294664
80	0x3d6116dc	0.05495344
81	0xbc8f4c61	-0.017492475
82	0x3cfaeb6f	0.030629842
83	0x3ce9ea22	0.028554026
84	0xbd505db9	-0.05087063
85	0x3d69b8b8	0.057060927
86	0xbd801d8e	-0.06255637
87	0xbb9ec7cd	-0.0048455955
88	0xbc392a2b	-0.0113015575
89	0xbccaaf5f	-0.024741827
90	0xbc7e8cd1	-0.015536503
91	0xbd4fcdb2	-0.050733276
92	0xbcfef087	-0.031120552
93	0x3d088bbc	0.033336386
94	0x3d5c6c79	0.053814385
95	0x3d68dd34	0.05685158
96	0x3cc0ae52	0.023520622
97	0xbd55a91c	-0.05216323
98	0xbc9b0921	-0.018925251
99	0xbd076061	-0.0330509
100	0xbd1a65ec	-0.037694857
101	0xbcfae968	-0.030628875
102	0x3d1cd622	0.03829015
103	0xbcaf24f2	-0.021379922
104	0x3c843c69	0.016142087
105	0xbb6d26d4	-0.0036186473
106	0x3d112905	0.03543951
107	0x3d52f8c7	0.051506784
108	0xbd4d00e6	-0.050049685
109	0xbc88496d	-0.016636575
110	0xbb8a029e	-0.004211738
111	0xbc4bef0a	-0.012447128
112	0xbd3bceb8	-0.04585144
113	0x3cf84ccf	0.030310063
114	0xbcb1adac	-0.021689259
115	0xbd3694ad	-0.044575382
116	0x3ca83629	0.020533638
117	0xbc22f9bc	-0.009947237
118	0x3c880dec	0.016608201
119	0x3c5a2830	0.0133152455
120	0xbc3b90e7	-0.011448122
121	0x3d0b3246	0.03398349
122	0xbad69c28	-0.0016373442
123	0x3cbe0aaa	0.023198444
124	0xbb2268fd	-0.0024781816
125	0xbd7c5f60	-0.061614394
126	0xbd828088	-0.06372172
127	0x3d3b1399	0.045672987
128	0x3be0579c	0.0068463814
129	0x3cf3e08a	0.029770155
130	0xbd3e7180	-0.04649496
131	0xbd176936	-0.03696557
132	0xbc814078	-0.015777811
133	0xbcad69ec	-0.021168672
134	0x3d66bf1c	0.0563346
135	0x3c95b159	0.018273043
136	0x3d435f5e	0.04769837
137	0x3cc42efe	0.023948189
138	0x3d82798c	0.063708395
139	0xbcce2928	-0.02516611
140	0x3d31cb16	0.04340657
141	0xbcb60f55	-0.022224108
142	0xbc9a4453	-0.018831408
143	0x3c0f971e	0.0087640565
144	0x3d20602b	0.039154213
145	0x3d578fa4	0.05262722
146	0xbd669fc6	-0.056304716
147	0x3cc745de	0.024325307
148	0xbd729dc4	-0.05923249
149	0xbc4a32ca	-0.012341211
150	0xbd84321c	-0.0645487
151	0xbb97c692	-0.0046318257
152	0x3ca63615	0.02028946
153	0xbcb90dd5	-0.022589603
154	0xbd1a40f5	-0.037659604
155	0xbd1bbab4	-0.03801985
156	0x3d87ab2d	0.06624446
157	0x3d21bb72	0.039485402
158	0xbd53b149	-0.051682744
159	0xbd129721	-0.03578866
160	0x3c205fa7	0.00978843
161	0x3d67be84	0.056578174
162	0xbd65013f	-0.05590939
163	0x3b4373c6	0.0029823645
164	0x3d7d9af5	0.061915357
165	0x3d7f4298	0.062319368
166	0xbb9605ce	-0.0045783287
167	0x3d1c0f09	0.038100276
168	0x3d4bd92d	0.04976766
169	0xbca1aa78	-0.019734606
170	0x3c97c037	0.018524272
171	0xbc7698e0	-0.015051097
172	0xbd5fd28d	-0.054644156
173	0x3d2b5205	0.041826267
174	0xbd227396	-0.039661013
175	0x3d41315e	0.04716622
176	0x3cff374c	0.031154297
177	0x3d65c899	0.056099508
178	0x3d277958	0.040887207
179	0xbc984be3	-0.018590873
180	0xbc986a8c	-0.018605493
181	0x3d3781b7	0.04480144
182	0xbccc494c	-0.024937294
183	0x3d7e2249	0.062044416
184	0x3cfa4df8	0.030554757
185	0x3d2eb0be	0.042649023
186	0x3cc2365e	0.023707565
187	0xbd4b1798	-0.049583048
188	0x3d4eeece	0.05052071
189	0x3da563f7	0.080757074
190	0xbccfee3a	-0.02538215
191	0xbd309e6d	-0.043119837
192	0xbcd50f7b	-0.026008358
193	0x3cdbebba	0.026845802
194	0xbd6a62d2	-0.05722315
195	0xbd093c28	-0.033504635
196	0x3be86f16	0.0070933206
197	0xbd1be4bc	-0.038059935
198	0xbd03ef72	-0.032210775
199	0xbb03a3e2	-0.0020086695
200	0x3d043ed6	0.032286488
201	0xbd0bd87b	-0.034142
202	0x3d27b4f2	0.040944047
203	0x3d517e58	0.05114588
204	0xbd1481b2	-0.0362565
205	0xbd46b8ff	-0.04851627
206	0x3d22cf35	0.03974839
207	0xbcff2446	-0.031145226
208	0x3d82a1ad	0.063784935
209	0xbd3d926f	-0.046282228
210	0xbc8a2675	-0.01686404
211	0x3cf03de7	0.029326392
212	0x3d8e7800	0.06956482
213	0x3b514ef4	0.003193793
214	0x3d96cd86	0.07363419
215	0xbd4f5cb8	-0.050625533
216	0x3d833938	0.06407398
217	0xbd241c8b	-0.040066283
218	0x3ccb101b	0.024787953
219	0xbd1fc75b	-0.03900848
220	0x3d6adb83	0.05733825
221	0xbd1652d5	-0.03670009
222	0x3cb95571	0.02262375
223	0xbbc65a0e	-0.006053216
224	0x3c6df387	0.0145233935
225	0xbcb11a87	-0.021619095
226	0xbc8441db	-0.016144684
227	0xbae761aa	-0.0017653008
228	0x3c35781c	0.011076
229	0x3cf79986	0.030224573
230	0xbcc9760b	-0.02459242
231	0x3c552c2f	0.0130110225
232	0x3d1caef9	0.038252804
233	0xbd8b0147	-0.06787353
234	0xbccb4256	-0.024811905
235	0xbd1d0d77	-0.03834292
236	0x3d5d7ea7	0.054075863
237	0x3cbde2a5	0.023179362
238	0x3a93012e	0.0011215562
239	0x3b1ce2cc	0.0023938892
240	0xbb647f90	-0.0034866072
241	0xbd82f608	-0.06394583
242	0xbbe336d6	-0.006934027
243	0x3cd6d7f4	0.026226021
244	0x3cedbe41	0.029021384
245	0x3c835125	0.016029904
246	0xbd43a8db	-0.047768455
247	0x3cb861cc	0.02250757
248	0x3c204ff8	0.009784691
249	0xbca09125	-0.01960046
250	0x3c85ae58	0.016318485
251	0x3d5b8b4a	0.053599633
252	0xbd3efe59	-0.046629284
253	0x3d259223	0.04042257
254	0xbd3cdbf8	-0.046108216
255	0xbc505a34	-0.012716819
