save_results/autoformer_short_term_90d_run3.pt (torch, 437661 bytes, 28 tensors)

input_embedding.weight f4 [64, 12]
000000 b9 06 c4 3d f1 86 8b 3e 7e 26 7c bc b4 07 f4 3d
       0.09571595 0.2725139 -0.015390037 0.11915532
000010 40 1a 26 be 15 37 d7 bc 80 91 78 be f6 51 29 be
       -0.16220951 -0.026271382 -0.24274254 -0.16535172
000020 a9 21 24 be 18 7a e9 bd dc 07 1b bb 41 5f a2 3d
       -0.16028465 -0.11400241 -0.0023655808 0.079283245
000030 8f 88 45 be 60 ea 37 be 4a 00 82 3d 8e 13 51 3e
       -0.19290374 -0.179605 0.063477114 0.20417616
000040 97 bc 4d bc e0 76 b9 bd 75 47 57 bd c1 9b 87 3e
       -0.01255717 -0.09055877 -0.05255838 0.26486018
000050 a2 b7 7b be d1 90 41 bd 03 7a 59 bd aa 33 5d be
       -0.24581769 -0.04725725 -0.053094875 -0.2160174
000060 2c 02 86 3d 96 ab 28 be 4f f0 03 be 50 f9 b9 3c
       0.06543383 -0.16471705 -0.12884639 0.02270189
000070 e2 59 32 be 8a 24 3b be 2e 2f aa 3d f5 3f 3f 3e
       -0.174171 -0.18275657 0.0830978 0.18676741
000080 03 0b e7 3d 6a db 97 bd 00 e8 44 3d d2 ed a5 bd
       0.11281397 -0.07414897 0.048072815 -0.08102001
000090 a4 45 d9 bd 49 bb cd bd 1c 62 0b 3e c2 94 87 3e
       -0.10608986 -0.100454874 0.13611645 0.2648068
0000a0 7a 69 4e be 47 fe b3 bd 95 45 d7 bd 77 6e 7a 3e
       -0.20157424 -0.08788734 -0.105113186 0.24456201
0000b0 01 51 47 3c 32 f0 66 3e 95 dd 4e be 80 48 d3 3d
       0.012165309 0.22552565 -0.20201714 0.10316563
0000c0 12 a4 1d 3e d0 80 2a be b5 ff 7e 3e 6c 05 7b 3e
       0.15394619 -0.166507 0.24902232 0.24513787
0000d0 9b 65 27 be 51 5f 0d 3e e2 dd e4 bc 75 e5 98 be
       -0.16347353 0.13805892 -0.027937833 -0.29862562
0000e0 1c d6 a9 3d e1 0b f5 bd b8 8f e1 3c 97 72 82 be
       0.08292791 -0.11965156 0.02753435 -0.2547805
0000f0 df 3a 05 3e 99 81 04 be 7a 2c 53 3e 2d f4 61 3e
       0.13010739 -0.12940063 0.20622435 0.22065802
000100 c3 ea 65 be 68 2a 85 3d 89 da 26 bd 5d 45 81 be
       -0.22452836 0.06502229 -0.040735755 -0.25248232
000110 46 6c b2 bd 08 21 cc bd a3 46 d3 bd 32 43 82 be
       -0.08712058 -0.09967238 -0.10316207 -0.2544189
000120 d1 21 10 3d 67 32 55 3e 4a 29 38 bd 67 85 20 3d
       0.0351885 0.20820008 -0.04496125 0.039189722
000130 52 c9 28 3e d8 94 45 be 39 90 17 3e 86 a2 76 bd
       0.16483048 -0.1929506 0.1480111 -0.06021359
000140 97 10 c5 3d b3 d9 1a 3c a1 b8 66 3e a0 23 03 be
       0.09622305 0.009451318 0.22531368 -0.12806559
000150 5b 6e f3 3c c2 b9 c7 3b 08 21 a9 bd 8c e5 1f 3e
       0.029715708 0.006095142 -0.08258253 0.15614909
000160 ad be 1f be 04 0a 31 be b6 c6 cc bd 68 00 c8 3d
       -0.15600081 -0.17288977 -0.099988386 0.097657025
000170 d2 0f 77 be 6a 99 a4 3d 95 ca 2d bd 2e b4 35 3e
       -0.24127129 0.08037074 -0.042429525 0.17744514
000180 2b 13 a9 3d d2 a3 ae 3d f6 3b 0f 3e d1 c4 0f 3d
       0.08255609 0.0852734 0.13987717 0.035099808
000190 72 b8 d4 3d f1 af f6 bd ec df cc 3d 83 14 39 be
       0.10386743 -0.12045277 0.10003647 -0.18074231
0001a0 e2 46 9c 3d cd 46 1e be 3c e9 ac bd 65 7a 6d 3e
       0.07630707 -0.15456696 -0.084429234 0.23191221
0001b0 6e f4 1a 3d b7 f6 9a 3d 83 11 69 bd 1f 51 6b be
       0.037830763 0.07566588 -0.056901466 -0.22980164
0001c0 60 19 24 be 85 af 67 3e 0f 6a 70 be 6f 66 58 3e
       -0.16025305 0.22625549 -0.23477958 0.21132825
0001d0 bc 23 53 3c c8 7d 53 bb c8 4e 75 be 3e aa 79 3e
       0.012886938 -0.0032271016 -0.23955834 0.24381348
0001e0 d8 9a 14 3e 40 16 16 3d fb ff 9f bc da 51 74 3e
       0.14512193 0.036642313 -0.01953124 0.23859349
0001f0 2f 76 80 be d3 f0 1f 3e 50 97 84 3e fb 07 53 3e
       -0.25090167 0.15619211 0.25896692 0.20608513
000200 9a ab 36 3e c2 ad 8f be 6c 2e 45 3e f7 24 a5 bd
       0.17838898 -0.28062254 0.1925599 -0.08063691
000210 e7 5c 8f be 85 3f 35 be e7 83 be 3d 24 c7 92 3e
       -0.28000566 -0.17700012 0.09302502 0.28667557
000220 d0 46 6f be 4c 76 a8 3d 74 36 c0 bb aa 9b 89 be
       -0.23366857 0.08225688 -0.0058658663 -0.26876575
000230 3e bb 1d bd c9 56 31 be c7 a6 5a 3d 7c 58 81 3e
       -0.038508646 -0.17318262 0.053381708 0.2526282
000240 74 c3 33 3c 12 0b 6e 3e b0 f0 c4 bd ea cc 85 be
       0.010971893 0.2324641 -0.0961622 -0.261329
000250 28 50 1a be 9e e3 59 be b7 c4 6f 3c 17 ab 8e 3c
       -0.1506964 -0.21278235 0.014634303 0.017415566
000260 8a d6 88 3e b1 a6 33 3e a6 f3 b4 bd 59 31 af bd
       0.2672618 0.17544056 -0.08835535 -0.08554334
000270 46 20 0d 3d 8d 3e 22 bd 29 84 22 be ac a3 89 bc
       0.034454606 -0.039610434 -0.15870728 -0.016801678
000280 01 72 b8 ba 83 96 4e 3e eb 25 6c be ee bc 97 bd
       -0.0014072062 0.20174603 -0.2306134 -0.07409082
000290 9b 93 47 3d 8a 7b 00 3e 84 18 01 be 22 1d 39 3d
       0.048724752 0.12547126 -0.12607008 0.0451938
0002a0 29 5b 01 3e a8 4a 32 3d fe da b5 bd e1 68 5b 3e
       0.12632431 0.04352823 -0.0887966 0.21426727
0002b0 48 6a 90 be 7c 9b a2 bd 06 85 83 3e 23 73 eb 3d
       -0.28206086 -0.079398125 0.25687426 0.1149657
0002c0 ed d3 a9 3c 2f 9e 3d 3e bf f0 53 3e dd 9a 50 3e
       0.020730937 0.18517374 0.20697306 0.20371576
0002d0 7e 09 67 be b5 1e 81 bd 68 77 88 be cc f1 38 bd
       -0.22562215 -0.06304685 -0.266536 -0.04515247
0002e0 11 da 8a 3e 9c d9 3e be e9 f5 77 be ae b2 7d bd
       0.27119496 -0.18637699 -0.24214901 -0.06193798
0002f0 87 e9 96 bd c6 6c 86 3d 19 01 49 3e 18 52 39 3e
       -0.073687606 0.06563716 0.19629325 0.18097723
000300 88 6c c8 bd 72 73 8b 3e 2c 9c fd bc 70 4e 82 3e
       -0.09786326 0.27236515 -0.030958258 0.25450468
000310 5b b8 96 3d 4c df 74 3d ae 9d 7d bd 7e 70 97 be
       0.07359382 0.059783265 -0.061917953 -0.29578012
000320 e7 c4 56 be c0 42 0c 3e 20 0d 45 3d 8c 11 32 bd
       -0.2097355 0.13697338 0.04810822 -0.043473765
000330 d8 d3 39 3d 8b 7a 4d 3e b0 89 25 3e 2b 83 57 be
       0.045368046 0.20066278 0.16165805 -0.2104613
000340 80 f6 2d be b0 ac 32 bd 41 13 1a 3e d7 1f 46 be
       -0.16988564 -0.04362172 0.15046407 -0.19348083
000350 46 71 47 be a0 ec 05 3e 77 68 3d 3e 47 34 95 bc
       -0.19476804 0.13078547 0.18496881 -0.018213404
000360 a4 5f 55 3e 5e 0a 43 3d 90 f2 f8 bc 3f 43 a7 3d
       0.20837265 0.04761731 -0.0303891 0.08167123
000370 28 0b 4e 3e 22 b5 6f be 46 41 99 3d 65 d6 95 bd
       0.20121443 -0.2340894 0.07483153 -0.07316283
000380 f5 97 7c 3d 5f 77 71 3d 8f d9 1b be 6b 1d 61 be
       0.061668355 0.05895173 -0.15219711 -0.21983878
000390 e1 94 e5 bd 2e 27 d9 bd 1a 72 81 3e 94 f0 90 bc
       -0.11210037 -0.10603176 0.25282365 -0.017692842
0003a0 49 44 65 be 96 92 1d be 71 39 90 3e 3c 10 db 3c
       -0.2238933 -0.1538795 0.28168824 0.02674114
0003b0 63 63 c3 bc 2b 0d 83 be 5d cd 0b bc 1c 3b 9d 3d
       -0.023851102 -0.25595984 -0.008532849 0.0767729
0003c0 12 bd 15 be 2d 50 10 ba c8 60 c0 bd 41 7d 56 be
       -0.14622906 -0.0005505111 -0.093934596 -0.20946218
0003d0 94 e2 11 3e e9 f2 56 3e 32 7f 68 3e 42 20 2f bb
       0.14246589 0.209911 0.22704771 -0.0026722108
0003e0 5c f9 b1 ba 69 a4 b5 ba f8 3e 71 3d c4 a7 16 bc
       -0.0013578343 -0.0013858202 0.058897942 -0.009195272
0003f0 08 b9 8e 3c 57 21 57 be 1e 34 7e 3e ea 11 86 3c
       0.017422214 -0.21008812 0.24824569 0.016365964

input_embedding.bias f4 [64]
000000 07 a0 57 be 90 e3 7e be cd de 3a 3e d9 f6 64 bd
       -0.2105714 -0.24891496 0.18249054 -0.055899475
000010 3b 08 29 3d a0 22 24 bd 51 e5 57 be 62 be cd bc
       0.041267615 -0.040072083 -0.21083571 -0.025115196
000020 6d 22 b1 bd af 52 19 3d db 54 f4 bd 84 3e 08 be
       -0.08649144 0.03743237 -0.119302474 -0.13305098
000030 0c 25 5b be ce 84 8c bd c5 0f 21 3e 95 34 81 be
       -0.21400851 -0.06861268 0.15728672 -0.2523543
000040 6f be 09 be b1 f7 52 be 78 e0 e7 3d 6f 5d 52 bd
       -0.13451551 -0.206023 0.11322111 -0.051358636
000050 c5 7a ed bc c5 6c 0a 3e c5 76 4c be 8e d0 10 3e
       -0.028989205 0.13518055 -0.19967182 0.14142057
000060 87 d3 2f be 41 c8 5a be f2 c4 2d be d3 3d 31 be
       -0.17170535 -0.21365453 -0.1696966 -0.1730874
000070 20 08 f0 3c 22 93 8f 3e b2 4e 63 be 5a 5a bb bd
       0.02930075 0.2804194 -0.22197989 -0.091480926
000080 c7 9e ee bd 3e b6 8e 3e ee c5 92 3e c1 2b 2b bd
       -0.11651378 0.27873415 0.28666633 -0.041789774
000090 08 44 d3 bd 62 f6 13 3e ef 64 00 be d0 cb 68 3e
       -0.1031571 0.14449456 -0.12538503 0.22733998
0000a0 71 9b f8 3d 42 cf 85 3e 55 8a 99 3b e7 c3 86 bd
       0.12139023 0.26134688 0.00468568 -0.06580334
0000b0 b4 61 3b 3e 11 3a 0c 3d 60 4d 0c bd 8a 61 4e 3e
       0.1829899 0.034235064 -0.034253478 0.20154396
0000c0 64 18 87 3e 78 71 2d be be 59 45 3e 0b 45 82 be
       0.26385796 -0.16937816 0.19272515 -0.254433
0000d0 e3 cb ec bd a9 43 4f bd 73 a0 cd 3c f6 5d b3 3c
       -0.11562326 -0.050601635 0.025100922 0.02189539
0000e0 e1 a7 2d be 0a 7f 03 be a5 82 ab bc 89 72 81 3e
       -0.16958572 -0.1284143 -0.02093632 0.25282696
0000f0 7d d5 84 be 66 27 f5 3d c6 33 83 bd 41 17 f8 3d
       -0.2594413 0.11970405 -0.064063594 0.1211381

encoder.layers.0.self_attn.in_proj_weight f4 [192, 64]
000000 6c 97 1a be 09 af 47 3d 38 76 a6 3d c2 f0 df bd
       -0.15096825 0.04875091 0.08128017 -0.10934593
000010 db 62 a0 3d 04 b3 43 3d c4 65 13 3e d3 7b 6a be
       0.07831355 0.047778144 0.1439429 -0.22898798
000020 72 34 48 be 1b 59 e5 bd c6 11 43 3d 4c 7a 70 3c
       -0.19551256 -0.11198636 0.047624372 0.014677595
000030 0e 2c 27 bd 84 5c a8 3c 79 99 45 3e 7b 31 d4 bd
       -0.0408135 0.020551927 0.19296826 -0.10361
000040 f3 f5 00 3d 51 e8 4d be ee a2 4b 3e 6a 7b 85 be
       0.031484555 -0.20108153 0.19886371 -0.2607072
000050 40 d8 9d 3d 22 43 f8 3d 5f 82 46 3b 88 5f a9 bd
       0.07707262 0.121221796 0.003029011 -0.08270174
000060 ad ba ee bd 79 36 c6 3c 35 74 fa bd aa 6a ea bd
       -0.11656699 0.024195896 -0.12229196 -0.11446126
000070 8a 0b 6d 3e 27 2b 85 3e da eb 2c 3e 24 f7 a3 bc
       0.23148933 0.26009485 0.16886845 -0.020015307
000080 7a 40 3e 3b 26 80 0c 3e f1 1e 82 3e b7 ca 3f bd
       0.002903013 0.1372076 0.2541423 -0.046824183
000090 64 a9 e0 bb 59 e0 93 3d bb 69 1b 3e 5f b8 57 3d
       -0.0068561304 0.07220525 0.15177052 0.052666064
0000a0 62 93 1f 3e 22 cb 48 3b 6e 05 b5 bb 68 58 7c bd
       0.15583566 0.0030638655 -0.005524329 -0.06160775
0000b0 c6 91 a1 3e 8a c8 f3 bc fd 7b 36 be e8 63 03 3d
       0.3155653 -0.02975871 -0.17820735 0.0320777
0000c0 dc 4e fb 3d b1 72 70 bd d5 65 27 3e 78 73 0e be
       0.122709006 -0.05870313 0.1634744 -0.13911235
0000d0 e9 9b f4 bd 02 99 65 be d4 f5 e4 3d f1 d1 83 3d
       -0.119438 -0.22421649 0.111797005 0.064365275
0000e0 39 70 7c bc 1c 64 de 3c 02 40 da 3d 52 ab 46 3e
       -0.015407615 0.027147345 0.1065674 0.19401291
0000f0 81 e0 e9 bd 2e 3d 4a 3e 93 cd 7f bd 2f 61 0c be
       -0.11419774 0.197499 -0.06245191 -0.13708948
000100 41 40 1f be 26 37 b6 bd d8 1d 95 bd be d6 b1 bd
       -0.15551855 -0.088972375 -0.07281083 -0.08683537
000110 28 48 77 3e cf 02 c8 bd 8b 83 02 be 0f b1 74 be
       0.24148619 -0.09766161 -0.12745492 -0.23895667
000120 d8 c0 7b be cc 85 4a bd 4a ad b0 3c 06 33 40 be
       -0.24585283 -0.049444005 0.021567006 -0.18769464
000130 85 ac 90 be e8 b5 7e be 46 74 4e 3e db 92 7b be
       -0.28256622 -0.24874079 0.20161542 -0.2456774
000140 8b d5 7b bb cd e6 32 be 2d 3b 15 3e 7e 00 02 be
       -0.0038426842 -0.17470856 0.14573355 -0.126955
000150 d0 9e 82 3d c7 b2 ef bd 3e f0 0b be ef 1a 3b 3e
       0.06377947 -0.11704021 -0.13665864 0.18271993
000160 29 c8 05 bd 7e de 73 be d3 6c 5e be ee d3 94 be
       -0.03266159 -0.23815343 -0.217212 -0.2906794
000170 0f bf 48 3e 98 f6 69 3e 38 ac c7 3b a8 5f 10 be
       0.19604133 0.22847974 0.006093528 -0.1409899
000180 c2 96 c9 ba 32 ec 95 3d b0 d8 4c 3c 76 26 aa 3b
       -0.0015380012 0.07320441 0.012502834 0.005192573
000190 90 18 95 be 89 d9 08 3e d0 ea 26 be 92 95 04 3e
       -0.29120302 0.13364233 -0.16300511 0.12947682
0001a0 49 bf 0c 3e ab dd 6c 3e dd 7e f6 bc 9f 6d 08 be
       0.13744844 0.23131435 -0.03008979 -0.13323067
0001b0 24 10 a9 3e a1 57 96 3e cb 82 69 be 33 a2 aa bc
       0.33020127 0.2936373 -0.228038 -0.020829296
0001c0 70 22 aa 3e 85 ed 8e 3d 9e 09 98 3e 32 b7 02 be
       0.332294 0.06978897 0.29694837 -0.12765196
0001d0 3f 95 de bd b5 58 27 be aa e1 64 3d e6 ba d0 3d
       -0.1086831 -0.16342433 0.055879273 0.10191898
0001e0 bd 4f d5 bd 90 ed 9c 3d 03 b4 99 3d c9 f9 0c 3e
       -0.104155995 0.07662499 0.07505038 0.1376716
0001f0 5e 5c 73 be 89 7e a1 bd bb 1b f9 bd 10 26 f1 bd
       -0.23765704 -0.07885463 -0.12163492 -0.11774838
000200 aa e0 2e ba fc 82 f2 b8 68 1c 09 3c 0f b7 90 bd
       -0.0006671051 -0.00011563857 0.008368589 -0.07066166
000210 5c bc b0 3d 80 aa 1c bd e4 e4 0e 3e 37 f6 e1 bd
       0.08629677 -0.03824854 0.13954502 -0.1103329
000220 19 a7 a9 3d 4e 0a e6 bd 57 9e 39 3d 1b 8c 3c bd
       0.082838245 -0.11232434 0.04531702 -0.046032052
000230 9e 64 86 3d 49 66 dc bc 31 53 ee bc 7c 11 a9 bd
       0.0656216 -0.026904242 -0.029092403 -0.08255288
000240 82 b8 e6 bd dc ab 7f 3b 9c 5f ee bd 9d 9c e0 3c
       -0.11265661 0.0039012348 -0.1163933 0.027418429
000250 06 45 cf 3d 88 60 9f bd f2 66 9e 3c 50 6e da 3c
       0.10120587 -0.07782084 0.019336198 0.02666393
000260 54 ce 22 3d c3 d8 40 3e 41 f0 73 bd 99 df 3f 3e
       0.03974755 0.18832688 -0.059555296 0.1873764
000270 07 53 c1 bd fa cf 37 be c0 89 08 3e 33 b3 be bd
       -0.09439664 -0.1795043 0.13333797 -0.09311523
000280 b5 5a 89 bd cf 93 02 be 9a 78 86 3b bc 5c b1 bd
       -0.06706754 -0.12751697 0.0041037323 -0.08660266
000290 7b c7 46 3d 78 2f 12 be 20 77 a1 bd 04 37 16 be
       0.048530083 -0.1427592 -0.078840494 -0.14669424
0002a0 31 ab 00 be 65 2f 58 be 8c 1f 64 3d 67 0b 2d 3d
       -0.12565304 -0.2111183 0.055694148 0.042247202
0002b0 d0 7a ce bd c7 94 e0 bd 56 90 13 3e 18 85 84 bd
       -0.100820184 -0.10965877 0.14410529 -0.06470698
0002c0 0f 4d 6c 3c 29 72 9e 3d 60 a9 ea bd 0f 0e 57 bd
       0.014422669 0.07736618 -0.11458087 -0.05250364
0002d0 f6 b7 4a 3d 77 34 10 3e 3b 37 05 bc 7a 73 90 bc
       0.049491845 0.14082514 -0.008130844 -0.017633189
0002e0 2f 59 9c 3d de fb 16 3d 37 80 b5 3d 5e 15 18 3c
       0.07634198 0.036861293 0.08862346 0.009282438
0002f0 ac 18 fa bb ad d4 1e be 57 f2 c8 bd 3c 30 ba bc
       -0.0076323356 -0.15510817 -0.09811848 -0.022728078
000300 49 c4 f9 bd 3d 1a 1e be 36 18 a9 3d 0c ea eb bd
       -0.121956415 -0.15439697 0.08256571 -0.1151925
000310 e5 a0 72 bd 53 9c 42 be 7d db 97 3d 3c 1f 3c be
       -0.059235472 -0.19004945 0.07414911 -0.1837129
000320 93 80 90 be 43 f0 63 bd 14 70 44 3e 1f 33 c8 bd
       -0.28223094 -0.055649053 0.1918338 -0.097753756
000330 41 00 7c bc cd d0 2a be b4 dc 45 bd 03 e6 03 be
       -0.01538092 -0.16681214 -0.048306182 -0.12880711
000340 c8 cf ee 3c 91 2a 0e be 47 62 94 3e 53 3f 3b be
       0.029151812 -0.13883425 0.2898123 -0.18285875
000350 4e 69 15 3e d4 02 89 3d 21 7d 95 be ec 41 22 3e
       0.14590952 0.066899925 -0.29197028 0.1584546
000360 99 05 c8 bd a4 d2 13 bd 15 4f 53 be 29 e7 91 be
       -0.09766693 -0.036089554 -0.20635636 -0.28496674
000370 7b f8 60 3e e0 66 f3 3d c8 d6 35 ba 3c f8 ab bd
       0.21969788 0.11884856 -0.0006936607 -0.08396956
000380 b9 56 72 bd e7 e2 65 3c 12 19 20 3c 19 3f ae 3d
       -0.059164736 0.0140311485 0.009771602 0.08508129
000390 fe df 84 be e4 bb d6 3d ef b9 ea bd a2 6f 76 3e
       -0.25952142 0.10485056 -0.11461245 0.24066022
0003a0 6a 48 3f 3d 00 23 4e 3e 4a 38 60 3d da 56 08 be
       0.04669992 0.20130539 0.05474118 -0.13314381
0003b0 81 21 12 3e ee c2 8e 3e ed c6 04 bd c5 5f 4b bd
       0.14270593 0.27883095 -0.032416273 -0.04965188
0003c0 f8 65 87 3e 6d 7a 35 3d eb 74 64 3e ab 7e b1 bd
       0.26444983 0.044306207 0.22310226 -0.08666738
0003d0 8f c8 1d bc 02 1a da bd 48 82 fb bd 3a 21 54 bd
       -0.009630336 -0.10649492 -0.122807086 -0.0517895
0003e0 67 eb 79 be f0 51 5d 3b 97 50 0e 3d a1 5e 5f 3e
       -0.24406205 0.0033770762 0.034744825 0.21813442
0003f0 80 42 26 be d3 aa 23 3e 59 96 5b be 9e 9a 13 3c
       -0.16236305 0.15983133 -0.21444072 0.009009032

encoder.layers.0.self_attn.in_proj_bias f4 [192]
000000 16 04 8e 3d ab 10 fe 3d 0a ea ec bc 5c 2b a4 3d
       0.06934373 0.12405523 -0.028920192 0.08016083
000010 16 3d d8 3d ff 0e 9c bd 98 47 c9 bd 88 78 98 3d
       0.10558526 -0.07620048 -0.098281085 0.074448645
000020 b7 c8 99 3d cb 57 98 3d a9 6b 91 bd 47 ac 3a 3d
       0.075089864 0.0743862 -0.07100613 0.045574453
000030 1d 24 b2 bd 7e 81 68 3d 16 ea 23 bd ea 96 84 bd
       -0.08698294 0.05676412 -0.040018164 -0.06474097
000040 7f a4 7a bc b7 67 aa 3b 82 13 8f 3d 0e 50 9e 3d
       -0.015298008 0.005200352 0.06986143 0.07730113
000050 9d 28 29 3d 53 10 64 3d 9e 9a 7d bc a7 8b a4 3d
       0.041298497 0.05567963 -0.015478758 0.08034449
000060 e4 40 1f bd a2 b5 22 bd cc 43 16 3d c5 9d 15 3d
       -0.038880244 -0.039724 0.03668575 0.036527414
000070 ef 44 58 bd ed 20 85 bd 8c 1e 24 bd bb 6e 25 3d
       -0.052800115 -0.06500421 -0.040068194 0.040388804
000080 ce fe 19 3e 70 a1 d9 3d 11 e2 fd bd 78 c9 c4 bd
       0.15038607 0.10626495 -0.12396634 -0.096087396
000090 5a 1f 90 3d 92 6e d2 bb 49 b6 0b 3d 6d d9 8c bc
       0.0703723 -0.0064218724 0.034109388 -0.01719352
0000a0 a3 5c bb bd 42 18 7b bd ed 00 2d 3e fe c4 aa bd
       -0.091485284 -0.06130243 0.16894884 -0.083383545
0000b0 42 36 74 bd e4 8b 05 bc 41 95 95 bd 55 cc 59 3d
       -0.059622057 -0.008151028 -0.073038585 0.05317338
0000c0 47 f3 22 bd 1c c6 3a 3c c0 7e 78 bd 24 b8 ae 3a
       -0.03978279 0.011399772 -0.060667753 0.0013330025
0000d0 c6 b6 22 bd a3 b0 31 bb 5e f0 88 bd cc bc ce 3b
       -0.039725088 -0.002711334 -0.066864714 0.0063091274
0000e0 ef 5e af bd 37 d2 4c 3d 94 0c 88 bd 76 1d 54 3d
       -0.08563029 0.050005164 -0.06643024 0.05178591
0000f0 1c cf d4 3c ef 8d 9a 3b 2f 24 69 3d b2 08 b1 bc
       0.025977664 0.004716627 0.056919273 -0.021610592
000100 15 0e 2d 35 e4 3f f0 b4 bb 17 54 b3 8d e8 b7 35
       6.4468014e-07 -4.474997e-07 -4.938168e-08 1.3702244e-06
000110 39 3c e4 35 af 94 81 b5 4d 6f a7 b5 5a 7a c7 35
       1.7004851e-06 -9.654522e-07 -1.2474862e-06 1.4862264e-06
000120 c0 af f4 35 b5 41 29 36 86 3e 94 b5 5e bc 1f 35
       1.8230567e-06 2.522121e-06 -1.1045056e-06 5.9506226e-07
000130 bc 9a 61 b6 d7 63 8c 35 f7 11 8c b5 b8 a0 34 b6
       -3.361768e-06 1.045987e-06 -1.0436041e-06 -2.691564e-06
000140 5a e4 98 b4 a1 a7 4b b4 a6 dc ef b4 f9 04 1f 33
       -2.8478354e-07 -1.8966831e-07 -4.4677762e-07 3.7024595e-08
000150 4e 4e 44 b5 b7 01 9b b5 a5 3b 1a 34 17 3a 21 34
       -7.312964e-07 -1.1548899e-06 1.4364066e-07 1.5015426e-07
000160 64 54 28 35 cd d8 ee b3 26 7e 4a b5 13 60 8d b4
       6.270768e-07 -1.11221745e-07 -7.5434434e-07 -2.63332e-07
000170 a5 0a 72 35 e1 86 88 35 86 a5 4e 34 87 d4 4a b5
       9.0167515e-07 1.0172045e-06 1.9245462e-07 -7.556013e-07
000180 71 78 6b b5 c1 28 76 b5 30 5e 0c 35 5a 1d f0 34
       -8.771959e-07 -9.1701446e-07 5.2291125e-07 4.472484e-07
000190 77 bf 86 b5 d0 dd 6b b5 cb df 06 b5 85 34 6d b4
       -1.0039502e-06 -8.78671e-07 -5.024455e-07 -2.2091452e-07
0001a0 41 d0 82 34 80 84 04 35 84 15 a4 b5 0a 8a 4f 35
       2.4365912e-07 4.9366645e-07 -1.2225214e-06 7.731438e-07
0001b0 51 02 03 35 aa 83 f0 34 e6 f0 9b 33 af b6 27 b5
       4.8804674e-07 4.4799282e-07 7.261569e-08 -6.247819e-07
0001c0 f2 a1 d2 b1 f6 00 08 b5 cc d5 4f b5 30 c3 84 34
       -6.1302154e-09 -5.0665346e-07 -7.7424625e-07 2.4728934e-07
0001d0 c2 94 82 33 9f 1d a9 b2 65 38 a0 34 2e 1a a1 b4
       6.0806556e-08 -1.968766e-08 2.9843355e-07 -3.0007635e-07
0001e0 ef 91 c4 b4 e8 73 3c b5 d1 2e 38 b5 57 10 4f 35
       -3.6614026e-07 -7.0204123e-07 -6.861347e-07 7.7137287e-07
0001f0 59 74 31 35 59 e1 9b b4 89 7e a0 b4 ce 3a 7d 33
       6.6106946e-07 -2.9034962e-07 -2.989439e-07 5.8959635e-08
000200 c5 5f 1e bc de 8b 34 bc 29 42 a2 ba 9a b7 34 3c
       -0.009666388 -0.011019675 -0.0012379336 0.011030102
000210 68 5a 05 bc cc d1 8c 3b 5d 23 8d bb 86 b1 59 bc
       -0.00813923 0.0042974707 -0.004307194 -0.013286954
000220 c8 b0 7d 3c 55 61 17 3c 2b 82 8c ba 4b 5e 85 3a
       0.0154840425 0.009239514 -0.0010719945 0.0010175196
000230 55 72 a9 bb c5 db 8d 3c c1 06 58 3b 91 45 c3 bb
       -0.0051711 0.017316708 0.003296301 -0.0059592207
000240 6f 8e f9 3b 1b 11 24 3c e0 cb 39 3c 5f 04 1a 3c
       0.0076158564 0.010013844 0.0113401115 0.009400456
000250 10 69 50 bc 41 3d 0d bc 2e ad 9b bc e3 d4 9f ba
       -0.012720361 -0.008620561 -0.019003477 -0.0012194182
000260 f5 af 74 bc 75 26 12 bc f1 e4 16 bc 13 bc 83 3a
       -0.01493453 -0.008920302 -0.009209857 0.0010050557
000270 ed 2b e7 ba 6d d6 8d bb a1 ba 5c bc f9 aa 48 bc
       -0.0017636992 -0.00432854 -0.01347223 -0.012247794
000280 0f 6c 86 bb 6d 23 a0 3b 34 6f 46 bc 20 ec 5c 3b
       -0.004102237 0.0048870356 -0.012111474 0.0033710077
000290 b3 2e 3c bb 8f 27 d7 3c 99 59 42 3b 29 a6 eb ba
       -0.0028714358 0.02626398 0.0029655455 -0.0017978597
0002a0 79 3d c1 bb 53 6e 12 3b 48 b4 43 bb 46 2a ab 3b
       -0.0058972207 0.002234359 -0.0029862095 0.0052235452
0002b0 05 70 3b bc 28 cf ad bc 33 08 d5 bb cb fd bd bb
       -0.011440282 -0.021216944 -0.0065012216 -0.0057980767
0002c0 55 a1 8a 3b dd 1f f6 ba dd 11 08 3c 3e 44 27 bc
       0.004230658 -0.0018777807 0.00830504 -0.010209141
0002d0 b2 d7 2a 3c 09 2a fe 3b 7c 37 ff bb 6d d6 f5 bb
       0.010427402 0.007756476 -0.0077885967 -0.007502368
0002e0 2c e6 0d 3c 99 bb 60 3c 83 a6 2f 3c 02 44 f0 bb
       0.008660834 0.013716602 0.010720852 -0.007332326
0002f0 11 81 8e bb 97 f9 0f bc cb 78 4d 3b 19 0c 9d bb
       -0.004348882 -0.008787534 0.0031352516 -0.004792702

encoder.layers.0.self_attn.out_proj.weight f4 [64, 64]
000000 8b 12 02 3e 3a 8f 76 3d 56 81 db bd a8 ce c3 bd
       0.12702386 0.060195185 -0.10718028 -0.09560901
000010 7e cf fa bd 49 f5 8d 3c 71 46 23 bd 14 4d 16 bd
       -0.12246607 0.017328875 -0.0398621 -0.0366946
000020 cd 0f ed 3d 41 87 ba 3c 2b 9a a2 bc 9a 0e ed bd
       0.115752794 0.022769572 -0.019848904 -0.11575051
000030 f8 ab c2 bd 96 87 56 bd 89 3c 69 3c c7 d3 a6 3d
       -0.09505457 -0.0523754 0.014235624 0.08145862
000040 d5 d6 2e 3d 82 da be 3d 9b 65 c7 bd 7c a3 0d 3c
       0.04268535 0.09319021 -0.097361766 0.008644935
000050 39 df e8 3d d2 9c c6 bd 4a 2c e7 3d 2b bd aa 3d
       0.11370701 -0.0969788 0.11287744 0.08336862
000060 6b 3c bb bd c5 c2 03 be fe e2 c3 bd 7b 48 9c 3c
       -0.09142383 -0.12867267 -0.0956478 0.01907753
000070 cd 6c 95 3d 15 30 de bc fd 7a c4 3d 9f 52 8a bc
       0.07296143 -0.027122537 0.09593771 -0.0168851
000080 a3 96 a5 3c ec 15 f8 bd 1a 28 77 bd 3a cf 9c 3d
       0.02021343 -0.12113556 -0.06034098 0.07656713
000090 ba 19 a3 3d 4a 2b 95 3d 0f d5 e9 3c 9f 02 a7 bd
       0.07963891 0.07283647 0.028543977 -0.08154797
0000a0 15 47 41 3d 3f eb 7e 3c 26 5b 09 bd 86 29 cc 3a
       0.04718693 0.015559017 -0.03353419 0.001557634
0000b0 e5 c6 9c 3d 2f 91 11 bd d7 ec 53 bd f3 c4 c4 bd
       0.076551236 -0.03553885 -0.05173954 -0.096078776
0000c0 f8 54 39 3d 51 c1 fd bd 60 b1 6c bc 46 c0 15 3d
       0.04524705 -0.12390388 -0.014446586 0.03656032
0000d0 42 e0 f1 bd f0 00 8b 3c b8 71 7f bd b8 06 b0 bd
       -0.11810352 0.01696822 -0.06236431 -0.085950315
0000e0 b8 30 79 bc 11 79 eb bc f9 f3 b5 3d 6f 66 69 bd
       -0.015209369 -0.028744252 0.08884425 -0.056982454
0000f0 26 dc cf bc 53 ff a4 3d ed 6d 81 ba 15 8a 47 3d
       -0.02537353 0.08056512 -0.0009874679 0.04871567
000100 88 8b b4 bc 74 a3 99 bd 67 9d 08 be 5d 5e 86 3d
       -0.02203919 -0.07501879 -0.13341294 0.06560967
000110 b2 b2 2b bc b2 5c d8 bd c3 43 05 3d 93 df 19 3d
       -0.010479616 -0.10564555 0.032535326 0.037566733
000120 56 a1 9d bd 7d 52 98 3d 3b 5d f0 3d 68 ef 09 3d
       -0.07696788 0.074376084 0.11736532 0.03367558
000130 22 10 1c bd bf ce 16 be a0 e2 7c 3d 41 f9 1b bd
       -0.038101323 -0.14727305 0.061739564 -0.038079504
000140 0c 97 86 bc e4 74 b6 bd ac 8a 85 3d 84 f4 15 3d
       -0.016429447 -0.08909014 0.0652059 0.03661014
000150 52 3d 2b 3d f3 74 d6 3d 22 24 9b bd 18 0a bf 3c
       0.041806526 0.10471525 -0.07575251 0.023320243
000160 1d 57 a2 3c 65 c8 b4 3d 88 1e 3c 3d 80 bd 84 3d
       0.01981693 0.08827285 0.045927554 0.06481457
000170 29 54 00 3c 3f 5b e2 3d 72 bc cf 3d b8 88 13 bd
       0.007832565 0.1105256 0.10143365 -0.036019057
000180 55 be ea bd bc fc 23 3d 7b 3a df 3d 0a 8a 96 bd
       -0.11462084 0.04003595 0.10899826 -0.073505476
000190 74 cf 97 bc fe 1e 8d bc 10 e2 07 bc e5 37 92 3d
       -0.018531539 -0.017226692 -0.008293644 0.07139567
0001a0 7e fc 41 bd e7 1a 07 3d f4 20 34 3d 9c 0c 7e bd
       -0.047359936 0.03298464 0.04397674 -0.062023744
0001b0 70 e2 bc 3d 48 cc 0b 3e ce 45 e5 3d 35 a7 f4 bd
       0.09222877 0.13652146 0.11194955 -0.11945955
0001c0 de 44 ae 3d 56 77 10 bd 22 44 1f bd fb ca 49 3d
       0.08509229 -0.035270058 -0.038883336 0.049265843
0001d0 44 fb 1c 3d 41 1a b2 bd f0 8d f8 bd 6e 86 43 bd
       0.038325563 -0.08696414 -0.121364474 -0.047735624
0001e0 56 b9 0b 3c a3 2c 4d 3d 87 14 31 3b 38 70 ce 3d
       0.008528074 0.050091397 0.0027020292 0.10079998
0001f0 20 7f f6 bd 11 0f d2 bd 0d b3 85 3d a7 69 a3 bd
       -0.12035966 -0.1025678 0.06528292 -0.07979136
000200 68 89 1f 3d 48 e3 cf 3d 55 f8 ac 3d 1b 11 75 bc
       0.0389494 0.10150772 0.08445803 -0.014957692
000210 e0 e8 71 bd 76 4b b3 3d cd 90 fc 3c 00 c9 92 bd
       -0.059059978 0.087546274 0.030830765 -0.07167244
000220 ba 63 6b bd 79 64 a4 bd 54 a3 dd bd 79 c5 03 3d
       -0.057468154 -0.08026976 -0.10822168 0.032170746
000230 33 f8 47 bd 06 0b 2f bd 24 fa 25 3d ca b7 96 bd
       -0.048820686 -0.042735122 0.040521756 -0.07359274
000240 54 08 47 3d 63 a9 ea 3d 82 77 a7 3d 37 2c 33 3b
       0.048591927 0.11458089 0.08177091 0.0027339587
000250 66 2f 09 bd 2b bf ed 3c fe 27 e8 bd 71 b9 d2 3d
       -0.03349247 0.02902182 -0.11335753 0.102892764
000260 1d d3 6b bd ba 3a a7 bd 6b 4c e4 bd 7b c0 d4 bb
       -0.05757438 -0.08165498 -0.11147388 -0.006492672
000270 1f 92 d2 bb 2d 62 9d bd a7 00 51 3d 80 0c ee 3d
       -0.0064261104 -0.07684741 0.051026013 0.11623478
000280 dd 36 7a 3d 5f e3 b6 3d ae 25 c2 3d 19 d8 8c 3c
       0.061087478 0.08930086 0.09479843 0.017192887
000290 23 32 1e bd f7 d8 8a bd 42 a5 ce bd e8 6a 49 3b
       -0.038622033 -0.06779664 -0.10090114 0.0030733887
0002a0 79 36 2e 3d 46 62 02 be 9b 75 cb bd 28 16 df 3d
       0.042532418 -0.12732801 -0.09934541 0.10892898
0002b0 b9 e2 af 3d 60 e1 32 bd 8a c1 42 3c 21 cc f0 3d
       0.08588166 -0.043671966 0.011886964 0.117576845
0002c0 f0 32 0a 3b 91 df a7 bd 54 66 a1 bd 2e a0 cc 3d
       0.002108749 -0.08196939 -0.07880846 0.09991489
0002d0 ed 32 42 bd 6d 1e c2 3d a6 08 d7 bd 0a fb 32 bd
       -0.047411848 0.094784595 -0.104996964 -0.04369644
0002e0 17 a3 11 bd 90 6d e9 bc c6 f4 a6 bd 70 2b af bd
       -0.035555925 -0.028494626 -0.081521556 -0.08553207
0002f0 11 7e 57 bc de 69 d1 3c fd f0 7c 3d 00 0c c7 bd
       -0.013152615 0.025563177 0.06175326 -0.09719086
000300 18 80 40 3b 12 d5 82 bd 32 e4 d6 bd e0 b1 22 bd
       0.0029373225 -0.06388296 -0.104927436 -0.039720416
000310 7a c8 bf 3c 1b 28 17 3d 66 b9 f2 3d c9 80 72 bd
       0.023411024 0.036903482 0.11851768 -0.05920485
000320 60 ed cd 3c b9 bb 04 be d5 10 b3 3d 9b 24 aa bd
       0.025137603 -0.12962236 0.08743445 -0.08307763
000330 82 c3 3e 3d b8 c9 e4 bd 7a d1 ea bd 54 9e 0a be
       0.04657317 -0.11171287 -0.11465736 -0.1353696
000340 96 18 b1 3c 3a 22 22 3d 31 cd f2 3c 39 87 db bd
       0.021618169 0.039583422 0.029638859 -0.10719151
000350 f0 5e f3 3d 96 1a 6f bd 87 15 8f 3d 72 97 37 3d
       0.11883342 -0.058374964 0.06986528 0.044822164
000360 74 42 91 3d a3 4c 95 bd c4 37 f7 3a 65 06 97 3d
       0.07092753 -0.07290008 0.0018861224 0.073742665
000370 06 68 a9 3c b2 56 4f 3d bf d4 4f 3d 26 f0 10 bd
       0.020679485 0.05061979 0.05074 -0.035385273
000380 df 13 c7 3d 81 f9 d4 bc a0 5e d9 3c 89 0a 7e bc
       0.09720587 -0.025997879 0.026534379 -0.015505441
000390 f1 b3 9a 3c 9a b1 ba 3d cd 47 5b bd 45 53 dc bc
       0.01888463 0.09115906 -0.05353527 -0.026895175
0003a0 ed 44 08 be e6 cd 74 bd 6e 6a a3 bd 9e 41 ce 3d
       -0.13307543 -0.059766673 -0.07979284 0.10071109
0003b0 92 3a 60 3d b7 16 dc bd 2a 81 ad bc ea 7c b2 3d
       0.054743357 -0.1074652 -0.021179754 0.08715232
0003c0 7d 90 5f 3d ae 07 14 bd 8d 8b 03 3e 8f 7a df 3c
       0.054581154 -0.036140136 0.12846203 0.02728012
0003d0 c1 31 ca bd c7 ec d5 bd f9 df d7 bb 46 89 05 be
       -0.09872771 -0.10445552 -0.006587979 -0.13040647
0003e0 b4 d1 5d 3d 52 a7 9b 3b 1a 08 a5 bc fb ec 81 bc
       0.054155067 0.0047501707 -0.020145465 -0.015860071
0003f0 07 59 f4 3c f6 64 a3 3d 91 91 51 3d fb 50 d7 bd
       0.029827608 0.07978241 0.051164214 -0.10513493

encoder.layers.0.self_attn.out_proj.bias f4 [64]
000000 99 5b ae 3b 9d 86 91 bc 81 3f a3 bb d4 1a 1a 3c
       0.005320978 -0.017764384 -0.0049819355 0.00940581
000010 bf fd 55 3b 26 4c 03 bc b3 91 09 bc e2 d0 9c bb
       0.0032652465 -0.008013761 -0.008396554 -0.004785643
000020 95 f9 9a 3b b5 99 b2 bb 96 d2 cb 3b f9 ba 3a 3b
       0.0047294595 -0.005450452 0.006220172 0.0028492792
000030 d4 59 9f 3b 30 f2 27 3c 9f c6 68 bb b7 f5 f0 bb
       0.0048630033 0.010250613 -0.0035518778 -0.0073535102
000040 58 61 48 bc 38 fb 21 bc ca 8e 1d bc f5 97 00 bc
       -0.01223024 -0.009886555 -0.009616563 -0.007848729
000050 74 30 57 3c ce 98 8e bb 68 07 0b 3d 10 4f a5 bb
       0.013134111 -0.004351712 0.03394261 -0.0050448254
000060 3b c2 0a bc 23 0d 2a bb 50 d4 26 bc 00 a9 cc 3b
       -0.00846916 -0.0025947772 -0.010182455 0.0062457323
000070 68 5c 27 3b b0 f1 e2 bb 78 2a c7 3b 91 ad 76 bb
       0.0025537256 -0.006925784 0.0060780607 -0.0037640075
000080 8d b1 a2 bb 5e e2 0b bc ca ec 23 3b 85 fa af 3b
       -0.0049650134 -0.008537857 0.0025012963 0.0053704404
000090 ad ac 68 bc e2 a5 96 3b f2 d0 0b 3c 0c cd 05 3b
       -0.014201325 0.0045974115 0.008533703 0.0020416407
0000a0 d1 79 0f 3c 81 06 18 3b 29 a4 61 3c 06 c1 f6 3b
       0.008757071 0.0023197236 0.013772049 0.0075303344
0000b0 82 81 d4 bb ca ea cf bb 73 62 fa ba a1 4b 13 3c
       -0.006485165 -0.0063451277 -0.0019102826 0.008990199
0000c0 c6 2e 9c bb f9 5c 74 bc 09 4f b8 3c ea 06 58 bb
       -0.004766318 -0.0149147445 0.022498624 -0.0032963105
0000d0 e3 ad 33 bc 07 4d 19 3c 7a 6f 0b bc 4c c3 eb 3b
       -0.010966751 0.009356744 -0.008510465 0.007194912
0000e0 4c e6 27 bc c3 dc 05 bc 2d 9a 38 bc 2e 6b 42 3c
       -0.010247778 -0.0081703095 -0.011267227 0.011866374
0000f0 80 b7 05 b9 54 82 63 bb 76 c2 73 ba d5 c6 28 3c
       -0.00012752227 -0.0034715133 -0.00092986913 0.0103013115

encoder.layers.0.linear1.weight f4 [256, 64]
000000 9e e8 2a bd c9 81 69 3d 1e d0 0f 3d 61 4d e6 3c
       -0.041725747 0.05700854 0.035110585 0.028113069
000010 be ce ae 3d 2a 31 f6 bd 3c 33 c9 3d 31 7a b1 3d
       0.08535527 -0.12021096 0.09824225 0.08665884
000020 a4 2b ae bd 18 7f 3a bd b4 2f 36 bc 4d 8e 8c 3d
       -0.085044175 -0.045531362 -0.011119772 0.06863079
000030 c5 25 b8 bd 11 e3 d9 3c 6d 7c 96 bd 08 d4 92 3d
       -0.08991579 0.026597532 -0.07347951 0.07169348
000040 76 4c 4d 3c 91 bd 79 3d 3f 2f f5 bd 04 ca 84 bd
       0.012530437 0.0609718 -0.11971902 -0.06483844
000050 90 e1 c4 3d c0 d6 6b 3d 9c 5e a5 3d 1e bc 0b 3e
       0.09613335 0.05757785 0.08074686 0.1364598
000060 b2 df 4b 3d 7e 37 c7 3c c0 53 ec bd de ca af bd
       0.04977388 0.024318453 -0.115394115 -0.08583616
000070 0c d7 9f bc 1f cd a2 bc 9b 72 e8 3d 14 ad 0c 3d
       -0.019511722 -0.0198732 0.11349984 0.034344748
000080 5f d0 86 bd 5c c3 09 bc 16 c6 d5 bd 46 d2 5f bd
       -0.065827124 -0.008408394 -0.104381725 -0.05464389
000090 c1 c8 9b 3d c8 58 fc 3d 6a fa 2c 3d e5 49 1b bd
       0.0760665 0.12321621 0.042231 -0.03791227
0000a0 ea 89 99 bd 6b d1 27 bd 73 f5 83 bc 85 2c 09 be
       -0.07497008 -0.0409712 -0.01610825 -0.13395889
0000b0 4d e4 f0 bd 43 2e bd 3d cd 35 17 3e ea 9d 9b 3d
       -0.11762295 0.09237339 0.14766617 0.07598479
0000c0 92 d3 dd 3d 3c 41 0b bd ba db 34 bd 62 8d dd bd
       0.108313695 -0.03399776 -0.04415486 -0.10817982
0000d0 c1 5a c9 3d 86 5e 9f 3d b8 0e d6 bd 5b f0 d9 3d
       0.09831763 0.07781701 -0.10452026 0.10641547
0000e0 84 05 0e 3d c4 73 d1 3d 02 ce c1 bd ee ff 05 be
       0.03467323 0.10227159 -0.09463121 -0.1308591
0000f0 d3 31 62 bd 7e 68 87 bb 7a b2 81 3d 33 c9 ca bc
       -0.055223297 -0.0041323295 0.0633287 -0.024754142
000100 b5 38 96 bc dd 97 39 3d b8 08 67 bd 29 03 07 3d
       -0.018337587 0.045310844 -0.0564048 0.032961998
000110 62 23 a4 bd f3 86 b6 bd a7 63 c6 3d 5a 74 9f 3d
       -0.08014561 -0.08912458 0.09686976 0.07785864
000120 93 14 11 bd cf 5f b6 bd b5 9d ae bc e2 77 ff bd
       -0.03542001 -0.08904993 -0.021315435 -0.12474038
000130 ab c7 00 be f3 86 b2 bc 14 52 9c 3c cd 98 ba bc
       -0.12576167 -0.021792864 0.019082107 -0.02277794
000140 7b ac e8 3d 07 32 d6 bc f7 59 0c 3e ba c3 35 3d
       0.11361023 -0.026146902 0.13706194 0.044376113
000150 cf 3f a4 bc e1 8a 87 3d 60 e8 57 bd d0 f6 c6 3d
       -0.020049958 0.06618286 -0.052711844 0.097150445
000160 54 75 83 bd ae bf d6 bd 7f 1e 6b bd 22 2a 6f 3d
       -0.06418863 -0.10485779 -0.05740213 0.05838979
000170 c4 a5 2e 3c 2d bc e9 3d 94 23 ae 3d ae da 05 3e
       0.010659639 0.11412845 0.0850288 0.13071701
000180 92 e0 dd bc b3 c6 68 3c 5a 66 dd 3d 2d 0b 87 3b
       -0.027084623 0.01420753 0.10810538 0.0041212053
000190 59 c7 0d 3d 8d e9 43 3d ed 13 a5 bd 86 88 ae bd
       0.03461394 0.047830153 -0.08060441 -0.085221335
0001a0 df ba c4 bd 87 71 7d bc 07 ed 51 bd 52 81 d8 bd
       -0.09605955 -0.015468962 -0.051251438 -0.10571541
0001b0 3b 84 d5 bd 6d 30 3d 3d be bc 48 3d 31 f7 d2 bd
       -0.104256116 0.04618876 0.049008124 -0.10301054
0001c0 ae 20 9b 3c f5 3b cd 3d 97 cb 02 3e 75 e4 8e bd
       0.018936481 0.100212015 0.12772976 -0.069771685
0001d0 e3 50 4d bd 50 90 a4 bd 2c a4 dc 3c 11 8c 9b 3d
       -0.050125968 -0.08035338 0.026933752 0.07595075
0001e0 88 53 51 3b 92 21 5f 3d 57 b9 37 3c d0 00 5c 3d
       0.0031940658 0.054475375 0.011213622 0.053711712
0001f0 d6 46 55 ba a0 a6 34 3c 5a 64 ea bd 63 fe 81 bc
       -0.00081358606 0.011026055 -0.11444922 -0.015868371
000200 4f 6f a0 3d 77 fe 26 bd db 94 2f 3d 79 a6 63 bd
       0.078337304 -0.04077002 0.04286657 -0.055578683
000210 72 08 df 3d 8d 73 ae bc a7 f1 ba 3c 83 4b 0e bd
       0.10890283 -0.021295333 0.022820307 -0.034739982
000220 26 2f 23 3c 06 7c 58 bc 56 6d dd bd ac 0e c1 3a
       0.0099599715 -0.013213163 -0.1081187 0.0014729104
000230 39 c2 e0 bd dd d1 84 bd 37 b2 04 bd 24 bd 96 bb
       -0.10974545 -0.06485341 -0.03239652 -0.004600184
000240 ae 95 07 3d 99 49 b4 3d 46 f1 62 bd 78 0b 9a bd
       0.03310173 0.088031 -0.055405878 -0.07521719
000250 87 03 7c bc e2 2f a7 3d c1 65 ed bd d5 df e4 bd
       -0.0153817 0.0816343 -0.11591674 -0.11175505
000260 8f d1 c7 3d 0a 56 e9 bd 55 59 db bd a6 b6 54 3d
       0.09756767 -0.11393364 -0.10710398 0.051932
000270 9f f3 84 bd ba a4 9c 3d 56 d4 0d 3e 77 45 91 3d
       -0.064917795 0.076486066 0.13850531 0.070933275
000280 06 1d 96 bd a3 df 92 3d 92 3c e6 bd 2d e0 2a 3d
       -0.073297545 0.071715616 -0.112420216 0.041717697
000290 3c 62 b7 bd ba 59 4e bd c3 ea fc 3d ae 06 d3 3d
       -0.089542836 -0.05037854 0.12349465 0.103040084
0002a0 68 11 81 bd 05 15 02 3e ad 42 51 3c f1 5a 64 3d
       -0.06302148 0.12703331 0.012772244 0.05575079
0002b0 48 d0 d8 3d e5 56 15 bb 82 13 31 3d 0e 0c 8d bd
       0.105866015 -0.002278739 0.043231495 -0.06887065
0002c0 f8 cd 50 3c af f2 ed bc 32 6b b4 bc d7 8f 62 bd
       0.012744419 -0.029046385 -0.022023771 -0.055312958
0002d0 d0 df e2 3d ab 97 35 bd 60 0a ab bd e1 f3 78 bd
       0.11077845 -0.044334095 -0.08351588 -0.060779456
0002e0 fe 7e 03 be 06 80 64 3d 75 e4 dd 3d 44 3c 43 3c
       -0.12841412 0.055786155 0.1083459 0.011916224
0002f0 84 51 f7 bd 45 b2 4f bc 91 22 2a 3c 65 1b bb ba
       -0.12076095 -0.01267678 0.010384218 -0.0014275132
000300 0a 73 99 bd 9b 89 18 bd ee 1e 79 3d 9f ea 9d bc
       -0.07492645 -0.037240606 0.060820512 -0.019276915
000310 2a be a1 3d 19 55 0f 3b e8 1e 96 3d 97 14 c7 3d
       0.07897599 0.002187079 0.07330114 0.09720724
000320 c7 e3 a2 bd 6c 4f 76 bd 8e e3 ff 3b 24 54 53 bc
       -0.07953601 -0.060134336 0.007809109 -0.012898479
000330 77 9d 09 bd 66 62 6e 3d 3a 02 7d bd 15 ac c6 bd
       -0.033597436 0.05819931 -0.0617697 -0.09700791
000340 d3 bf 3c 3d ae 76 d1 3c 3d 37 e5 bd 83 90 fa 3c
       0.046081375 0.025569286 -0.111921765 0.030586487
000350 af 3f cf 3d 20 d9 1b 3c 89 87 58 bd 9b 2b 29 bd
       0.101195686 0.009512216 -0.05286363 -0.04130135
000360 10 7c 29 bd 8b 2a b4 bd c8 dd 4b bd c3 da 9b bc
       -0.04137808 -0.08797177 -0.049772054 -0.019025212
000370 a0 36 a0 bd 62 61 a5 3d aa fd b7 bd 95 14 30 bd
       -0.07822919 0.08075215 -0.089839295 -0.04298838
000380 9c 04 9c 3d ba a3 32 bb b9 12 6b bc c7 f8 0f 3d
       0.07618067 -0.0027258233 -0.014347726 0.035149362
000390 c9 77 c4 3d e7 d7 8d 3c 0e 68 a9 3c 53 cc ac ba
       0.0959316 0.017314864 0.0206795 -0.0013183452
0003a0 c5 b9 22 3d 97 50 9a bd 0c 07 92 bd ca 85 b9 3d
       0.039727945 -0.075349025 -0.0713025 0.09058721
0003b0 ac d8 b8 3d 04 a1 f4 bc b7 aa e0 3d 87 6f a9 bd
       0.09025702 -0.029861934 0.10970061 -0.08273225
0003c0 5f 26 8b 3d 5c ee f6 3b 5f c0 98 3d 07 ba 88 bd
       0.06794428 0.007535739 0.07458567 -0.06676107
0003d0 2b 64 fb bb 93 2b 4c bc 2b f8 b8 bd 21 c5 9b bd
       -0.007671853 -0.012461561 -0.09031709 -0.07605959
0003e0 09 a3 af bd 8f 5f f4 3c a7 61 04 3d 23 90 9a 3d
       -0.08576018 0.029830722 0.03231969 0.07547023
0003f0 d3 19 16 3d 94 e2 24 bd 68 1a e9 bd 8b 98 ac bd
       0.03664572 -0.040255144 -0.1138199 -0.08427533

encoder.layers.0.linear1.bias f4 [256]
000000 da 1c bf bc 7a 37 95 3c f4 02 a1 bd cc e1 85 bd
       -0.023329187 0.01821493 -0.078618914 -0.06537208
000010 e7 a4 ed bc bb d0 55 3d 31 0f f5 bd 9c 39 96 bd
       -0.029009296 0.052201014 -0.11965788 -0.07335207
000020 61 41 c8 3c cd 66 ce 3c 55 7d f8 3c d8 49 eb 3d
       0.024445238 0.025195504 0.0303332 0.11488694
000030 e8 0b 12 bd bb 72 a9 bd 16 1d a8 3d ad 1d ce bd
       -0.035655886 -0.08273836 0.08208673 -0.10064254
000040 df f4 cf bd 07 15 94 bd 8b f5 9d 3d 59 a7 8d 3d
       -0.10154127 -0.07230573 0.07712849 0.06916685
000050 d3 bf 5e bd 3a 51 b5 bd 6a 58 b0 bd 5f b8 89 3c
       -0.054382157 -0.08853383 -0.08610614 0.016811548
000060 1f fa 05 3e 98 3b 49 3d 45 d4 19 bc 32 8c a5 3d
       0.13083695 0.0491291 -0.009388988 0.08083381
000070 ad 11 f0 bd ab 6e b2 bd 15 10 d3 bd 99 ec 02 bd
       -0.117221214 -0.087125145 -0.10305802 -0.03196392
000080 cb 24 b1 3d db 19 46 3d e7 80 74 3d e1 da d8 bd
       0.08649596 0.0483645 0.059693243 -0.10588623
000090 d3 41 fd 38 59 65 64 bd 1d e9 22 bc c7 3e 98 3d
       0.00012076241 -0.055760715 -0.009943274 0.07433849
0000a0 c4 7b 52 3d 08 27 fe bc 9b e3 ab bd d9 c2 16 3d
       0.051387563 -0.03102447 -0.08393022 0.036806915
0000b0 8e 8a 55 bd 63 08 5c bd 55 15 96 3d 17 83 0c bd
       -0.05213409 -0.053718936 0.073282875 -0.034304705
0000c0 67 50 bc bd c1 63 a7 3d 37 c7 38 bd 7a cb 96 3d
       -0.09195023 0.081733234 -0.04511186 0.07363029
0000d0 20 f3 8d 3a 20 45 49 3c 5b 39 02 bd a4 0f e7 39
       0.0010829903 0.012284547 -0.03179298 0.00044071407
0000e0 71 99 18 3b 94 a1 eb 3d 6e 46 e9 bc 77 01 85 3d
       0.0023284818 0.11505428 -0.028475966 0.0649442
0000f0 aa b2 88 3d 5f 11 53 3d 10 31 16 bd dc 6b c9 bc
       0.066747025 0.05153024 -0.036667883 -0.024587564
000100 57 a9 3a 3c 95 f8 aa bd fb cc a0 bd 83 53 a0 bd
       0.011392913 -0.083481945 -0.07851597 -0.078284286
000110 50 f8 9d 3d 7f e4 a5 bd f8 41 e3 3b 40 54 d0 3d
       0.077133775 -0.08100223 0.0069353543 0.101723194
000120 9e 22 6a bd 24 c8 42 3d f8 87 29 3d e5 c1 35 3c
       -0.05716192 0.04755415 0.041389436 0.011093591
000130 b3 3c ba bd 1a a4 bb bd a2 5f 4f bd 56 5e 16 bd
       -0.09093609 -0.09162159 -0.050628312 -0.03671106
000140 89 cf 71 3d 63 7c c6 3c d5 01 2e bd 51 9e 57 3d
       0.05903581 0.024229234 -0.042482216 0.052641217
000150 e7 7d c5 bc 3f 14 3e 3d 10 3d ac 3d 45 6a 05 3e
       -0.024107886 0.046406027 0.08410084 0.1302882
000160 c3 c9 8c bd 7d 29 8e 3d 2a 61 28 3b 38 0e b8 bd
       -0.068744205 0.06941507 0.002569268 -0.08987087
000170 e1 fc 02 3e 5d fa b1 bc 7c a9 f3 3d b7 45 ae bc
       0.12791778 -0.021725828 0.11897561 -0.021273477
000180 0f 74 ca bc c7 8c 54 bd 06 5a c7 3d 7a 0d 99 bd
       -0.024713544 -0.05189207 0.097339675 -0.074732736
000190 9e 47 c7 3d b6 f2 62 bd b1 47 bb 3d 96 78 99 bd
       0.09730457 -0.05540725 0.091445334 -0.07493703
0001a0 cb 1c d8 3c 21 c7 ae bd 42 9c d4 bc 7d 97 a8 3d
       0.026380917 -0.085340746 -0.025953416 0.08232019
0001b0 02 76 ac 3d 51 47 cd 3d 87 f1 39 bc aa 0f 6d 3d
       0.08420946 0.10023368 -0.0113490885 0.057876267
0001c0 86 f8 4e bd 8d 64 61 3d b1 5d 36 bd 0b fc 89 bc
       -0.05052998 0.055027533 -0.044522945 -0.016843816
0001d0 2f 44 b1 bd 42 b1 e3 bc 68 c4 9d 3d 86 38 40 3c
       -0.08655583 -0.027794484 0.07703477 0.011732226
0001e0 72 9d bb 3d 56 64 ae bd db 27 c7 bd 76 4f c3 bd
       0.0916089 -0.08515231 -0.09724399 -0.0953664
0001f0 bb 92 06 3e ff 5c cf bc e8 2b a9 3d c2 e0 88 3d
       0.1314191 -0.025312899 0.082603276 0.06683494
000200 ac 49 cd bc c6 75 90 ba d7 f2 fb bc ac ab 7d 3d
       -0.025059544 -0.0011021427 -0.030755443 0.061931297
000210 50 1b 87 3d dd 23 b5 bc af 3b eb bd 8b 21 a1 bd
       0.06597006 -0.022111828 -0.11485993 -0.07867726
000220 3b fb 26 ba d3 fa f0 bd 3d 0b 88 3d 9b 83 e2 bd
       -0.0006369834 -0.11766591 0.066427685 -0.11060258
000230 c7 15 83 bd ab ef 80 bd e9 bd cd 3d e1 f8 92 bc
       -0.06400638 -0.06295713 0.10045988 -0.01794094
000240 1f 7b d4 bd c8 93 2d bd 76 8e ad bd 3a 85 c8 bd
       -0.10375046 -0.042377263 -0.08474438 -0.09791036
000250 71 88 71 bd 19 b8 27 bd ff 44 87 3d a6 1b 8c bb
       -0.05896801 -0.040947054 0.06604957 -0.004275757
000260 0b e6 21 bc 4f 1c cc bc 3e 20 8f bd b2 ab 57 3c
       -0.009881507 -0.024915842 -0.069885716 0.013163494
000270 9e ef 8b bd 38 2b 91 bd 42 e1 97 3d c5 d0 99 bc
       -0.06832813 -0.070883214 0.074160114 -0.018776307
000280 a8 00 69 bd 25 23 02 3e c4 2c ce 3a 79 ce 05 3e
       -0.05688539 0.12708719 0.0015729894 0.13067044
000290 d8 32 69 3c 06 72 3c bc 77 0b a2 3d 3e 25 a4 bc
       0.0142333135 -0.011501795 0.07912343 -0.02003729
0002a0 65 51 bd bd 42 dd ff 3d a1 44 bf bc 20 fe 6a bd
       -0.092440404 0.124933735 -0.023348155 -0.05737126
0002b0 c4 1a 07 3d b7 f8 d2 3d 7a 61 a3 bc 66 c7 88 3d
       0.03298451 0.10301345 -0.019943941 0.06678657
0002c0 df ff 18 bd 70 3e 1d bc 1d 96 d5 bd 47 d8 9f 3d
       -0.037353393 -0.009597406 -0.104290225 0.078049235
0002d0 ff c2 eb bb 95 c0 b0 3d 7e 95 94 bd c7 aa 6d 3d
       -0.007194876 0.08630482 -0.07255076 0.058024194
0002e0 e4 e5 b4 bd 5c 53 bc bd 7a c0 5d bc 4c 38 ec bc
       -0.08832911 -0.09195587 -0.0135346595 -0.028835438
0002f0 31 97 35 3d 84 12 8c bd c2 c3 87 bd 87 6a ac bd
       0.04433364 -0.06839469 -0.06629135 -0.08418756
000300 46 1a 10 bd 86 3c cf 3d 91 de ce 3d b0 21 cf bd
       -0.035181306 0.10118966 0.10101045 -0.10113847
000310 2f 16 ac 3b cd 50 b2 3d 38 d8 17 bd bd 0c 85 bb
       0.005251668 0.08706818 -0.037071437 -0.0040603564
000320 c5 33 24 3d 8a b6 6d 3d 03 d9 fd 3c f5 b0 cc bd
       0.040088434 0.05803541 0.030987268 -0.099946894
000330 c8 85 02 3d c7 a4 ca 3d 66 d0 d4 bc 28 72 b4 bd
       0.031865865 0.0989471 -0.025978278 -0.08810836
000340 33 6a 82 bd bd 74 27 bd 87 dc ed bd 98 67 bb bd
       -0.06367912 -0.040882815 -0.11614328 -0.09150618
000350 49 3c ba bc bb 3f cf bd 47 51 eb bc 32 47 06 3e
       -0.022733824 -0.101195775 -0.02872528 0.13113096
000360 38 1c 28 3d 9a 19 08 3d ec fa 46 3c c1 3b e6 bd
       0.041042536 0.03322754 0.012144785 -0.11241866
000370 7b 9e 7b 3d 90 b9 09 bc cd 50 dd bd 75 8d ea 3d
       0.061430436 -0.008406058 -0.10806427 0.11452762
000380 e2 5c 9d 3d b1 87 45 3d aa 3d 68 bd 34 14 c4 3d
       0.076837316 0.04822511 -0.056699432 0.09574166
000390 17 88 c4 bd de 81 7d 3d 02 63 ae bd 9a 8e 8e 3d
       -0.095962696 0.06189143 -0.08514978 0.06960793
0003a0 69 b6 52 3d 18 20 1b 3d 56 8e f7 3d 8b f0 56 bd
       0.05144349 0.037872404 0.12087695 -0.052475493
0003b0 b4 78 ce 3d dd 58 00 3d f3 09 f4 3d 94 57 07 bc
       0.10081616 0.031334747 0.1191596 -0.008260626
0003c0 b7 0f bc ba 1e 36 be 3d f0 26 be 3d 0a bd 57 bc
       -0.0014347945 0.09287666 0.092847705 -0.013167629
0003d0 87 c8 74 bd d8 9c 08 bd e6 a3 10 3d ee 46 c4 bd
       -0.05976155 -0.033352703 0.035312556 -0.09583841
0003e0 10 f6 c6 3c bc 41 e3 bd 6d a1 72 3d c3 63 e6 3d
       0.024287254 -0.11096522 0.05923598 0.11249497
0003f0 3b 08 69 bd 7a 5f 77 3d 80 7d 87 bd 5b 2c 66 bd
       -0.056892615 0.060393788 -0.06615734 -0.056194644
