save_results/autoformer_short_term_90d_run4.pt (torch, 437661 bytes, 28 tensors)

input_embedding.weight f4 [64, 12]
00000000: 282a 10bd f865 ad3c a771 81bd ebac 3ebd
00000010: d754 83be 5b24 aabd 3a67 f03d 4bd7 28be
00000020: 8388 09bd f192 41be 16d5 873e 1763 23bd
00000030: 7166 dc3c 7d54 6bbe 6b12 4c3d 6f43 843d
00000040: 5856 823e 6319 8fbd f56d 413e 84d3 82be
00000050: 05f7 873e 08e9 69be 2879 193e e496 15bc
00000060: 328b 17be 04ee cdbd 470b e83d 4872 74be
00000070: a3fc 20be 5423 473e 363d 2abe ab61 d13d
00000080: 1560 2abe 4d31 36bb 61b1 0cbe e069 85bd
00000090: aa10 793e 2af6 56be 38bb 7c3e 9d26 ef3d
000000a0: abd1 423e 7acd 7abd 5d51 30be 2568 f93d
000000b0: 9c90 0bbd b20f b9bd 9ef6 f33d 5992 323e
000000c0: 9dc0 783e d648 39be 7c43 223e f8d7 483e
000000d0: f636 67be e0ac 44be e90e 96be ad1b 85be
000000e0: 8543 46be c76f bb3d 174c 0c3e 7606 81bd
000000f0: 19be 623e f8ea 3bbe 8ac7 26be af82 17be
00000100: 87b1 093d 092c debd 87a7 363e 2976 7ebe
00000110: f724 5dbe 6f39 80be b077 df3d 1743 6dbe
00000120: 4ffa 313e 9dbe 833e 0364 5f3d e545 313e
00000130: d6b3 52bd f6c9 36be 6159 04be 3222 d83d
00000140: c185 ed3c 6765 bbbd cd62 8a3e e733 273e
00000150: c0b9 e43d ea9f 563d 28c5 633d 37a8 30bd
00000160: b682 7fbe 4b65 48be 0cb1 38bd df98 aabc
00000170: 9e5e 583e f4cb e43d 0277 94bc 4420 00be
00000180: 31aa 543d 9f98 06be ac24 323e 0081 1e3e
00000190: ba65 95bc 4282 b43b 5a30 293e bbe4 62be
000001a0: 0eb3 aa3d 019f 1f3e 43bd ef3d 4d39 81be
000001b0: 5bff 02be 3ecd 133e 465d 303e e133 053e
000001c0: d515 8a3c 9f6b 62bd 457d 43be 9b65 57bd
000001d0: 5447 dd3d ece7 31be 6b04 f33d 4d68 33be
000001e0: c090 463c 279b 4bbd bfbe 5ebe bfc7 a23c
000001f0: 2f46 a3bd 425f 35be 2ba1 663d cc3a 22be
00000200: 6920 3ebe 069d 07be 91c3 79be 0fc1 7cbe
00000210: c2b2 8e3e b42e 3a3e 1d1b 05be 055d 62be
00000220: a710 8fbc 8c0a f23d 8609 8a3e 9330 283e
00000230: a2b7 5cbd 3376 04be 63c0 7cbd 1a05 69be
00000240: 1fc9 7bbe c890 3f3e 2447 2bbe 4810 20be
00000250: 636b 533c 6a03 6e3e e6b8 2fbe 225a 8a3d
00000260: c869 cf3d 552a 63be 480d a4bc 8367 13be
00000270: 68e4 24be 989d 7fbe a551 bfbc fb4a 0fbe
00000280: 14f8 c1bd 815b fabd 43e1 933e b517 94ba
00000290: fabf 01be 8d34 32be debd 3fbe 8f05 66bc
000002a0: a09e a13d f710 09be 7f50 2abe 4095 c43d
000002b0: 1b42 27be 8090 17be 36c1 783e 6fe0 82be
000002c0: f6ed 06be e36d 17bd e8c9 98bd 8c5f 66be
000002d0: 982f 06bd 9263 783e c8ea 5b3e 59b0 60be
000002e0: 60fa 7abe a0d4 673e 4e01 a83c 0119 223d
000002f0: f715 79be e62d 0dbe cce6 803d 3083 453c
00000300: 7c49 8abd aa77 433e 6725 47bd 292f a1bd
00000310: 39f1 63be 0c6e 93be efd9 8cbd a490 57be
00000320: 74ad d73b bb7e 2f3d bce3 f8bd 3387 563e
00000330: ca2b 1d3e b973 abbd a0e0 50be 364f 4a3e
00000340: 965f 12be e8c3 2ebd 209f 47bd c401 5abd
00000350: 9326 62be 54cc 6bbe 1ed1 613d bcd3 9f3c
00000360: 902b b33c a5f7 ef3d 27c6 7ebe cd44 0abe
00000370: 73cf 8dbe 72ad 4cbe ece8 8f3e dd5a 5ebe
00000380: 743f 50be 4df4 ffbd 9801 5abe 7730 3f3e
00000390: d8e6 583e 64c8 733e 4de0 793e 32e8 86be
000003a0: 23f4 223e d0d8 c53d 9549 513d 384e e13c
000003b0: 7ab9 cf3d 8041 61be ee14 693e b8dd 3f3e
000003c0: 2c1a 42be c111 bd3c 42c9 65be b6be 01be
000003d0: 6d60 cd3c 08c8 1fbe 23b6 9d3d 6f6e 09bd
000003e0: 69b9 863c e96d 37be a9a7 283c fbae fe3d
000003f0: cd3d e23d 2798 423e 1b96 65bd 50db 8cbe
-0.035196453 0.021166787 -0.063205056 -0.046551626 -0.25650665 -0.083077155 0.11738439 -0.16488378
-0.033577453 -0.1890371 0.2652976 -0.03988942 0.026904317 -0.22981448 0.049822252 0.064581744
0.254565 -0.06987264 0.18889602 -0.25552 0.26555648 -0.228428 0.14987624 -0.009130213
-0.14799193 -0.100551635 0.11330276 -0.2387172 -0.15721373 0.1944707 -0.16624913 0.10223707
-0.16638215 -0.0027800382 -0.1373954 -0.06514335 0.24322763 -0.20992342 0.24680793 0.11677287
0.19025294 -0.061231114 -0.17218538 0.12178067 -0.034073457 -0.09036197 0.11912273 0.1743864
0.24292226 -0.18094191 0.15846056 0.19613636 -0.2257956 -0.19206572 -0.2930825 -0.25997677
-0.19361694 0.09152179 0.13700901 -0.063000605 0.22142829 -0.18351352 -0.16287056 -0.14795946
0.03361657 -0.10848243 0.17837344 -0.24849762 -0.21596132 -0.25043818 0.109115005 -0.23170124
0.17380641 0.25731364 0.054538738 0.17311819 -0.051441036 -0.1785048 -0.1292472 0.10553397
0.028994443 -0.091502 0.27028504 0.16328393 0.111682415 0.0523986 0.055607945 -0.043129172
-0.24952206 -0.1956989 -0.04509072 -0.020824848 0.21129844 0.111717135 -0.018123154 -0.12512308
0.05192012 -0.13144158 0.17396802 0.15478897 -0.018236984 0.005508692 0.16522351 -0.22157566
0.08334933 0.15587999 0.11706021 -0.2523903 -0.12792723 0.14433762 0.17223081 0.13008071
0.016856113 -0.055278417 -0.19090755 -0.052587133 0.108046204 -0.17373627 0.11866077 -0.17520256
0.012119472 -0.04970851 -0.21752451 0.019870637 -0.07972371 -0.17712119 0.056306046 -0.15842742
-0.18567051 -0.13243493 -0.24391009 -0.24683021 0.27870756 0.18181878 -0.12998624 -0.22105797
-0.017463995 0.11818418 0.2696039 0.1642478 -0.053886063 -0.12935714 -0.06170691 -0.22755852
-0.2458844 0.18707573 -0.16726357 -0.15631211 0.012904021 0.2324349 -0.17160377 0.06755473
0.10127598 -0.22184117 -0.020025864 -0.14394955 -0.16102755 -0.24962461 -0.02335436 -0.13993447
-0.09471145 -0.12224484 0.288828 -0.0011298569 -0.1267089 -0.17402859 -0.18724772 -0.014039411
0.078915834 -0.13385378 -0.1663227 0.0959878 -0.16333811 -0.14801216 0.24292454 -0.25561854
-0.13176712 -0.03697003 -0.074603856 -0.22497386 -0.032760233 0.24256733 0.2147628 -0.21942271
-0.24509573 0.22639704 0.020508435 0.039574627 -0.24324785 -0.1378704 0.06294021 0.012055203
-0.06752297 0.19088617 -0.048619654 -0.07870323 -0.22259988 -0.28794897 -0.06877505 -0.2105127
0.0065819565 0.04284547 -0.12152812 0.20950012 0.15348735 -0.08371682 -0.20398188 0.19756779
-0.14294276 -0.0426673 -0.048735738 -0.05322434 -0.22085027 -0.23027164 0.05513107 0.019510143
0.021871358 0.11717156 -0.24880277 -0.13502808 -0.27697334 -0.19988039 0.28107393 -0.21714349
-0.20336705 -0.124977686 -0.2128967 0.18670832 0.2118181 0.23806912 0.2440197 -0.26349026
0.15913443 0.09660494 0.051095564 0.027503118 0.10142799 -0.21997643 0.2276189 0.18736923
-0.18955296 0.023079755 -0.22440055 -0.12670407 0.025070393 -0.1560365 0.077007554 -0.033552583
0.016445832 -0.17913021 0.01029388 0.124357186 0.11046944 0.19003354 -0.056051355 -0.27511072

input_embedding.bias f4 [64]
00000000: 8e81 223d 8066 5abe 3e95 10be fee8 8a3e
00000010: 700c ad3d e9a3 8b3e b5c5 513e 5e64 933d
00000020: a121 63be 508e 4d3e 9c0b bd3d 41b3 73be
00000030: dc97 63bd e39c ff3c 141d 673a 8d68 f33c
00000040: 9369 6bbd 1da3 b7bd ec2d f13d 9426 6a3e
00000050: d92b 8b3e 6321 e43d 0894 72be 7023 4f3e
00000060: f3f9 823e 4c4a 81bd 80ff b1bc 2df7 84bc
00000070: ea13 3bbe 5603 dfbd 242b b4ba 12a0 0e3e
00000080: 8a88 033e 9c87 b1bd 771a cabc 47fb c73d
00000090: d669 2ebe c78f 5e3b 0615 edbd b99e 2ebd
000000a0: 768c 9ebd 4060 833e 35cc c93c 3b4e 823e
000000b0: 57ef 4ebe 5f1b 8ebe cf2e 9dbd de6c 483e
000000c0: a60e 6bbe 0b67 053e 89ae b2bd 1840 9d3c
000000d0: c3ed 8c3e 6b28 a33d 3d32 0f3e 4eb6 74be
000000e0: a5df 413e 0b45 973e 5031 c83d 8221 1dbe
000000f0: e949 95bd 90e3 713d 5b9c 61be f4b3 123e
0.039674334 -0.21328163 -0.14119431 0.27130884 0.08449638 0.2727349 0.20485575 0.07196878
-0.22180797 0.20073819 0.0923073 -0.23798849 -0.055564746 0.03120274 0.00088162837 0.02971294
-0.05747373 -0.08966658 0.11776337 0.22866279 0.2718189 0.111391805 -0.23689282 0.20228362
0.2558132 -0.06312999 -0.021728277 -0.016231144 -0.18269315 -0.10889308 -0.0013745767 0.1392825
0.12845054 -0.086684436 -0.024670823 0.09764724 -0.1703256 0.003396021 -0.115762755 -0.04263184
-0.077416345 0.2565937 0.024633506 0.2545031 -0.20208488 -0.27755257 -0.07674944 0.1957278
-0.22954807 0.13027589 -0.08724696 0.019195601 0.27525148 0.079666935 0.13984008 -0.23897669
0.1893297 0.29544863 0.097750306 -0.15344813 -0.07289488 0.05905491 -0.22032301 0.14326459

encoder.layers.0.self_attn.in_proj_weight f4 [192, 64]
00000000: e02c 99bd 9b74 4f3c cdb1 5ebe d2c3 afbd
00000010: dcb0 37bd 98b2 c93d 8d0e 83bd ec2b aabd
00000020: dce2 1d3e f74a c3bb 062b e5bd 89af e9bd
00000030: 57b3 1bbe cdfd 0a3d 09cc 5abe 52d5 07be
00000040: 8428 30be ffe6 4d3c 7899 1abe cccf 223e
00000050: 56c7 82bd e1f2 2d3d 3fb0 1dbd 8e8c bf3d
00000060: 1cb6 57bd 8011 8abd d304 153d 3ca2 e2bd
00000070: cbe1 473d 250a 593e f057 3abd e07c 91bd
00000080: 5688 933d 6877 c63d 0632 67bd a5f3 e83d
00000090: 3956 8abb 37cc 3a3e 0b0f 15bd 72dd 1abd
000000a0: e50d 00be b0c9 663d 1f7a 863d 4787 a3bd
000000b0: c550 a9bc 6f15 503d 3021 89bd 07e4 51bd
000000c0: 918e 37be 9cb4 ab3d d070 15bd 2b4d 82bd
000000d0: a2ae a63c 9244 89bc 1cbc 39be e3eb d2bc
000000e0: 7bc9 3e3e 4552 563d 5c63 1c3b bc5e 5d3e
000000f0: 3556 f23d 1ea8 d93d 88e7 31be 625c 1d3c
00000100: d8fe cb3d d001 e63d 0b28 52bd a803 99bb
00000110: 2ee0 30bd 3ead eb3d 5408 9bbd ea84 37be
00000120: 455e e03d 7032 43be add6 4b3e f409 a43d
00000130: c7b9 e93d 9be8 a53d 0223 6d3d 3729 63bc
00000140: 3ff1 bb3c 84fb 2c3e d662 403e 80bb 0bbe
00000150: 6d39 1a3e ac0d 5fbd 4495 1a3e cdf9 14bc
00000160: a686 9ebd 4f09 0d3e 80c7 33bc a1df 3c3e
00000170: d1f2 58bd 7433 8fbd 3c4f 03bd f3de 053e
00000180: 2ae7 d83c 8c76 38be ee73 1dbe 919e b0bb
00000190: 0af8 213d a6b2 2cbe 7e68 e3bd c091 193e
000001a0: e25b 0abd 4941 e33d f51f 933d 0ba5 853d
000001b0: 5a4d c5bc 301f de3d 050a 203d e5b2 e2bc
000001c0: ff47 32bd ffb5 fbbb b215 ebbd fae9 c4bd
000001d0: dce7 ccbc 731a 42be 8891 dfbc 1a03 f93d
000001e0: 1592 433d 4ab1 96bd a1a0 1a3c c129 003d
000001f0: 6a02 cd3d 7baf 08be 85d2 81bd 481e 243e
00000200: bf1f 8ebc 78dc 08be 5479 083e 4efb c93c
00000210: 7738 13be 78b0 bb3a 8cc5 c4bd a92d c8bd
00000220: 9c81 adbd 9446 3d3c e97e 403d 6889 a93b
00000230: 845c babd b984 bbbd c68e b1bd 58dd 6c3d
00000240: 5b6c 0c3e 9bf1 c63d 0fad f0bb 4f03 1c3d
00000250: 0531 893d 2012 9f3d 04a3 5a3d 20fd 1b3e
00000260: 09b8 93bd fa80 bbbd 580e 0ebe 52f7 babd
00000270: 2ef8 00be a564 a7bd 6932 c43d f0fe 85bd
00000280: 98f4 8abd 9d4b 033e 5989 b33d a2e9 04be
00000290: c2f4 ccbd 22f2 083e 7b84 81bc 7bd5 623a
000002a0: 5b25 903d 3e01 fabd 6788 843c d093 143e
000002b0: f0bc ec3d f01f 27bb 857a f4bd fd0c 47b9
000002c0: a269 d93d c95f 16bd b807 eabc 3dbd 5c3d
000002d0: 1c4c a53d 1da1 f23c 14f6 603d aa79 0ebe
000002e0: 9ad0 09bc 2fa7 11be 9631 11be 6b0d 2b3d
000002f0: 63da 26bd 0822 003e 31d6 0bbe e355 aabc
00000300: e69f 043e 45b2 f83d f128 953d 5981 8e3d
00000310: 19e0 593d 7472 36be 5466 80bd 043c 213e
00000320: a3c0 ef3d f18e ce3d df35 20be 2cf7 c5bd
00000330: 8d67 773d 5c88 843d 6582 28be 47ed 1cbc
00000340: 4007 37bd 5602 aa3d 10d5 8e3d 402b d9bc
00000350: 755d 3ebd 29bc 613c 3429 24be 9c6f 6d3d
00000360: df48 80bd ae23 3bbe c324 f6bd 0392 db3c
00000370: 85af 753b 2e0d 41bd 7874 15be 95e1 1cbe
00000380: bd9a e7bd 1be0 783d 2b59 98bd 3f70 07bd
00000390: 2691 16be d56f d73c 7b0e 033e 5b09 bc3d
000003a0: d037 eebd a321 333e b7a1 ecbd a94a 6b3d
000003b0: cbe4 6a3d fd89 003d 3883 e43d fc2c 8bbd
000003c0: 813a d3bd 7350 613d 2c8b 1abe 839b 44bd
000003d0: 5e8c dbbd 0a5c 39bc b9a3 05be 1158 1dbe
000003e0: c003 41bc 4a0e d6bd 81d7 80bd 31e4 d43d
000003f0: 559c 323d 1674 4b3e 42af 0fbd 8c54 e7bc
-0.07479262 0.012662078 -0.21747513 -0.08582272 -0.0448464 0.09848517 -0.0639926 -0.08309159
0.15418571 -0.0059598642 -0.11189847 -0.11410434 -0.15205131 0.03393345 -0.21366896 -0.13264969
-0.17202955 0.012567281 -0.15097606 0.1589958 -0.063856766 0.042467955 -0.03849816 0.093529806
-0.052663907 -0.06741619 0.036381554 -0.110661 0.048799317 0.21195276 -0.04549402 -0.07103896
0.072037384 0.09690744 -0.05644419 0.113745965 -0.0042217043 0.18241964 -0.0363913 -0.037808843
-0.125053 0.056344688 0.065662615 -0.079847865 -0.020668397 0.05080169 -0.06695783 -0.051242854
-0.17925479 0.08384058 -0.03648454 -0.06362375 0.020346943 -0.01675633 -0.18138164 -0.025747245
0.18631546 0.052324552 0.0023862934 0.2161817 0.11832849 0.10627769 -0.17373478 0.009604545
0.09960717 0.112308145 -0.05130772 -0.0046696253 -0.043182544 0.11507653 -0.07569948 -0.17921796
0.109554805 -0.19062209 0.19906111 0.08009711 0.11412387 0.081010066 0.057894714 -0.013864807
0.022942184 0.1689282 0.18787703 -0.13645744 0.15060969 -0.054456398 0.15096003 -0.00909276
-0.07740526 0.13773082 -0.0109728575 0.18444683 -0.052965943 -0.06992236 -0.032057986 0.1307333
0.026477415 -0.18013972 -0.15376255 -0.0053899963 0.03954319 -0.16865024 -0.11103915 0.14997005
-0.033779033 0.110964365 0.0718383 0.0652562 -0.024084736 0.10845792 0.039072055 -0.027673194
-0.043525692 -0.0076816077 -0.114787474 -0.0961494 -0.025012903 -0.18955402 -0.027291074 0.12158795
0.047746737 -0.07358034 0.009437711 0.03128982 0.10010226 -0.1334819 -0.063389815 0.16027176
-0.017349122 -0.13365352 0.13327533 0.024655964 -0.14377008 0.001431956 -0.096079916 -0.09774334
-0.08471987 0.011552472 0.04699603 0.005173851 -0.09099677 -0.09156174 -0.0866981 0.057828277
0.1371321 0.09714051 -0.007344849 0.038089093 0.06698803 0.07767129 0.05337812 0.15233278
-0.07212836 -0.0915546 -0.13872659 -0.09129204 -0.12594673 -0.08173493 0.095799275 -0.06542766
-0.06784934 0.12821813 0.08766431 -0.12979749 -0.10007621 0.13373616 -0.015810242 0.0008653027
0.07038375 -0.12207268 0.016178323 0.14509511 0.115594745 -0.0025501214 -0.11937431 -0.00018982957
0.10615851 -0.03671244 -0.028568134 0.05389141 0.08071157 0.02961784 0.05492218 -0.13913599
-0.008411551 -0.14223932 -0.14179072 0.041760843 -0.040735614 0.12512982 -0.13655926 -0.020792907
0.12951621 0.12143377 0.072831996 0.06958265 0.05319223 -0.17817098 -0.062695175 0.1574555
0.117066644 0.10085858 -0.1564555 -0.09666285 0.060401488 0.06471321 -0.16455992 -0.009578056
-0.04468465 0.08301227 0.06974232 -0.026509881 -0.046475846 0.013777771 -0.16031343 0.057967767
-0.06263899 -0.1827533 -0.120187305 0.026803022 0.003748865 -0.04713171 -0.1459521 -0.15320428
-0.11308811 0.0607606 -0.074388824 -0.03306603 -0.14703807 0.026298443 0.12798493 0.09181472
-0.11631739 0.174933 -0.11554282 0.05744425 0.0573471 0.031381596 0.111578405 -0.067956895
-0.10313893 0.055008363 -0.15092152 -0.04799987 -0.10720132 -0.011313448 -0.13050736 -0.15365626
-0.011780679 -0.10451944 -0.06291104 0.103950866 0.04360612 0.19868502 -0.03507925 -0.028238557

encoder.layers.0.self_attn.in_proj_bias f4 [192]
00000000: cfa6 d83b adac e1bc ea8b 23bb d172 5fbb
00000010: d3c8 ceb8 d0d3 6f3c a880 fdba a319 523c
00000020: 7487 b23c 3eb1 15bc a3d1 0b3b 0b8f 48bc
00000030: 6eaa b23c e676 c7bc aa05 6c3c ed8a adbc
00000040: 5e5f 723d 10bf c63c f9e4 14bd 1ce6 583d
00000050: e0ed bb3c 77b4 83bd 6985 82bd bcbd 5c3d
00000060: 3f93 153d df31 63bd 2ead 9ebd c53b e8bc
00000070: 4656 91bd d1fb ed3b aaf1 68bd 6a39 c3bc
00000080: 999f 443d d9fe 333d 439a 863d 7e1d 28bd
00000090: 98e6 96bd b74d 6dbd c0db 84bd 5816 a9bd
000000a0: ac41 693d 1bdb 87bd 2365 403d 2e9b 7fbc
000000b0: bcf1 a63c 9804 553d 4f5b ab3d 62cd 903d
000000c0: 1d36 0f3c 95dc bcbc 6a36 1bbc 1578 15bb
000000d0: d0c7 393c 81ba 85ba 147f aabc f788 8cbb
000000e0: 99b6 20bc ad78 843c 0024 8dbb d81f afbb
000000f0: 5187 01bc 506b 72bc 7eeb e93b 9cb0 a93c
00000100: 5823 9b34 cea1 a3b4 2cc6 5a33 58ea 6f32
00000110: 21b2 89b4 52bc 71b3 810a 12b5 03c2 9334
00000120: 9568 2b35 e710 0034 e30e 8334 f005 ee34
00000130: 9452 97b5 ed9b f635 30ae 8234 765d fd34
00000140: 4bdd e5b4 6779 c134 ab27 bb35 85a7 abb4
00000150: 1963 73b5 4cb2 1635 ff5d 3f35 f7bb bbb5
00000160: 7034 1735 204c 47b5 616a fc33 bfd6 6734
00000170: a2fe 0cb6 264e 1236 c787 f9b4 4aae 4a33
00000180: 69dc 4cb6 9f6e 76b6 478a 8db6 31a1 e235
00000190: 0a4e 3c36 b889 5436 6e23 5f36 9266 9936
000001a0: c8fb 7fb6 3001 7e36 fdb7 44b6 49b5 9535
000001b0: ec0f 89b6 8902 40b6 a5bb 87b6 6cc5 5eb6
000001c0: 4633 8a34 2362 1834 69ea 3fb5 96f0 54b4
000001d0: 47ab 0635 d7cb 58b4 8098 f634 abd2 a0b3
000001e0: c53f 9534 c681 cab3 8819 8334 35e5 b434
000001f0: 497a 81b4 a088 bcb2 0e95 5535 54ed 0b35
00000200: d8e7 513b 65b0 0d3c b9ee 91bc 72c9 aabb
00000210: ac1d 11bc b722 e3bb a70c 19bc 2f7e 083b
00000220: 13a6 05bc 95ba 883c 59b1 95bb ee56 c73b
00000230: 4c77 903a 96aa 803b 59d7 9b3b 6362 3bbc
00000240: 70fa 3fbc b40f 153c 3fad 7e3c 005b 1ebb
00000250: 481a d1ba 071e 6abc 2801 043c 7fa7 e9bc
00000260: 64f4 e6bb 0c6b 72bc 850e f43a 3408 81bc
00000270: 397c 2a3c 78e5 86bc 1391 7e3c 302a 563c
00000280: ba29 b83c 2992 d239 90cd 02bb a087 463c
00000290: 5d98 093c de71 d339 f75c c03b 7f59 773c
000002a0: 1906 fd3b 0173 0d3c 3ab8 fa3b 9835 7fbc
000002b0: f6d2 b5bb 9759 29bc b25c 583c 6cff e73b
000002c0: 554e 31bc 78bd 17bc 836f e4bb 47b6 8abc
000002d0: 82aa d9bc 3262 29bc 044b 95bb de5d 75bc
000002e0: 3889 16bc 6bcf 4c3c 6a4a a7bb c1f2 7abc
000002f0: 3369 abbb 9dee 2a3b 88cd f5bb 6be7 bbbb
0.006611682 -0.027548159 -0.0024955221 -0.0034095536 -9.860252e-05 0.014637902 -0.0019340711 0.012823495
0.021793105 -0.009136496 0.002133467 -0.012241135 0.021809783 -0.024348687 0.014405647 -0.021184409
0.05917298 0.024261028 -0.036351178 0.052953824 0.022940576 -0.06430905 -0.06373102 0.053891882
0.036517378 -0.055467483 -0.07747875 -0.028348813 -0.070965335 0.007262685 -0.056871094 -0.023831088
0.048003767 0.043944214 0.06572392 -0.04104375 -0.07368201 -0.057935443 -0.064872265 -0.08256215
0.056947395 -0.06633588 0.04697145 -0.015600963 0.02037894 0.052006334 0.08367025 0.07070424
0.008740929 -0.0230544 -0.009473423 -0.002280717 0.011339143 -0.0010202677 -0.020812549 -0.0042887884
-0.00980916 0.016170824 -0.00430727 -0.0053443722 -0.007905797 -0.014796093 0.0071386686 0.020714097
2.8896716e-07 -3.0478844e-07 5.0937317e-08 1.3964915e-08 -2.5647844e-07 -5.628346e-08 -5.4404524e-07 2.7522046e-07
6.385465e-07 1.1927078e-07 2.4411483e-07 4.4335275e-07 -1.127441e-06 1.8373809e-06 2.4341125e-07 4.7192924e-07
-4.2815586e-07 3.6037383e-07 1.3944131e-06 -3.1973119e-07 -9.066876e-07 5.613881e-07 7.1289827e-07 -1.3987291e-06
5.632819e-07 -7.4244053e-07 1.1754015e-07 2.1591676e-07 -2.1009841e-06 2.1801184e-06 -4.6478655e-07 4.7190305e-08
-3.0526664e-06 -3.6721246e-06 -4.218225e-06 1.6885225e-06 2.8059608e-06 3.1670625e-06 3.3250212e-06 4.571696e-06
-3.8144517e-06 3.784964e-06 -2.9313371e-06 1.1154126e-06 -4.0847717e-06 -2.8611705e-06 -4.045158e-06 -3.3195493e-06
2.574181e-07 1.4191805e-07 -7.1494156e-07 -1.9831563e-07 5.016813e-07 -2.0190724e-07 4.593203e-07 -7.488901e-08
2.779981e-07 -9.429964e-08 2.4419228e-07 3.3694383e-07 -2.4117097e-07 -2.194821e-08 7.9565586e-07 5.2126893e-07
0.0032029059 0.008648013 -0.017814027 -0.0052120024 -0.008857172 -0.0069316286 -0.009341395 0.0020827164
-0.008157271 0.016690532 -0.0045682606 0.006083361 0.0011021881 0.0039265854 0.004755896 -0.011437031
-0.011717424 0.009097982 0.015544235 -0.0024163127 -0.0015953267 -0.014289386 0.008056916 -0.028522251
-0.0070481766 -0.01479603 0.001862005 -0.015750982 0.010405594 -0.016466841 0.015537518 0.013071582
0.022480834 0.0004016322 -0.001995895 0.012117296 0.008398143 0.00040329894 0.0058704573 0.015097021
0.007721674 0.008633376 0.007651356 -0.015576743 -0.00554883 -0.010336301 0.013205694 0.007080009
-0.0108218985 -0.009261481 -0.006971301 -0.01693262 -0.026570562 -0.010338353 -0.0045560617 -0.014975993
-0.009187989 0.012500624 -0.0051053064 -0.015316666 -0.0052310466 0.0026082166 -0.007501308 -0.0057343743

encoder.layers.0.self_attn.out_proj.weight f4 [64, 64]
00000000: 8738 3cbd f228 81bc a4cc 8ebd 93ba d83d
00000010: e817 a83c fb23 b43d 5cae c33d 2409 e7bc
00000020: d278 a03d 2790 fcbc 4b9d e3bd af37 e23c
00000030: 4492 913c bafd 8f3d 2bf6 283d 44cc c23d
00000040: 1e61 ffbc e58e 9abb 6b0f c53c d7dd c43a
00000050: 66e4 bb3d 5695 15bc 929d 36bc 8234 35bd
00000060: ac9e de3d 5101 1bbd 0b3e 9dbd 8b02 933d
00000070: 2873 423d f099 c8bd a2f8 d0bd 1e41 7abc
00000080: 2fb5 0cbe dc0b 133d 34bd bd3b afaf 9fbd
00000090: c5fc c23d 920c c8bd db13 09bc 770c e1bd
000000a0: 0f7e 123d b2bc cf3d 9184 9abd 9d2e d0bc
000000b0: 0c05 17bd 7ea3 7c3d 82a6 103d b903 0c3d
000000c0: 0439 fe3d 79d9 9ebd f3f0 2e3d 61be c3bd
000000d0: de06 1dbd 38a5 9fbd a1e5 4a3d d9a9 c23d
000000e0: ac3d 003d 8a2e 1ebc 6f2e 47bd 7bb6 e03d
000000f0: d08e d63d 9b9d 2f3d 7e32 30bc 8c42 ebbd
00000100: 324b f83d 8afe e93c 7126 fbbc c5d5 e9bd
00000110: 8344 153b d16b c43c bfd6 b43c c02c b83d
00000120: 6f4d ca3c cd91 18bc 6cda 723d 59fc 1fbd
00000130: 98d7 a4b9 8888 57bc 1e8f e73d 9521 aa3d
00000140: 6274 ba3d b923 c2bd 33b3 cfbd 2f3b b13d
00000150: 6ed0 abbd fb0b bdbc 5ee6 eabd 64ee 253b
00000160: 0aa1 71bc 0d4d 6a3d b0bf 07bd 7724 583d
00000170: 8588 54bc 8e63 d5bd 424c f9bd e78d b63d
00000180: f630 c93c 93d5 0c3e 7882 ca3d e971 7abd
00000190: 959c 1cbd 6656 8d3d 0116 b3bd ee11 0a3d
000001a0: 5d39 c5bd aaba 0abd eb68 93bd 9429 be3d
000001b0: 1f9a acbc 5696 0a3d 55e3 08bd f6a6 863c
000001c0: 3f55 e4bd f3c6 e43c 9532 d03c 6383 c4bd
000001d0: 3e9d 533c d67f 0c3e 2223 35bd 321b 24bd
000001e0: 1480 30bd b189 ec3d 354b 6bbd b242 31bd
000001f0: c2a5 dfbd eef8 9abd 027e a9bd 6ee3 d1bd
00000200: f2d6 aabd 664a 643d 0c35 f3bd 5d07 02bd
00000210: f958 b8bd 121d a03d d9fb 263d 112b a8bc
00000220: 6a76 73bd a13e 813d 1130 d3bd d459 c83d
00000230: a127 0fbe 06e5 ecbd 8816 73bd 45c6 ef3b
00000240: 30fc febc 3f7b 20bd 5be0 8a3d a0de e33d
00000250: e61c 323d 988a 77bd 0a1e df3d 0198 3cbd
00000260: fbd1 acbd 117b 89bc 9110 44bd 536f 783c
00000270: 96c5 ac3d 0340 9c3c 7d4b 963d 176b 013e
00000280: 88fc 453d 8414 a43c 3721 29bd a522 b43d
00000290: f98a 4d3d 961f 3b3c 28a6 4fbb d074 f4bd
000002a0: 3c9d 45bd 7274 afbb e647 6fbd eddb 02bd
000002b0: 75e8 a4bd db4c b33c 6670 a6bd 245e 70bd
000002c0: 5aca 5fbd 3fe4 693c 8ad3 903d cee6 0d3c
000002d0: 0cfd e5bc 805b d5bd d43f 85bd 420b c0bd
000002e0: 2bbb 603d 3fd8 023e aba7 aa3c f64f 8cbd
000002f0: 5ac6 b5bc 1dce e4bd 7374 8c3a 926c a53d
00000300: 8645 e2bc 4ffe f03d ccab 7c3d c5b8 d5bd
00000310: 3e2e 823d ed81 9e3d f322 823d 4668 df3d
00000320: 7a88 65bd abc8 a43c 90f0 ed3d efe2 dbbd
00000330: cf6a 6d3d fee7 b5bd fc33 15bd cf65 f0bd
00000340: 93dc 2cbd 9496 b33c a286 a53c f08c 613d
00000350: 3399 023e 9c06 5a3d 1e23 5cbd b70a 6abd
00000360: bca0 aa3c 6c74 a6bc e989 b0bd df4b f53c
00000370: 223e 8ebd 3c0d 99bd 4698 72bd 98e8 d03d
00000380: f2b8 623d 6d56 603d 329f dcbd 29f3 a03d
00000390: ed41 d3bb faba 91bd a066 973d 5d96 a1bd
000003a0: bf39 2e3d 5795 033e 2738 cebc bf1e 1cbd
000003b0: c9bb ecbd fedf 923d ca90 febd c7dd e3bd
000003c0: 87b4 7cbd d949 173c ac86 023e d60a bf3d
000003d0: 1716 ea3c d60c cd3c 5575 b7bc 8e42 fbbc
000003e0: 3a39 8e3c 0be8 d4bd b0cb 08be 3b08 84bd
000003f0: f032 46bc 8702 babd 9555 ccbd d203 1ebd
-0.045952346 -0.015766595 -0.06972626 0.10582461 0.020519212 0.08795925 0.09554741 -0.0282026
0.07835545 -0.030830456 -0.11113986 0.027614443 0.01776994 0.070308164 0.04125039 0.09511617
-0.031174239 -0.0047167414 0.024055203 0.0015019727 0.09174423 -0.009129843 -0.011145966 -0.04423953
0.10870108 -0.037843052 -0.076778494 0.071782194 0.047473103 -0.09794986 -0.10203673 -0.015274314
-0.13740991 0.03589998 0.005790377 -0.07797181 0.09520868 -0.097680226 -0.00836655 -0.109887056
0.03576475 0.10143413 -0.07544816 -0.025412852 -0.036870047 0.061679356 0.035315044 0.034183238
0.124132186 -0.07756323 0.042710256 -0.09557796 -0.038336627 -0.07795185 0.049535397 0.09505052
0.031308815 -0.00965465 -0.048628267 0.109723054 0.10476458 0.042874914 -0.010754226 -0.11487302
0.12123717 0.028563756 -0.030657979 -0.114177264 0.0022776432 0.023977192 0.022075055 0.089929104
0.024695126 -0.009312105 0.059290335 -0.039059017 -0.00031441147 -0.01315511 0.11306594 0.083071865
0.091042295 -0.0947947 -0.101416014 0.086538665 -0.08389364 -0.023077002 -0.1146972 0.0025319094
-0.014747867 0.057202388 -0.03314179 0.05276915 -0.012972002 -0.10419379 -0.12172748 0.089137845
0.02455948 0.13753347 0.09888166 -0.06114379 -0.038235266 0.06901245 -0.08744431 0.033708505
-0.09630082 -0.033869423 -0.07197746 0.09285274 -0.021069584 0.033834778 -0.033419926 0.016437035
-0.11149072 0.027926898 0.025414744 -0.095953725 0.012915907 0.1372064 -0.04422296 -0.040064998
-0.043090895 0.115497 -0.05744477 -0.043276496 -0.10920288 -0.07567011 -0.08275987 -0.10248457
-0.08341779 0.055735014 -0.11875352 -0.031745303 -0.09001345 0.07818045 0.040767524 -0.020528348
-0.0594391 0.06310774 -0.10311902 0.09782758 -0.13979961 -0.1156712 -0.05934766 0.0073173367
-0.031126112 -0.039180037 0.06781074 0.11126447 0.04348459 -0.060434908 0.10894401 -0.0460434
-0.08438488 -0.016782315 -0.04786736 0.0151632605 0.08436124 0.019073492 0.07338617 0.12638508
0.048336536 0.020029314 -0.04129144 0.087956704 0.050181363 0.011421105 -0.003168473 -0.11936343
-0.048245654 -0.0053544575 -0.058418177 -0.03194802 -0.0805215 0.021887233 -0.08126907 -0.05868353
-0.054636337 0.0142756095 0.07071598 0.008660985 -0.028074764 -0.10417843 -0.06506315 -0.09377147
0.054865997 0.12777804 0.020831903 -0.06851189 -0.022189308 -0.111721255 0.0010715857 0.08077349
-0.027621042 0.117672555 0.061687276 -0.104356326 0.06356476 0.07739625 0.06354322 0.109085605
-0.056038357 0.020115217 0.11618149 -0.107366435 0.05796319 -0.088821396 -0.03642653 -0.117381684
-0.042202543 0.021922387 0.0202058 0.05506605 0.12753753 0.05322896 -0.053744428 -0.057139125
0.020828597 -0.020319186 -0.08620054 0.029943405 -0.06945445 -0.074732274 -0.05922725 0.10200614
0.05535216 0.054769922 -0.107725516 0.07858879 -0.006447068 -0.07115741 0.07392621 -0.07890008
0.04253554 0.12849937 -0.02517326 -0.03811526 -0.11559255 0.07171629 -0.1242996 -0.11126285
-0.0616956 0.009233915 0.12746686 0.09328239 0.028574986 0.025030535 -0.022394815 -0.030671384
0.017361272 -0.10395821 -0.1335895 -0.06446882 -0.012097105 -0.09082513 -0.09977261 -0.038577862

encoder.layers.0.self_attn.out_proj.bias f4 [64]
00000000: e205 51bc 6594 eebb 388c ef3b 5278 7139
00000010: f2b1 21bc ba2e 29bc 03cc 0bbb da84 943b
00000020: 9b24 f0bb 351f 22bb 6623 33bc 2a1b 33bc
00000030: 7d06 c4bb 8061 b7bb f323 3fbb eb8d 783c
00000040: 6f03 3bbc f19e 2e3c 81c6 afbc d5bd 573c
00000050: 3105 bdbb 74e7 b93b 0afc 153b 18fd 273c
00000060: c151 16bb f8c7 043b fcce e1bb 4f42 7f3c
00000070: e189 183c fc1b ab3b ff9f 29bc 8b09 35bc
00000080: 0699 083c 3ffb 053d e561 0c3c cd16 d1bb
00000090: ef39 0fbc a855 4d3c 3d95 4fbc ac47 0dbc
000000a0: 4021 18bc 64a8 cabb 0873 a2bb e8bd cdbb
000000b0: 1c7b a3bb d6d6 6f3a f3ac 083c 81ee a0bb
000000c0: 809c 79bb dda8 1dbc fd9c 4e39 8e91 213c
000000d0: 5007 433c bcbf fa3b 98ef bd3b 476b 613a
000000e0: d12c b63a 994a 50bb 348a 6bbb 63ed b8bb
000000f0: 4159 3b3b e4eb bf3b 1036 9aba 7ff8 343b
-0.01275775 -0.0072808736 0.0073104165 0.00023028374 -0.009869086 -0.010326082 -0.0021331317 0.0045324387
-0.0073285825 -0.002473784 -0.010933733 -0.010931769 -0.005982219 -0.0055963397 -0.0029165715 0.015170555
-0.011414393 0.010658012 -0.021456959 0.013167818 -0.005768441 0.0056733433 0.0022885823 0.010253213
-0.0022936913 0.0020260792 -0.0068911295 0.015579774 0.009310217 0.005221842 -0.010353087 -0.0110496385
0.008337265 0.03271031 0.008568262 -0.006380892 -0.00874184 0.012532629 -0.0126698585 -0.008623045
-0.009285271 -0.0061846245 -0.0049575604 -0.006278742 -0.004989041 0.00091491395 0.008342016 -0.0049112444
-0.0038087666 -0.00962278 0.00019704174 0.009861363 0.011903599 0.007652251 0.005796384 0.00085990544
0.0013898854 -0.0031782745 -0.003594053 -0.005643533 0.0028587135 0.005856978 -0.001176538 0.0027613936

encoder.layers.0.linear1.weight f4 [256, 64]
00000000: c153 023d be1c 9fbc 5717 6d3d c099 cb3d
00000010: cf0e fa3d 606d cfbd 4dfb 48bd 2ffa 33bd
00000020: 0461 dbbc ab10 c13d 665a 493d 60f0 b93d
00000030: 9827 49bd 0281 06bd 5e02 c53d 7dfb 9abd
00000040: f328 02bd 6fac f8bc 74ac 653d 6999 e63d
00000050: 5601 a1b8 b414 f63d 8276 e1bd 11d2 023e
00000060: aa3d 853d 7dcc e9bc 6b82 cb3c 2d0d a9bc
00000070: f596 85bd 3f19 083d 2fa0 c73d c03f 2a3d
00000080: 82c2 5ebb e452 9e3d f3a7 e53b dca9 713d
00000090: 0680 86bc af60 cabd dbba 65bd db83 133d
000000a0: 44e8 06be 00ca 24bd 887d 91bd 6f7c cdbd
000000b0: a585 acbd e43f 02be 3682 5c3d d4dd b6bc
000000c0: c9ac cb3d e060 a23d c6a2 edbd c212 af3d
000000d0: 0a11 5abc 1725 b73d 77a6 6bbc 508e 76bc
000000e0: cb6f ff3c b133 18bc 734a 9e3d 5690 e03c
000000f0: 84db 8dbd 4b83 e73d cb5f ba3d 5ec9 2dbd
00000100: 5b80 68bd 1646 42bd e310 bfbd fe36 dd3d
00000110: fa65 12be 5735 913d ef8d 8bbd 2b98 91bd
00000120: ed0f 8abd 5693 22b9 727a 17be f2fe debd
00000130: 56f0 f9bd f613 3c3c 23ac 65bd 95e5 183d
00000140: 87d7 08be c555 0ebe 78bf 1dbd 8130 73bd
00000150: 6bce ea3b 20e4 253e 8045 4bbd 4083 ab3d
00000160: 4209 a1bd 592a b2bc e7ab 9a3d 2915 3bbd
00000170: 4cf6 bfb9 a78c e33d b790 953d dee0 4ebd
00000180: 5218 6e3c 0434 d2bc 21fb 893d 79f8 04be
00000190: 3659 ccbd a284 db3d 28b8 f4bd 970e a4bc
000001a0: f227 75bc 7525 603d fd33 ecbb e274 d33c
000001b0: e2cd 17be 777c dbbd 22a9 2bbe b129 ccbd
000001c0: 3654 eabd 0b78 4d3d 3ca1 343d 5bf5 933d
000001d0: b9d9 84bc bdf4 373c cccc db3d 66d0 8e3d
000001e0: 6bfc 213c dd72 87bc eb4e 4fbd a47b b7bd
000001f0: f1e6 103d 7a74 93bd f5cc 9ebd b297 bfbd
00000200: c25c 2cbd 141c 563d 7118 3ebd 8a87 883d
00000210: 3f0d cabd 8cfa 673b 1ec7 88bd 55bc 01be
00000220: 815b e0bd 7fb3 983d 6215 933d 0b35 ccbd
00000230: c01e cbbd 4dac 813d c718 1fbc 56c3 b83d
00000240: 1002 433c 18e6 e13d b27e cd3c 74d7 f83d
00000250: 864d e93c 2ec5 e6bd 19f8 e83d a93a 563d
00000260: 13f4 ac3d 41af c3bd 0c84 1abd af5a d03d
00000270: 3046 173e d81e 083d 90ca f5bc dd6a 0cbe
00000280: 209d ecbd da92 6ebd 1bdc 073e 49bb cabd
00000290: 7b81 a2bc bdfe 90bd 50f3 77ba 464f 183d
000002a0: b7ec edbd 1896 04bd f482 e43d 14f7 663d
000002b0: f97e 93bd 34e3 003e eb4c d73c e9eb 8d3d
000002c0: c5ce ee3c f3bd a4bc 1dba dd3c 68ad 5cbd
000002d0: f9f5 56bc 022a 7e3d d42e fabd ad75 bebc
000002e0: 3460 0e3e cf3f d7bd 8a20 f13d cfa5 673d
000002f0: f563 3bbc 2a66 893d 3364 e63c 2425 90bd
00000300: 5b1e edbd 6d2d ab3d 4faf 3e3d 2edc b43d
00000310: d300 f4bd f89e 1d3d 7ace 1d3d afca a43d
00000320: 8183 fe3d ced9 5bbd b704 6bbd 8651 75bd
00000330: 8459 013d a370 c4bd 00cc dd3d ffa5 2ebd
00000340: f78e 00be 3509 18bd 8c96 87bd 8c5e 753d
00000350: e8d7 9abd e266 90bc 43c3 953d 171d eabd
00000360: 89cf 053c 50f2 7cbd 7426 56bd b243 a7bd
00000370: 761c cabd 9584 ecbd 7bc5 a33b 3f6f 703d
00000380: f9a6 413d fc37 ab3c 83a6 87bd 52ad 653d
00000390: 3073 81bd 1ff1 513d d5ee 97bd d443 263d
000003a0: fead 293d fb2b 6dbd 9102 e7bd 86ed e23d
000003b0: a6e2 3a3d d5bd a73d d57f c73d 118e 623d
000003c0: 7e41 ddbd 872d f2bd e2be b0bd 75a4 983d
000003d0: 389b 53bd e1ef 9b3c 48dd 923d 0930 fa3d
000003e0: a8e4 423d 9879 563d e243 fa3d b1e6 e13d
000003f0: 280c bfbd f6e9 0b3d 8a47 053d bf21 883d
0.031818155 -0.019422885 0.057883587 0.09941435 0.12209856 -0.101282835 -0.049067784 -0.043939766
-0.02677966 0.09427007 0.049158476 0.09079051 -0.049110025 -0.032837875 0.09619592 -0.07567499
-0.031777333 -0.03035566 0.056072667 0.112597294 -7.677327e-05 0.120156676 -0.11008932 0.12775446
0.06505902 -0.02853989 0.024842462 -0.020636166 -0.065229334 0.0332272 0.097473495 0.041564703
-0.0033990447 0.07730654 0.0070085465 0.05899988 -0.016418468 -0.09881722 -0.056086402 0.03601442
-0.1317454 -0.040231705 -0.07104021 -0.100334994 -0.08423928 -0.12719685 0.053835116 -0.022322573
0.099450655 0.07928634 -0.11603312 0.085485 -0.0133097265 0.08942621 -0.01438295 -0.015048578
0.031181237 -0.009289668 0.07729044 0.027412575 -0.06926635 0.11304339 0.09100302 -0.042428367
-0.056763034 -0.04743012 -0.09329393 0.108015046 -0.14296713 0.07090252 -0.06814181 -0.07109102
-0.06741319 -0.00015504411 -0.14792803 -0.10888471 -0.122040436 0.011479368 -0.056072365 0.03732832
-0.13363467 -0.13899906 -0.038512677 -0.05937243 0.00716572 0.16200304 -0.049626827 0.08374643
-0.07863094 -0.021748709 0.07552319 -0.045674477 -0.00036613864 0.11110812 0.07302993 -0.05050742
0.014532166 -0.025659569 0.06737352 -0.1298541 -0.09977953 0.10718657 -0.119491875 -0.020026488
-0.014963137 0.05472322 -0.007208346 0.02581257 -0.14824632 -0.10717099 -0.16763738 -0.099688895
-0.11441843 0.05016331 0.044099078 0.07224532 -0.0162171 0.011227784 0.10732421 0.069733426
0.009886841 -0.016534263 -0.05061237 -0.089591295 0.035376493 -0.071999505 -0.07753936 -0.093551055
-0.04208065 0.05227287 -0.046410028 0.06666477 -0.09865808 0.003539714 -0.066786036 -0.12669499
-0.10954953 0.07456111 0.07181813 -0.09971055 -0.099179745 0.06331692 -0.009710497 0.090216324
0.011902347 0.11030215 0.025084827 0.121504694 0.028479349 -0.11268078 0.11375446 0.052302036
0.08444991 -0.095549114 -0.037723586 0.101735465 0.14772868 0.03323254 -0.030003816 -0.1371264
-0.11553407 -0.058245517 0.13267557 -0.09899003 -0.019837132 -0.070798375 -0.00094585586 0.037184976
-0.116174154 -0.032369703 0.1115779 0.056387976 -0.072019525 0.12586671 0.026281795 0.06929762
0.02915133 -0.020110106 0.027066285 -0.05387631 -0.013120168 0.06205178 -0.12215963 -0.023249472
0.13903886 -0.105102174 0.117737845 0.05655461 -0.011437406 0.067089394 0.02812395 -0.07038334
-0.115780555 0.08358274 0.046553906 0.088310584 -0.1191422 0.038481683 0.03852699 0.08046471
0.12427426 -0.05367451 -0.057377543 -0.0598922 0.03157951 -0.09591796 0.108299255 -0.042638775
-0.12554537 -0.037118156 -0.066205114 0.05990462 -0.07560712 -0.017627183 0.07312634 -0.1143133
0.008167156 -0.061754525 -0.052282766 -0.08167209 -0.0986871 -0.115487255 0.0049979067 0.058699843
0.04727838 0.020900719 -0.066235565 0.056073494 -0.063207984 0.05125534 -0.074186005 0.04059203
0.041425698 -0.05790327 -0.112797864 0.1108046 0.045626305 0.081905045 0.09741179 0.055311266
-0.10803507 -0.1182509 -0.08630158 0.07453243 -0.0516617 0.019035282 0.07171112 0.12216193
0.047581345 0.052362055 0.12219979 0.11030329 -0.093284905 0.03415867 0.032538928 0.066470616

encoder.layers.0.linear1.bias f4 [256]
00000000: 92c2 a83d e65f 85bd 8f67 03bd 3d57 f33c
00000010: 6584 b4bd 7574 01be 89a7 c3bd 873f e1bd
00000020: 91cd de3c 70c9 08bd fe42 3ebd dd03 4fbb
00000030: 1d80 4e3c c7c2 5ebd 5479 ad3d 9507 113e
00000040: d2aa 0e3d 5734 de3d 7e7c 533d 022b e5bd
00000050: 1f4e 243d fc50 ac3c 1bc6 973b 4427 96bd
00000060: dd10 263d 28f9 c1bd 3a71 0abd 4af5 d4bd
00000070: 0c15 96bd 07aa e93d 90eb 203d a7a5 d3bd
00000080: 9211 a2bd c011 893c 91fc ba3d a607 943d
00000090: 13d1 833d d37a 11bd 1358 ba3d ca28 1a3d
000000a0: a8d5 aa3c 0948 e7bd e725 733d 9aa8 7ebc
000000b0: 2d3c 2cbc 79d1 00bd d4d4 26bd aeb5 45bd
000000c0: d120 23bd e312 a73d 2682 183d a024 cfbd
000000d0: b7d4 023e e424 cf3d e14c 03bc a3a1 93bd
000000e0: ee8e dbbd a173 d13d f6bf 44bd a1c1 96bd
000000f0: be63 a1bc 715a 97bc 6516 853d d0e0 91bd
00000100: 6f62 3fbd 52b8 e13d dbbf d4bd 30a8 6a3d
00000110: 9cfd f3bd 22ab ec3c cf86 f83d 26ba f73d
00000120: 756c b03c 9323 bd3d 1f95 013e cfe2 81bd
00000130: 4476 ce3c e23c 773c 81a2 dbbd 48e0 ebbd
00000140: 5772 8bbd 586d dd3d 99b6 79bd a614 b03d
00000150: 3a58 b93d b84a 8dbd 89fd 4abb e824 fa3d
00000160: 469a 9dbd 451c 023d 88bd de3d 67fb bebd
00000170: 29b2 07bd 5cd9 b33d e10e babd be7d c03c
00000180: d8f9 86bc dd36 e6bd 0a1f 863d 7136 72bc
00000190: c717 f83d c684 acbd 2766 b13d 773e fc3d
000001a0: e8d7 8a3d bcfd a2bc bb0d eebc b41d 08be
000001b0: 799f d63d 23fb e3bb 5ccf d3bd 65cf da3d
000001c0: 44f7 6bbd 3a3a 743c ddf5 c43d 0c1d f23c
000001d0: 9e4c 3e3d 1f8b d5bd 5fbb 0b3e 24bd a0bd
000001e0: 84f6 0f3c 0a36 e7bc 8952 6c3d 6da2 ef3d
000001f0: e9bf e03d e163 1a3d 093d dcbd 4bda cc3d
00000200: c0d7 863d d917 e53d 2312 59bd 5a3d aebd
00000210: 69ed 943d fb34 7b3d c361 efb9 c81f bf3d
00000220: 285e f83d f59d 303c aff7 cabd c388 e9bb
00000230: ae66 0fbd e50c e83c 6ffa c1bc 1f85 6338
00000240: c5c4 b23d 4bcd 833d 1a09 4b3c 2d8a 05be
00000250: da3d 2fbd 266d b4bc 499a e1bd 1a57 81bd
00000260: db32 fc3b 09d8 973d 3213 5cbd 240a 873d
00000270: 62c5 8f3d c954 c8bd 629e 2b3c 7efe 5c3d
00000280: d2da 97bc 1029 ea3d 04c9 ba3c 7a82 e13d
00000290: 0bc2 883b 9354 3f3d 9ad6 8c3d 8d48 3b3d
000002a0: 8393 b4bd 2d9b 79bd 860d 99bd 3538 033e
000002b0: 1da8 b7bd 0186 a83d c36d c5bd 95d3 713c
000002c0: e2ab a33c 588c 3ebd 3de0 86bd d8dd da3d
000002d0: 3917 b3bc b701 653d 1c7d b43d 8d46 c83c
000002e0: 507f 51bd c37d 073c 8ab1 cf3d 61a8 ebbd
000002f0: 7f91 f13d f7e8 e5ba 817a b23d 0045 f23d
00000300: a8b2 35bd fcb2 c2bd aeb2 393d e180 d8bd
00000310: e23d c63c 022c df3b cc16 d7bc cb5c 323d
00000320: a7a8 693d cf67 59bc 3ef1 d9bd 9422 4a3c
00000330: e2f5 a33d 46ab ed3d 2c52 ad3d 3523 d63d
00000340: 5f1c 963d 5a33 89bd e9c6 0abd 3c57 a03d
00000350: 5946 58bd 5eb4 9b3d 565f d93d 2664 8dbd
00000360: 3809 0bbe 3e74 31bd b883 06bd ba1c a9bd
00000370: fa22 3ebd aea9 a4bc ec90 af3d cc8a d03d
00000380: 731d 9b3d d0ff 26bd 1864 91bd 786f 7abd
00000390: b647 b73d 6f26 b8bd 979f 9bbd 84f0 063e
000003a0: 36b3 ef3a 1155 8dbc e929 8ebd 9c02 3e3b
000003b0: 5dfb 0b3e b8cd ef3d fbd5 3abd 5600 cd3c
000003c0: 11ca c3bc 190d 4dbd 405a 563d d22d 3ebd
000003d0: 066e 4d3d cebf 0c3e b549 fe3c 4f4c 9fbd
000003e0: 3457 0c3d ef04 96bd e303 123d f782 cdba
000003f0: aa54 b7bb de3d 5fbd 4893 ff3d c96c c23c
0.08240236 -0.06512432 -0.032081183 0.029704684 -0.08814315 -0.12642081 -0.09553439 -0.10998445
0.027197631 -0.03339523 -0.046450607 -0.0031587996 0.012603787 -0.054384973 0.08470407 0.14163049
0.034830876 0.10849827 0.051632397 -0.11189844 0.040113565 0.02103471 0.0046317703 -0.07331708
0.040543426 -0.09471351 -0.033799388 -0.10398348 -0.07328233 0.11409383 0.03928715 -0.1033433
-0.079135075 0.016732097 0.091302045 0.07228021 0.06436362 -0.035517525 0.0909883 0.037636556
0.020853832 -0.112930365 0.05936232 -0.015543127 -0.010512394 -0.03144977 -0.040730312 -0.048268966
-0.039826218 0.08157899 0.037233494 -0.101144075 0.12776457 0.10114458 -0.008013935 -0.07208564
-0.10720621 0.102271326 -0.04803463 -0.073611505 -0.019700881 -0.018475743 0.06498412 -0.07122958
-0.046724733 0.110214844 -0.10388156 0.057289302 -0.119136065 0.028890196 0.12135088 0.12096052
0.021536091 0.09235301 0.12654541 -0.063420884 0.025202878 0.015090199 -0.107243545 -0.11517388
-0.06808918 0.10811871 -0.060965154 0.085976884 0.09050031 -0.06899017 -0.0030973873 0.122140706
-0.07695441 0.03176524 0.10875994 -0.09325295 -0.03312889 0.087816924 -0.09084869 0.023497459
-0.016476557 -0.11240933 0.06548889 -0.014783488 0.1211391 -0.08423762 0.08662062 0.12316602
0.06779462 -0.01989638 -0.029059282 -0.13292581 0.10479636 -0.006957428 -0.10342285 0.106840886
-0.057608858 0.01490646 0.09617207 0.029554866 0.046459787 -0.10426926 0.13645695 -0.07848576
0.008786801 -0.02822401 0.0576959 0.11700902 0.10974104 0.03769291 -0.10753829 0.100025736
0.0658412 0.11186189 -0.052995812 -0.08507796 0.07271845 0.061329823 -0.0004565847 0.09332234
0.12127334 0.010779847 -0.09910523 -0.007126899 -0.035010032 0.028326461 -0.023678986 5.4244996e-05
0.08728937 0.06435641 0.012392307 -0.13040991 -0.042783596 -0.022024702 -0.11015756 -0.063154414
0.007696492 0.07414252 -0.053729244 0.06593731 0.0702007 -0.097817965 0.010474773 0.05395364
-0.018536959 0.11433613 0.02280093 0.110112146 0.0041735223 0.046711516 0.068768695 0.045723487
-0.08817198 -0.060939003 -0.074732825 0.1281441 -0.08967612 0.08228684 -0.09640076 0.014759918
0.019979421 -0.04652056 -0.06585739 0.106868446 -0.02186166 0.05590984 0.08812925 0.024447704
-0.051146805 0.00826973 0.10141285 -0.11506725 0.11795329 -0.0017540742 0.08714772 0.11829567
-0.044359833 -0.09506795 0.045336418 -0.10571457 0.02419943 0.006810666 -0.026255988 0.043545526
0.057045605 -0.013269379 -0.106417164 0.012337346 0.08005883 0.116049334 0.08462939 0.10455934
0.0732963 -0.06699248 -0.0338811 0.07829139 -0.052801464 0.07602762 0.10613887 -0.069038674
-0.13577735 -0.043323748 -0.03284046 -0.08257432 -0.046420075 -0.02010044 0.085725635 0.101827234
0.07573976 -0.040771306 -0.070991695 -0.06114146 0.08949225 -0.089917056 -0.07598799 0.13177687
0.0018287662 -0.017252477 -0.069415875 0.0028993255 0.13670106 0.117091596 -0.045614224 0.025024574
-0.023900064 -0.05006132 0.052332163 -0.046430416 0.050153755 0.13745043 0.031041006 -0.077782266
0.03426285 -0.0732516 0.035648238 -0.0015679289 -0.0055948095 -0.05450236 0.124792635 0.023733513

encoder.layers.0.linear2.weight f4 [64, 256]
00000000: 3119 153c 5a98 5cbd c6e4 6abd b7be acbc
00000010: 9512 913c 9bff 75bc 450c f4bb fe6a 11bd
00000020: 7e02 37bd 5343 6fbb 5ee5 56bc 84b4 09bd
00000030: 6ec4 623d 0ecc 273c c5a6 94bc 1f7f 42bd
00000040: 178c 3abc ad37 573d 6a8b ce3c 8784 6cbd
00000050: 15c6 d1bc ab30 e6bc 1317 98bd c6b5 ae3c
00000060: d616 073d 9e34 72bd d3d2 25bd 3f71 483d
00000070: 4901 5dbd 7b77 453d 3540 b23a 7eec 26bd
00000080: 1245 023d 69a3 89bd d127 a63b ae03 c83c
00000090: f6da 863c 998b 18bd 9aae 613c bbd1 fcbc
000000a0: d5e0 2ebd 25b2 943b c455 18bd c657 3bbd
000000b0: 24c5 0b3d 8f35 103c 77d4 073d 3b6b 0e3d
000000c0: 601c 38b9 ca57 63bd 699d 15bd c7f6 5bbd
000000d0: 716c c23c e381 32bd f8b6 e7bc ff1d 85bb
000000e0: b845 103d 0db1 7abd 4f34 90bd ad42 f53b
000000f0: e948 493d 41ff 84ba 31d7 77bc ed1f 47bd
00000100: f17f 65bd 4dc9 083d 9b93 4cbc 29ea adbc
00000110: d4c8 f13c 4ba0 613d 8a08 9dbc 70bf d43c
00000120: 0991 6a3d 39ef 933c a135 7bbc 992d 84bb
00000130: 5e6d dc3b d883 26bd e22d 1a3c 1e31 81bc
00000140: 0392 10bb bfbe 47bb d585 adbc d57b 0e3d
00000150: c260 653c 7503 e0bb fcd4 3a3d f575 6e3c
00000160: 39fe 85bd b287 063d 14c6 8ebd e2dc cd3a
00000170: aac5 00bd aed2 423d 9cc1 66bd d32c 3c3d
00000180: 035e b33c 85c3 063d ff55 0f3d 1cea 363d
00000190: 41c5 543c 2251 543d 48b8 4d3d 0907 3c3d
000001a0: 143e 4f3d 0fb3 3f3d b246 f63c b226 353d
000001b0: 2292 bf3b a110 1dbd 3685 86bd 9f87 b23c
000001c0: 34c8 c83c 675a b3bc 5dc6 2cbd 9a68 343d
000001d0: 22d0 9e3c ffda 083d bf1b 7bbb 48e9 5d3d
000001e0: 96e7 ac3c a882 f8bc b18b 27bd f33a 40bd
000001f0: 0f21 413d be31 1dbd c5d1 1c3d b26f b03c
00000200: b239 e1bc 8099 1abd 6bdb dcbb e3e0 11bd
00000210: 8b8b 403d 0b90 a8bc 3ab6 78bd 0f54 4abd
00000220: 478e 09bd 72f3 49bd a2cc b23c aa26 d93c
00000230: 6da1 023c 23f5 e43c 2219 36bd 308f 1bbd
00000240: 8350 86bd 2b20 1a3b 6097 adbb 6d61 bebc
00000250: dcf6 21bd 67e8 ea3b c5e7 eabc 9507 70bd
00000260: c068 a2ba bd3e a6bc d8c9 a03c 9031 c0bc
00000270: c333 36bd b811 c6bb 4ba9 c13c 1aac 4b3d
00000280: 6f9a ae3c c297 e3ba f026 053d 767c 413d
00000290: 4a56 68bd 2925 f63c b774 233c 0f77 143d
000002a0: 319e 573c 631f 043a a2bc 393d 5ce6 a9bc
000002b0: 6545 2d3d 6a8f 03bb 2db1 a03c 18ff e23c
000002c0: ab86 d13c 4644 7abc 5b19 3e3d a8fd 98bc
000002d0: 186d 0ebd 8fa5 69bd c6d1 7fbc 1a5d 5dbd
000002e0: cc04 ec39 4508 f9bc 7aeb 24bd 1776 d73c
000002f0: 8231 1bbd 8b8b 28bd 7735 45bd d5d3 2dbd
00000300: b159 863c 5226 8cbd a17d 583c dfcd 373c
00000310: 6b9d 573d 1002 933c 936a 4cbd 7708 153d
00000320: 9f39 0b3d a75d ec3c 0325 193c eb5c c53c
00000330: 3618 6dbd a43d 06ba 254e 933c bcf1 61bc
00000340: 9023 fcbb 29d2 e9bb 6bad 5cbb a7ac 83ba
00000350: 9050 c73b 517c 8abd 3ca7 fd3c 0616 6cbd
00000360: c2fc 6dbd 35bc 69bd a9a3 503d 36ed 46bd
00000370: 4e34 083b 66fa 243c 944c 423d be6f a53c
00000380: 4b14 31bd b5a0 083c a63a 01bd 6974 1f3d
00000390: 7eac 4abd 185f 9dbc 0f45 77bd a066 4bbd
000003a0: 2ea7 cbbb 632b 66bd 50d9 6d3c fc71 e63b
000003b0: 907a 7cbd fbb1 65bd 3959 f7bc 81be 183d
000003c0: acbe 3a3d b41e 553c 106a 16bd 17fc e9bc
000003d0: c238 6e3c d44e 30bc 2958 883c d3c5 97bc
000003e0: f40e 61bd cb13 f63a a40c 1bbd 55b7 4ebd
000003f0: 0e93 943c e0ac 24bd b685 87bd 9f85 103d
0.009100244 -0.05385623 -0.05734708 -0.021087034 0.017709056 -0.015014554 -0.0074477517 -0.035502426
-0.04468011 -0.0036508634 -0.013116209 -0.03361942 0.05536311 0.0102415215 -0.018145928 -0.047484513
-0.011385939 0.05254333 0.025212962 -0.057743575 -0.025607148 -0.028099379 -0.07426276 0.02132691
0.032980762 -0.05913221 -0.04048426 0.048936125 -0.053956304 0.04820965 0.0013599457 -0.04075288
0.03180415 -0.06720621 0.0050706645 0.024415817 0.01646183 -0.037242506 0.013774538 -0.030861726
-0.042694885 0.004537838 -0.037191167 -0.045738004 0.034123555 0.008801832 0.033161607 0.03477023
-0.00017558178 -0.055503644 -0.03652707 -0.053702142 0.02373335 -0.0435809 -0.028285488 -0.0040624137
0.03522274 -0.061204005 -0.07041227 0.007484755 0.0491418 -0.0010146872 -0.015126989 -0.04861443
-0.056030218 0.0333951 -0.012486364 -0.02122982 0.029514708 0.055084508 -0.01916911 0.02597019
0.057267223 0.018058406 -0.01533261 -0.004033756 0.006726905 -0.04065308 0.009410353 -0.015770491
-0.0022059686 -0.0030478684 -0.02118198 0.034786064 0.01400012 -0.0068363496 0.045613274 0.01455449
-0.0654263 0.032844253 -0.06971374 0.0015706087 -0.031438507 0.0475642 -0.056336984 0.045941185
0.021895414 0.032901306 0.03499412 0.044656858 0.012986482 0.051835187 0.050224572 0.045905147
0.05059631 0.046801623 0.030063007 0.044226356 0.005846278 -0.038345937 -0.06568377 0.021793185
0.024509527 -0.021893693 -0.04218136 0.04404507 0.019386355 0.033411976 -0.0038316099 0.054177552
0.021106523 -0.03033574 -0.040904704 -0.04693122 0.047150668 -0.038377516 0.03828599 0.021537635
-0.027493332 -0.037744045 -0.006740024 -0.03561486 0.04700808 -0.020576498 -0.06072066 -0.04939657
-0.033582952 -0.049304433 0.021826092 0.026507694 0.007973057 0.027948922 -0.044457562 -0.03797835
-0.06558325 0.0023517709 -0.0052975863 -0.023239816 -0.039542064 0.007168818 -0.02867497 -0.05860098
-0.0012390837 -0.020293588 0.019627497 -0.023461133 -0.044482958 -0.0060445927 0.023640295 0.049724676
0.021313874 -0.0017363953 0.032507837 0.047237836 -0.056722917 0.030047016 0.009976557 0.036246356
0.013160274 0.00050400774 0.04534591 -0.020739727 0.042302508 -0.0020074495 0.019615734 0.027709529
0.02557691 -0.015275067 0.0464109 -0.01867564 -0.03477201 -0.057042655 -0.015613979 -0.054043867
0.00045017002 -0.030399451 -0.04026363 0.026301427 -0.03788901 -0.041148704 -0.04814669 -0.042438347
0.01640019 -0.068432465 0.013213546 0.011218517 0.05264036 0.01794532 -0.049906325 0.036385026
0.0339905 0.02885325 0.009347203 0.024092158 -0.057884417 -0.00051208795 0.017981598 -0.013790544
-0.007694669 -0.0071356487 -0.00336727 -0.0010045961 0.006082602 -0.06761993 0.030963533 -0.05763819
-0.058102377 -0.057064254 0.05093733 -0.048566066 0.002078313 0.010069465 0.04743631 0.020194884
-0.043232244 0.008339097 -0.031550072 0.038929377 -0.049480908 -0.019210383 -0.060368594 -0.049658418
-0.0062149977 -0.05619372 0.014517143 0.007032631 -0.061640322 -0.05607794 -0.030193912 0.037291054
0.045591995 0.0130078085 -0.036722243 -0.028562589 0.014539899 -0.010760982 0.0166436 -0.018526947
-0.0549459 0.0018774209 -0.037853852 -0.050467808 0.018136527 -0.04020393 -0.066173 0.03528368

encoder.layers.0.linear2.bias f4 [64]
00000000: 5b7d 413c 41ef 203c 1f12 823d b150 02bd
00000010: f69f 293d f037 dcbc d926 0d3c aac7 613c
00000020: e56e 973b 4e04 3e3c 55bf 403d d830 0b3d
00000030: 6708 2b3d 1f95 8fbd 0e64 1cbd b88d 20bd
00000040: 1706 5cbd 42b2 b83c b028 e6bc 6c98 4b3d
00000050: b719 ffbc 8922 a13c df32 683d 5f1d 61bd
00000060: bb8c 493c c1ad d73c 468f bf3c 6cf7 5b3d
00000070: 4a00 35bd 9fe0 4f3d 9211 4dbd 6e31 5d3d
00000080: 1398 843d 097f 853d 0439 543d a18a e33c
00000090: 9936 013d c8dd 563d 0d3e d63c cca8 743c
000000a0: c245 2dbc 368a ea3c 6b4b 373d c227 44bd
000000b0: 6813 123d ef54 af3c 421d e83b ed9f f2bc
000000c0: 0d71 143d 9313 23bc 60bd 03bd 00fd 253d
000000d0: 609b 7e3d 8d02 4fbc 506f 09bd 3265 22bd
000000e0: d04e 503d d693 7f3b 3a2a 6e3d 2138 b73a
000000f0: 76ee 093d 0758 ad3c d22f 533d 185d 5fbd
0.011809672 0.009822668 0.063511126 -0.031815235 0.041412316 -0.026882142 0.008615219 0.013780514
0.004621374 0.011597706 0.04705747 0.033982128 0.04175606 -0.070108645 -0.038181357 -0.039197654
-0.053716745 0.022545937 -0.028095573 0.049705908 -0.031140191 0.019669788 0.05668914 -0.05495965
0.012301619 0.02632797 0.023383748 0.053702757 -0.04418973 0.050751325 -0.050065584 0.054002218
0.06474318 0.06518371 0.051812187 0.027776064 0.03154621 0.0524576 0.026152635 0.014932822
-0.010575714 0.028630357 0.04474966 -0.04788948 0.03566304 0.021402804 0.007083566 -0.029617274
0.036240626 -0.009953397 -0.032163024 0.040524483 0.062159896 -0.0126348855 -0.03355342 -0.03964729
0.05085641 0.003899803 0.05814574 0.001397852 0.03367468 0.021160139 0.051559277 -0.05453214

encoder.layers.0.norm1.weight f4 [64]
00000000: 93d9 7f3f 9995 803f 874b 7d3f f5f9 7a3f
00000010: b259 813f 0092 813f 3f15 7e3f 5abf 803f
00000020: a570 7b3f c5b3 7e3f 15cf 803f fe88 7f3f
00000030: 4421 803f c310 833f 9837 813f 3438 803f
00000040: 5285 7c3f 2ba4 7b3f b2ad 863f 234b 823f
00000050: 2a02 7c3f 2d71 803f a683 7f3f ff0e 813f
00000060: 4475 7f3f 8df7 7c3f 2955 813f d27e 7a3f
00000070: 2e31 793f b533 813f 2aa8 7d3f e808 823f
00000080: c7a1 793f 51fa 883f 97ca 803f 7a72 7b3f
00000090: 28f2 7b3f c9ee 813f 3077 7b3f 8bc3 803f
000000a0: ba79 7d3f 4506 7d3f c921 803f fcba 7a3f
000000b0: 6525 813f 806a 823f 34cf 7d3f af91 7d3f
000000c0: 135f 7e3f c84a 7d3f 9773 7d3f fe53 7d3f
000000d0: a955 813f abcc 7f3f a8bd 7d3f 48ec 7e3f
000000e0: 3e83 813f f7aa 803f 102f 7e3f 7596 7a3f
000000f0: cf6d 7c3f 109d 7e3f b078 7b3f 99f5 7a3f
0.99941367 1.0045654 0.9894337 0.98037654 1.0105498 1.0122681 0.9925117 1.0058396
0.98218757 0.99493057 1.0063196 0.9981841 1.0010152 1.023949 1.0095091 1.0017152
0.9864093 0.98297375 1.0521758 1.017918 0.984408 1.0034539 0.99810255 1.0082701
0.9978831 0.9881523 1.0104114 0.9784976 0.9734067 1.0093905 0.99084723 1.0158968
0.9751248 1.070139 1.0061826 0.9822155 0.98416376 1.0150996 0.9822874 1.0059675
0.99013865 0.9883769 1.001031 0.97941566 1.0089537 1.0188751 0.9914429 0.9905042
0.9936382 0.9894223 0.990045 0.98956287 1.0104266 0.99921674 0.9911752 0.99579287
1.0118177 1.0052174 0.9929056 0.9788583 0.98605055 0.9945841 0.9823103 0.98031
