save_results/autoformer_short_term_90d_run1.pt (torch, 437661 bytes, 28 tensors)

input_embedding.weight f4 [64, 12]
000000 d0 41 64 bd 46 a0 07 be 93 d8 3d 3e 0a 86 0b be
       -0.055726826 -0.13244733 0.18539648 -0.1362535
000010 97 c1 22 3e a7 9c a1 3b f1 bd d7 bd 22 06 7a 3d
       0.15894161 0.0049320045 -0.10534275 0.061041005
000020 8f 50 07 be 68 b4 8a be 3e 52 22 3e e6 00 90 be
       -0.13214324 -0.27090764 0.15851685 -0.28125685
000030 90 49 33 be e0 6d f8 3d 3a eb f8 bc 79 b1 84 3e
       -0.1750853 0.12130332 -0.030385602 0.2591665
000040 98 69 4a be 1a 28 93 bd 2c bd 48 3e 35 bf 82 be
       -0.19766843 -0.07185383 0.19603413 -0.25536504
000050 f9 8a 47 3e b3 ea 2d be c3 d5 80 be 8e 68 ef 3c
       0.19486608 -0.16984062 -0.25163087 0.02922466
000060 36 db 5a 3d 2e 9f 82 3e 9b 2e 1b be ac 61 10 3e
       0.053431712 0.2551207 -0.15154497 0.14099759
000070 da 64 0f 3d 0b e7 1f bd 7f c0 ab ba e6 1e 3b bb
       0.03500829 -0.0390387 -0.0013103633 -0.0028552352
000080 f5 20 49 be d2 ef 92 3d 83 ec 4d be 0d 16 b7 bd
       -0.19641478 0.07174648 -0.20109753 -0.08939753
000090 c8 bc c1 bd b1 2e aa 3d 88 f0 48 bd 49 3e 4b be
       -0.09459835 0.08309687 -0.049057513 -0.19847979
0000a0 5e 9d 9c 3c 1d 53 8f 3c 8d 54 d6 3d e0 15 09 be
       0.019118007 0.017495686 0.104653455 -0.13387251
0000b0 15 59 1f bd 88 db 10 be de c5 31 3e 2b 28 e1 3d
       -0.038903315 -0.14146245 0.17360637 0.109939896
0000c0 42 a4 67 3e 23 c6 e4 3d aa f2 6a be 7c 70 4b bd
       0.22621253 0.11170604 -0.22944131 -0.04966782
0000d0 b4 52 c8 bd 8c 1b 80 3e c7 1b 65 be f6 9a d4 3d
       -0.09781399 0.25021017 -0.22373877 0.10381119
0000e0 fe cd 87 be 71 74 87 3d 11 23 04 be bc 55 90 be
       -0.26524347 0.06614006 -0.12904002 -0.2819041
0000f0 83 a7 86 be 6e 69 d5 bd e4 27 0c be 2b cf 1d be
       -0.26299676 -0.104205 -0.13687092 -0.1541106
000100 db d3 66 bd d9 9b 3d be 3d e4 f4 3d 06 49 8b bd
       -0.056354385 -0.18516482 0.119575955 -0.068010375
000110 dc 27 81 bd 25 1f 06 be 11 22 1a 3e e6 81 c7 3d
       -0.06306431 -0.13097818 0.15052058 0.09741573
000120 e9 f3 26 be 9b ae 84 3e 6b db 55 be 66 39 86 be
       -0.16303982 0.25914463 -0.20884483 -0.26215667
000130 bc 98 49 3e 77 a9 34 3e fa c6 94 3b 32 7e 15 be
       0.1968717 0.1764277 0.0045403214 -0.14598921
000140 1c d7 29 3e af f7 78 3e 23 6f 58 3e 70 69 51 bc
       0.16585964 0.24313234 0.21136145 -0.012781486
000150 78 4e c7 3d fb 8f 40 be fd 9f 0e be a9 14 e7 bd
       0.097317636 -0.18804924 -0.13928218 -0.112832375
000160 71 1f d9 3d f4 86 19 be 59 88 a2 bd 3d 0b b5 bd
       0.106017 -0.14992887 -0.079361625 -0.08840034
000170 f5 3b bd bc c6 56 84 be 00 d3 09 be b8 29 41 3e
       -0.023099879 -0.25847453 -0.13459396 0.1886357
000180 dc 1c 9c 3d 4d c1 f9 3d 83 6e 01 be 0b 1a 05 be
       0.07622692 0.12195072 -0.12639813 -0.12998216
000190 32 fd 05 be 33 da 4f 3e 5d 71 2c 3d a3 93 d8 3c
       -0.13084868 0.2029808 0.0421003 0.026437586
0001a0 1f 42 57 be 44 f1 54 be 17 0c fe 3c 75 fa 15 3e
       -0.21021317 -0.2079516 0.031011624 0.14646323
0001b0 cb 67 8c bd e1 df a4 bd 4e c0 91 be e6 76 90 be
       -0.068557344 -0.08050514 -0.2846703 -0.28215712
0001c0 e1 ee 6c be d2 e4 f7 bd a4 14 6a 3e 9a 26 06 3d
       -0.23138 -0.12104191 0.22859436 0.032751657
0001d0 4a 0c 8b 3e 76 3b 00 3e c2 72 d0 3c 29 ec 17 bd
       0.27157813 0.12522683 0.025445346 -0.037090454
0001e0 4b bb 47 be a7 14 23 be 95 61 06 3e f4 7a 8b be
       -0.1950504 -0.15925847 0.13123162 -0.27242243
0001f0 98 6d 27 3e fa b1 b8 bd 4c a4 38 bd f7 ff e6 bd
       0.163504 -0.09018321 -0.04507856 -0.1127929
000200 ec f0 70 be 6c 4a 37 3e 3a 33 f8 3c 2a eb 97 3d
       -0.23529404 0.17899483 0.030297864 0.07417901
000210 13 10 3a bd a7 71 96 be 0c 65 ff bd 69 99 2d be
       -0.045425486 -0.29383585 -0.12470445 -0.16953053
000220 18 3c 7e be cf 99 0a 3e f2 a6 74 be 6f 72 0a be
       -0.24827611 0.13535236 -0.2389181 -0.13520215
000230 ed 6c 54 be c2 37 3b be e8 20 10 3e e0 87 2e 3e
       -0.20744677 -0.18282989 0.14075053 0.1704402
000240 61 82 12 be 58 66 fe bd 7e 4d 33 be 24 16 14 bc
       -0.14307548 -0.12421864 -0.1751003 -0.009038482
000250 f5 4e f9 bd 09 78 15 3e 57 08 03 be 42 0a 53 3e
       -0.12173263 0.14596571 -0.1279615 0.20609382
000260 cd 48 49 39 16 a5 e2 bc 82 a0 4d 3e a2 6b ba bd
       0.00019195974 -0.02766661 0.2008076 -0.091025606
000270 d4 f4 9e 3d d1 d5 83 3e 4d a2 c2 bd 22 a1 8b 3d
       0.07761541 0.25749066 -0.09503613 0.06817843
000280 45 6f 55 3c 52 c3 62 be fd 34 14 be 27 06 ab bd
       0.013027017 -0.22144821 -0.14473338 -0.08350783
000290 06 3c 95 bd 83 12 33 3e 97 7f 00 be 93 1f bd bd
       -0.07286839 0.1748753 -0.12548672 -0.09234538
0002a0 09 2e cc bd eb db ce 3d 25 49 81 3d 48 c2 25 3e
       -0.09969718 0.1010054 0.06312779 0.16187394
0002b0 f0 e7 46 3e ed 11 37 be ba ba f7 bd ae ba 7f 3e
       0.19424415 -0.17877932 -0.12096162 0.24973556
0002c0 de 20 24 3e e4 f1 12 bd a7 ed e6 3d cf e2 09 bd
       0.16028163 -0.035875216 0.11275797 -0.033663567
0002d0 c8 a6 37 3d 08 4e d7 bd 0d c2 5c 3e 8b c7 52 be
       0.04483679 -0.1051293 0.215584 -0.20583932
0002e0 c3 3c 6f be 6c 04 21 3e ef 7a 7b 3d 92 22 be bd
       -0.23363023 0.15724343 0.061396535 -0.092839375
0002f0 c9 8b f7 bd d7 77 bc 3d ea 89 96 be 1a 52 27 3e
       -0.12087209 0.09202545 -0.29402095 0.16339913
000300 28 a0 70 be 85 0a 63 3c 44 97 cc 39 d8 6d 88 3e
       -0.23498595 0.0138574885 0.00039022614 0.26646304
000310 15 b9 99 3d 72 a2 32 bd 07 f3 81 bd 77 03 5c 3d
       0.07506005 -0.04361195 -0.06345182 0.05371424
000320 86 3c 73 be f2 cc 59 3e ae 29 56 3e ad df 84 3d
       -0.23753557 0.21269587 0.20914337 0.06487975
000330 6f 00 88 bd bf ec 96 bc 84 07 24 3e 74 59 6c be
       -0.06640708 -0.018423436 0.16018492 -0.23080999
000340 1f ff 71 be e2 e6 89 be a6 c2 a7 bd 3a ea 8c 3d
       -0.23632477 -0.26933962 -0.08191423 0.06880613
000350 07 96 2c bd 73 ac 55 be ca 4d c1 bd 71 07 87 bd
       -0.042135265 -0.20866565 -0.09438665 -0.06593216
000360 c8 d2 81 be da 06 70 bc 2e 5b d5 3b b3 cc 86 3d
       -0.25356126 -0.014650071 0.0065111136 0.06582012
000370 aa 19 60 be 99 5e b2 bb 6b 5e 23 3e c9 e2 9a 3d
       -0.2188479 -0.005443406 0.15953986 0.07562787
000380 c7 45 a9 bc 78 41 c4 3c 23 68 7a bd 2f a6 a4 3d
       -0.020663155 0.023957 -0.06113447 0.080395095
000390 3d 0b 0c bd da bd 52 3e 6f d7 5d be fd 7a ce bd
       -0.034190405 0.20580235 -0.21664213 -0.10082052
0003a0 69 08 24 3d 65 e8 bc 3d c1 b6 72 be 2d 38 85 3d
       0.040047083 0.09224013 -0.23702528 0.06504855
0003b0 80 5e 41 3d d4 9b 43 be 36 f4 86 bd e1 4f 75 3e
       0.047209263 -0.19102412 -0.06589548 0.23956253
0003c0 5b 85 30 be 72 c6 04 3e 0c 66 4f 3e 89 14 80 be
       -0.17238371 0.12966326 0.20253772 -0.25015667
0003d0 da 63 76 be 8c ee 4d 3e 3f 05 67 3e d3 16 6f bd
       -0.24061528 0.2011053 0.22560595 -0.058371376
0003e0 dd 3f 48 be 5b 8f 77 bd 15 44 67 3e ce b9 b8 3d
       -0.19555612 -0.06043945 0.22584565 0.090198144
0003f0 0e 0e d4 bd 30 5b e0 bd 6a cd 04 3d a9 05 84 be
       -0.10354243 -0.10954893 0.03242246 -0.25785568

input_embedding.bias f4 [64]
000000 29 2d 3d bc 4a cb 96 be 3a f2 89 be 1c e8 83 be
       -0.011546412 -0.29451972 -0.26942617 -0.25763023
000010 53 d4 47 3e 9b c1 37 be 7e f0 5d be 29 4c 00 3c
       0.19514589 -0.17944948 -0.21673772 0.007830658
000020 a3 ff 7f 3e b2 f2 48 bb 2f b1 40 3e 17 25 83 3e
       0.24999861 -0.0030662236 0.1881759 0.25614235
000030 10 d1 82 3e 9b d4 86 3e 0d 0f 0b be 13 fb 8a 3e
       0.25550127 0.2633408 -0.1357996 0.2714468
000040 f5 02 b2 3d 93 e9 24 3c db 9d e0 bc 29 65 8f bc
       0.0869197 0.010065454 -0.027419021 -0.017504292
000050 62 d6 7b 3e 4c 94 0d bd 0f c2 77 3e dd 81 29 3e
       0.245935 -0.034565255 0.24195121 0.16553445
000060 b6 f7 39 be 85 54 57 be a1 1a 8a 3e a1 07 3b 3e
       -0.181609 -0.21028335 0.2697344 0.18264629
000070 2d e7 04 be c1 d2 ea 3d e5 f4 9f 3c ea bc 2f 3e
       -0.12978812 0.11465979 0.019525954 0.17161909
000080 3a ee 3b be 1a 11 10 3c a4 86 17 be 78 23 89 3e
       -0.18352595 0.00879314 -0.14797455 0.26784873
000090 d0 45 1d be 4d 88 80 3e 05 06 b5 3d c2 58 59 bd
       -0.15358663 0.2510399 0.08839039 -0.05306316
0000a0 ec 44 fb 3d 5b 0b 8a 3e 0e ad 62 3e 2c ef 3f bd
       0.12269005 0.2696179 0.22136328 -0.04685895
0000b0 f5 55 46 3e 3a 42 cc 3d 85 5b 80 be 9f 25 b0 3d
       0.19368728 0.09973569 -0.25069824 0.08600926
0000c0 53 81 20 be 50 20 2f 3e 76 33 53 3e 93 0f be bd
       -0.15674333 0.1710217 0.206251 -0.09280314
0000d0 96 8a 8f be e9 67 ce bd 9d f7 49 3e c4 c0 88 be
       -0.2803542 -0.10078413 0.19723363 -0.26709569
0000e0 07 c6 4c be 16 35 3b bd 51 f9 c8 3c 6f 97 0a 3e
       -0.19997416 -0.045704924 0.024532946 0.1353433
0000f0 a8 d5 88 3e 43 34 6e 3d 6a fc ed 3d 33 2f 23 3d
       0.26725507 0.05815531 0.1162041 0.039839935

encoder.layers.0.self_attn.in_proj_weight f4 [192, 64]
000000 61 6b 6a bd 86 c0 20 be 3a 51 2d be 38 d1 41 3d
       -0.05723131 -0.15698442 -0.16925517 0.047318667
000010 96 4f 16 be 7c 0b ad 3d de 25 9b bd e6 1e 31 be
       -0.14678797 0.08449456 -0.07575582 -0.17296943
000020 74 f2 24 3e eb 3c b7 3d a7 bd d6 3d bc 28 d4 3c
       0.16108114 0.08947166 0.10485392 0.02589833
000030 45 59 91 bd 7b 9b 09 bd 3b c7 82 bd ed 3e 85 bd
       -0.07097105 -0.033595543 -0.063856564 -0.06506143
000040 14 ac 9b bd f0 a7 81 bd e9 af 0a 3e 1f 0d 81 bd
       -0.07601181 -0.0633086 0.13543667 -0.06301331
000050 09 83 f9 3a a9 e5 02 be c1 f3 ea 3d f1 82 e3 3d
       0.0019036244 -0.12782921 0.114722736 0.111089595
000060 ca 7c 01 3d 3e f0 ac bd 40 9f 0f be f9 cc 9c bd
       0.03161315 -0.0844426 -0.14025593 -0.07656283
000070 b1 e1 20 3d 64 ae 8d 3d f5 5f 26 be b3 8b 10 3e
       0.039277736 0.06918028 -0.16247542 0.14115791
000080 f7 bd bb bd 1c 92 02 be 81 06 3a 3d 66 09 1c 3e
       -0.09167092 -0.12751049 0.04541636 0.1523796
000090 76 c4 b6 3d ae 40 22 3c d3 ac ad bd b7 12 f1 3c
       0.08924191 0.009903116 -0.08480229 0.02942787
0000a0 9d cc da bc 2a a9 94 bd 0c 94 3c 3e 8a 8e d6 bd
       -0.026708895 -0.07258828 0.1841585 -0.10476406
0000b0 17 cc e3 bc 70 21 87 3d 6f b6 d6 bd 01 dc c3 3b
       -0.027807279 0.065981746 -0.10484015 0.0059771542
0000c0 26 f4 c4 bd 4d 09 98 bd 23 af 96 bd ed a1 80 bb
       -0.0961688 -0.07423649 -0.073576234 -0.003925553
0000d0 2d b6 0c be 4e 2f 3c 3d 44 96 bb 3d d4 ee c1 bc
       -0.1374137 0.04594355 0.0915952 -0.023673452
0000e0 cd 27 32 3d 2e ca 86 3d f6 7b 97 3d b9 8f f7 bd
       0.04349499 0.065815315 0.073966905 -0.1208796
0000f0 05 38 fd 3d 98 d8 29 3e 5d da cd bd c9 e5 70 bd
       0.123642005 0.1658653 -0.10051415 -0.05881289
000100 e5 0e 42 3c 75 cc 1b be ce c9 8e bd 90 79 04 3e
       0.011844371 -0.15214713 -0.06972085 0.12936997
000110 95 01 82 bd 7b 56 91 bb a3 fa 3c 3d b8 e4 fa 3d
       -0.06347958 -0.004435358 0.046137463 0.12250656
000120 d9 cf 45 3d 6a e8 2e 3d a2 b8 4c bd 78 12 3d bd
       0.048293922 0.042702116 -0.049980767 -0.04616019
000130 5a 07 9f 3d 9c 21 a8 bd 33 05 bc 3d b4 7c 49 3d
       0.07765074 -0.082095355 0.09180679 0.04919119
000140 1e d1 f2 bd c0 16 26 3d 11 d3 29 be 8a cf dd bd
       -0.11856292 0.04054904 -0.16584422 -0.108306006
000150 af da 7b 3d c3 b8 af 3d d9 de 50 3d ab 52 b0 3d
       0.06148785 0.085801624 0.050993774 0.08609518
000160 7b 8d 9f bc 3f a1 ba 3d 8c 8a bb 3d d5 62 59 3c
       -0.019476643 0.091127865 0.09157285 0.013268192
000170 c9 40 10 3e 18 5c 49 bc fb 8e ce bc 4d 33 b1 3d
       0.14087214 -0.012290023 -0.025214663 0.08652363
000180 78 d5 d9 bd e5 b3 2a bd 2d 40 f8 bd e4 61 20 be
       -0.10636419 -0.041675467 -0.121216156 -0.15662342
000190 57 b5 14 3e 8f 82 f7 bd f1 1e 0c 3e de 32 d4 bd
       0.145223 -0.12085449 0.13683678 -0.10361265
0001a0 c0 8f e7 bd 29 cb af 3d 82 87 71 3d e6 5d 57 3d
       -0.11306715 0.085836716 0.05896712 0.052579783
0001b0 70 a7 a2 bd a1 40 8d bd 1a db c6 3d b4 45 b4 bd
       -0.079420924 -0.068970926 0.09709759 -0.08802357
0001c0 4e f8 1f 3d ea 09 35 3d 1d 18 f9 bd bc c4 0d 3e
       0.03905516 0.044198908 -0.12162802 0.1384458
0001d0 d3 a2 cc bd ae ba 38 3d e3 e2 3e bc a3 84 34 bd
       -0.09991994 0.045099907 -0.011650774 -0.044071805
0001e0 7f cd 84 3d 2f 29 71 3d 5c d5 5e 3d ef fd c7 bd
       0.06484508 0.058877166 0.054402694 -0.09765231
0001f0 93 32 17 be 68 06 07 3d 96 9f 1d bd 36 7a 43 bc
       -0.14765386 0.032965094 -0.03848227 -0.011930993
000200 6a 32 18 3d 3b 07 22 3d 5a 21 8b 3d 5e bc 39 3e
       0.037157454 0.039557677 0.06793471 0.18138263
000210 cb 5d cb 3d 68 08 08 3e eb 8a f4 ba 9b 7d 02 3e
       0.09929999 0.13284457 -0.0018657123 0.12743227
000220 72 68 88 bd 6d 89 aa 3b 0e 2d 30 3e d1 b5 a8 bd
       -0.06660546 0.0052043707 0.17204687 -0.08237804
000230 fa c5 69 3c c2 55 f2 bc 57 b1 dd bd 6f d4 3b be
       0.014268393 -0.029581908 -0.108248405 -0.18342756
000240 05 f6 bf bd 20 1e fb 3d 59 05 08 3e cb 80 75 bd
       -0.093730964 0.12261605 0.1328329 -0.05993728
000250 95 29 07 bc b2 e7 89 bd f4 ab 0f 3e c3 ec 19 3e
       -0.00824966 -0.067336455 0.14030439 0.15031724
000260 60 7e 21 bd e7 1a 3d 3c 32 11 81 3c 09 2d cb 3d
       -0.03942716 0.011542059 0.01575527 0.09920699
000270 1c 16 83 bd cc e5 c0 bb bf be 54 3e 1e 09 44 bd
       -0.064007014 -0.005886769 0.20775889 -0.047860257
000280 53 3e 23 bc e1 a3 ee ba e5 66 30 3e 8b 1f 6e bd
       -0.00996359 -0.0018206799 0.17226751 -0.05813555
000290 37 5a 5e 3e 14 0e bb bd f3 c7 d9 bd 6a cc f1 3d
       0.21714102 -0.091335446 -0.106338404 0.11806567
0002a0 41 df 47 3e 75 f7 23 bd 32 87 c3 bd 7a de 55 bd
       0.19518758 -0.040030915 -0.09547271 -0.052214123
0002b0 ac 3a 68 be a8 67 e5 bd e2 e4 5b 3c 9e f8 e6 bd
       -0.22678632 -0.112014115 0.013421269 -0.11277889
0002c0 19 e0 41 3e e2 ad ee bb 58 54 9a bd 0f 3e 6f 3e
       0.18933143 -0.007283912 -0.075356185 0.23363517
0002d0 43 90 32 3e 9e 52 b2 bd 02 60 d3 bd 88 65 1f 3e
       0.17437844 -0.08707164 -0.103210464 0.15566075
0002e0 07 c6 57 3e 4e d7 d5 3c 64 ab 32 3e a5 e3 44 be
       0.21071635 0.026103642 0.17448193 -0.19227464
0002f0 ad 7c 18 be 77 bc e1 bd 96 e3 27 3c 99 85 30 bc
       -0.1489131 -0.11022275 0.010247132 -0.01077404
000300 e9 17 22 3e db ed 06 bd 79 9b ca 3d 80 d1 a4 3d
       0.15829434 -0.03294168 0.09892935 0.080477715
000310 3a fb bb bd a3 dd c6 3d 99 0f a8 3d e7 7b 8b 3d
       -0.09178777 0.097102426 0.082061 0.06810742
000320 ae 70 8d bd 87 b7 1f 3d b6 59 87 3d 08 f8 bb 3d
       -0.069062576 0.038993385 0.06608908 0.091781676
000330 1a 7d b2 bd ab aa f1 bd 32 dd a5 3c a7 ef 1e be
       -0.087152675 -0.118001305 0.020247076 -0.15521108
000340 e0 85 86 bd c0 25 ea 3c fc 17 44 3c 9d bf e2 bb
       -0.065685034 0.028582454 0.011968609 -0.0069198147
000350 9a 63 3d bd 0a 28 2e 3e a8 7d 96 3d c4 9b 72 3b
       -0.046237566 0.17007461 0.07348186 0.0037019113
000360 f1 ec ae bd 8e 6b 02 3e 50 69 15 3e 4e 17 15 be
       -0.08541287 0.12736341 0.14590955 -0.14559671
000370 a6 04 f7 bd 3a dc 9f 3d 05 2f 5d 3e 30 8c 91 bd
       -0.120614335 0.07805677 0.21599968 -0.07106817
000380 07 11 43 3e 41 23 12 3d d2 ca 25 3e a4 ae 45 bc
       0.19049464 0.035678152 0.16190651 -0.012065563
000390 69 23 07 3d 69 59 2c 3e a3 61 e4 bd 3a 5b fa 3d
       0.032992754 0.16830982 -0.11151435 0.12224431
0003a0 8d ff 89 3d 9d ac ff bc 9e 21 21 be 82 80 39 3e
       0.067381956 -0.031210238 -0.1573548 0.18115428
0003b0 db 12 31 bd 45 42 3d be ec 35 5f bd 2b 0b e5 3d
       -0.043230873 -0.18482311 -0.054494783 0.11183771
0003c0 8c b8 5a bc c1 54 bf 3c c9 64 96 3c 63 c3 08 3e
       -0.0133496635 0.023355843 0.018358605 0.13355784
0003d0 6f 22 38 3c 56 fd 12 bd bc 23 89 bd 80 e5 d8 3d
       0.011238678 -0.03588613 -0.06696269 0.10590649
0003e0 ac 6b 27 3e 01 3c 23 be aa b1 f1 bd 35 55 39 be
       0.16349667 -0.15940858 -0.11801465 -0.1809891
0003f0 59 13 3f be 4a d3 3f be 64 9a 06 bd 49 e1 d1 3c
       -0.18659724 -0.18732944 -0.032862082 0.02562012

encoder.layers.0.self_attn.in_proj_bias f4 [192]
000000 2c 66 f3 3c f1 05 55 3c 48 8b 7f bd 2d 4a cf bc
       0.029711805 0.013001905 -0.06238869 -0.025303924
000010 14 b5 05 3d d5 02 1c bd f6 6f 80 bd a3 a9 2d bd
       0.032643393 -0.03808864 -0.06271355 -0.042398106
000020 7c 0e 9a 3d dd 47 0f 3d f7 79 62 3d 81 1f 83 3d
       0.07522294 0.034980644 0.055292096 0.06402493
000030 94 5e dd 3c a7 a2 16 bd 7d ae 14 bc 8f 0e 02 bd
       0.027022637 -0.03677621 -0.009074804 -0.031752165
000040 7d 0e 0d 3d 42 b0 90 3d ca 51 13 3d 4d fc f9 bd
       0.034437645 0.070648685 0.035966672 -0.12206326
000050 5d 5b 50 3c ba 01 50 bc 03 2b a0 3c 29 79 c6 bc
       0.012717095 -0.012695724 0.01955176 -0.024227696
000060 66 a0 26 bc 67 bb 66 3c 44 1a b0 3d 7b 1a 22 bd
       -0.010170078 0.014082766 0.0859876 -0.039576035
000070 0e ec ce 3c 6e cb ed 3c a4 e0 c7 3b a7 6c 46 3d
       0.025259044 0.029027667 0.0060997773 0.048443463
000080 3d 1a 01 bd de c3 27 bd 59 67 9e 3c 83 cf 14 bb
       -0.031519163 -0.040958278 0.01933639 -0.0022706694
000090 c5 65 91 3b 57 e0 db 3b 37 64 04 bd 97 3e 38 bd
       0.0044371807 0.006710093 -0.032322135 -0.044981565
0000a0 f0 5e 1b 3d a6 75 90 3c 0a d6 2a bd 92 93 44 bd
       0.037932336 0.017634224 -0.04170803 -0.047992297
0000b0 e7 ca 02 bc 84 b8 b2 3c ae ab 3b 3d 01 67 2b bc
       -0.007982946 0.0218165 0.045818023 -0.01046157
0000c0 21 f9 62 bc d6 e2 80 3c af 1a 89 bc 02 21 d2 3c
       -0.013853342 0.015733164 -0.016736357 0.025650505
0000d0 13 4d 37 bb bb 70 68 3c 74 af d5 bb cd 4e 83 ba
       -0.0027969524 0.014187033 -0.00652116 -0.0010017991
0000e0 d1 5f 05 bc 3b 6c fa 3c 8b c0 ae bc 44 72 86 bc
       -0.00814052 0.030569186 -0.021332046 -0.016411908
0000f0 05 c1 37 3c 7c 02 4e 3d 39 c7 20 3a 7c fd 70 3d
       0.011215453 0.050295338 0.0006133202 0.05883549
000100 26 a2 38 34 0d 0f 2b b5 30 c0 8a 34 08 2a 54 b5
       1.7195325e-07 -6.3724366e-07 2.5844338e-07 -7.903732e-07
000110 35 40 71 b4 ff df 30 34 17 78 95 b5 20 91 08 34
       -2.2468232e-07 1.6472767e-07 -1.1136316e-06 1.2718783e-07
000120 b6 f3 c8 b4 68 48 39 35 06 a0 27 35 51 e7 a0 b5
       -3.7430226e-07 6.9023235e-07 6.244521e-07 -1.1988251e-06
000130 e4 f6 02 36 68 e7 ce 34 95 66 40 b4 1f 2b 33 35
       1.9515219e-06 3.853886e-07 -1.7918713e-07 6.6745446e-07
000140 d7 ce 57 32 4a 37 c8 34 d5 8e 6e b4 f1 e4 4f 34
       1.2561677e-08 3.729313e-07 -2.2217439e-07 1.9361666e-07
000150 b0 92 75 33 b3 1c 1a 35 3f 4f e4 b3 e9 f8 f8 35
       5.717692e-08 5.7411233e-07 -1.0631492e-07 1.8549882e-06
000160 fa 7e 09 35 6f cc 78 b5 8e 9e 02 b4 59 2a b0 35
       5.122125e-07 -9.268469e-07 -1.2164875e-07 1.3125347e-06
000170 ee a1 e7 b4 ad 0a 44 32 b9 e4 48 b4 3e 78 36 34
       -4.3144922e-07 1.1411129e-08 -1.870966e-07 1.6993815e-07
000180 b9 11 89 36 19 c8 e0 35 d4 e7 c1 b6 f2 bd 7b b6
       4.0849814e-06 1.6747537e-06 -5.7788366e-06 -3.7512477e-06
000190 6d 4d de b6 16 a9 30 b6 2d e5 e0 36 85 0f ad 36
       -6.625129e-06 -2.6324465e-06 6.7024e-06 5.1576085e-06
0001a0 4e a5 87 b6 f2 75 56 b6 7d 92 90 36 e2 98 91 b6
       -4.0425575e-06 -3.1957138e-06 4.308588e-06 -4.3391346e-06
0001b0 ad 9a 86 35 0a c6 98 b6 7f 16 f1 b6 f1 55 82 36
       1.0028795e-06 -4.553008e-06 -7.1849786e-06 3.884307e-06
0001c0 f5 d8 84 b5 d8 d7 39 b5 19 dc ce 32 aa 90 ad b2
       -9.897909e-07 -6.9231965e-07 2.4081645e-08 -2.0205636e-08
0001d0 6c 3e e5 b3 11 a9 5a b5 63 4c 89 34 42 e6 2c b5
       -1.0674998e-07 -8.145735e-07 2.5573817e-07 -6.441006e-07
0001e0 68 06 35 36 45 0c a5 34 17 f2 cc b4 6a d2 03 b6
       2.697483e-06 3.0742572e-07 -3.8174105e-07 -1.9642998e-06
0001f0 02 20 10 b5 12 1f 12 35 88 16 69 35 79 a0 34 33
       -5.369076e-07 5.443445e-07 8.683205e-07 4.2055465e-08
000200 04 f2 32 3c a3 01 38 bc 24 38 dc ba 5a ae 14 3c
       0.010921959 -0.011230859 -0.0016801399 0.009074772
000210 fc 61 88 bb 82 7d a7 3b b7 97 aa 3b 3b 9a 97 3b
       -0.0041620713 0.0051113972 0.005206074 0.00462654
000220 31 bd 55 3c 9d 8a c5 3b 88 e3 2d bc c8 b0 df bb
       0.013045595 0.006028487 -0.01061333 -0.006826494
000230 98 be 24 bb 15 5e 03 bc 49 73 c8 3b c5 f3 24 bc
       -0.0025138017 -0.008018036 0.0061172587 -0.010067885
000240 e4 41 d4 bb 8a 3a e4 3b 65 9d e2 bb fa ab b6 3c
       -0.0064775813 0.006964986 -0.0069157355 0.022298802
000250 a9 b2 e6 3b ab 8c 0b bc 58 ce 95 3c 2e df c5 3b
       0.007040341 -0.008517425 0.018286869 0.006038568
000260 77 08 5a bc c5 89 91 3b c0 d3 7c 3c c6 24 b5 3b
       -0.013307682 0.0044414722 0.0154313445 0.0055280654
000270 47 b2 58 3b f8 33 09 39 c8 5e 2f 3c 7c 1e 33 bb
       0.0033065246 0.00013084698 0.01070375 -0.0027331403
000280 c5 e3 40 bb f5 e6 01 3c 01 49 93 3c 31 60 3d bc
       -0.0029432636 0.0079286 0.017979147 -0.011558578
000290 87 06 fd bb 2e 3e 02 bc 72 9f 68 bc ba 09 3e bc
       -0.0077217254 -0.007949395 -0.014198171 -0.011598999
0002a0 23 c0 30 ba aa b1 b8 3b 99 8c 62 3c 5c 72 ad bb
       -0.0006742498 0.0056364136 0.013827466 -0.0052931737
0002b0 a6 fb 3f bc 21 17 e2 3b e8 64 3c bc 39 ab 96 bb
       -0.0117177125 0.00689973 -0.011498667 -0.004598048
0002c0 3f 0f a4 b9 51 9b 56 3b ba 35 c4 3b 87 a7 3d 3a
       -0.00031291877 0.0032746384 0.00598785 0.00072347414
0002d0 a2 5e 97 ba 97 97 0d ba 47 4e 34 3c e0 c7 33 bb
       -0.0011548589 -0.0005401312 0.011004991 -0.0027432367
0002e0 8a 85 47 3b 5c c5 b5 3a 62 a0 ae 39 b8 67 2e 3c
       0.0030444586 0.0013868022 0.0003330736 0.010644846
0002f0 a1 a8 b6 3a 45 ce 97 3b f8 ed 50 bc fb c5 40 bc
       0.0013935753 0.0046327435 -0.012752049 -0.011765952

encoder.layers.0.self_attn.out_proj.weight f4 [64, 64]
000000 96 09 5a 3d 69 e0 e2 bd 15 cb 82 3d 37 46 f1 3c
       0.053231798 -0.11077959 0.06386391 0.029452426
000010 86 a5 02 3e d1 ac fe 3d 62 81 3b b9 38 70 cb bc
       0.12758455 0.12435306 -0.00017881909 -0.024833784
000020 95 59 31 bd 9d 1c b8 3d ff 32 35 3c 38 da c1 3c
       -0.043298323 0.089898326 0.011059522 0.023663625
000030 03 ca f6 bd 54 20 be bd 37 a8 6b 3b 1f 1e b0 bd
       -0.120502494 -0.0928351 0.0035958418 -0.08599495
000040 66 e8 94 3d e4 86 86 3c d0 74 40 bd fb 34 ae bc
       0.07270889 0.016421743 -0.0469864 -0.021265497
000050 ff 2e de 3d 07 98 f4 bd 2e 38 10 3d 72 85 ec 3d
       0.108488075 -0.119430594 0.035209827 0.1154889
000060 74 2e 14 bb 9c 12 a3 3d 43 74 77 bd 9e f2 a9 3c
       -0.0022610696 0.07962534 -0.06041361 0.020745572
000070 c7 89 cd 3d 03 da 05 bc b0 a9 77 3d 22 29 3e 3d
       0.100360446 -0.008169654 0.06046456 0.046425946
000080 e2 6e a4 bd c7 ec e3 bd 4f e7 08 3d 1e 5b 3b bd
       -0.08028962 -0.11129146 0.033423718 -0.045741193
000090 65 26 d2 bd ed fa 68 3d 35 da 61 3c 7d 6b ee bd
       -0.102612294 0.056879926 0.013784935 -0.116415955
0000a0 c6 ba b6 bd 83 27 01 3e 92 9f 8b bd ec 11 58 bd
       -0.08922343 0.12612729 -0.06817545 -0.052751467
0000b0 3d c6 0e 3d ec db 9c 3d 90 4a ec bd eb 71 b5 3d
       0.034857024 0.07659134 -0.11537659 0.08859619
0000c0 06 ae 9b 3b 8e 4d e7 bd 02 ea 8e 3d 58 61 6e ba
       0.00475097 -0.11294089 0.06978227 -0.0009093485
0000d0 cc bb b0 bc 11 d0 86 3b 60 b1 f3 bd ca e1 db 3d
       -0.021573924 0.004114159 -0.11899066 0.10736425
0000e0 48 ce a2 bd f6 21 dc 3d d3 1a d4 bd 39 3a 90 3d
       -0.07949501 0.10748665 -0.10356679 0.07042355
0000f0 cf 11 9f bd 3e 31 fd 3c 7a a8 9f 3d 6e e6 9a bd
       -0.077670686 0.03090727 0.07795806 -0.07563482
000100 ed ae 9f bd a0 fb 6a 3d 4c c7 7f bd 69 3e ea bd
       -0.07797036 0.057368875 -0.062445924 -0.11437685
000110 61 2c bd bd 26 f9 e0 bd 37 8c e7 bd 62 c6 0e 3c
       -0.0923698 -0.10985021 -0.11306041 0.00871429
000120 aa 9a 44 bd d8 04 dc bd d5 ba 21 bd 78 fb b7 bd
       -0.04799906 -0.10743111 -0.039484818 -0.08983511
000130 30 40 a8 bc dd 60 d0 bd 3b fe 97 3d 4f ac 8b 3d
       -0.02053842 -0.10174725 0.074215375 0.06819975
000140 ac 75 34 bc 7a 53 3d bd 48 fc cf 3d ed 6e 8c bd
       -0.011014383 -0.046222188 0.10155541 -0.06857095
000150 0a d2 bf 38 e4 bf bd bd e9 43 9b bd 50 89 54 bd
       9.1467125e-05 -0.09265116 -0.07581312 -0.051888764
000160 d6 87 8d bd 2f 23 95 3d 23 ba 9b bd c5 85 9a 3d
       -0.06910674 0.07282101 -0.07603862 0.07545046
000170 64 93 da 3c cf 19 e7 3d 8a ce 89 3a 69 a2 9e bd
       0.02668161 0.112842195 0.0010513824 -0.07745821
000180 c3 64 39 bd 1e aa fd bb 5d 3d 5e bd 3b b2 fa 3c
       -0.04526211 -0.007741227 -0.05425774 0.030602565
000190 25 a5 a7 3c 66 9b e8 bd fd c8 9e 3c d7 d3 f4 3d
       0.02046449 -0.11357765 0.019382948 0.11954468
0001a0 17 10 11 3d 13 44 fa bd d4 d7 d3 bd c0 98 5d 3c
       0.035415735 -0.122200154 -0.103439 0.013525188
0001b0 cd 4b 89 bd 90 b2 ac bd 04 d7 0c bd 72 e6 de 3d
       -0.06703911 -0.084324956 -0.034384742 0.10883798
0001c0 50 6c c9 bd 50 de 50 3b 80 f0 0e bd 37 45 1c bc
       -0.09835112 0.003187079 -0.034897327 -0.0095379865
0001d0 ac 4c e7 3d 66 8f f2 bc 7c e2 b5 3d de 93 bc 3d
       0.11293921 -0.029609393 0.08881089 0.09207891
0001e0 1b 31 a9 bd f8 16 e7 3d 63 d1 e7 bd c5 6b b2 bd
       -0.08261319 0.11283678 -0.11319234 -0.08711962
0001f0 85 fc d9 bd 0c 14 1f bd 10 be cf 3d ce 78 d9 bd
       -0.106438674 -0.038837478 0.101436734 -0.10618745
000200 e0 da cb bd 18 0c 89 bd 2d 2c e6 bd 6d 2e 8a bc
       -0.099538565 -0.0669176 -0.112388946 -0.01686784
000210 07 db a4 3d 00 cb 81 3d a6 b1 6b bc 70 2f a9 3d
       0.08049589 0.06337547 -0.014385616 0.08261001
000220 80 44 8b 3d 67 df 07 be 5b 1a 47 bc be 5a a7 bc
       0.06800175 -0.13268815 -0.01215228 -0.020429011
000230 b8 35 c3 3d 72 7b e8 3d 5c 2c cd 3d b3 e3 4e 3a
       0.095317304 0.1135167 0.100182265 0.0007892206
000240 2d fc f3 3d 0d fa 14 bd 34 24 f2 3c b1 85 e4 3d
       0.11913333 -0.03637128 0.029558279 0.11158312
000250 1e ac a4 3d 22 cd 8c bc 08 70 aa bd 83 65 2b bd
       0.08040641 -0.017187659 -0.083221495 -0.041844856
000260 dc 3e 74 bd b3 c0 db bd ee ac b9 bd 0a 44 9e 3d
       -0.05963026 -0.10730114 -0.09066187 0.07727821
000270 72 aa f7 bd cd 32 de 3d e2 38 bd 3c 9c 4c ef bd
       -0.12093057 0.10849533 0.023098413 -0.11684534
000280 0f 5a eb 3d 03 c9 ad 3d 4a 1d b1 bc fc 66 8a 3d
       0.11491787 0.084856056 -0.021620411 0.06757924
000290 d3 61 39 bc 1a bc c0 bd 6a 26 d6 ba a9 e1 5b 3d
       -0.011314827 -0.094108775 -0.0016338353 0.053682003
0002a0 fb 13 ec bd 96 ef e1 bd ab 8d 9a 3a a5 8c ba 3d
       -0.115272485 -0.110320255 0.0011791488 0.09108857
0002b0 e5 44 3d 3b f6 62 9f bd 84 75 1f bd 8e b3 da 3d
       0.0028880176 -0.07782547 -0.03893043 0.106787786
0002c0 d4 23 95 3c 3a 27 88 bc 51 a3 0f bc 9c 0d ea bc
       0.01820556 -0.016620267 -0.008766965 -0.028570943
0002d0 71 b2 c7 bd 24 06 a6 bd 1f cd e5 bd 63 4e d4 3d
       -0.09750832 -0.0810664 -0.11220764 0.103665136
0002e0 01 21 7d 3d 7b 93 14 be 50 e2 9d bd 67 37 01 3e
       0.061799053 -0.14509384 -0.07709181 0.1261879
0002f0 c3 8e 85 3b 78 af a5 bd 6d 6e 9f 3c de 63 01 3c
       0.0040758564 -0.08090109 0.019461835 0.007897345
000300 02 d4 f6 bd c3 d7 83 3d 90 e0 d6 bc 28 e0 9e 3d
       -0.12052156 0.06437638 -0.026230127 0.07757598
000310 59 c4 00 bd 01 11 e4 3d f9 d2 c1 3d ac 2e a4 3d
       -0.03143725 0.11136056 0.09464068 0.080167145
000320 4e ce 97 bd af bb 14 bc 42 fc 3f 3d e8 a3 de 3d
       -0.07412396 -0.00907795 0.04687143 0.108711064
000330 36 a9 9e 3a 19 af d1 3d bd 02 8d bd b6 05 8f bc
       0.0012104872 0.10238475 -0.06885288 -0.017458778
000340 8b 0f e2 bd f9 fe dc 3d 96 e7 aa bd d9 40 df bd
       -0.11038121 0.1079082 -0.08344953 -0.109010406
000350 9b 09 0e bd 69 fa 87 bb a7 4c 8e bd e1 a7 ab 3c
       -0.03467713 -0.0041497243 -0.06948214 0.020954074
000360 c8 a7 5d bd 22 f6 2b 3d 57 45 49 bc a5 d4 6f bc
       -0.054115087 0.041982777 -0.012284598 -0.014638101
000370 81 43 c8 3d 08 0d dd 3d fb 53 02 bc 5f 30 b2 bd
       0.097785 0.10793501 -0.007954593 -0.08700632
000380 f4 01 8f 3d d3 ed f4 bd d7 1d 8a 3d 12 15 84 3d
       0.069827944 -0.11959424 0.06743973 0.06449331
000390 ac 3c a4 3c 96 49 da bd 81 7c 68 3d 88 9c 3f bd
       0.020048462 -0.10658567 0.05675936 -0.04678014
0003a0 6d c0 9d 3a 5b 47 6e 3d 18 fb e7 bd e0 9b 84 bd
       0.0012035497 0.05817352 -0.11327189 -0.06475043
0003b0 92 5c 91 bd e3 5c be bd ff d1 d4 bd 21 1a 9a 3d
       -0.070977345 -0.092950605 -0.10391616 0.07524515
0003c0 30 9f a2 bd 99 f3 6c bd 97 4e 3d 3d bc a1 bf bd
       -0.07940519 -0.0578495 0.046217527 -0.0935702
0003d0 64 44 05 3d f3 d1 da 3c c7 7e 00 be 25 5a 32 bd
       0.032535926 0.02671144 -0.12548362 -0.043543
0003e0 6d 6f d0 3d 30 f8 e8 3c 85 7d a3 3d 03 d1 81 bd
       0.10177503 0.028438658 0.07982925 -0.06338694
0003f0 d9 d3 70 bd 60 b7 1e bd 57 85 68 3d aa ef b8 bc
       -0.058795784 -0.0387491 0.056767788 -0.022575218

encoder.layers.0.self_attn.out_proj.bias f4 [64]
000000 db dc c2 3b 2b 45 ee bb 63 18 6e ba 4f 4c 18 3c
       0.005946738 -0.007271429 -0.00090826134 0.009295537
000010 ef eb 9a bb ed 1c d0 bb 20 89 4b bc b1 62 81 bb
       -0.0047278325 -0.0063511045 -0.01242283 -0.0039485325
000020 40 d8 3d bb 62 17 12 bc 43 e1 d6 bb 0c 66 da 3b
       -0.0028968006 -0.008916708 -0.006557615 0.006664997
000030 db 3d 23 3c b9 5d 0b 3c 23 55 dc 3b c2 8f f8 ba
       0.009963478 0.008506232 0.0067240163 -0.0018963742
000040 a1 86 0c bc 00 0e 15 3b 53 27 60 bb de 61 6b bb
       -0.00857702 0.002274394 -0.0034203127 -0.0035916488
000050 a9 05 03 3c 3f 7f 20 bc d0 70 56 bc c1 28 39 bc
       0.007996955 -0.009795963 -0.01308842 -0.01130122
000060 0a ec 1a 3c 71 95 26 3b fd 01 b0 bb 90 fe bb bb
       0.00945569 0.0025418664 -0.005371331 -0.0057371333
000070 41 ce bf bb 83 30 07 bb 4f 95 61 bc f0 0a 33 3c
       -0.005853445 -0.002062828 -0.013768508 0.010927901
000080 a1 92 1e 3c be fd 55 bc 21 67 a2 bb 19 d2 26 3c
       0.009678514 -0.013060985 -0.0049561416 0.010181927
000090 95 ae 2c 3c 82 cd 2c bc 7f 8c fb 3b ee b8 64 ba
       0.0105396705 -0.010547044 0.0076766605 -0.00087250664
0000a0 14 65 cd bb 39 04 c2 bb cd 9d a1 3b 52 ec 2e 3a
       -0.006268153 -0.0059209135 0.0049321414 0.0006672788
0000b0 6f 45 19 3c 25 41 74 3c 6f 29 d5 bb c6 31 d7 bb
       0.009354933 0.01490811 -0.0065051834 -0.0065672128
0000c0 38 c2 57 bc e9 31 f8 3b e0 98 34 3c 27 d1 a8 3b
       -0.013168864 0.007574309 0.011022776 0.005151886
0000d0 0a fe 7a 3b 6b 8e 0d bc 5b ea 87 3c 3b 60 04 bc
       0.0038298392 -0.008639912 0.016591242 -0.008079584
0000e0 21 10 02 3c 1f ae 4b bc fa 4c 56 3c 53 67 63 3b
       0.007938416 -0.01243165 0.013079876 0.0034699037
0000f0 e6 36 39 3b a4 b0 42 3c 25 1c a4 bb b7 41 a9 bb
       0.0028261482 0.011882935 -0.005008238 -0.0051653045

encoder.layers.0.linear1.weight f4 [256, 64]
000000 aa 29 8f 3d dd 64 23 3d dd 23 66 3d 2f 93 45 3d
       0.06990369 0.039891113 0.056186546 0.04823607
000010 25 02 fb bd a6 aa 84 3d ba d7 87 bd 48 c6 44 bc
       -0.122562684 0.06477861 -0.066329435 -0.012010165
000020 d2 b7 84 bd d0 14 aa bc 39 f8 cf bd b1 1d c9 bd
       -0.064803734 -0.020761877 -0.101547666 -0.09820116
000030 1d ad b2 bd d0 65 43 bd f8 8a 27 3d c0 28 10 be
       -0.08724425 -0.047704518 0.040904015 -0.14078045
000040 9d c3 f1 3d b8 c4 92 3d 75 0a 82 bd b8 b2 af 3d
       0.118048884 0.071664274 -0.06349651 0.0857901
000050 11 0e 81 bd 00 62 3e 3d 7c 7e d4 3c 3e 22 76 3c
       -0.06301511 0.04648018 0.025939219 0.015022812
000060 fe 56 dc bc 44 b6 e1 bd 27 cf 0a 3d 4e b4 80 bd
       -0.02689695 -0.110210925 0.033888962 -0.062843904
000070 a5 a0 30 3c ec 95 b4 3d f9 20 e9 3d 18 9b 74 3d
       0.010780488 0.08817658 0.11383242 0.05971822
000080 c3 83 da 3c 7a 81 f9 bc 80 1a bd bd 32 b7 46 bc
       0.026674157 -0.030457247 -0.0923357 -0.012128638
000090 74 e1 a2 3c f3 ad e4 3d 6e 93 cd bd 15 81 c1 3d
       0.019882895 0.11165991 -0.100378856 0.094484486
0000a0 f3 f4 3b bd ff e2 a6 3b db 5f c5 bd c6 ab 8a bd
       -0.0458879 0.005092978 -0.096374236 -0.067710444
0000b0 52 96 c6 bd 5b 63 d0 ba e1 b9 9d 3d 6c 8f 55 bd
       -0.0969664 -0.0015898751 0.07701469 -0.05213873
0000c0 ab 2b 75 3c 16 c1 9a 3c 73 3b 84 bd 0d b2 e9 3d
       0.014964025 0.018890899 -0.064566515 0.114109136
0000d0 ff 4f ba 3c 97 d2 70 3d 45 de 8c 3c ff a5 0c bd
       0.022743223 0.058794584 0.01719583 -0.034337994
0000e0 9d 1f e0 bd 60 95 8c 3d b2 cd 78 3c 57 d5 b5 3d
       -0.1094353 0.068644285 0.01518576 0.08878582
0000f0 e2 b5 29 3d 35 9e 26 bd b3 8e f4 3d e5 00 e6 bd
       0.041433223 -0.04067822 0.1194128 -0.11230639
000100 1a fb 08 be a3 7b 68 3c cb f6 db 3d f8 9a e6 3d
       -0.13377038 0.014189634 0.107404314 0.11260027
000110 61 ca 53 bd a5 5b 20 3d 1f ad 17 bd 0a a4 8c 3d
       -0.051706675 0.0391499 -0.037030336 0.068672255
000120 07 18 a6 ba 0a 00 aa bc 12 e0 8a 3c db 13 c9 3d
       -0.0012671956 -0.020751972 0.016952548 0.0981824
000130 9d 6c 7b bd 8b c9 e1 3d 6c 93 81 bd 23 a4 0f be
       -0.06138288 0.110247694 -0.063269466 -0.14027457
000140 5b 96 81 3d 22 b5 db 3c 97 cb 80 3d 8d 35 3f be
       0.06327506 0.02681977 0.06288832 -0.18672772
000150 5f 26 5e 3d 74 45 c7 3d ab 9c 49 3d b5 30 af bd
       0.054235812 0.09730044 0.049221676 -0.08554212
000160 90 ac 06 bd 99 35 58 3d d1 59 eb 3d 37 f7 80 bd
       -0.032879412 0.05278549 0.114917405 -0.062971525
000170 f7 bc bf 3c 06 71 e9 bd 39 36 de 3c 8a 98 04 3d
       0.023405535 -0.11398511 0.027125465 0.032372035
000180 91 d5 cf 3c 1a e1 73 3d f6 3b 63 bd aa 99 c3 3d
       0.025370391 0.059540845 -0.055477105 0.095507935
000190 c0 b3 7c 3d dc 3c ee 3d 7f 7c 19 3e 06 8a 9e 3d
       0.06169486 0.11632702 0.14988898 0.0774117
0001a0 b3 1d a3 bd 70 38 04 3c fb 01 cb bd 8c e3 b5 3d
       -0.07964649 0.008070096 -0.09912487 0.08881292
0001b0 f1 45 bf 3d 41 ef e6 bd 7f cb 8d 3d 7e b6 6d bd
       0.09339512 -0.11276103 0.069235794 -0.058035366
0001c0 fb 79 5f 3d f0 b6 19 3a 08 2e 83 3d ef 70 6f bc
       0.05455969 0.00058637466 0.06405264 -0.014614328
0001d0 68 3a 79 3c 8c 9c c7 3d 88 f7 35 bd 67 5f ca bd
       0.015211679 0.09746656 -0.044425517 -0.09881478
0001e0 5f ac 09 3e 9c 08 ae bd 8f 04 02 3d 78 47 6e 3c
       0.1344466 -0.08497736 0.03174263 0.014543407
0001f0 34 5b 07 be 15 7e 79 3d 9f c2 e7 bd bb d0 e9 3d
       -0.13218385 0.060911257 -0.11316418 0.11416765
000200 56 4f 15 3d a6 b8 42 bd 90 e1 d0 3c 14 4f 4c bd
       0.036452614 -0.047539376 0.025498182 -0.049880102
000210 be 44 b9 bc aa 83 4c bc 20 11 6d bc b8 ee b7 bd
       -0.022615787 -0.012482563 -0.014469415 -0.08981079
000220 22 12 0c bd 1d 02 5b bd 97 a6 84 3d 9d d0 9e bd
       -0.03419698 -0.053468812 0.06477087 -0.077546336
000230 18 dc 11 3d 40 15 99 ba 00 81 67 3b a7 87 da 3d
       0.03561029 -0.0011679307 0.0035324693 0.10670405
000240 c9 1b cc 3d 32 9a d0 3d 3d f8 ef bd a3 58 93 3d
       0.09966237 0.101856604 -0.117172696 0.071946405
000250 0b e7 ab bc 9f f7 8c 3d c8 34 15 3d 89 37 eb 3d
       -0.020984193 0.068831675 0.03642729 0.11485202
000260 b5 25 05 3d d3 17 f0 ba 00 5a f2 3c 23 bf a8 bd
       0.032506663 -0.0018317647 0.029583931 -0.082395814
000270 6b ab a9 3d 5b 35 e7 3c c4 2b 27 bd 40 62 76 bc
       0.082846485 0.028223684 -0.040813223 -0.015038073
000280 f9 0f cf 3d eb b3 da 3d e8 20 cb bd af 09 08 be
       0.101104684 0.10678848 -0.09918386 -0.13284944
000290 fc 8c 7a bd 78 18 c3 bc ad a3 9d bd a7 40 91 3c
       -0.06116961 -0.023815379 -0.07697234 0.017731024
0002a0 1a 9c f4 3d a7 e3 b7 bd 85 31 33 3d 53 72 2c 3d
       0.119438365 -0.08978968 0.043748397 0.042101216
0002b0 5c f9 fd 3c 19 c9 3b 3d 7f bb ab bd 1e 77 ae 3d
       0.031002693 0.04584608 -0.083853714 0.085188136
0002c0 50 7e 2b 3d 4c fa bb 3d a5 e8 f2 bd a3 ec a2 bd
       0.041868508 0.091786 -0.1186078 -0.07955291
0002d0 6e 5b c3 3d ce 41 a8 3d ce 9a d0 bd 54 f0 05 3d
       0.09538923 0.08215676 -0.10185777 0.032699898
0002e0 c2 f6 1a bd 1a 04 77 3d e1 eb 9c bd 9c b2 c8 3c
       -0.037832983 0.060306646 -0.07662178 0.02449923
0002f0 c6 5b d0 3d f0 28 ef 3d 7a ac 5d 3d 7f 60 07 3d
       0.101737544 0.1167773 0.054119565 0.03305101
000300 39 86 9c 3c 75 2e e2 bd 2d 1a cf bd 7d 19 a1 3d
       0.019106971 -0.11044017 -0.101124145 0.0786619
000310 26 53 f1 3d f9 06 93 3d 03 d7 d0 3c 3d df 05 bd
       0.117834374 0.07179064 0.02549315 -0.0326836
000320 b4 04 18 3d e2 d9 d2 3c 88 53 e9 bc bc ed d2 3d
       0.03711386 0.02573866 -0.028482214 0.102992505
000330 40 53 89 3b 5d da 8a 3c 32 d8 40 bd 51 8a ef 3c
       0.0041908324 0.016949827 -0.04708118 0.02924076
000340 cb ff b5 3d 63 95 e8 bc a5 d1 11 bd d6 f0 bd bd
       0.08886679 -0.028391546 -0.035600323 -0.092744514
000350 4d 52 90 3d 46 18 bb 3d b0 25 18 39 a3 4f a8 bd
       0.07046948 0.09135489 0.0001450989 -0.082183145
000360 06 26 aa bd aa 34 02 bd 51 28 32 3d 8a 8c 76 bd
       -0.08308034 -0.031788506 0.04349548 -0.060192622
000370 59 51 12 3d 39 0d 0a 3e 09 ae b5 3d 20 35 04 3e
       0.03572211 0.13481607 0.08871085 0.1291089
000380 8d 5a d1 3d 4e 5f 73 bd 8b b1 a2 3d 63 5d 6f bd
       0.10222349 -0.05941706 0.0794402 -0.05843867
000390 1f c3 05 3a 91 ec 09 be dc d4 f6 bc ef 03 4d 3d
       0.00051026227 -0.13469149 -0.030130796 0.05005258
0003a0 ca 31 a0 bd d5 cd 08 3c f6 0a 1f bd 99 cf 0a bd
       -0.078219965 0.008349855 -0.038828813 -0.033889387
0003b0 fc 0a c9 3d 06 7d 35 3d 7e e5 80 3c 04 24 2a bc
       0.09816548 0.044308685 0.01573443 -0.010384563
0003c0 ae f3 ab bd 4f 37 99 bd e3 c5 91 3d 00 99 64 3d
       -0.083960876 -0.074812524 0.07117822 0.055809975
0003d0 f6 7d a4 bd 25 6a 4d 3d 3b b0 0c 3d 5b ae fc 3c
       -0.08031838 0.050150055 0.034347754 0.030844858
0003e0 7e c9 fb bc 90 8c e1 bd 3a ea c7 bd 5f 8d bb bd
       -0.030735727 -0.11013138 -0.09761472 -0.09157824
0003f0 2a 49 06 bd 06 64 b4 3c 78 6d 92 3d 64 bf 99 3d
       -0.03278462 0.022020351 0.07149786 0.07507208

encoder.layers.0.linear1.bias f4 [256]
000000 dd 93 88 3d 2b d5 76 bd e0 d6 9e 3d eb e9 5e 3d
       0.06668828 -0.060261887 0.07755828 0.0544223
000010 a6 4c 5d 3d ae 05 98 bd ea aa 91 3d 20 8e a5 3d
       0.054028176 -0.07422958 0.071126774 0.08083749
000020 9f 7a ff 3d ed 66 dc 3c 29 bd bb bd f2 69 95 bd
       0.1247456 0.026904548 -0.09166939 -0.07295598
000030 b7 77 e8 bd 75 38 ba 3d 78 26 e6 bc 50 a3 dc 3d
       -0.11350959 0.090927996 -0.028094515 0.10773337
000040 d8 2f af ba 91 c3 87 bd b2 09 14 3d c6 4d ef 3d
       -0.0013365699 -0.06629098 0.03614206 0.11684756
000050 f8 7e 02 be 43 66 64 3d 24 d0 08 3d 3d 4b ec 3d
       -0.12743747 0.055761587 0.033401623 0.11537788
000060 3e bc 04 3e dc 1b be 3d 15 f0 eb 3d 82 27 10 bd
       0.12962434 0.092826575 0.115204014 -0.035193928
000070 60 86 80 bd 92 00 e6 bd 51 fb 95 3c af 0d 0c 3e
       -0.0627563 -0.112305775 0.018308314 0.13677095
000080 4c aa 68 bc 9b eb 48 bc 03 a7 3d 3d b1 95 ee 3d
       -0.014200758 -0.012263204 0.046301853 0.11649645
000090 25 b7 74 3c 51 32 b4 3d 39 2e f3 3d ee 63 99 bc
       0.014936243 0.087986596 0.11874051 -0.018724408
0000a0 3e 21 7f 3d 55 77 70 bd 36 df 33 bd ab a3 33 bc
       0.06228756 -0.058707554 -0.043914042 -0.010964314
0000b0 17 7f 67 bd ef 79 92 bc b6 21 ca bd aa fd ca 3c
       -0.056517687 -0.017880408 -0.09869711 0.02477916
0000c0 84 c9 31 3d d2 14 b8 3d 70 43 60 3d 49 1c b0 bd
       0.04340507 0.08988346 0.054751813 -0.08599145
0000d0 f4 a3 19 3c 7f cf 75 3c 9d fe 30 3d 8a c3 f9 3d
       0.009377468 0.015003084 0.04321157 0.12195499
0000e0 8d 41 f6 bc 4d 21 3a bd 0a f7 1c 3c bc 74 e8 bd
       -0.030060554 -0.045441914 0.009580383 -0.1135039
0000f0 95 eb ad bd 71 ea 61 bd 39 41 0c 3c 0c 52 73 3d
       -0.08492199 -0.05515522 0.008560472 0.059404418
000100 0b 20 4d bd be ca be 3d 89 2c 92 3d 4d f6 20 3d
       -0.050079387 0.09316014 0.07137401 0.03929739
000110 44 e6 f8 3d 9a 53 0d bd 20 be fb 3d eb c2 90 bd
       0.12153295 -0.034503557 0.12292123 -0.07068428
000120 a9 99 bb 3d a5 60 a5 3d ca 79 09 3e 34 5e 08 3e
       0.09160168 0.08075074 0.13425365 0.13317186
000130 75 cb 06 3d 85 88 7b 3d e2 ff bd 3d eb 7c 08 3e
       0.032908875 0.061409492 0.092773214 0.13328902
000140 69 6b a7 3c f2 89 05 3d b4 f4 71 3d 6c ee 95 3d
       0.02043696 0.032602258 0.059071258 0.07320866
000150 a6 db 8d 3d 29 3f 42 bc 02 91 11 bd 55 db 16 3d
       0.0692666 -0.011855879 -0.03553868 0.036830265
000160 c8 68 b3 3d 4a 0d d6 3d c1 fc 80 3b 38 1c fb 3d
       0.0876022 0.104517534 0.0039363806 0.12261242
000170 b3 62 cf 3d 61 d6 09 3d 1c da 85 3d c1 cc 96 3d
       0.10126247 0.033651713 0.06535742 0.073632725
000180 52 23 86 3d c5 cf ca bd fd 8b b5 bc fd 21 51 3c
       0.065497056 -0.0990291 -0.022161478 0.012764451
000190 46 46 bf bd 68 a3 68 3c 47 7e ca bd aa b2 cc 3d
       -0.093395755 0.014199115 -0.09887367 0.09995015
0001a0 45 24 5d 3c 62 32 e2 3b 6e 8e 01 3d c3 70 c8 bd
       0.013497417 0.0069029788 0.031629972 -0.097871326
0001b0 dc 04 64 bd f0 38 b0 3d 32 b3 59 3d ad 51 7c bd
       -0.055668697 0.0860461 0.05314941 -0.06160133
0001c0 96 79 48 bd fc 4b 87 bd d9 ec 1c 3d 84 b3 8e 3c
       -0.04894408 -0.0660629 0.038311813 0.017419584
0001d0 e5 69 99 3c 3c 6c 0c 3e 4f da 6b bc 2a 6e e4 bc
       0.018727252 0.13713163 -0.014395311 -0.027884562
0001e0 12 c8 ec 3c fa 03 8d 3d 20 6a e1 3d 1a 8b c6 bd
       0.028903995 0.06885524 0.1100657 -0.096945
0001f0 0d b1 eb 3c 9c 08 01 3d b1 39 9a 3d 88 21 93 3c
       0.028770948 0.03150235 0.07530535 0.017960325
000200 4a 52 2b 3d 7f b0 5e 3c 6a 3c 61 bd 3b 46 c5 bd
       0.041826524 0.013591885 -0.054989256 -0.09632536
000210 24 e8 68 bd 22 d3 8a bd 5e 98 ac bd a8 06 a8 3d
       -0.05686201 -0.06778552 -0.08427499 0.082043946
000220 af 83 dd 3d 21 2a e2 bd c2 41 8e bc 12 05 17 bd
       0.10816132 -0.11043192 -0.01736534 -0.03687007
000230 a3 92 82 bd 55 a4 1d bd 1e c2 b9 3d 9f 67 bc bd
       -0.06375625 -0.038486797 0.09070228 -0.09199452
000240 d5 7b c9 bd 0a a1 03 3e 1f 13 42 bd 1f fe dc 3d
       -0.09838072 0.128544 -0.047381517 0.10790657
000250 a3 e2 aa bd 6c b6 5b bd 98 9f 97 bd 78 09 05 3d
       -0.08344009 -0.053640768 -0.07403487 0.032479733
000260 09 c3 a3 bc f0 ba f1 3d 02 bf fc bd d5 e9 18 3d
       -0.019990461 0.118032336 -0.12341119 0.037332375
000270 ce 6e f0 3d 57 90 ae 3c b4 81 18 bd b7 16 9a 3d
       0.11739884 0.021309061 -0.03723307 0.07523864
000280 f1 cc c5 bd 6d 47 d4 bc 1a 7b 8a 3c d3 15 d4 3c
       -0.0965823 -0.025912965 0.016904403 0.025889313
000290 4d 1f 08 3e 31 c6 99 bd e4 40 c3 bd 00 0a c1 bd
       0.1329319 -0.07508505 -0.09533861 -0.094257355
0002a0 9b e6 ba bd e0 40 df bd b6 04 49 bc 32 ce 2d bd
       -0.09126016 -0.10901046 -0.01226919 -0.04243297
0002b0 f0 59 74 bd b9 e9 bd bd 9e 55 23 bd bf d7 d3 bc
       -0.059656084 -0.09273095 -0.039876573 -0.025859712
0002c0 05 43 c6 bd de 3a fb 3d 61 8c 53 3c 6c f4 27 3d
       -0.09680752 0.122670874 0.012911887 0.041004583
0002d0 dd c5 e1 3c 33 c6 e8 bc 7f 34 03 bc 3c 86 bb 3d
       0.027560169 -0.028414821 -0.0080081215 0.091564626
0002e0 ba 2e 72 bd d4 aa a9 bd 37 85 ac 3d 67 68 93 3d
       -0.059126593 -0.08284536 0.08423846 0.071976475
0002f0 82 c2 76 bd c7 9e c7 3d 31 51 05 3e c7 51 ab bd
       -0.06024409 0.09747081 0.13019253 -0.08365207
000300 d4 f1 8a 3d bf 03 29 3c 48 ed c2 3d 85 2d 9c 3c
       0.06784406 0.010315835 0.09517914 0.019064674
000310 80 91 8e 3d f8 0f cf 3b 62 bc af 3d 5b bd a4 3d
       0.06961346 0.0063190423 0.08580853 0.08043929
000320 a5 e4 7f 3b 87 1f 11 bd 3c 5e 06 3e 34 c1 a3 bd
       0.0039046195 -0.035430457 0.13121885 -0.07995835
000330 88 5b cd bd b8 6f 47 3c 43 59 85 3d ec 02 e6 bc
       -0.10027224 0.012172632 0.06511166 -0.028077565
000340 d7 14 ab 3d 86 0c 23 3e 2b 7c a5 bd 8c a6 11 3d
       0.08353584 0.15922746 -0.08080324 0.035559222
000350 0a 4b 4d bd e5 bd ad 3d f5 0d 88 bd fd 37 44 3d
       -0.05012039 0.08483485 -0.06643287 0.047904957
000360 8e a1 9c bd f5 b8 8c bd 6e b9 cb bd ff 8c 9e 3b
       -0.076480016 -0.06871215 -0.09947477 0.0048385854
000370 5f 7f 80 bd 9c 1f ac bb 3a cc 50 3c 75 4d 6e 3d
       -0.06274294 -0.0052527916 0.012744004 0.058179338
000380 30 74 c9 bd 78 4b 8b 3c be ec 07 3e 6b dc 21 bd
       -0.09836614 0.01700376 0.13273904 -0.039516848
000390 a7 57 8c bd b5 f6 be bd 71 53 a0 bd 18 00 cb 3d
       -0.06852656 -0.093243994 -0.07828415 0.09912127
0003a0 87 2d 41 bd 62 06 31 bd af ad 31 3c a3 02 e4 bd
       -0.04716256 -0.043218978 0.010844632 -0.111333154
0003b0 75 99 85 3d 2b fd 06 bd 4d 47 a0 3c ae db 26 bd
       0.0652341 -0.032956284 0.019565249 -0.040736847
0003c0 0d 3b b4 3d fe 56 10 3a ce 1f 7a 3d 0f fb 9e 3d
       0.088003255 0.0005506127 0.061065488 0.077627294
0003d0 85 27 f0 bc 9c 16 00 be 8d 02 75 bc df cf b9 3d
       -0.02931572 -0.12508625 -0.014954221 0.090728514
0003e0 4f 1a be bd 7b 44 a8 3d dc 88 ee bd 38 70 73 bd
       -0.09282362 0.082161866 -0.116471976 -0.059433192
0003f0 a5 b4 34 3c 49 69 c5 3d ac 59 fa 3d 12 33 c6 3d
       0.011029397 0.09639222 0.12224135 0.0967771
