save_results/autoformer_short_term_90d_run4.pt (torch, 437661 bytes, 28 tensors)

input_embedding.weight f4 [64, 12]
000000 0e 11 f6 3d 89 4e 77 bd c8 57 fa bd 82 64 17 3e
       0.12014972 -0.06037763 -0.12223774 0.14784434
000010 78 8b 84 3e 31 d1 26 be 1a 62 3d be b6 96 92 3b
       0.25887656 -0.16290738 -0.18494454 0.0044735326
000020 b4 ed 49 3e f2 75 95 be 7f e3 95 be ac 02 25 3e
       0.19719583 -0.29191548 -0.29275128 0.161143
000030 aa 36 a7 bd ff 43 e2 3c 32 13 8b bb 72 17 5d 3e
       -0.08164723 0.027620314 -0.0042442316 0.21590975
000040 38 c5 73 3e 66 0c 3e be 2e 5e 7b bc c6 eb 82 be
       0.23805702 -0.18559417 -0.015342278 -0.25570506
000050 25 9a 9c 3d bb d6 1a 3e a0 dd a5 bd 61 a7 3f 3e
       0.07646588 0.15120976 -0.08098912 0.18716194
000060 1c 54 82 be 46 44 b2 bc c1 19 04 bd 8b c4 84 3e
       -0.25454795 -0.021761071 -0.032251123 0.259312
000070 95 f9 28 be e0 a7 8b be 72 cb be 3d f4 18 15 3d
       -0.16501458 -0.27276516 0.09316148 0.03640075
000080 58 91 3e 3e 2d 4f 64 bd 31 a8 5a 3e da 79 81 be
       0.18610132 -0.05573957 0.21353222 -0.25288278
000090 b7 c3 ea bd 08 44 5d 3e 15 04 b3 bc c7 ee 1e 3e
       -0.11463111 0.21607983 -0.021852532 0.15520774
0000a0 da c2 68 3e 67 88 39 be 17 48 80 3e e1 5b 55 be
       0.2273058 -0.1811844 0.25055 -0.2083583
0000b0 82 d3 19 3e 61 9e ef 3d 3f 8b f2 ba 70 69 4b be
       0.1502209 0.1170013 -0.0018504633 -0.1986444
0000c0 3e fa 72 3e 0d 1a aa bc d9 61 70 3d 05 44 85 3e
       0.23728272 -0.020764375 0.058687065 0.26028457
0000d0 00 1b 7a bd 76 30 4b 3e 8b 1a 39 be 1d 9c 60 3e
       -0.061060905 0.19842705 -0.18076532 0.21934552
0000e0 38 a5 24 be 0c ca e2 3d 3c fb d7 3d 13 82 61 bc
       -0.16078651 0.11073694 0.10545966 -0.013763922
0000f0 c3 0e 69 be b8 c6 cf bd b1 47 d4 3d da 44 00 3e
       -0.22759537 -0.101453245 0.103652366 0.12526265
000100 46 e4 81 be 48 24 d1 bd ea 1b 0a 3e 81 ae 25 3e
       -0.2536947 -0.10211998 0.13487211 0.16179849
000110 9e 39 97 bb 5e fe 21 3d ad 65 82 be 60 f2 93 3e
       -0.004615023 0.039549224 -0.25468197 0.28895855
000120 01 2c e8 3d 80 5c 18 3e a0 0b c8 3d 8d 40 88 be
       0.11336518 0.14879036 0.09767842 -0.26611748
000130 c0 6d 49 be 11 be b1 3b 89 5b 23 3e 81 09 6a 3e
       -0.19670773 0.005424269 0.15952887 0.22855188
000140 20 d0 44 3e 51 e5 65 bc fd 2e 52 be 03 ae e7 bc
       0.19220018 -0.014031724 -0.20525737 -0.028281217
000150 50 2c 1b 3e 08 a3 90 3c f0 d7 8a 3e 67 29 16 3d
       0.15153623 0.017655864 0.27117872 0.036660578
000160 e8 68 63 be 61 ff e7 3d 4f 3b 79 be ab 09 04 be
       -0.22207987 0.113280065 -0.2433903 -0.12894313
000170 0a 32 d2 3d 79 e4 49 3d ce db e4 bc a4 c3 d0 3d
       0.102634504 0.049290154 -0.027936842 0.101935655
000180 b6 5d 80 be 8f c6 85 3c f3 99 07 bd 50 83 6a 3e
       -0.25071496 0.016330032 -0.0331058 0.22901654
000190 85 5e 72 3e b8 fe 47 be 3e 7b 06 3e 47 8b 1f 3e
       0.23668869 -0.19530761 0.1313295 0.15580474
0001a0 ff eb 3e be 42 9d 41 3e f7 5d 1a be 17 b6 2b be
       -0.18644713 0.18907645 -0.15074907 -0.1676868
0001b0 72 4c 1c 3d 80 cc b1 3d 9f 6e 14 be 10 40 bc 3d
       0.03815884 0.086815834 -0.14495324 0.091919065
0001c0 a7 01 54 3d e8 3b 4d 3e bd 0d f0 bd b3 00 6b be
       0.05175939 0.20042384 -0.1172137 -0.22949485
0001d0 69 09 49 be c7 56 9e 3d 9a 1c 04 3e cc 80 33 3e
       -0.19632496 0.07731395 0.12901536 0.17529601
0001e0 b3 bf 73 3e 3d e6 c8 3d 42 8f 8e 3e 12 94 71 bd
       0.23803596 0.098095395 0.27843672 -0.0589791
0001f0 80 5b 8b bd 52 03 6a 3e 84 77 d8 bd 55 07 2a be
       -0.068045616 0.22852829 -0.10569671 -0.1660436
000200 93 6d 0d be 84 4a ea bd de 06 e6 bd 9c 93 cd bb
       -0.1381133 -0.11439994 -0.112317786 -0.0062737
000210 b6 61 bf bd 2e 95 52 3e 45 f5 c3 bd af 4c 71 be
       -0.09344809 0.2056472 -0.09568266 -0.23564409
000220 75 cc 5a 3e 6e 5c d0 3d 55 58 a8 bd 93 8a 3a be
       0.21367057 0.101738796 -0.08219973 -0.18216924
000230 be ca 3a 3d 35 fb 83 be c3 98 3c be d1 cf 90 bd
       0.045603506 -0.25777593 -0.18417649 -0.07070888
000240 c9 29 01 3c 6a ff 19 be 6e f1 2d bd 5c f8 7e be
       0.0078834975 -0.15038839 -0.042466573 -0.24899429
000250 4c a5 66 bd cb 28 88 3d 1b 01 6c be 12 dd 4a be
       -0.056309983 0.06648406 -0.23047297 -0.19810894
000260 07 66 6a 3e ca 96 4c 3a 6b 78 03 be 80 5d 31 3e
       0.22890483 0.0007804452 -0.12838905 0.17320824
000270 bc e2 10 3e 20 91 10 be bf e4 b1 bd 24 e0 3f be
       0.14148992 -0.14117861 -0.08686208 -0.18737847
000280 b2 13 3e be c1 c7 c3 3b 0f 1e 8d 3e c2 5d 29 be
       -0.185622 0.0059747403 0.27561995 -0.16539672
000290 69 4c e6 bd a3 82 be 3b 86 0e 37 be aa bc e5 3d
       -0.11245043 0.005813913 -0.17876634 0.112176254
0002a0 a2 6f 94 3d 58 cf 57 3d c2 82 c5 bd fa 08 68 3e
       0.07247855 0.052687973 -0.09644081 0.22659674
0002b0 29 0f 02 3e 48 28 2a 3e 98 97 3c bd 56 6d f9 3d
       0.12701096 0.16616929 -0.04604301 0.12179057
0002c0 18 37 ba bd cc ab cf 3d a1 11 82 3e f5 5e 52 3e
       -0.090925395 0.101401895 0.25404075 0.20544036
0002d0 5d 55 e3 bd c6 27 35 be 5a 7a e9 bd 55 0d 52 3e
       -0.11100266 -0.17690954 -0.1140029 0.20512898
0002e0 84 13 04 be 4e e1 ff bd 43 93 1f 3e dd 00 5a 3e
       -0.1289807 -0.12494145 0.1558352 0.21289392
0002f0 1c da 73 3e b5 b2 44 3d 62 1c 91 3c 59 fe 93 be
       0.23813671 0.04802199 0.01771373 -0.2890499
000300 4d a5 8b be d0 0b 28 be 6e 3d 71 3c 50 be 0f be
       -0.27274552 -0.16410756 0.014724119 -0.14037442
000310 28 e6 d1 bd fb 00 04 3e 03 ee dc 3d d9 c5 10 be
       -0.10248977 0.12890999 0.10787585 -0.14137973
000320 7e 18 98 3e 4d 95 45 be 5c eb ae bd 7c 5b da bd
       0.29706186 -0.19295235 -0.08540985 -0.106619805
000330 55 b0 ce bd ae 33 63 be b2 52 57 be 8d 75 81 3e
       -0.100922264 -0.22187683 -0.2102764 0.25284997
000340 d8 dd 70 3d c6 fa 89 3e 7c 4d cf bd a5 a2 5c 3e
       0.058805317 0.26949137 -0.10122201 0.21546419
000350 02 08 6e be 13 31 a1 bc ce 20 17 3d 9a 37 93 be
       -0.23245242 -0.01967672 0.03689652 -0.28753358
000360 6d 27 42 bd 58 3b 86 3e 9e 9a c4 3d f4 b4 8b 3e
       -0.04740088 0.2621715 0.095998034 0.27286494
000370 ea 25 42 be fd a7 1e 3e 02 64 5f be eb e7 2c bd
       -0.18959776 0.1549377 -0.21815494 -0.04221336
000380 34 86 87 be 2e a5 91 bd 19 6b c8 bc 40 8b f7 3d
       -0.26469576 -0.07111584 -0.02446513 0.12087107
000390 70 a6 83 3e c2 4d 89 be e8 3e b4 bd d5 50 53 be
       0.2571292 -0.26817137 -0.08801061 -0.20636304
0003a0 c5 a4 5c 3e a1 a1 7e be ad 47 8c be 2f 03 45 3e
       0.2154723 -0.24866344 -0.27398434 0.19239496
0003b0 d2 35 85 be 88 29 06 3d d5 a3 81 bc 1b d2 73 3d
       -0.26017624 0.03275445 -0.015825192 0.059526544
0003c0 75 2d c5 3c 89 3b 1e bd dc c4 41 3e 2f 1d 02 be
       0.024069527 -0.038630996 0.18922752 -0.12706445
0003d0 01 57 85 bd 54 45 0d 3e 1d 2d 55 bd 2a 5a c4 bd
       -0.06510735 0.13795978 -0.052044977 -0.0958751
0003e0 39 7e 34 be 8a c9 0f 3e d3 46 3f 3e 59 00 7b 3d
       -0.17626275 0.14041725 0.18679361 0.06127963
0003f0 df 2a 24 be dc ae 07 be 82 85 b6 bd 4f 0d 41 be
       -0.16031979 -0.13250297 -0.08912183 -0.18852733

input_embedding.bias f4 [64]
000000 e5 b1 5b be 83 4a 7f bd 2d d6 4b be 5d e2 8c bc
       -0.2145458 -0.06232692 -0.1990592 -0.017197782
000010 2e 56 62 3e 47 1f e5 bd 60 69 b3 3c aa 75 b5 3d
       0.22103187 -0.11187606 0.021900833 0.08860333
000020 5c 89 3a be 69 50 ec bd 36 17 ad bd 20 ff ce bd
       -0.18216461 -0.115387745 -0.08451693 -0.10107255
000030 83 38 87 be 09 bf d1 bd 5e d9 1a 3d 2a be fd bd
       -0.26410303 -0.10241515 0.037804954 -0.123897865
000040 66 14 11 be 75 b7 b0 bd d5 79 ba 3d dc e3 64 3d
       -0.14167938 -0.08628742 0.09105269 0.055881366
000050 77 0e 38 bd 6e 7b 4c be 06 1e ca bd 21 26 43 3e
       -0.04493567 -0.1996896 -0.09869008 0.19057514
000060 06 4c 03 3d 24 25 8e bd 54 f2 41 be 29 4a b5 bd
       0.032054923 -0.06940678 -0.18940097 -0.088520356
000070 80 c4 5d be b2 38 15 3e f4 2f 82 be b4 f0 8b 3e
       -0.2165699 0.14572409 -0.2542721 0.2733208
000080 63 f6 ed 3d 19 41 87 be 9c d2 90 3e 6e 59 8a bd
       0.1161926 -0.26416853 0.28285682 -0.067553386
000090 ff e9 36 be 4b 19 df bd 3e a0 bb 3d db 6b 3f 3e
       -0.178627 -0.10893496 0.09161423 0.18693487
0000a0 26 22 03 be 46 c1 b4 bd df 0e 00 be 54 14 36 3a
       -0.12805995 -0.088259265 -0.12505673 0.0006945778
0000b0 44 54 20 be 59 58 28 be 21 19 6f be 2d 33 01 be
       -0.15657145 -0.16439952 -0.2334943 -0.12617178
0000c0 2a 84 39 3b 76 af 65 3d 29 23 6a be 09 b6 42 bc
       0.0028307536 0.056075536 -0.22864975 -0.011884221
0000d0 a9 36 e4 3c ce 23 97 bd 0b ba ae bd 76 43 d0 bd
       0.027858095 -0.07379876 -0.08531579 -0.10169117
0000e0 dc b1 0f 3e 82 58 39 3c 65 cc 27 be eb 1b 23 be
       0.14032692 0.011312606 -0.16386564 -0.15928619
0000f0 e2 c0 06 3e a0 38 d3 3c 81 5c 8c be f1 c9 85 3c
       0.13159516 0.025783837 -0.27414325 0.016331645

encoder.layers.0.self_attn.in_proj_weight f4 [192, 64]
000000 b3 d0 6a 3d b1 86 74 be b6 f2 dd bd 5a 68 3a 3e
       0.057327937 -0.23879506 -0.10837309 0.1820387
000010 9b 44 1f 3d 7c b4 49 bd e3 bb 89 3d d1 2d f8 ba
       0.038883787 -0.04924439 0.0672529 -0.0018934553
000020 e1 57 b1 bd 8c 2e c3 bb d0 da a9 3b 87 7f b1 3d
       -0.0865934 -0.0059564766 0.005183555 0.08666902
000030 b3 a2 d8 bd 0f 72 19 be 6c 27 58 3e fc 1b 01 be
       -0.105779074 -0.14984916 0.21108788 -0.12608331
000040 6e 24 47 3d 32 b7 39 be aa 7e 44 3e 0c 66 17 be
       0.048618726 -0.1813629 0.19188944 -0.14785022
000050 82 6a ed bc d2 a4 12 3c 4f ad b8 bd ae 50 c8 3b
       -0.028981451 0.008950429 -0.09017431 0.0061131334
000060 83 4c a9 3d 83 5f 65 be cf 3a 4a bc 51 4f e5 bd
       0.082665466 -0.22399716 -0.012343123 -0.11196769
000070 94 d5 67 bd 20 6c 8e bd 5c 03 12 be fb fb 5e 3d
       -0.05660017 -0.06954217 -0.14259094 0.054439526
000080 e5 95 28 3e 42 a9 ee b9 1d 3f 46 bb 18 0d d8 bd
       0.1646343 -0.00045521004 -0.003025002 -0.105493724
000090 0e 3b 6a be cc 3f 08 3d 12 49 71 3e 03 68 69 be
       -0.2287409 0.033263966 0.2356303 -0.22793584
0000a0 25 46 40 3d bb e0 53 3d f9 73 20 be cb b9 2a bd
       0.046941895 0.05172799 -0.1566924 -0.041681092
0000b0 84 9f a6 bd 1a 3a c1 3d 10 49 39 3b a6 4d 25 bd
       -0.08135894 0.0943491 0.0028272308 -0.040357254
0000c0 ff e1 2e 3e f8 dc 06 3d cf 79 4c bb 6f 42 3b bd
       0.17078398 0.032925576 -0.0031200533 -0.045717653
0000d0 18 70 4a 3e e4 a9 ea bd 26 d7 dd 3c 35 7b ab bc
       0.19769323 -0.11458185 0.02708013 -0.020932773
0000e0 de 10 42 3e 77 ae ae bd 9f dc de bd 4c f3 0a 3e
       0.18951747 -0.0852937 -0.10881924 0.13569373
0000f0 32 fd 67 bd e0 80 07 bd f5 f0 f5 bd 3b 8e 12 3e
       -0.05663795 -0.03308189 -0.120088495 0.14312069
000100 b3 63 f8 bd 51 20 cd bd 0b a5 10 be ae 6e 7c bd
       -0.12128391 -0.100159295 -0.14125459 -0.06162899
000110 8d 12 ad 3d a8 fd ba bc 35 8c 80 bc b0 4d 15 3e
       0.08450804 -0.02282603 -0.015691856 0.14580417
000120 2b 29 39 be 9e eb a8 3d b6 36 f4 3d b7 cb cd 3d
       -0.1808211 0.082480654 0.11924498 0.10048621
000130 e9 54 a9 bd 15 f4 a6 bd ca d3 58 3e 63 ff c9 bb
       -0.082681485 -0.08152024 0.21174541 -0.0061644777
000140 a9 e0 48 be af aa e3 bd b4 27 30 3e b7 32 ae bc
       -0.19616951 -0.1111654 0.17202646 -0.021264417
000150 80 93 d6 bd 48 34 4f be e9 11 9c bd 8d 25 4c 3e
       -0.10477352 -0.20234787 -0.076206036 0.199362
000160 54 94 59 be 48 39 1e be ef 2c a8 bd b4 26 46 be
       -0.21247989 -0.15451539 -0.082116954 -0.19350702
000170 d0 f5 e9 bc 54 4d d5 3d 3a 41 51 be 11 93 96 3d
       -0.028559595 0.1041514 -0.20435038 0.073522694
000180 3a b7 cb 3d 2c 46 d6 bd 5d d4 30 3e 11 a1 9a be
       0.09947057 -0.10462603 0.1726851 -0.3020101
000190 b4 90 a7 bd 25 ef 10 be ca cf 44 3e 80 c0 31 be
       -0.08181897 -0.14153726 0.1921989 -0.17358589
0001a0 20 21 7b be 37 d6 16 be 59 99 47 bb 77 26 1f be
       -0.24524355 -0.14730154 -0.0030456393 -0.15542017
0001b0 35 b2 48 be 70 95 08 3e 05 42 21 be 2f a7 6a bd
       -0.1959923 0.13338256 -0.1574784 -0.057288345
0001c0 3e 9e ad 3c 6e 32 02 bd 83 5f c3 bd 09 c5 0d bd
       0.02119362 -0.031786375 -0.09539702 -0.034611735
0001d0 83 fc 98 3d 9b ce 8f 3d f5 eb e9 3d 9e c4 3c bd
       0.07470038 0.07021829 0.11421958 -0.046085946
0001e0 a7 ef 49 bc 13 5a a1 bd 5d 88 60 be 0d a3 6b 3d
       -0.012325204 -0.078785084 -0.21927018 0.057528544
0001f0 6b 56 64 be 52 45 db bc 6b 27 27 be 09 47 2c bd
       -0.22298591 -0.026766453 -0.1632363 -0.042059932
000200 70 96 f0 3b b3 96 09 be 41 63 4b bd 36 55 ee 3c
       0.0073421523 -0.13436393 -0.049655203 0.029093366
000210 46 b3 cc 3d f4 01 0a 3b 4c 56 08 3e 6b e2 56 bd
       0.09995131 0.0021058293 0.1331417 -0.052462023
000220 07 93 ac bd ed 1d 64 bc a2 c8 94 bd ca b8 07 3e
       -0.08426481 -0.0139231505 -0.0726483 0.13254085
000230 b7 10 ad bd 65 13 9a 3d 8b 24 38 3e 47 4e 6c be
       -0.08450454 0.075232305 0.1798269 -0.23076735
000240 d9 9d 57 bd 04 a2 c0 bd 9f dd 10 3d 1c 7c 3d bd
       -0.05264077 -0.09405902 0.035367604 -0.046260938
000250 25 ce 23 3c db 6e bb 3d 1b e9 b7 3c 60 1e 16 3c
       0.009997879 0.091520034 0.02245002 0.009162515
000260 b0 ce 3a be a0 2e 99 bc d4 0f e3 3c 2c 01 56 bc
       -0.18242908 -0.01869899 0.027717508 -0.013061803
000270 89 4f 41 bc 6c 18 34 3e cf 8e e8 bd a9 59 e1 3d
       -0.011798748 0.17587441 -0.113553636 0.110034294
000280 ff 2d 1e 3e 69 d7 9c 3d 3b 94 17 3e f8 87 08 3c
       0.15447234 0.07658274 0.14802639 0.008333199
000290 af 2c 26 bd 18 3d f2 bd a9 81 37 3e 17 2e 14 be
       -0.040569957 -0.11828059 0.17920555 -0.14470707
0002a0 cb a1 3d 3d 6d 11 34 be 1a 19 3e be 5a 72 ef 3a
       0.046296876 -0.17584772 -0.18564263 0.0018268332
0002b0 49 36 39 be 69 d4 d8 3d cc 93 b9 3d b6 e8 31 3e
       -0.18087114 0.10587389 0.09061393 0.17373928
0002c0 42 22 22 3d 25 f6 20 3e 1e f4 35 be 7f 06 3a be
       0.039583452 0.15718897 -0.17768905 -0.1816654
0002d0 95 73 1d 3e ac c8 87 bc 9c f6 d7 3c ca 68 96 bd
       0.15376122 -0.01657518 0.02636271 -0.07344206
0002e0 d1 3a a2 3b 57 41 34 bd 7f 5b 98 bd a9 58 b3 3d
       0.004950859 -0.044007625 -0.074393265 0.08757145
0002f0 02 da cb bd b4 dc 3c be 1f 02 73 3b f2 df 99 3d
       -0.09953691 -0.18443567 0.0037080122 0.07513417
000300 cd b3 2c be 75 24 45 bd a7 7d a0 bd c5 a3 86 3d
       -0.16865464 -0.04813047 -0.07836466 0.06574205
000310 a5 1d 05 bb a7 48 36 be 73 af 0c bd f5 6d 50 3e
       -0.002031186 -0.17801152 -0.03434701 0.20354445
000320 c9 d6 05 bd 5d f6 16 bd 83 7c 39 3d 97 ad d2 bc
       -0.03267554 -0.036856044 0.04528476 -0.02571754
000330 ac 41 d2 3d 31 53 f9 bd fe 95 d8 bd b5 df 4a be
       0.10266432 -0.121740706 -0.10575484 -0.198119
000340 04 e2 9f b8 2e 21 de 3d d2 a8 7a 3d 82 4e 47 bd
       -7.6238095e-05 0.10846172 0.061196156 -0.048658855
000350 7c fe ac bd ce b1 cf bd 3b e0 44 3d e0 95 40 3e
       -0.084469765 -0.101413354 0.048065405 0.18807173
000360 68 14 f0 bc af 99 d9 3c 19 e5 24 3d c8 70 11 3c
       -0.029306605 0.02656254 0.040257547 0.008876987
000370 2d be 0f bd 78 1f 93 3d 78 de 32 be 88 4e 1c 3e
       -0.035093475 0.071837366 -0.17467678 0.15264332
000380 a6 47 b8 bd 3b 01 03 3c 6c 9b 0b 3d 6c e5 0c be
       -0.08998041 0.007995899 0.03408377 -0.13759392
000390 eb de 6f bd 2d a9 50 3d 39 ff 17 3e 6c d0 88 3d
       -0.0585622 0.05094259 0.14843453 0.06680378
0003a0 00 29 2b be 5a 97 f7 ba cc f9 56 3d 87 45 1c be
       -0.16714859 -0.0018889711 0.05248432 -0.15260898
0003b0 dc 53 9d bd d5 f6 cb 3d 2d 53 1c 3d 3a 53 a4 bd
       -0.076820105 0.09959189 0.03816526 -0.08023687
0003c0 99 be a3 3d 96 46 a8 bd 66 d1 95 3c 85 55 cd 3c
       0.07995338 -0.08216588 0.018288326 0.025065193
0003d0 5e d1 0e 3e f8 b9 63 3c 4f d9 83 3d 40 ad 85 bd
       0.13947055 0.013899319 0.06437933 -0.065271854
0003e0 b3 2d 00 3d 4e 90 1b be c9 c1 0b be e6 60 cc 3d
       0.031293582 -0.15191767 -0.13648142 0.099794194
0003f0 94 c0 33 be 63 ee 58 be 26 4e e1 3b 4a d6 f9 bd
       -0.17553931 -0.21184687 0.006875771 -0.121990755

encoder.layers.0.self_attn.in_proj_bias f4 [192]
000000 f3 5e 9c 3d 76 af 9f 3d 56 46 b6 3c 37 ba b5 3c
       0.076352976 0.077971384 0.022250336 0.02218352
000010 9a 0c b7 bc bc f1 3e bd 47 42 af 3b 0b c3 bc 3c
       -0.022344876 -0.046617255 0.005348477 0.023042222
000020 6d 33 ed 3c 84 4a 0b bd 9b 76 96 3d 82 85 fc 3c
       0.028955186 -0.03400661 0.07346841 0.03082538
000030 4f a9 9e bc e5 dc 10 bd c3 41 2e bd 24 a7 05 3d
       -0.019367842 -0.03536691 -0.042543184 0.0326301
000040 bf 49 4a 3d e0 96 0a bd 57 5c 08 3d 95 fb 44 3c
       0.049386736 -0.03383529 0.033291187 0.012022872
000050 67 19 20 bd 9d 5c ed bc 69 ac d8 bc 7e 29 a9 bd
       -0.039086726 -0.028974826 -0.0264494 -0.08259867
000060 1f 9c b4 bb c5 12 2e bb 51 d3 03 bd e1 2c 04 bd
       -0.005511775 -0.002656148 -0.03218395 -0.032269362
000070 8d 52 08 3d 0e 9b 32 bd 18 f9 f7 3c df e0 ef bc
       0.03328185 -0.043604903 0.030270144 -0.029282032
000080 7c ea 0e 3d 68 da 80 3c bf 4a a3 3d 03 a7 1c 3d
       0.03489159 0.015729144 0.07973241 0.038245212
000090 cd c4 04 3d 40 b2 57 3d 12 69 9b bc 50 06 3c 3d
       0.032414246 0.052660227 -0.018971 0.045904458
0000a0 31 a2 85 3d e4 6f 31 3c ae fb 93 bd e8 fe 8b bb
       0.06525076 0.010829899 -0.072257385 -0.0042723306
0000b0 b3 cc f4 3d d2 e3 83 b9 7b b7 42 3c fe 30 4d bb
       0.11953106 -0.00025156006 0.011884565 -0.003130972
0000c0 b8 25 3b 3c 9d a3 b2 3d c9 b3 cd bd c1 8c 04 3e
       0.011422567 0.08722613 -0.10044057 0.12944318
0000d0 68 c3 98 bd d8 07 9a 3c f6 ed d6 bd 33 c3 d2 bc
       -0.07459146 0.018802568 -0.10494606 -0.025727844
0000e0 53 63 b7 3a 47 3d b0 bd f7 a8 82 3c ae 2d e5 39
       0.0013991393 -0.08605438 0.01594971 0.00043712318
0000f0 91 f0 73 3d 23 b6 9c 3d cc 47 f9 3d b3 05 8d bc
       0.059555594 0.07651927 0.12171897 -0.017214632
000100 f5 f8 0c 35 08 0b 8a b5 3c 67 85 35 be 01 28 35
       5.2516344e-07 -1.0285012e-06 9.939317e-07 6.258741e-07
000110 1c 69 6f b3 0b 8b 8a b4 bf 98 b1 b5 db ac 8e b4
       -5.574212e-08 -2.580567e-07 -1.3231983e-06 -2.657533e-07
000120 13 9e 03 35 b4 48 0f 34 e4 16 ee 34 83 6c 7f b5
       4.903133e-07 1.3344362e-07 4.434761e-07 -9.515281e-07
000130 99 76 2c 34 1a 09 38 35 c6 3e f9 34 b6 79 b1 35
       1.6061894e-07 6.8558586e-07 4.6425538e-07 1.322295e-06
000140 db 96 aa 33 a5 31 62 b5 b2 ff 21 b5 37 cd cb 35
       7.943682e-08 -8.4263803e-07 -6.034926e-07 1.5184404e-06
000150 f9 d5 dd b5 04 20 14 b3 4b 62 4c b5 5f d3 56 b5
       -1.6528057e-06 -3.4488053e-08 -7.613896e-07 -8.00288e-07
000160 9c cd 0a 33 98 c8 05 35 5a 8a 10 34 04 3a cd b5
       3.231763e-08 4.9838263e-07 1.3461377e-07 -1.5290575e-06
000170 80 55 73 36 0d 1b 60 b5 b0 bc 45 35 5a d4 2b 34
       3.625959e-06 -8.3485867e-07 7.3662795e-07 1.6002869e-07
000180 a9 0d f3 35 f6 5f 88 35 87 16 d9 33 d1 c2 3f b5
       1.8108886e-06 1.0160718e-06 1.01089476e-07 -7.143654e-07
000190 42 ce 0d b4 a9 23 a9 34 cf 71 c2 34 06 3d 21 b5
       -1.3206684e-07 3.150465e-07 3.6218123e-07 -6.0065975e-07
0001a0 a7 90 2a b3 80 0a 72 b4 0a 50 99 b4 05 7a cc 34
       -3.971277e-08 -2.2541826e-07 -2.8556707e-07 3.8086742e-07
0001b0 e1 a8 9d 33 17 e2 78 35 97 80 b1 34 03 c0 ba 34
       7.341601e-08 9.2716203e-07 3.306238e-07 3.4784907e-07
0001c0 2b 2d 90 35 1f 96 18 35 60 93 e1 b4 47 8e d5 34
       1.0741982e-06 5.684287e-07 -4.2016745e-07 3.9777862e-07
0001d0 16 64 1b 34 2d fa e7 b4 18 c6 76 b4 d6 4b 16 b4
       1.4471911e-07 -4.320913e-07 -2.2982601e-07 -1.3997428e-07
0001e0 94 6a 1f b5 fc 16 86 b5 7a 76 b3 34 b1 13 40 b4
       -5.938721e-07 -9.990467e-07 3.342755e-07 -1.7888557e-07
0001f0 51 ec 9c b4 07 1f ac 35 c4 ca d8 34 11 70 73 35
       -2.9229207e-07 1.2824029e-06 4.0380667e-07 9.068763e-07
000200 e3 06 44 3c 21 b9 0e bc 93 b9 3d 3c af 6f 3f bc
       0.011964533 -0.00871113 0.011579889 -0.011684342
000210 7f 30 fc ba 6b 07 af bb 56 74 68 bc 43 e2 09 bc
       -0.0019240527 -0.0053414605 -0.014187893 -0.008415761
000220 1b b8 74 bb 28 cc 98 3c b3 3f 1d bc 6a 66 f4 bb
       -0.003734118 0.018652037 -0.009597707 -0.007458498
000230 56 e1 09 bc 99 14 d1 bb d7 1f 14 3b b9 54 14 bc
       -0.008415541 -0.0063806293 0.0022601986 -0.009053403
000240 17 a7 c0 bb 5d 53 2d 3c c1 34 db bb 3f ce e1 bb
       -0.0058792937 0.010578957 -0.0066896384 -0.0068910415
000250 0b f4 52 3c 76 8f d0 3b 8e c8 1f 3c ce fc db 38
       0.012875567 0.006364758 0.009752406 0.00010489822
000260 bf 3d 02 3c 04 b4 e6 3b 9c d3 8b 3a 96 6d 58 bc
       0.007949292 0.0070405025 0.0010667923 -0.013209721
000270 98 74 62 3a 68 62 0f 3c 89 5c 0c bc 66 9c 60 bc
       0.00086385896 0.008751489 -0.008566984 -0.013709163
000280 a2 a2 3d 3c d1 1f 16 bc 52 cb 14 3c 3b 04 f0 3b
       0.011574419 -0.009162859 0.009081678 0.007324723
000290 5a 84 9b bc 21 98 dd bb 2f a6 c6 3b 53 d8 e5 3b
       -0.018984009 -0.00676252 0.006062291 0.0070143132
0002a0 b4 c1 62 bc a1 13 02 3c 83 17 2d 3b ea a1 2a bc
       -0.013840128 0.00793925 0.002641172 -0.01041458
0002b0 16 dd 4f 38 7a a8 b5 3c e3 99 96 3c 63 06 03 3c
       4.955855e-05 0.022175062 0.018383926 0.007997128
0002c0 09 28 bf 3a 5b 60 ae bb 8b ad e9 bb e8 85 13 bc
       0.0014584075 -0.005321545 -0.0071312836 -0.009004094
0002d0 e8 b2 9a 3c 79 66 56 3c 26 f9 2f bc 08 b4 37 3c
       0.018884137 0.013085955 -0.010740554 0.011212356
0002e0 b4 81 20 bc 6a a3 83 bc 65 05 e2 bb fc 2d e8 3b
       -0.009796549 -0.016069133 -0.0068976157 0.00708556
0002f0 ad 38 d7 3b d1 a4 89 bc e3 ee 43 bc 9e d5 36 3a
       0.0065680356 -0.016802223 -0.0119588105 0.00069745805

encoder.layers.0.self_attn.out_proj.weight f4 [64, 64]
000000 e2 d2 d2 bd 05 78 99 3d a6 c2 b2 3d f4 c6 92 3d
       -0.10294129 0.07493595 0.087285325 0.071668535
000010 0a 12 23 3c 26 1e 80 3d 6c da bb 3c 53 3e 6a 3c
       0.009953031 0.0625575 0.0229313 0.014297086
000020 94 26 d5 bd f9 9a 16 bd ae b3 ab 3d 62 85 04 3c
       -0.10407749 -0.036768887 0.083838806 0.008088442
000030 98 69 cc 3d 0a 48 d5 3d 04 50 5a 3d 33 30 44 bd
       0.09981078 0.10414131 0.053298965 -0.04789753
000040 31 fc 55 bd 26 8f 8a bd 62 94 c1 bd 2f 7f 03 3d
       -0.05224246 -0.06765585 -0.0945213 0.032103714
000050 b7 b9 db bc 5a 27 a5 bc e3 22 2d bd d3 9e b9 3d
       -0.026821954 -0.020160366 -0.0422696 0.090634964
000060 57 4e b8 3d 53 ee 03 3d e1 95 03 be fe a2 f2 3d
       0.08999317 0.032209706 -0.12850143 0.118474945
000070 6b 08 b1 bd 2a 69 07 be 50 4a 0d bc 57 78 ec 3d
       -0.08644184 -0.1322371 -0.0086236745 0.115463905
000080 93 9a bd bd d4 7e 02 be 7b a5 44 3d 2f 71 de bd
       -0.09257998 -0.12743694 0.048009377 -0.10861432
000090 0f 8b e7 3d 55 66 fa bd a1 60 9a 3c bb df 25 bb
       0.1130582 -0.122265495 0.018844904 -0.0025310356
0000a0 df 01 0a 3e 14 3f 91 bd 39 e5 c8 bc ff 5c b0 3d
       0.13477276 -0.07092109 -0.024523364 0.086114876
0000b0 c4 0e 46 3c 88 1d 29 be 9a 0a ee bd cc 53 a8 ba
       0.012088481 -0.16515172 -0.11623116 -0.0012842356
0000c0 9b a3 79 3b 80 8f c7 3d b9 49 c5 bc dd b0 10 3e
       0.0038091901 0.09744167 -0.024083005 0.14129968
0000d0 14 c4 0c bd ef 4d 85 bc 90 44 c3 3d 08 35 4e bd
       -0.034366682 -0.016272513 0.09534562 -0.050343543
0000e0 87 cd c3 3d b8 95 43 3d f3 5d 15 bc a6 ce fa bd
       0.095606856 0.047750205 -0.0091166375 -0.12246446
0000f0 47 ee 54 bd 55 52 21 3e 54 54 f8 3d c1 71 1f 3a
       -0.05198505 0.15754063 0.12125459 0.00060823193
000100 29 7b 84 bd ff 47 ba bd 6b 71 01 3d 3f 45 d5 3d
       -0.064688034 -0.090957634 0.031602304 0.10413598
000110 60 be e7 3c 5a 7b 41 bd 45 14 7e 3d bf b5 d4 bd
       0.02828902 -0.047236778 0.06203105 -0.10386228
000120 61 10 33 bd f4 19 25 bd 82 ec 84 bd 91 fc 1b 3e
       -0.043716792 -0.040307954 -0.06490423 0.15233065
000130 67 8b 83 bc 0b 47 06 bc 88 11 af bd 3a 5e 71 3d
       -0.016057683 -0.008195649 -0.08548266 0.058927752
000140 38 b3 87 3d 96 19 ae 3d aa f0 10 3d 54 d4 b3 3d
       0.0662598 0.08500974 0.035385765 0.08780733
000150 cb 3e 40 3d c5 0a 00 bc ec ed 7c bb 6c 30 eb 3d
       0.046934884 -0.007815068 -0.003859396 0.11483845
000160 44 87 c1 bc 55 22 b6 bd 4e 82 fa bd 46 be 57 3d
       -0.02362407 -0.08893267 -0.12231885 0.052671693
000170 d9 3a 4d 3d 96 c2 14 3d ea 25 d9 3d 77 71 fd 3d
       0.05010495 0.036318384 0.10602935 0.12375157
000180 6f 77 f3 bc 61 55 ab 3d b7 df 88 bd 14 f4 42 bb
       -0.029720036 0.08365894 -0.06683295 -0.0029747533
000190 10 f6 96 3d 0e 12 1e ba a7 5f 79 bd ec 07 c0 bd
       0.073711514 -0.0006029912 -0.060882237 -0.09376511
0001a0 db 8a 46 bd ed 4b b0 3d 02 a6 75 3d 7d e7 54 bd
       -0.048472267 0.08608232 0.05997277 -0.051978577
0001b0 ca fd 38 bc 57 4b a0 3d 57 9d 69 3d f9 9b 9d 3d
       -0.011290977 0.0782687 0.057034817 0.07695765
0001c0 67 88 12 bd 3a 41 f0 bc 42 1d 67 bc ee c0 fa 3b
       -0.035774615 -0.029327977 -0.014106097 0.0076523935
0001d0 b9 67 8d bd 59 bf e1 bc f2 00 66 3d f2 8d 82 3d
       -0.06904549 -0.027557062 0.056153245 0.0637473
0001e0 ec 7e 17 3d 7d 44 c1 3d 0a 0b 31 3d ce 30 92 3b
       0.036986277 0.09436891 0.04322342 0.0044613844
0001f0 9f 9c e7 3d 60 c4 d1 3d b2 7a a7 3d 93 50 02 3e
       0.1130917 0.10242534 0.08177699 0.12726049
000200 f0 4c df bd 98 60 a1 3d 69 2a 9f 3d f3 77 ff bd
       -0.109033465 0.07879752 0.07771761 -0.124740504
000210 58 9b 36 3d da d7 f4 bd 78 9f 0b bd bd 9b aa bd
       0.04458174 -0.11955233 -0.034087628 -0.08330486
000220 1b 0a 36 3d fc 10 eb 3c 52 4d f4 bd be af 2b bd
       0.04444323 0.028694622 -0.1192881 -0.041915648
000230 5e 53 eb 3d 23 3b db bd 3f 04 c4 3d b8 29 f4 bc
       0.114905104 -0.10704639 0.095711224 -0.02980505
000240 57 5a 68 bb ef 1f fc 3d 27 df 56 3b 7f e5 01 be
       -0.0035454237 0.12310778 0.0032786818 -0.12685202
000250 38 62 74 bd 77 94 02 bc 2b dc d2 bd d2 a3 83 3d
       -0.05966398 -0.007969967 -0.102959 0.064277306
000260 67 3c 35 3c 40 63 dd bc cf cd 9c bd e9 c6 b8 3d
       0.011061764 -0.027024865 -0.076564424 0.09022314
000270 ae 5e 63 bd bb 50 1b 3d 11 b1 97 3d 34 10 af 3d
       -0.055510215 0.037918787 0.074068196 0.085480124
000280 2a 64 f3 bd 40 17 84 bd ca 67 0f 3d 28 cd 85 3c
       -0.11884339 -0.06449747 0.03501109 0.016333178
000290 a2 c5 ec 3d 23 05 10 bc 2c f6 e6 3b 93 2c ed 3d
       0.11561133 -0.008790287 0.007048389 0.115807675
0002a0 a4 5e bd 3d f0 57 cd 3d f7 33 03 ba 3a b2 04 3e
       0.09246567 0.10026538 -0.0005004997 0.12958613
0002b0 46 de a8 3d 41 ff ee 3c 3b ad 5e 3d 48 d5 6f bc
       0.0824552 0.029174449 0.054364424 -0.014638253
0002c0 0a 38 8b 3d e7 67 b6 bc cc 88 b7 3a cd d0 70 bd
       0.06797798 -0.022266341 0.0014002561 -0.058792878
0002d0 8e 66 cd bd f0 e1 3c bc 68 d7 72 3c 31 6e ef 3c
       -0.100293264 -0.011528477 0.014821865 0.029227348
0002e0 94 47 a1 bd 61 75 d9 3d e9 60 ae bd f3 78 4b 3d
       -0.078749806 0.106180914 -0.08514578 0.049675893
0002f0 a4 a5 11 3d 68 e7 e5 3d 3f 34 cd bd 38 ba 6b 3c
       0.035558358 0.11225778 -0.10019731 0.01438766
000300 25 d4 aa bd 50 06 e6 3d 26 49 56 3d 5d 28 ca 3d
       -0.083412446 0.11231673 0.052315854 0.0987098
000310 31 81 60 bd 86 67 07 3d c0 ba 1d 3d fd 56 01 3e
       -0.054810707 0.033057712 0.038508177 0.1263084
000320 98 28 40 bd 81 b3 64 bd 62 d8 82 3d 25 dd 27 bd
       -0.046913713 -0.05583525 0.06388928 -0.040982384
000330 fd 6c e5 3c 4e ac 47 3c 40 68 df 3d de dd 46 3d
       0.028006071 0.012187077 0.10908556 0.048551433
000340 de 2d aa bd 74 7d 0e be 37 f9 b0 bd fc cf cb bd
       -0.0830953 -0.13915044 -0.08641284 -0.09951779
000350 a3 01 d7 3b d6 f6 cc b8 2a a7 c8 3d 2d e8 af 3d
       0.0065614744 -9.773455e-05 0.09797509 0.08589206
000360 70 35 1e 3d 1d 50 49 bd 69 37 a9 bd c7 a4 b6 3d
       0.03862518 -0.049148668 -0.08262522 0.089181475
000370 0f da 7c bd a2 e3 ef bd b4 ac 1b bc b7 00 bf 3c
       -0.061731394 -0.117133394 -0.009501625 0.02331577
000380 8b f7 b0 bd 7e 8e 7d 3c 7a 6d e6 bd 5b 2b cc b9
       -0.08640965 0.015475867 -0.1125135 -0.00038942214
000390 70 05 cd bd 69 42 0f 3d fb ef d6 bd 23 17 ef 3d
       -0.10010803 0.034975443 -0.104949914 0.11674335
0003a0 e9 c8 ec bc e8 1a b8 bd fa 9d c4 bd d5 f0 46 bd
       -0.028904395 -0.08989507 -0.09600444 -0.04856952
0003b0 80 e2 e0 3d db 74 2e bd 82 5c 07 be 0a c6 0f bd
       0.109807014 -0.04259191 -0.13218883 -0.035100974
0003c0 11 6a a2 bd e2 9d 8b bd 97 3e d9 3d 79 e5 00 3e
       -0.07930387 -0.06817223 0.10607641 0.12587537
0003d0 ce 4f d5 3d 65 43 10 3d 92 8c 2f bd 93 f6 f5 bd
       0.10415612 0.035220522 -0.042858668 -0.12009921
0003e0 6f 88 20 bc 55 d2 c3 3d f5 58 91 bc 2d d1 b8 3d
       -0.009798153 0.09561602 -0.017742613 0.09024272
0003f0 39 0a fb 3d c2 21 ed 3d f4 9f 05 bd dd c2 27 3d
       0.12257809 0.115787044 -0.032623246 0.04095732

encoder.layers.0.self_attn.out_proj.bias f4 [64]
000000 0e 59 7e bc 87 39 14 bc a4 4d ef 3b bf ac 2f bc
       -0.015524162 -0.009046919 0.0073029567 -0.010722338
000010 7c dd 98 3c 67 de 4d 3c 69 fd d4 bb b1 2e 0a ba
       0.0186603 0.012565232 -0.0064999354 -0.000527124
000020 5a 99 32 bc df 99 24 3b 47 b9 5f 3c e2 a4 bd 3b
       -0.01090082 0.0025116128 0.013655013 0.005787478
000030 ef ba 83 bb 8c b3 1a bc 97 9e 93 3c c0 b5 18 bb
       -0.004020087 -0.009442221 0.018019957 -0.002330169
000040 3c be dc 3b 5f bf 09 3c 52 fb 04 bb 58 1a 22 bc
       0.006736545 0.008407443 -0.00202914 -0.009893976
000050 11 c0 0a 3c a9 82 aa 38 cb 95 00 bd 01 ba df bb
       0.008468644 8.130569e-05 -0.031392854 -0.0068275933
000060 31 36 1f bb 02 0f 1c 3c e9 65 a5 3b e9 7b 1b 3c
       -0.0024293775 0.0095250625 0.005047549 0.009489992
000070 29 f2 c6 3b 38 75 3a 3c 0f f0 b4 bb 30 7a 90 39
       0.006071348 0.011380486 -0.0055217813 0.00027556857
000080 e3 a3 84 bb 61 01 0b bc bf 24 2e 3c f1 eb 09 3c
       -0.004047857 -0.0084842155 0.010628878 0.008418069
000090 c2 a6 d8 3b 92 46 35 bc 59 99 d1 bb 8a ab 14 ba
       0.006611676 -0.011064189 -0.0063964543 -0.0005671313
0000a0 3c b1 9c bb 9d c7 cb 3b 79 24 0c bc 20 85 ff bb
       -0.00478187 0.006218864 -0.008553618 -0.007797852
0000b0 97 c1 cc 3a 18 fb 13 3c 60 93 2b bc fd 94 14 3c
       0.0015621659 0.009032033 -0.010472149 0.009068725
0000c0 63 db 47 3c f5 47 0d 3b 23 e8 53 3b 4a 45 24 3c
       0.012198302 0.0021557782 0.003233441 0.010026285
0000d0 26 42 b3 3b 95 9c dd 3b a0 b6 ca ba d0 95 62 bb
       0.005470532 0.006763051 -0.0015465803 -0.0034574158
0000e0 c0 95 ea 3b 41 33 10 bc 58 df 4a bc 7e af 55 bc
       0.007158965 -0.008801282 -0.012382351 -0.013042329
0000f0 c4 ff ac bb b0 5c 1a bc 13 21 27 bc 26 93 56 bb
       -0.005279513 -0.0094215125 -0.010200757 -0.0032741516

encoder.layers.0.linear1.weight f4 [256, 64]
000000 c1 8f a4 bd 7c 50 c8 3d 38 fc de 3d 28 0b a9 3d
       -0.080352314 0.09780976 0.10887951 0.08254081
000010 f1 15 91 3d 7b 0e cc bb f1 c5 02 3e c7 2a f4 3d
       0.07084263 -0.006227312 0.12770821 0.11922222
000020 5f 0d b2 bd 90 ef 99 b8 88 a7 79 3d 1c 97 08 be
       -0.086939566 -7.3402305e-05 0.060950786 -0.13338894
000030 d4 46 06 be 93 82 f4 bd 7e eb 64 bd a6 1c d0 3a
       -0.13112956 -0.119389676 -0.055888645 0.0015877679
000040 3d cc 1c bd 25 cf 8d b9 d1 81 5e bd f6 9e 15 3d
       -0.038280714 -0.0002704795 -0.05432302 0.03652855
000050 19 18 b3 3b 43 5d f9 bd 30 da 89 bd 51 7c 8c 3d
       0.005465519 -0.121759914 -0.06731069 0.06859649
000060 be 97 0a be aa f3 8b 3d ac 53 00 bc 27 6f 6c bd
       -0.13534448 0.068335846 -0.007832449 -0.05772319
000070 d0 f5 04 bd 75 12 b8 3d d9 2b ac bd 70 ff e7 3d
       -0.032460988 0.089878954 -0.08406801 0.11328018
000080 b1 63 8f bc 5c 62 a3 bd 31 74 be bd 5f 1e a5 bd
       -0.017503591 -0.07977745 -0.092995055 -0.080624335
000090 11 fd 04 3e 5d 38 23 bd 3f 15 44 3d 0f ff 5b bd
       0.12987162 -0.039848674 0.047871824 -0.05371004
0000a0 da 15 a5 bd 6e 3c 93 bc 3e 06 90 bd f4 70 e9 3d
       -0.080608085 -0.017973151 -0.070324406 0.11398497
0000b0 a0 ac ad 3d 84 20 70 bd d3 a4 9b 3b 95 1e 2b bd
       0.08480191 -0.05862476 0.004749873 -0.041777212
0000c0 56 d6 82 3d c9 e2 0c 3d 6e 4d d0 3d ff 8c da 3d
       0.063885376 0.034395967 0.101710185 0.10671424
0000d0 87 1d b1 3c dc 8a 37 bc 0a b0 e3 bc 0c 12 16 bd
       0.021620525 -0.01120254 -0.027793903 -0.036638305
0000e0 dc d8 24 bd 8b 74 c0 3d 79 b1 0d 3d 3c 93 75 3d
       -0.040245876 0.09397229 0.03459308 0.059954867
0000f0 f5 3c ad 3d a4 93 08 be ef 01 15 3d 88 fb d3 3d
       0.08458892 -0.1333757 0.036378797 0.1035071
000100 9a 86 02 3d 5c 4d 38 bc 15 5c 7e 3d fa 91 6e 3c
       0.031866647 -0.011248913 0.062099535 0.014561171
000110 76 25 80 bc 30 0d 93 bd 3c aa a9 3c eb db 1b bd
       -0.015642863 -0.0718025 0.020711057 -0.038051527
000120 5b 8e da 3d dc a6 5e bc 41 1f e5 bd 06 66 95 3d
       0.106716834 -0.013589587 -0.11187602 0.0729485
000130 a1 d9 41 bc 5d 39 a0 3d 36 49 b0 bd 2d 94 b7 bd
       -0.011831672 0.07823441 -0.08607714 -0.08963809
000140 dd 55 27 3c 3b f4 9b 3d 7f 54 39 3c ba f8 77 bd
       0.0102133425 0.07614943 0.011311649 -0.06053994
000150 94 db 8a 3d 84 58 ac bd 48 d5 45 3d 2c 27 df 3c
       0.067801625 -0.084153205 0.048299104 0.027240358
000160 92 86 d7 bd a0 f2 61 3d 15 2b 30 3c 43 15 d4 bc
       -0.10523714 0.055163026 0.010752459 -0.025889045
000170 94 77 fd 3d cd 77 f3 3d 67 40 6f bd eb 6d de 3d
       0.12376323 0.118880846 -0.05841103 0.10860809
000180 6e 68 49 3d b5 ad 22 bd a6 eb 89 bd 72 e4 18 bd
       0.049171858 -0.03971644 -0.067343995 -0.037327237
000190 7f 77 dd bc 92 36 45 3c 0f bf 22 3c 28 04 a7 bd
       -0.02703452 0.012036936 0.009933247 -0.081550896
0001a0 ed 54 98 bd 65 b3 7b bd eb f4 b5 3c 24 49 9f 3d
       -0.07438073 -0.06145038 0.022211513 0.07777622
0001b0 a1 78 9e bb 92 4b d7 3c bf fb 4b bd bf 1c cd bd
       -0.0048361574 0.026281152 -0.04980063 -0.100152485
0001c0 a0 43 36 3d 10 50 86 bb 2a 07 99 3c 6e 6c 9b bd
       0.044498086 -0.0040988997 0.018680174 -0.07589041
0001d0 45 84 f4 bb 29 bd 9c 3d e8 0b d0 3d 2c f4 2e bc
       -0.007462057 0.07653267 0.10158521 -0.010678332
0001e0 6a 1a 48 bc cd a9 7c 3c 1d ee 44 bd 96 69 11 bd
       -0.012213329 0.015421343 -0.048078645 -0.035501085
0001f0 61 cd a6 3d 8e cc 5b 3d 0e 2b eb bc ac bf cb 3c
       0.08144642 0.053661875 -0.028707054 0.02487167
000200 2c bf 98 3d ad 62 4c 3d 05 d4 e7 bd 30 18 97 3d
       0.07458338 0.049898792 -0.113197364 0.0737766
000210 45 68 9a 3c 5d 39 ce bd 69 47 e1 bd 99 37 5b 3d
       0.018848548 -0.10069535 -0.109999485 0.05351982
000220 42 40 ad 3d 37 22 5a bd db 8c 35 ba 6e 26 9e bd
       0.08459522 -0.053255286 -0.0006925591 -0.07722174
000230 49 92 cc 3d 15 02 79 3d 7e 4b 6b ba 78 9c 13 be
       0.09988839 0.060793 -0.0008975788 -0.14415157
000240 dd 8d b6 bd ad 6e ee 3c 8b de 9b 3d 2c 9a cc 3c
       -0.08913777 0.029105509 0.07610806 0.024975859
000250 68 f2 a1 bc 9d ca 79 bd 70 9f 99 bd 3b dc 5e bd
       -0.019768909 -0.060984243 -0.075011134 -0.054409247
000260 75 b4 9c 3d 82 91 e4 3d e0 57 ab 3d ad 2d 15 3d
       0.07651607 0.11160566 0.0836637 0.036420513
000270 72 c0 4d bd 4d 77 96 3c c1 d5 e4 bd 3e 39 ef 3c
       -0.05023236 0.018367434 -0.11173583 0.0292021
000280 52 b6 4d 3d 0d d3 4d 3d ab 9a 11 bd 1f e0 5c bb
       0.050222702 0.0502501 -0.035547893 -0.0033702923
000290 93 50 05 bd 5b 1f a7 3d c3 63 de bc 9e 4e 27 3d
       -0.032547545 0.081602775 -0.02714718 0.04084646
0002a0 75 c0 74 3d d2 04 63 3d 4f 7e 3f bd 9a 6f d6 bc
       0.059753854 0.05542452 -0.046751317 -0.026176263
0002b0 92 6b 27 3d 31 ea 03 be 31 b9 c9 3d 2c 56 e6 bd
       0.04087407 -0.12882306 0.098497756 -0.11246905
0002c0 e2 6a d1 3d ca 88 9e 3d bd c6 a0 bd d9 3d 52 3c
       0.102254644 0.07740934 -0.07850406 0.012832128
0002d0 f3 e2 a8 b8 c5 c2 9d bd c0 ff 86 3d 97 0f 69 3d
       -8.053137e-05 -0.07703165 0.06591749 0.056899633
0002e0 b3 99 37 3d 3a fe 00 be 33 eb 89 bd 3d d2 74 3d
       0.044824313 -0.1259698 -0.06734314 0.05977081
0002f0 c3 3f c6 3d ad 74 d0 3d eb f2 25 bd 6c cc aa bd
       0.0968013 0.10178504 -0.040514868 -0.08339772
000300 4a ea 03 bd 61 ba 24 3d ac 11 1c 3d c9 54 b0 bd
       -0.032205857 0.040216807 0.03810279 -0.086099215
000310 4b d8 d0 3d f8 3f 66 3d 75 f7 0a 3d 42 50 74 3b
       0.101975046 0.05621335 0.0339274 0.0037279283
000320 01 5c 3d bd 28 30 a9 bd 51 eb 0b be 5d 5d 34 3d
       -0.04623032 -0.08261138 -0.13663985 0.04403435
000330 47 e4 d2 3d 02 1e 64 bc b3 75 93 bb 0a 74 85 3d
       0.10297447 -0.01392317 -0.004500115 0.06516273
000340 ef ee d8 3d 01 6b 15 3d f6 05 d8 bd ac e3 0f bc
       0.10592448 0.036479 -0.10548012 -0.008782309
000350 f7 24 bf 3d 09 ad 05 3e d2 43 18 bd c4 b5 c6 3d
       0.09333222 0.13054289 -0.037174053 0.09702638
000360 ee 4b c0 3c 11 e8 e9 bc 95 be 60 bd 69 9a b8 bd
       0.023473706 -0.02855304 -0.054869253 -0.090138264
000370 31 e8 9d 3b 3f 44 cf 3d 75 8d 82 3d 68 03 18 3d
       0.004818939 0.10120439 0.06374637 0.037112623
000380 df 12 af 3d c0 f4 12 3b e9 34 a7 3d 10 4e 1f 3c
       0.08548521 0.0022423714 0.08164389 0.009723201
000390 78 70 4d 3d 0b 3d 87 bd 0b 59 b8 bd 1a 1c b9 3d
       0.050156087 -0.0660344 -0.090013586 0.09038563
0003a0 14 7f e9 3d 5e dd b4 bd 69 d4 9a bd 4d c8 cf bd
       0.11401191 -0.08831285 -0.07560045 -0.10145626
0003b0 d8 1d 12 3d 4b ac 1b 3d 61 90 9b bd ef e2 7b bc
       0.035672992 0.03800611 -0.075958975 -0.015373929
0003c0 e7 df 8a bd 66 e0 65 3c c9 ed da bd 4c 17 c1 3d
       -0.06780987 0.014030552 -0.10689885 0.09428272
0003d0 fe 88 29 bd cb 32 d6 bd 68 45 13 3d 61 f9 11 3c
       -0.04139041 -0.10458907 0.035954863 0.008909554
0003e0 cb 80 0b be c8 1b e0 bd 02 76 b4 bd 5f 65 85 3d
       -0.1362335 -0.10942799 -0.08811571 0.065134756
0003f0 71 c9 34 bd fa fd c2 ba b2 24 df 3d 7a 97 d7 bd
       -0.044137422 -0.0014876716 0.10895671 -0.10526939

encoder.layers.0.linear1.bias f4 [256]
000000 fd 3d 4d 3d db 49 f3 bd 78 d9 c9 3d 71 af dc bd
       0.050107945 -0.11879321 0.09855932 -0.1077565
000010 ed 40 a7 bb 21 3b 3c 3d d9 41 a6 3d 2b 16 a3 3d
       -0.0051041753 0.045954827 0.08118028 0.079632126
000020 a4 fc 39 bd 6e 87 76 bc e7 22 c4 3d d2 ba cb bc
       -0.045406953 -0.015046937 0.095769696 -0.024869356
000030 2a 54 ce 3d 5a 88 f3 3c 7d 62 bd 3d e8 e0 a7 bd
       0.10074647 0.029728103 0.09247301 -0.08197194
000040 b9 d0 80 3c 65 3c 23 3c 5c 12 cc 3b ac 7f 73 3d
       0.015724527 0.00996313 0.0062277745 0.05944793
000050 94 7f e8 3c 5c 0a 9c bd eb 06 b4 bd 20 c7 61 bd
       0.028381146 -0.076191634 -0.08790382 -0.05512154
000060 1b fe 88 3d 7f 2f fb 3c c7 79 f8 3c 31 e9 55 3c
       0.06689092 0.030662296 0.030331505 0.013056085
000070 2c ec d2 bd e2 60 1f bd 6b a5 be bd 61 7f 3b 3c
       -0.102989525 -0.038910754 -0.09308895 0.011443944
000080 b2 3b c0 bd 11 57 8a bd 41 4e 72 3d a9 77 9c 3d
       -0.09386386 -0.06754888 0.05915666 0.07640011
000090 b3 bc b9 bc 5a cf c1 bd 9e f9 d9 bd 5d 1f 18 bd
       -0.022672987 -0.09463377 -0.10643314 -0.037139285
0000a0 b1 08 c9 bd 8c e3 a1 3c 4c 47 dd 3d 2b 35 11 3d
       -0.09816111 0.019761823 0.108046144 0.035451096
0000b0 90 09 8a 3c 47 f6 ac bd d0 45 8f 3d 47 c5 05 b9
       0.016850263 -0.08445411 0.069957376 -0.0001275736
0000c0 07 46 33 3d 35 82 7b 3d ef 48 15 3d 7f 89 58 3c
       0.043767955 0.061403472 0.036446508 0.013216375
0000d0 24 a2 dd 3c 3a 2b 03 3e d2 19 08 bd 49 32 45 bd
       0.027054854 0.12809458 -0.03322775 -0.04814366
0000e0 5a 89 a7 3d fb f6 dc bd 0e 63 12 3d 2d da af 3d
       0.081804946 -0.10789295 0.035738997 0.085865356
0000f0 3f 07 49 3d d6 c6 d8 bd 9a 59 11 3c ee 22 74 bd
       0.049079176 -0.105848 0.00887146 -0.059603624
000100 41 27 c3 3d 60 7e 8e bc 53 52 72 bd 07 cd c6 bd
       0.095289715 -0.017394245 -0.05916054 -0.097070746
000110 8c f1 97 3d d1 d4 26 bd 87 7d 9c bd 54 90 ef bb
       0.07419118 -0.0407303 -0.0764113 -0.0073109064
000120 f0 0d 9f bd d7 db fc 3d 67 18 ef 3c af a1 dc bd
       -0.0776633 0.123466186 0.02918644 -0.10773026
000130 58 2a 94 3d 64 e2 01 3e f0 9b cd bd dc 05 b5 3d
       0.07234639 0.12684017 -0.10039508 0.08839008
000140 4c ee f0 bc 48 f5 a2 bc 42 f4 0b bd 03 39 d5 bd
       -0.029410504 -0.01989235 -0.03416849 -0.10411265
000150 5e da e3 bd 91 da 98 3d fd d2 0b 3e 7b af 3c 3d
       -0.111256346 0.07463563 0.13654704 0.04606579
000160 e8 ba 9c 3d ba a2 eb bd e2 44 c4 3d eb 1a b4 bd
       0.07652837 -0.11505647 0.09583451 -0.08794197
000170 ac 5f 20 3d b9 88 a7 3d 8c 30 90 bd 6b ce 8e bd
       0.03915374 0.08180375 -0.070405096 -0.06972965
000180 3d f5 ce 3b 38 b9 5f bd 7c 1d 57 3d f0 ee cf 3c
       0.006315856 -0.054619998 0.052518353 0.025382489
000190 be 54 fd bc ae 42 e2 bd b5 c2 69 bd 27 bd 77 bd
       -0.030924197 -0.110478744 -0.057070453 -0.060483124
0001a0 7c bb c9 3c b7 4d f0 3d 16 a8 70 bd 23 01 b4 bb
       0.024625532 0.11733573 -0.05875405 -0.0054932996
0001b0 40 5f dd 3d c5 7f d9 3c a4 02 d1 bd 84 0b fb 3c
       0.10809183 0.026550183 -0.10205582 0.03064514
0001c0 73 a1 ba bd 50 75 ca 3d ad 7a 46 3d b9 6c aa 3d
       -0.09112825 0.09885657 0.048456836 0.083215185
0001d0 5a 8e 86 bd 10 0a e6 3d 9b af ea bd 59 6a 52 3d
       -0.0657012 0.11232388 -0.11459275 0.051370952
0001e0 d5 18 4d 3d c9 43 11 bb ec ef c0 3b 6e ae ce 3d
       0.05007251 -0.0022165647 0.005887976 0.100918636
0001f0 42 ab 9e 3d 6c 02 a0 bb 39 27 ff bd 22 01 f5 3d
       0.077475086 -0.004883101 -0.12458653 0.11963107
000200 de 11 25 3d f8 0a f0 bc 0e 03 97 3d f6 3f 87 3d
       0.040300243 -0.029302105 0.073736295 0.066039965
000210 1c 92 82 3c 61 9e 88 3d 81 b9 78 3d 9f 27 8e 3c
       0.015938811 0.066708334 0.060723785 0.017352877
000220 eb 2e 96 3b 19 67 b0 bd 89 37 bf 3d 26 66 07 3d
       0.00458323 -0.08613414 0.09336764 0.0330564
000230 c4 27 d0 bc df e7 1e 3d 16 e3 98 bd 09 0c 32 3d
       -0.025409587 0.03879535 -0.07465188 0.04346851
000240 84 20 8f 3b 91 d7 da 3d f8 a0 bd bb 7a 22 a9 3c
       0.00436789 0.10685647 -0.0057870112 0.020646323
000250 01 42 cf 3d 5f 88 af 3d 10 23 c8 3d 56 4c 73 bc
       0.10120011 0.085709326 0.09772313 -0.014849743
000260 36 6d ab bc 0b 91 fc bd b8 77 55 bd a9 b8 aa bd
       -0.0209261 -0.12332352 -0.052116126 -0.083360024
000270 a5 44 55 bc 00 0c 21 bd 8a 13 31 3c 08 83 6f bc
       -0.013016854 -0.039318085 0.010807881 -0.014618643
000280 31 a2 a9 3c 1d 02 00 3e 68 16 08 bc a4 95 70 3b
       0.020707222 0.12500806 -0.008306123 0.0036710287
000290 4d 08 2c bd a2 fa b9 bb 42 9b b5 3c d3 dd 9b 3d
       -0.042000104 -0.0056756297 0.02216876 0.07610669
0002a0 32 06 39 3c c3 f6 fc 3d 2a e8 c1 3d bb d2 b0 3d
       0.011292981 0.123517536 0.0946811 0.08633944
0002b0 29 9f 03 3c 89 2b cd bd 95 29 39 3d 88 30 c4 bd
       0.008033552 -0.10018069 0.04520567 -0.09579569
0002c0 99 c8 97 3d 59 b4 88 bd 23 f6 a3 bd 0a 4f 33 bb
       0.07411308 -0.066750236 -0.08005931 -0.0027360343
0002d0 3b 77 c9 3c dd 01 e4 bc 42 3e 13 3d a0 09 03 3e
       0.024592986 -0.02783292 0.035948046 0.1279664
0002e0 8d 9a ad bc aa 2b 53 3d 9e 28 24 bd b2 28 35 3d
       -0.02119186 0.051555313 -0.040077798 0.044228263
0002f0 53 da de bc 59 cf d8 3d 45 99 bd 3d f2 b1 f2 3d
       -0.027203714 0.105864234 0.092577495 0.118503466
000300 0d 01 3b bd 28 f3 51 3d c6 ce 2f 3c f4 bd 43 3d
       -0.0456553 0.051257282 0.010730451 0.047788575
000310 88 be 2c 3d 1a 77 7e bb e9 b8 6c bc 1b 0a 09 bd
       0.042173892 -0.0038828314 -0.014448383 -0.033456903
000320 60 18 ba 3b 45 f1 05 bd 5f d0 1b 3d c2 7f df 3d
       0.0056791753 -0.032700796 0.038040515 0.1091304
000330 a2 05 fa bb dc 47 4b 3d 54 4d 1d bd f6 e8 b6 3d
       -0.007630066 0.049629077 -0.038403824 0.089311525
000340 99 95 89 3d ad 66 97 3d 41 ca 4d 3d a8 8e bd 3d
       0.067179866 0.07392631 0.050241712 0.09255725
000350 82 46 ad bd 0a fe 04 3d 79 80 d7 3c 46 04 f1 3d
       -0.08460714 0.032468833 0.026306378 0.11768393
000360 2c d2 84 bd b5 00 f0 3c b9 d9 f7 3c e5 46 ba bd
       -0.064853996 0.029297212 0.030255185 -0.09095553
000370 31 aa f8 bd fa 05 b4 3c 69 78 53 3d 83 ef 2c 3c
       -0.121418364 0.021975506 0.051628504 0.010555151
000380 a4 2c d6 3d c7 4c ce bd 1f 4d 93 bd a8 5c 33 3d
       0.10457733 -0.10073238 -0.07192444 0.043789536
000390 39 13 41 3c ce 0b c2 3d 36 45 17 bd 33 5a 44 3d
       0.011784368 0.09474908 -0.03693124 0.047937583
0003a0 8d 6c 05 bd ae 4f 6b 3d 08 d4 8c bd 7b d6 1f bd
       -0.032574225 0.057449035 -0.06876379 -0.039022904
0003b0 c0 b1 3c 3d 23 da f0 3c 79 cd 8d bd 43 cb 30 bd
       0.046067953 0.02940089 -0.069239564 -0.043162595
0003c0 08 50 90 3d 7f f1 b9 bc b9 b2 3d bd 21 b6 02 3e
       0.07046515 -0.022698162 -0.04631302 0.12764789
0003d0 f3 21 45 bd a6 8a d4 3d ec 9f ff bd 3c 83 95 bd
       -0.04812808 0.103780076 -0.124816746 -0.073004216
0003e0 c0 dc 00 3c dd 92 bd bc d1 1c 11 3d 97 49 ba bd
       0.007865131 -0.023141319 0.035427872 -0.090960674
0003f0 e5 b7 f2 3d ab ce 8b 3d 1c ee c4 bc 72 dd 4a 38
       0.11851481 0.06826528 -0.02403932 4.836679e-05
