save_results/autoformer_short_term_90d_run5.pt (torch, 437661 bytes, 28 tensors)

input_embedding.weight f4 [64, 12]
00000000: 864b 843e d898 b0bc b3a9 b2bc bbec dcbd
00000010: 031c 42be 4a67 593e 7b86 efbc df3c ddbb
00000020: 23b7 a93d 02ae 82be b546 0c3d 941b 3e3e
00000030: 39c9 85be f415 87be b087 8abe daa6 4fbe
00000040: 2742 c2bd 7815 353e eff3 733e c711 babd
00000050: 2bf7 b23d 34bc 78be eb28 3ebe fae0 26be
00000060: 4a5f 59bd c8b5 3b3d aad2 e9bd 76ed efbd
00000070: bc3c 143e 994b 3bbe af73 68be 8045 cdbd
00000080: 14f3 053c 647b 54be 669b da3d ee3a 2d3e
00000090: d52e 753e 6207 7e3e 0a8f 9b3d f28f 373e
000000a0: 563a dabd d3dd 6cbe 443c 6d3c 3b7c f4bd
000000b0: 8522 88be e342 f8bd b80c cb3d 404a b4bd
000000c0: 7c9e 93be 9026 513e 28df 1abe c2b2 d4bd
000000d0: fc73 d73d 2124 eb3d 5d42 5f3d c9b2 763c
000000e0: b3b9 173e e5d4 943e e7b6 d3bc 7ef0 26bd
000000f0: 332d 31be 51c4 753e 1d29 16be 9cc3 5ebe
00000100: c427 573e 234c d1bc 4cfc 0a3e bd18 893e
00000110: 9041 2ebe 6967 5c3e b936 2c3e eb7f c13d
00000120: d479 893e 47c2 303e 7d5f cf3b add3 8bbe
00000130: 08df e73d 3f3a 1c3e 57ac 0abe 160e 8f3e
00000140: c0fa 763c 91db 033e cfb5 0ebe ff28 27be
00000150: 9624 9b3d a68f 84be a423 4bbe bea4 373d
00000160: edc7 32be d326 06be 462d 7abe 53db 2abe
00000170: 2312 06be 7fda 8ebd 4050 8e3e 99a2 f83c
00000180: 8d66 c1bd 1f6a 61be 562e 80be 0b9a 123e
00000190: 458b db3d e6b4 953d f591 eabd 62cd 8bbe
000001a0: cb3a f3bd d6f1 7c3e 7f9c 823e f50f d43c
000001b0: b82f b4bd 9f23 86be c05b 893d 4f08 60be
000001c0: 7825 723d 399a 843e 32a2 92be 0858 18bc
000001d0: 6149 21be fa87 193e 403e 493e 4d36 483e
000001e0: db5e 793d b938 05bd 63fa 23bd 2c8b 1d3e
000001f0: 99b8 ea3d 56c8 8d3d 2b4f 353e b08d dbbc
00000200: 3d3d 213e 4ce6 82bd a876 5fbe 565c 27be
00000210: 72ba eb3d 7904 33bd 8e9f 463d a456 ce3d
00000220: 2617 26be 6b25 5f3d 0019 e73d e41c 92be
00000230: d63b 103e a94a 8cbe 512a 253e ad64 883e
00000240: 118e 823d ac81 94be 1481 293e a50d 0bbe
00000250: 551b 11bd 091a 623e 4a61 0bbe 2539 a13c
00000260: 7fc1 b83d e8a0 133e 4915 85bd 0cfc 063e
00000270: 9b9d 8b3e 7cc7 323e 3ef3 003e ae5c 103c
00000280: 31ee a43c ab2d 80be 3034 ff3d b8f9 07be
00000290: e3cb acbd 88fb 0a3c f406 c93d 62c4 57be
000002a0: 15d3 e2bd 26bc 1fbe ceeb 8a3e 0486 713e
000002b0: b728 6fbe 7e9b 0c3c 21cf 283e 0ebd 913e
000002c0: 90a2 933e 5b23 4ebe 0894 efbd f21d 0f3e
000002d0: 5af6 87be d197 703e 9781 0cbe ecc6 82be
000002e0: 9518 37be a934 9b3d 4721 393e 1500 323e
000002f0: 3087 64bd 0f84 5bbe cae2 4a3e 97fb 6c3e
00000300: 8cc6 57bc 79d3 e03c 3863 5dbe 0a28 8a3e
00000310: 5669 85bd 355c 0e3e fc0a 81be c132 8c3d
00000320: abaf 09bd e31b 79be 33e8 8c3e eaaf 323e
00000330: 0614 95be fdcd 4a3e a9ba d93d 73ba e03d
00000340: bda9 c5bc 5043 ebbd dac2 463e 61d8 18be
00000350: 1b2d 4a3e 49f3 a23b ce90 083e b589 cbbd
00000360: 7984 0a3e a102 203e 3bc2 84be 1031 143e
00000370: c852 20be 08aa 053e 4b4b 74be f1cd 4b3d
00000380: fa1c aabd db87 3a3e 5698 f23d 9a57 64be
00000390: 6ee5 a8bd e8c4 bc3d b0e4 abbb a8fa e4bd
000003a0: 0d30 253e 7977 453d 0010 ad3c e6ac 2f3e
000003b0: 41ca 00be e2dd d4bd 50f4 87be 8cd6 38be
000003c0: 3bca f13d 1d98 4e3e 6293 b13c ad30 1fbb
000003d0: b09c 75bd 4c8b 0f3d 80e1 32be 88db 7a3e
000003e0: fb73 8d3c 558d 0d3d b04b 60be 1741 813e
000003f0: 601f 46be 3132 8dbe 9235 443c 2119 79be
0.2583887 -0.021557257 -0.021809435 -0.1078734 -0.18955998 0.21230808 -0.02923893 -0.006751641
0.08286884 -0.25523382 0.03424712 0.18565208 -0.26130083 -0.26383936 -0.27056646 -0.20278493
-0.09485274 0.17683971 0.23823522 -0.09085422 0.0873855 -0.24290544 -0.18570296 -0.16296759
-0.05306939 0.045827657 -0.11417134 -0.11715214 0.14476293 -0.18290557 -0.2270038 -0.10023022
0.00817563 -0.20750195 0.10674171 0.16917011 0.23943646 0.24807504 0.07595642 0.17926005
-0.10655658 -0.23131494 0.0144797005 -0.119377576 -0.26588836 -0.12122133 0.09914535 -0.088032246
-0.2883185 0.20424867 -0.1512419 -0.10385658 0.10520169 0.114815004 0.05450665 0.015057274
0.14816932 0.29068676 -0.02584405 -0.040756695 -0.17302398 0.2400067 -0.14664121 -0.21754307
0.21011263 -0.025549 0.13572806 0.26776686 -0.17017198 0.21523823 0.1681775 0.094482265
0.2685076 0.17261611 0.0063285218 -0.27309933 0.11321837 0.15256594 -0.13542305 0.27940434
0.015074432 0.12876727 -0.13936542 -0.16324233 0.075753376 -0.25890845 -0.19837815 0.044834845
-0.17459078 -0.13100748 -0.24431333 -0.16685228 -0.13092856 -0.069752686 0.277956 0.03035097
-0.09443388 -0.22013138 -0.25035352 0.14316575 0.10719923 0.07309894 -0.1145362 -0.27305132
-0.11876448 0.24701628 0.25510022 0.025886515 -0.08798164 -0.26199052 0.06706953 -0.2187817
0.059117764 0.25898913 -0.2863937 -0.009298332 -0.15750648 0.14993277 0.19652653 0.19551964
0.060881477 -0.032524798 -0.04003371 0.15385121 0.114609905 0.06922977 0.17705981 -0.02680096
0.15746017 -0.06391582 -0.21822608 -0.16343817 0.11510171 -0.043705437 0.048492007 0.10075119
-0.16219768 0.054479044 0.11284065 -0.28537667 0.14085326 -0.2740071 0.16129424 0.2663931
0.06374753 -0.29005182 0.16553146 -0.13579424 -0.035426456 0.22080244 -0.13611332 0.019680569
0.090212815 0.1441685 -0.064982004 0.13182086 0.2726868 0.1745891 0.1259279 0.008811159
0.02013311 -0.25034842 0.12461126 -0.13278854 -0.08437326 0.008482821 0.09815779 -0.21071008
-0.11075417 -0.15599117 0.2713303 0.23586279 -0.23355375 0.008581994 0.16485263 0.2846455
0.28834963 -0.20130675 -0.116981566 0.13976267 -0.2655514 0.23495413 -0.1372131 -0.2554239
-0.17880471 0.075784035 0.180791 0.17382844 -0.055792987 -0.21437095 0.19813076 0.23142849
-0.013169896 0.027444588 -0.2161988 0.26983672 -0.06514232 0.13902362 -0.25203693 0.06845618
-0.033614796 -0.24327044 0.27520904 0.17449918 -0.2911684 0.19805141 0.10631306 0.10973062
-0.02412879 -0.11487448 0.19410267 -0.14926292 0.19743769 0.0049728495 0.13336489 -0.09938375
0.13527097 0.15626003 -0.25929436 0.14471841 -0.15656579 0.13053143 -0.23856847 0.049756948
-0.08306308 0.18215887 0.11845462 -0.22299042 -0.08246885 0.092172444 -0.0052457675 -0.111806214
0.16131611 0.04820964 0.021125793 0.171558 -0.12577154 -0.10393883 -0.26553583 -0.18050593
0.118061505 0.20175214 0.021676723 -0.0024290488 -0.059963882 0.035044953 -0.17468834 0.24497807
0.017267218 0.034558613 -0.21903872 0.25244972 -0.19347906 -0.27577356 0.011975663 -0.24325992

input_embedding.bias f4 [64]
00000000: 0e0a 56be 2524 2b3e b616 b3bd 5524 303e
00000010: 1199 6f3c 3c83 87be e8dd bebc 7b53 503e
00000020: 191d 923e 9969 833e e3d7 55be e6cf 94be
00000030: 4cd8 2b3e 42c8 843e 9c8b e13d 5354 d83d
00000040: 937e 0d3e b229 b13d 5f79 f7bd 0d13 c7bd
00000050: 0e16 183e de86 0a3e fb37 7bbe 19e5 96bc
00000060: f028 86bd 85f5 9bbd 97e9 7bbe ae16 a1bc
00000070: 6870 bbbc af42 09be 0e9f 853e 48db c43d
00000080: c75d 98bd cafc 3f3e d515 14be 8413 65be
00000090: ec58 4bbd 5162 273e 4b9f 373e e2ee ffbd
000000a0: 1c18 553d fdd3 253e b2d7 bbbd abb3 693b
000000b0: 2520 503d c115 4f3c 548f 833e c37e 14be
000000c0: b8b9 863e 8f24 4bbd 65f9 91bd 835b d0bd
000000d0: 909e 8ebe 1bf3 903d 893f 10be 27de 663e
000000e0: 218e 3cbe a5ac 1e3e f4f1 f73d e5a5 50be
000000f0: a600 503e 4286 ee3d 8890 c73d fb28 833e
-0.20902273 0.16713007 -0.08744566 0.1720136 0.014623896 -0.2646731 -0.023299173 0.20344345
0.28537825 0.25666502 -0.20883135 -0.29064864 0.1678173 0.25934035 0.110129565 0.105629586
0.13817815 0.08650531 -0.120836966 -0.097204305 0.14852163 0.1352801 -0.24533074 -0.01841979
-0.06550777 -0.076151885 -0.24600826 -0.019664135 -0.022880748 -0.13404344 0.26097912 0.09612137
-0.074397616 0.18748775 -0.14461453 -0.22370726 -0.04964535 0.16346098 0.17931859 -0.12496735
0.052024946 0.16194148 -0.09172 0.003566007 0.050811905 0.012639464 0.25695288 -0.14501481
0.26313567 -0.049595412 -0.07127646 -0.101737045 -0.2785535 0.07077619 -0.14086737 0.22545682
-0.18413593 0.15495546 0.12106696 -0.20375784 0.20312747 0.116467014 0.09744364 0.25617203

encoder.layers.0.self_attn.in_proj_weight f4 [192, 64]
00000000: 653e 553a 57c2 0c3e 501b bf3c 4af0 88be
00000010: bf55 4fbd e670 303e 73d8 a0bd dc20 933d
00000020: 2b8e 26be d534 73be 29ad fc3d c8eb b53d
00000030: 31d5 3bbe 5861 27be cbed 20be 26e3 0c3a
00000040: a4ac e5bd 20ee 2a3d c7a1 d2bd d333 cb3d
00000050: be26 29be 56cb 5f3e 3a6a 4e3e 2867 7abd
00000060: 7cdd 803e 9361 cf3d fb09 fa3c b0b8 3fbe
00000070: 4461 ed3d a135 8f3c 817f 6bbd edac 933d
00000080: e065 67bc 747c 06be fa10 d1bc 0ff2 30bd
00000090: e591 2b3e 0c40 603e a6e2 43be 1285 d23d
000000a0: 74cb a5bd c4a8 3abc 5a5d 343e 2bb0 163e
000000b0: 1878 0bbd f2b9 b93c 361f 01be a690 533e
000000c0: 788f 6bbe b317 d43c 33d4 393d 27de 083d
000000d0: e160 a0bc 47de 7cbd da9f 62bd 9729 debd
000000e0: 8566 c13d f8c0 173d 0d82 6dbe af76 313d
000000f0: d6a4 a2bd ecd9 89bd df87 0bbe e07c 81bc
00000100: 5954 38be 5ba4 cdbc e458 afbd 25c1 783e
00000110: 6962 95bc a5c2 b43d 3eb0 153e 1ad6 4cbe
00000120: f029 0b3b 6b92 643e 3771 ea3c b9dc 2ebe
00000130: 3dbb 4f3e 5ce3 9d3c 0eb2 3e3d 8cba 433e
00000140: 7b82 043e 94ea c53d 0042 5fbd 24fb edbc
00000150: 9f83 df3b 6a2c 6ebe f7e6 863d f622 febd
00000160: d45f 63be b055 e8bd 15e9 553d 1e59 073e
00000170: 87b8 2ebd b4ea 223d de3e a83d 54ba ae3d
00000180: a570 31bd b7b7 413e 0307 febd 0d8e 4ebe
00000190: 52bc 19be e7f3 033d 4c71 2d3e c53a 26bd
000001a0: ffdc d3b9 c67c 1c3c e115 42be 1f4b c2bd
000001b0: 737d d43d 29fe 003e 0c91 513e c6bd febd
000001c0: 6808 603d 5fdf b33d 81b7 00be 9911 8cbc
000001d0: 3c87 0dbe 7dad 053e 9c11 acbd f860 4bbd
000001e0: 0893 99bd 8398 463e 461d 68bd 35b0 0ebe
000001f0: 8520 163e 7b01 9c3c ae76 f9bc ca85 bfbc
00000200: 37ed 913d 1fa0 3bbe e391 4cbe d607 553d
00000210: d1f9 c93d 5ff3 173d b39d d33c 9465 19be
00000220: 395b 03bc 2bc4 d03d 4128 0e3d 2a4f 1dbe
00000230: 7188 89bd a688 b53d c4b3 dd3d de7c a13d
00000240: 8302 393e 57d3 7d3d 561b 853d 7ded 46be
00000250: 0af1 633e 4f9a 54be d690 d3bd 41a3 9ebc
00000260: 97f7 55be 1cf4 2ebe 86ec 1c3d 4394 afbc
00000270: 5183 43be 6a35 fbbc 09f5 5c3d 9b57 8abd
00000280: b90c 76bd 973e 5ebc d144 20be ef9a 29be
00000290: 2538 2a3d 6a60 39bd 4e9f 453e bac7 12be
000002a0: 7353 ae3d e543 673e 32ef 3cbe 8b9c 2f3d
000002b0: 04e8 0a3e be53 2f3d 8fe0 6b3d 7e69 f3bc
000002c0: d85b 153e 56eb 8a3d 902b 35bd 8c14 28be
000002d0: c602 b43c 0dfb ef3d 2e18 2d3d 7dc6 a33d
000002e0: 9fbf 62be fc97 b1bb 382a 1d3e f612 8e3a
000002f0: a387 063e 2b0c 21bd 6797 85bd 609d 573e
00000300: 9e5a 8f3e 9db2 273e 3f68 3a3e a242 88be
00000310: 4fbf 82be 482c 493c a452 48be 5dc7 8fbc
00000320: d826 81ba 0d5c df3c 7b2b 963b 04bc 213e
00000330: ba35 4bbe b196 a6be 1223 05be 4f57 39bd
00000340: fde7 55be 93a0 43bb 3288 3bbe 650c 313c
00000350: ef71 15be db98 173e f679 383d 5fe8 dc3d
00000360: 56c5 023e b3e2 f73d f333 e03c 0a53 9abe
00000370: 0316 aabb 55d2 be3d c3be 50be cdab dabb
00000380: b9f3 09bc 9ac5 6a3d 7ecc 213d 992d 513e
00000390: f605 973e 9eab 033e e61c 31be 7eff 933e
000003a0: 544f 80be daeb 7dbd 45fa ed3d e0cb 153d
000003b0: efbc 5ebe e80b 7cbd 91d7 45be b1dc f93c
000003c0: 73fb 54be 8dde 913d 2afb 2abd d52d 833e
000003d0: 7bb8 c6bd 2dee 8ebe 0ee7 813e 65ad 2dbe
000003e0: edf8 133e 25b8 16be f7ec 15be 28c3 383d
000003f0: ebef 5dbd e179 773e 64a3 93be 5f86 62be
0.00081346027 0.1374601 0.023328453 -0.26745826 -0.050618883 0.17230567 -0.078537844 0.07184002
-0.1626517 -0.23750623 0.12337715 0.08882862 -0.18343045 -0.16345727 -0.15715711 0.0005374424
-0.11214569 0.041731 -0.10284763 0.09921994 -0.16518685 0.2185491 0.2015771 -0.061133534
0.2516898 0.10126033 0.030522337 -0.18722796 0.115908176 0.017481627 -0.057494644 0.07210717
-0.01412341 -0.13133413 -0.02552079 -0.043199595 0.16754873 0.21899432 -0.19129428 0.102792874
-0.08095446 -0.011392776 0.17613736 0.1471564 -0.034050077 0.022671673 -0.12609562 0.20660648
-0.23003948 0.025890207 0.045368385 0.033414986 -0.019577445 -0.061735418 -0.055328228 -0.108477764
0.09443382 0.037049264 -0.23194142 0.043326076 -0.07941596 -0.067310184 -0.1362605 -0.015806615
-0.18000926 -0.025102785 -0.085618764 0.24292429 -0.018235402 0.08826188 0.14618012 -0.20003548
0.0021234713 0.22321479 0.028618438 -0.17076387 0.2028627 0.019273452 0.046556525 0.1911413
0.129404 0.09663883 -0.054506302 -0.029050417 0.0068211104 -0.2325913 0.06587022 -0.12409012
-0.22204524 -0.113444686 0.052224237 0.1321759 -0.042656448 0.03977461 0.08215116 0.08531633
-0.043320317 0.18917738 -0.12403681 -0.20171376 -0.15013245 0.032215025 0.1693775 -0.04058339
-0.0004040971 0.009551233 -0.18953659 -0.094869845 0.1037549 0.12596954 0.20465487 -0.1243854
0.054695517 0.08782839 -0.12570001 -0.017098235 -0.13821119 0.13054462 -0.08401796 -0.049653023
-0.07498747 0.19394116 -0.056668542 -0.13934405 0.14660843 0.019043675 -0.030452099 -0.023379225
0.07125323 -0.183228 -0.19977526 0.052009426 0.09862102 0.03709733 0.025832033 -0.14980155
-0.008017355 0.10193666 0.034706358 -0.1536223 -0.06715477 0.08863954 0.10825303 0.07885145
0.18067364 0.061969128 0.064993545 -0.19426532 0.22259918 -0.20761989 -0.1033036 -0.019364955
-0.2089523 -0.17085308 0.038311504 -0.021433001 -0.19093062 -0.030665118 0.05394462 -0.06754991
-0.060070727 -0.013564727 -0.15651251 -0.16563009 0.04155745 -0.045257963 0.19299051 -0.14334002
0.085120104 0.22584493 -0.18450621 0.0428739 0.1356507 0.042804472 0.057587203 -0.029713389
0.14585817 0.06783168 -0.044230998 -0.16414088 0.021973979 0.11717806 0.042259388 0.07996843
-0.2214341 -0.0054197293 0.15348136 0.0010839391 0.13137679 -0.039318245 -0.06523018 0.21056128
0.27998823 0.1637673 0.18203829 -0.26613337 -0.25536582 0.012278624 -0.19562775 -0.017551119
-0.0009853495 0.027265573 0.00458282 0.15794379 -0.19844714 -0.32536843 -0.1300166 -0.04524928
-0.20889278 -0.0029850348 -0.18313673 0.010806178 -0.14594243 0.14804403 0.045038186 0.10786509
0.1277059 0.12103786 0.027368521 -0.3014148 -0.0051906123 0.093174614 -0.2038527 -0.0066733123
-0.008419924 0.057317354 0.03950166 0.2042755 0.29496735 0.12858436 -0.1729618 0.28905863
-0.25060523 -0.061992504 0.11620001 0.036571383 -0.2175176 -0.061534792 -0.19320513 0.030500742
-0.20799045 0.07122526 -0.041743435 0.25620905 -0.097031556 -0.2791609 0.25371593 -0.16960676
0.14450426 -0.14718683 -0.14641176 0.04510799 -0.05418388 0.24167587 -0.28835595 -0.22121571

encoder.layers.0.self_attn.in_proj_bias f4 [192]
00000000: 3522 9dbd 322a 513d 7103 403d fbfd bbbd
00000010: c815 603d 5a47 93bc 6702 26bd 87e9 513c
00000020: d93e 243d 9f02 b0bd f547 babd e6f7 653d
00000030: c0b1 35bd a9b1 6f3d 68b8 833c 5d23 243c
00000040: 18aa 85bc 2f3c 963c b09e 9dbc 1de3 443d
00000050: 89bb 0c3d 2e66 aebb b555 513c b295 c9bb
00000060: 741c adb7 8899 393d e78a 66bc cc80 133d
00000070: 3877 2d3d 99c2 dd3c 6fd7 0b3c 8753 323d
00000080: 0db5 753d 5f34 a43b 2d55 063c f1f0 37bb
00000090: 2838 f13c c7a9 2bbc 497c 00bd eef6 5dbd
000000a0: a5c3 e8bb 1d8d 76bd 6c88 c0bc fd65 c73c
000000b0: 97c6 e3bd acff 093c 9a25 fe3b e6e0 6c3c
000000c0: d1e3 0abc 8d60 213c cc75 743c 0fb6 be3c
000000d0: cc8f 5f3b 7cb5 713b ea96 11bd 27ef 0dbc
000000e0: d581 313c c068 4f3c 76bf e7bb 7039 6b3b
000000f0: 9aee 48bd d790 58bd 1e80 54ba 3709 78bc
00000100: 4f61 01b5 bca4 e5b4 a615 cc34 d732 9f34
00000110: ab9f a9b5 ace6 87b4 5e97 e934 6b4f 26b5
00000120: 2f17 9b34 a065 8135 8da8 5cb4 976f a935
00000130: c269 0cb4 80a0 0934 51e2 4434 9619 bbb5
00000140: 1e26 a334 065c fc34 7d80 b333 7216 a734
00000150: a484 29b3 f0a0 f5b3 483d 0534 9bfa 3e33
00000160: 48b7 d634 4955 c734 1d28 ae34 3db8 0635
00000170: c508 2c35 0082 8234 e0ef b834 bf49 e532
00000180: 608e 9034 79ac 8234 5f2e 0934 033d eeb5
00000190: fada 0035 2a75 86b4 0a13 b9b4 2cba 08b4
000001a0: 8ce5 a034 06bb 7334 0b73 d533 7172 3f34
000001b0: a7ac f334 e2b3 5ab4 6713 f034 a2bd 11b4
000001c0: 5b5b aab3 4618 8335 ada7 0cb3 4338 6eb4
000001d0: a926 a5b3 d64a c933 a1d9 40b5 d551 3233
000001e0: 6f77 e832 9d76 3e35 468f 9c33 3223 e934
000001f0: a04e fb34 3842 0db4 29bb b834 c31e b7b4
00000200: d421 19bc e18a 323b e5cd 45bc 33a2 8bbb
00000210: f4a7 1c3b c917 e43b b97f 583c 7311 14bc
00000220: 11a2 3a3c 3ebd 503c 8ee4 423c e522 073c
00000230: 68d7 50ba e0f3 3aba d4bf 40bc 0ee0 3fbc
00000240: 73f0 17bb 6146 0dbc d45a 85bb f59a 9f3c
00000250: 29a9 cbba 0010 4a3c e463 4abc e718 273b
00000260: 2848 df3a 50e0 8fbb 8d2e 603c 77ac 283c
00000270: 13f5 893a be5c 073c a544 57bb 2647 efbb
00000280: 0f5d 073c 4f02 333c 0414 ab3b c8c3 c3bb
00000290: cb93 cfba 42ad 4e3c 57a3 25bc d218 303c
000002a0: 1947 0eba 5630 223b 70e6 863b b4a6 dd3b
000002b0: c874 a6bb b8e8 9f3a 8c89 3bbc 7f65 c7bb
000002c0: 331f c8bb 4410 5fbc c300 1f3c 1c2c cabb
000002d0: dc41 2f3c 9778 ba3b 03d6 213b 0f01 27bc
000002e0: 6572 703c cad7 353a fafb 4f3c 068f 663c
000002f0: b46f 12bc f16a bf3b 5c55 a0bc fa44 383c
-0.0767254 0.05106563 0.046878282 -0.09179302 0.054708272 -0.017978359 -0.040529635 0.012812025
0.040099 -0.0859425 -0.09095756 0.056144617 -0.04435897 0.05851904 0.016079143 0.010018197
-0.016316459 0.018339245 -0.019240707 0.048068155 0.034358535 -0.0053222394 0.012776782 -0.0061518783
-2.0636457e-05 0.045312434 -0.014071203 0.036011502 0.042350024 0.02707033 0.00853525 0.04353669
0.059987117 0.005011126 0.008199018 -0.0028067196 0.029445723 -0.01047749 -0.031368528 -0.05419057
-0.007103401 -0.06019317 -0.023502551 0.024340624 -0.111218624 0.008422773 0.0077559473 0.014457917
-0.008477167 0.00984968 0.014920663 0.023280172 0.003411281 0.0036881855 -0.035544313 -0.008662975
0.010834177 0.012659252 -0.0070723845 0.003589239 -0.049055673 -0.052872505 -0.0008106249 -0.015138916
-4.819785e-07 -4.2774434e-07 3.8013712e-07 2.965305e-07 -1.2637951e-06 -2.5313545e-07 4.3509766e-07 -6.195539e-07
2.8887868e-07 9.640826e-07 -2.0550415e-07 1.2623958e-06 -1.307699e-07 1.2817509e-07 1.8336256e-07 -1.3940032e-06
3.038885e-07 4.7005614e-07 8.358709e-08 3.1122505e-07 -3.9469015e-08 -1.1437976e-07 1.2408884e-07 4.4465747e-08
3.999396e-07 3.7128692e-07 3.2439212e-07 5.018699e-07 6.4087754e-07 2.4308974e-07 3.4447203e-07 2.6692645e-08
2.6925682e-07 2.4339877e-07 1.2775989e-07 -1.7750139e-06 4.800237e-07 -2.5044693e-07 -3.4472788e-07 -1.2733716e-07
2.996934e-07 2.2699177e-07 9.9395116e-08 1.7829895e-07 4.5387898e-07 -2.0368273e-07 4.47176e-07 -1.3573165e-07
-7.932859e-08 9.767325e-07 -3.274879e-08 -2.2185945e-07 -7.6904435e-08 9.3734045e-08 -7.1842265e-07 4.151828e-08
2.7062667e-08 7.095312e-07 7.2903774e-08 4.342524e-07 4.68096e-07 -1.3155739e-07 3.4408848e-07 -3.4108788e-07
-0.009346444 0.0027243423 -0.012073015 -0.004261279 0.0023903819 0.006960843 0.013214045 -0.009037363
0.011391179 0.012740431 0.011895312 0.008248066 -0.00079666683 -0.0007131677 -0.011764485 -0.011711134
-0.002318409 -0.008622737 -0.0040696654 0.019483069 -0.0015538085 0.012332916 -0.012352917 0.002549702
0.0017035054 -0.004390754 0.013682974 0.010295025 0.0010525308 0.008261858 -0.0032847312 -0.0073021827
0.008261933 0.010925843 0.005220892 -0.0059742667 -0.0015836892 0.01261455 -0.010109744 0.010748105
-0.00054274645 0.0024748049 0.0041168258 0.0067642573 -0.0050798394 0.0012200093 -0.011446368 -0.0060850973
-0.006107235 -0.013614718 0.009704771 -0.006169809 0.010696854 0.005690645 0.0024694211 -0.0101931235
0.014675711 0.0006936757 0.012694353 0.014072185 -0.008937765 0.005841606 -0.019571953 0.011246914

encoder.layers.0.self_attn.out_proj.weight f4 [64, 64]
00000000: eb20 21bd 3c81 aebd 14a7 d43c 0245 e03d
00000010: 825b f13d bd40 213d c537 933d 9505 603d
00000020: cc54 c5bd 4d77 41bb 6106 753d 15ab 0f3d
00000030: 165f 903d a0e9 603d 245a ccbc 9bdb 82bd
00000040: 7fb4 883d bc6a 7cbc 2ef3 63bd a613 a63d
00000050: ee82 6cbc 5336 413c 09e2 a63d e9f5 dc3d
00000060: 6361 143d ce0f 543d 7352 ce3c 6c16 cc3d
00000070: a3a0 913d 0286 30bd 006d a4bd 218f 973d
00000080: 5d27 90bc 87f4 a33c b474 c9bd f80b 63bd
00000090: 3bf8 c4bc 8baf 27bc 4454 a13d dec5 e23c
000000a0: 0764 433d e59c e1bc d7df a1bd 1871 873d
000000b0: ffb2 d93c b5e5 eb3d ce36 d0bd 4d55 7dbd
000000c0: dab8 b83d 9c89 b6bc e486 ae3c f070 a63c
000000d0: d9c4 c1bd de60 3d3d af34 dc3c 3975 bbbd
000000e0: 7747 0bbc 11f4 a63d 061d d0bd e5f4 fc3d
000000f0: 467b 28bd 26cd 433d 5141 6ebd d2fc 273d
00000100: 04c1 98bd a332 32bd c2fb 993d 7ef3 6fbd
00000110: 5d8e acbd df44 f43b a8c3 be3d d7ab 6c3d
00000120: ca2d b2bd 9da6 9b3d 3a92 d83d 63b3 b0bd
00000130: 70e7 4d3d cab9 4dbb 20f3 1abd fcae 473d
00000140: 31f6 da3c d231 2d3d 42ef cbbd 19ae 62bc
00000150: ff8e e43d 1c08 ac3d 4de5 943d aab0 8c3d
00000160: be7e a03d 9f51 133d 6088 c8bd ee00 453d
00000170: f226 523d 3c60 a23d 99d8 e83d b17a 363c
00000180: 5d8f 2abd 987c babd 411e dabb 3ccc fc3d
00000190: 7741 4cbc 6ead dabd 6469 ccbd 3cc0 34bd
000001a0: c37e 47bd 28c2 53b9 136f 01be 02e7 b5bd
000001b0: e25f 0cbb 939c 6f3b 2aeb e03d de0e 283d
000001c0: 601a 723c 1735 24bd 2e36 9f3c 6707 babd
000001d0: c692 82bd e5f3 bfbd 2bbe 6dbb 4b04 6b3d
000001e0: b124 883d d4c3 a43d 738e f53d fbc2 db3d
000001f0: c759 5cbc e2e2 70bd 5bd3 2dbd cee1 f1bd
00000200: d418 34bd 5450 14be 591d 083d ee4e 1bbd
00000210: 555c 0d3e 4556 113d 5056 74ba 8532 003e
00000220: 8948 d2bd 3d0f ccbc 314b 21be 50a6 f1bd
00000230: 6ab6 cabd f39e 803d 2cc9 c63d 5d68 8e3d
00000240: c045 9ebd dfe9 073e 24a0 1abd 423c 51ba
00000250: f7bc 603c 8d7c 81bd 8f1c 883d 624a 8d3d
00000260: 1a92 013c 6960 1f3d 5c37 bcbd bd05 f63c
00000270: 4bb7 3fbc 5883 9bbc 1bd0 8a3d a942 67bd
00000280: 0077 2bbd 613f 3b3d 3b0f 39bd 6794 ad3d
00000290: 2644 9dbd 2131 f73d d9b4 76bd 2460 063d
000002a0: 7380 803d 2b9a c93d e202 4dbd 92c3 77bb
000002b0: cece 173c 8fe1 d6bd 76b6 7e3d c275 0b3e
000002c0: 56bd e2bd e3d9 1fbd ebd3 51bd 5b94 8fbd
000002d0: 26b6 c53c 38ec 183a 2a76 57bc bea2 a63d
000002e0: 4654 dbbd 2178 d8bd 98ab 773c 407b a53d
000002f0: 19b8 95bd 4795 86bd 6d71 103e b809 4bbd
00000300: 8b76 c13d 255f 94bc 5f82 df3d 07a5 e3bc
00000310: 171c a7bd 2001 dfbd 21bf dabd 4037 40bd
00000320: 969f ed3c f8ee cb3d 101e e93d d2f7 afbd
00000330: 53fa c6bd 8546 fd3d ea13 473d 459a c8bd
00000340: 1402 9d3d 9e42 e73d 279f 03be f9f3 04be
00000350: 4e14 87bc 43c7 e63c f483 503d 460b fa3d
00000360: f9bb b23d b28f 2c3d 377a efbb 1e98 fd3c
00000370: 5aac 423c af3c 5c3d f775 76bd 7289 5e3d
00000380: f65e 6cbb f269 0dbd fa0d ab3d b2a7 c83d
00000390: d3be d3bd ee6c 9abc 6163 6dbc b0fa 6c3b
000003a0: 9537 8bbd 6abc ffbd 4721 ddbb d350 2fbd
000003b0: 2003 9dbd 3160 1d3b 7065 bebc eb2c 3a3c
000003c0: d703 d8bd e9d3 3f3c 7d9b 9fbd 5391 433d
000003d0: b3f2 9bbb 255b 3f3d dadf e03a 2547 083e
000003e0: a928 09be a42a e53d 9f1f 343d c6f2 7b3d
000003f0: bd43 0cbd 836d 813c 99c1 abbc 9434 d8bd
-0.039338034 -0.08520743 0.025958575 0.10950662 0.11785032 0.03936838 0.071883716 0.054692823
-0.09635314 -0.0029520572 0.059820537 0.035075266 0.07049386 0.054910302 -0.024945326 -0.06389543
0.06675052 -0.015406307 -0.055651836 0.081092164 -0.014435513 0.011792737 0.081485815 0.10789091
0.036225688 0.051772885 0.0251858 0.09965214 0.07110717 -0.04309655 -0.080286026 0.074003465
-0.017596895 0.02001406 -0.098367125 -0.055431336 -0.024044147 -0.010234724 0.078774005 0.027682241
0.047702815 -0.027540633 -0.07904022 0.06613368 0.02657461 0.115184225 -0.10166703 -0.061848927
0.09019633 -0.022282414 0.021304555 0.020317525 -0.09461374 0.046234958 0.02688059 -0.09153218
-0.008500925 0.08152021 -0.10161786 0.123513974 -0.041133188 0.047803067 -0.05816776 0.041012593
-0.0745869 -0.043505322 0.07518722 -0.05858182 -0.08425591 0.007454499 0.09314662 0.057781067
-0.0870014 0.07600138 0.105747655 -0.08627965 0.050269544 -0.0031391256 -0.03782952 0.048750862
0.026728721 0.04228384 -0.09957744 -0.013835453 0.11160087 0.08399984 0.07270298 0.068696335
0.07836674 0.03596651 -0.097916365 0.04809659 0.051306672 0.079285115 0.11369438 0.01113765
-0.041640628 -0.091057956 -0.0066564386 0.12343642 -0.01246678 -0.1067761 -0.09981039 -0.04412864
-0.048704874 -0.00020194857 -0.12640028 -0.08881952 -0.0021419455 0.0036561831 0.10982354 0.041029803
0.014776796 -0.040089693 0.019435015 -0.09083443 -0.06375651 -0.09372691 -0.003627668 0.05737714
0.06647623 0.08045164 0.11990061 0.10730549 -0.013449139 -0.058810122 -0.042437892 -0.11810647
-0.04396899 -0.14483768 0.033231113 -0.03791707 0.13804753 0.035482664 -0.0009320723 0.12519272
-0.10267741 -0.02490961 -0.1575134 -0.117993 -0.09898074 0.06280317 0.09706339 0.069534995
-0.077281475 0.13272808 -0.03775038 -0.00079816964 0.013716928 -0.06322584 0.06646072 0.06898953
0.0079083685 0.038910303 -0.091902465 0.030032033 -0.011701415 -0.018983528 0.06777974 -0.056460056
-0.041861534 0.04571474 -0.04518054 0.08475571 -0.07679014 0.120699175 -0.060231064 0.03280653
0.062745 0.09843858 -0.050051577 -0.0037805778 0.009265615 -0.10492241 0.062185727 0.1361914
-0.11071269 -0.039026152 -0.05122749 -0.070107184 0.024134707 0.0005833539 -0.013150731 0.08136509
-0.10709433 -0.10569788 0.015116595 0.08080149 -0.073105045 -0.06571441 0.14105769 -0.049569815
0.094464384 -0.018111775 0.10913538 -0.027788652 -0.081596546 -0.108888865 -0.10680986 -0.04692769
0.02900676 0.09957689 0.11382687 -0.0859219 -0.09715714 0.12366966 0.048602976 -0.097950496
0.07666412 0.11292003 -0.1285368 -0.12983693 -0.016489174 0.028171187 0.05090709 0.122091815
0.08727259 0.042129226 -0.0073082703 0.030956324 0.011881912 0.05376881 -0.060171094 0.054330297
-0.0036067343 -0.034524865 0.08352275 0.0979761 -0.10339131 -0.01885077 -0.014489026 0.0036160164
-0.06797711 -0.12487109 -0.0067483517 -0.04280169 -0.07666612 0.0024013633 -0.023241729 0.011363248
-0.105476074 0.011708238 -0.07793329 0.047746014 -0.0047591566 0.04671778 0.0017156557 0.1330839
-0.13394417 0.11189774 0.04397547 0.061510824 -0.034244288 0.01579929 -0.020966338 -0.105569035

encoder.layers.0.self_attn.out_proj.bias f4 [64]
00000000: 62f6 c73a 1fca 903b 6db9 80bc 9a8a 093b
00000010: cdc8 06bb 23a7 22bb 8160 debb 047c 86bc
00000020: df0f 04bb 65b5 45bb 8e8c ecbb c79a 153c
00000030: c774 903a 7fcb 103c be1a ef3b a023 083b
00000040: e8be d7bb 922a b4bb be93 bebb a69f e73b
00000050: 5f17 cbbb 0565 153c 9f8b d53b dbb1 7ebc
00000060: 3e47 7bbc 29c6 e3bb eac5 fb3b ba7f 3239
00000070: 464a 56bb 0b50 a8bb 318a 2d3c c56e b83b
00000080: 49bb 96bb 6b05 fbbb 3cfe 82bb 9447 92bc
00000090: 10a6 f6bb f732 f5bb 5094 0a3c 7899 f2ba
000000a0: 4b4f 3639 e2f1 87bb 4b5e 8cbb b1b6 503a
000000b0: 68a7 523c 6b8c 16bc 94c6 e5bb 8ad3 e23b
000000c0: 09d6 e63b 496f 4a3a a8ef 83bb 5c9e 073c
000000d0: 757d c93b b856 4c3c 6f2f 8c3b a9fc 32bc
000000e0: 5b0b 7dba a595 c3ba a99b 7d3c 1d46 1d3a
000000f0: a408 a63b 46e9 193b 65f6 2c3c 8b5c b73c
0.0015255923 0.004418626 -0.015713418 0.0020987154 -0.0020566464 -0.002481886 -0.0067864065 -0.016416557
-0.0020151061 -0.0030167934 -0.007218904 0.00913114 0.001102113 0.00883758 0.007296889 0.0020773187
-0.006584037 -0.005498239 -0.005815952 0.007068592 -0.0061978544 0.009118323 0.0065168883 -0.015545334
-0.01533681 -0.0069511128 0.0076835053 0.00017022985 -0.003269808 -0.005136495 0.010592029 0.005628439
-0.004599963 -0.007660558 -0.0039975923 -0.017856397 -0.0075271204 -0.007482882 0.008458212 -0.0018508872
0.00017386411 -0.0041487077 -0.0042837015 0.00079617935 0.012857296 -0.009188752 -0.0070121977 0.00692219
0.007044558 0.0007722271 -0.004026372 0.008277502 0.006148989 0.012471847 0.0042781155 -0.010924497
-0.0009652876 -0.0014921917 0.015479007 0.00059995224 0.005066948 0.002348499 0.010556792 0.022382995

encoder.layers.0.linear1.weight f4 [256, 64]
00000000: 6fbb 20bd 0ef5 13bd 9c6d 86bb 833f 05bd
00000010: 4464 9f3d dc89 713c eb75 b6bd ab64 e33d
00000020: 325a 803d 8b43 203d 6f8b 65bd df2a 893d
00000030: 6c00 513c b373 76bd 994d bb3d 7348 283d
00000040: 2257 aebc 43aa f23d 90b6 84bd e3b9 89bd
00000050: 99d2 673d 7f18 edbd 3000 443d 0989 d3bd
00000060: 7c8c 5b3d afd4 d53d 7f9f 62bc df05 01be
00000070: 5327 26bd 9ee4 9ebc c42d aa3d dd6f 603d
00000080: 6491 f3bc 5194 79bc 6cfb c2bd e5ab 07bc
00000090: ec6d d1bd def7 103d 9282 063e 83b6 fbbd
000000a0: a6db f73d 331e d2bd 03f9 ed3c 821b ab3d
000000b0: c6a7 1c3c 03e2 a3bd 8d27 ac3d 133f ffbd
000000c0: ed92 2ebd 8643 96bd c616 de3d 9131 7d3c
000000d0: 1eb2 8cbd 5fc5 88bc 1000 813d 7935 b5bd
000000e0: 1d1d 8c3d c89d dabd 2731 0f3e 3d73 043d
000000f0: 93dd 863c e4af 3eb9 b821 dcbd 2a58 a3bb
00000100: 3611 d2bd 2f68 adbd c701 c9bd 0aff 24bd
00000110: 37de 083e e1d8 92bd 8930 e63d 51e7 aabc
00000120: d27d 4cbd 2ad6 e43d f777 a3bd 2f16 a43c
00000130: 6f20 afbd cf36 803d d9fd cb3d 7baf bbbd
00000140: 6da2 3e3d 5a4b 073e 9b5c 943d 73c5 09be
00000150: c689 3e3c c43a 98bd a1e4 773d 5628 08bd
00000160: a97c 8d3d 285d f3bd 38d9 b33d c9e3 c4bd
00000170: 015b 163d 51f5 a6bd 038d a13d 9828 14bd
00000180: 4fb1 91bc 52ae 653c ea02 173c 83d3 82bd
00000190: f777 353d 85ef dd3d b271 c3bc 8183 713d
000001a0: ca99 623c a343 873d fcb5 fd3d 8635 66bd
000001b0: 9e2f 1e3d 9fe6 18bd 4e7a ff3d 85c9 01bd
000001c0: c31f d33d ec6d aabd f154 5dbd 3631 a33c
000001d0: f9b6 2d3d 728f 50bd 0673 f23d c5e6 4bbd
000001e0: f551 11bd f680 2dba 93db 8f3d 5378 c0bd
000001f0: e05d 0dbd 4281 bdbd 17a9 983c 7200 9bbd
00000200: 3ae2 ad3d a77c cb3d 1a91 0c3d 344e bf3d
00000210: 91a8 843d 2435 4fbb 29c5 b13d b750 a83d
00000220: 01e7 68bd 0362 963d b143 d9bd 9afb 323d
00000230: 27ee 913d db27 bcbb 9df4 49bd c8e8 8dbd
00000240: ed95 e93c 5108 8b3d b019 c23d 18f7 2cbd
00000250: ffce 093d c696 8fbd 1941 d13c b499 183e
00000260: e14b 09bc 0d80 383d f6c3 463d 1c39 0cbe
00000270: e739 9dbb 4853 a13d 4bac e6bd cd9d 013c
00000280: 24de bd3d 7f5f 8abd 1fd2 bf3d 9d9b 7cbd
00000290: 20bd ef3d 4ff9 4c3d 6edb ec3d fb6f 8e3d
000002a0: 9180 43bd 063c adbd 20f6 dd3d 7742 efbd
000002b0: 34e5 01bd 4619 a23c 45ba f8bd 1701 f8bd
000002c0: af49 b2bc cbdc c13d 49fe 953d 418d 763d
000002d0: 41a7 823d cde8 92bd 31a7 1b3c 0db4 c1bd
000002e0: f57d 02be 498c 0fbe 34d6 37bd b8f0 183d
000002f0: 667e 193d b4cf ae3d 3d43 a3bd cebf aebd
00000300: 1e61 b0bd b217 04be d5a4 e8bd 20ee babc
00000310: 1377 143c 39c6 a33d 2890 713d 5c52 9cbd
00000320: e60e 96bd 38b9 913d 8833 91bd e3f9 c23d
00000330: 9708 a0bd 3e47 e2bd 2dd5 003e 6c30 7a3d
00000340: e9dd 46bd 688b 5c3c 9b68 b73c 16b0 e6bb
00000350: 0e80 123d 4c7f bcbd 9362 87bd fc65 e4bd
00000360: a0d8 963d 792b 8a3d 500d 64bd 6a87 d1ba
00000370: 4a2b cfbd 7fee e33d b5cb 60bd 1f82 e5bc
00000380: 213d 1c3d cc99 ecbd 2349 40bc 768b 99bd
00000390: 7a16 dbbd c845 cd3c e5ac bd3d 5c2f b63d
000003a0: 28db cdbd c22d c73c 0bcd 453d 084a d5bd
000003b0: 055f 243d d1f9 583d 5917 88bd c2cf fe3c
000003c0: 2e15 b93d 9159 a9bd d1ee d13d df5c 053e
000003d0: bb35 0ebd a31f c5bd fed8 7b3c 6d52 cc3d
000003e0: 907b bfbd 064f 673d 860b b43d e58f d73d
000003f0: 8577 da3d 01ec c43d a486 f23d 9be8 dcbd
-0.03924125 -0.036122374 -0.004102422 -0.032531273 0.07782796 0.014742341 -0.0890921 0.11103185
0.062672034 0.039126914 -0.056041177 0.0669763 0.012756448 -0.060168933 0.0914566 0.041084718
-0.021281783 0.11848881 -0.064801335 -0.06724908 0.056597326 -0.11576938 0.04785174 -0.10328872
0.053600773 0.10440957 -0.013831972 -0.12599896 -0.040564846 -0.019396123 0.0830951 0.05479418
-0.029732414 -0.015233115 -0.09520611 -0.008280729 -0.10226044 0.035392635 0.13135746 -0.12290671
0.121024415 -0.10259666 0.029049402 0.08354856 0.009561485 -0.08002093 0.08405981 -0.12463202
-0.042620588 -0.07337098 0.108441874 0.015453712 -0.06869911 -0.016695676 0.0629884 -0.0884809
0.068414904 -0.10674626 0.13983594 0.032336462 0.016463077 -0.00018185336 -0.10748619 -0.004984875
-0.10257189 -0.08467137 -0.09814792 -0.040282287 0.13366018 -0.071702726 0.11239726 -0.020862253
-0.04992468 0.11173661 -0.07981866 0.02003011 -0.08551108 0.06260454 0.09960527 -0.091643296
0.04654162 0.13212338 0.072442256 -0.13454227 0.011629527 -0.07433084 0.060520772 -0.033241592
0.06908543 -0.118830025 0.087816656 -0.09613759 0.03670788 -0.08152259 0.07888224 -0.036171526
-0.017784743 0.014018612 0.009217003 -0.06387999 0.04430386 0.108367 -0.023857925 0.058963303
0.0138306115 0.066046976 0.123882264 -0.056203388 0.03861963 -0.037329312 0.124745 -0.031686325
0.103087924 -0.08321747 -0.054036085 0.019920927 0.042410824 -0.05091805 0.11838345 -0.049780626
-0.03547855 -0.0006618643 0.07024302 -0.0939795 -0.034513354 -0.092531696 0.018635316 -0.07568444
0.08490415 0.09935885 0.034318067 0.09341088 0.06477464 -0.0031617368 0.086801834 0.0821852
-0.056860927 0.07342913 -0.10608614 0.043696977 0.07125502 -0.005742056 -0.049305547 -0.06929165
0.028513873 0.067886956 0.09477556 -0.042227834 0.033644672 -0.070111796 0.025543736 0.14902383
-0.008379907 0.045043994 0.048526727 -0.1369366 -0.0047981623 0.07877213 -0.11263331 0.007911158
0.092708856 -0.06756496 0.09366249 -0.061671842 0.117059946 0.050042447 0.115652904 0.06954952
-0.047730032 -0.08458714 0.1083796 -0.11682599 -0.031712726 0.019787442 -0.12144903 -0.12109583
-0.02176365 0.09465941 0.07323892 0.060193304 0.063795574 -0.071733095 0.009500311 -0.0945817
-0.12743361 -0.14018358 -0.044882014 0.037338942 0.03747406 0.0853571 -0.07971809 -0.085326776
-0.08612274 -0.12899664 -0.11359564 -0.022818625 0.009061593 0.07996792 0.05897537 -0.07632896
-0.073270604 0.07115406 -0.07089907 0.09520318 -0.078141384 -0.110487446 0.1258132 0.061081335
-0.048551474 0.013460971 0.022388747 -0.007040034 0.035766654 -0.092039675 -0.066105984 -0.111522645
0.07365537 0.06746573 -0.05567676 -0.0015985791 -0.101156786 0.11129474 -0.05488177 -0.028016148
0.038144235 -0.11552772 -0.011736187 -0.07497303 -0.106976464 0.025057688 0.09261493 0.08895752
-0.10051566 0.024313811 0.048291247 -0.10414511 0.04012968 0.05297262 -0.06645078 0.031104926
0.09037243 -0.082690366 0.10250629 0.13023709 -0.03471921 -0.09625175 0.015371559 0.09976659
-0.093497396 0.056471847 0.087912604 0.105254926 0.10667328 0.09615327 0.11842087 -0.107865535

encoder.layers.0.linear1.bias f4 [256]
00000000: ebc8 883b a11b f03d 90df 3dbc 16bb b2bc
00000010: 5bd9 cdbd b93e a83d 1936 323d b657 66bd
00000020: d78c fc3c 4958 cebd 08f9 a43c 3204 5abc
00000030: 509b 27bc 5791 61bd b8da b43d 5813 bc3d
00000040: 479f 42ba b8ec 10bd e477 d33d bc04 7a3d
00000050: e5d8 99bd 5844 d0bc 0e36 b5bd 73c4 ab3d
00000060: d43a 783d ce15 eabd 6cf6 913d a8ab 28bd
00000070: 5b41 de3b a571 f4bc b48a 8c3b 3c20 debd
00000080: 73a3 0a3e c63b 933d 02a8 aa3d 9091 303c
00000090: 5eae 903d 3a21 e9bc 0ebb e6bd 3ea0 9d3c
000000a0: 496e e8bd 2932 ba3c edc7 f73c 84f5 f8bd
000000b0: 6e9e da3a 83c7 3a3d e59b febb 9bad 213d
000000c0: 7470 473d 7419 863d e763 bc3d d70f ba3d
000000d0: 3b7f 86bd ade6 cb3c 463d 4c3d 990b 6abd
000000e0: 8252 c23d 7711 ae3d 234d f53d 02a0 063e
000000f0: 08ae d93d 8dc9 353b 7efc fb3d cd1d a23b
00000100: f58f 753d 3423 053c 59cf 05bb f134 b5bd
00000110: f855 733d e0d2 50bc 7473 88bd 1b50 b0bd
00000120: 00dc 803c 6e0c babd 1b8f 003e 8ee9 e1bc
00000130: f85a c7bc 899b d83c 76f1 e23d 7dcc 753d
00000140: e332 58bd 9f1e fa3d 1f10 a8bd 02ef a53d
00000150: 8a20 46bd c1b4 573d bbea 68bd b83c 433b
00000160: 9110 ca3d 8933 693d bf5b 893d be59 b1bd
00000170: c29f b1bd 7057 b6bd 3508 5ebd 5ddd 8cbd
00000180: 9b77 973d ab3b 053e f8be 023e 3213 babd
00000190: ecfc 8cbd bdac 8cbd 8068 f33d 77c5 60bd
000001a0: a900 dc3d 2a36 433d 1762 3fbd eeee b53d
000001b0: f8fb e5bd 4f77 96bb 34a4 043c 31c0 853c
000001c0: f68d efbd 1373 5a3c b6fc 4fbd 0bd9 393d
000001d0: efdf 2dbc a6fc 9bbd eff8 d3bd a201 0c3e
000001e0: ac68 e13d fafc ffbd 2000 c73d 3ebe de39
000001f0: 2694 b43c 7433 8cbd 1d2c 32bd 066e cdbc
00000200: cf3f 33bd 93cf 5dbd 80d5 c83d 33a8 f83b
00000210: 758d 3abd 7c36 e33d 6b89 3c3c ea89 8a3d
00000220: 6256 4c3d 8085 0135 626c b4bd 4612 d3bb
00000230: 5d84 a8bd ba88 f6bd 1f6e f5bc 72eb d2bd
00000240: 74d8 b63c e77c c13d 2b29 17bd 8a0f 80bd
00000250: 91c0 713d 5c8b c53d 088c 05be c1e0 79bc
00000260: df43 063d f614 8abd a75f 4ebd 1ab0 e4bd
00000270: 8aeb 91bd 76f5 8abd b4ef 81bd 8b37 f93d
00000280: 06d7 123e a5c1 583c 3d8b 1e3d 014d f7bc
00000290: c491 bd3d b55f bbbc fcaf 1ebd 477f 7b3c
000002a0: c759 e7bd d086 b83b 0aec 8e3d 4105 13bd
000002b0: fb25 ac3d 25ab 7ebd deae 383d f9d2 8f3c
000002c0: 5663 b83d a3eb 4cbc ba47 fd3d d0fc 5a3d
000002d0: 8a0c b63d 64fa a1bd cf28 d8bd 7bbd 693d
000002e0: 56cb 523d 6b90 da3d 2646 3fbb 9d25 77bd
000002f0: 5d59 c73d c374 1e3d d046 d83d f79d d5bc
00000300: 9d8f 8d3d c457 8d3c ade2 39bd c50d af3a
00000310: d7f9 0f3d 401e 20bd 8f34 86bd 5027 f0bd
00000320: dc8d 5ebd 5bd6 de3d a1a4 a93d 588f a2bd
00000330: 6953 38bd 91be cdbd 9031 c73c 1501 063e
00000340: afa9 753d fb70 bb3d ac31 36bd 4033 80bc
00000350: f823 96bd 72e5 bd3d 3f42 4f3d b160 de3b
00000360: 9388 cbbc 74b3 6e3d d552 3abc 8a21 053e
00000370: d19b a4bd fc99 713d 0032 3ebd 9025 4a3d
00000380: 7f3b 49bd ffa3 193d e12e 7b3c 7136 adbd
00000390: ccb2 453d 203b cd3d b915 ebbd c529 c93d
000003a0: fdff e2bc 9008 ec3d d2a7 923c 18d8 64bd
000003b0: 30d8 dabc ed0d 853d 559b 9ebc 9786 a7bd
000003c0: e20b 8e3d 4933 033d 38ba bb3b 2023 8d3d
000003d0: ea74 c0bd cefe ba3d 11eb 973d 89df 443c
000003e0: 60e1 453d e5b3 883c f54e e6bd 8acc 39bd
000003f0: f418 da3c 5f89 55bd f224 0a3e 643d f53d
0.004174342 0.1172402 -0.011588946 -0.021817725 -0.10051223 0.082150884 0.043508623 -0.05623599
0.030828876 -0.10075433 0.020138279 -0.013306664 -0.0102299005 -0.055070248 0.0883078 0.09183377
-0.0007424247 -0.035382003 0.10325602 0.06103967 -0.075120725 -0.025423214 -0.08848201 0.08387079
0.060602978 -0.1142994 0.07127079 -0.04117933 0.0067826933 -0.029839346 0.0042889956 -0.10845992
0.13538913 0.07189135 0.08332826 0.010776892 0.07064508 -0.028458226 -0.112661466 0.019241448
-0.1134916 0.022728996 0.0302467 -0.121562034 0.0016679296 0.045600425 -0.007770049 0.039472204
0.048691228 0.065478235 0.09198742 0.090850525 -0.06567236 0.024890268 0.049863122 -0.057139967
0.09488393 0.08499425 0.11977603 0.13146976 0.10628897 0.0027738542 0.123040184 0.0049474
0.05995174 0.008126069 -0.0020417778 -0.088479884 0.059408158 -0.012745589 -0.06662646 -0.08609029
0.015729904 -0.09084402 0.1255459 -0.027577188 -0.02433537 0.026441352 0.11081211 0.06000947
-0.052782904 0.12212872 -0.082062 0.08102228 -0.048370875 0.052662615 -0.05686448 0.002979083
0.09866441 0.056933913 0.06706952 -0.08659695 -0.086730495 -0.08903396 -0.054207046 -0.06878159
0.0739586 0.13011043 0.12768161 -0.090856925 -0.068841785 -0.06868885 0.11885166 -0.054875817
0.107423134 0.047659077 -0.046724405 0.08883463 -0.112297 -0.0045918594 0.00809579 0.016326996
-0.11696999 0.0133331 -0.050778113 0.045373004 -0.010612472 -0.07616548 -0.10350215 0.13672498
0.11006293 -0.12499423 0.09716821 0.0004248488 0.022043299 -0.068457514 -0.0434991 -0.025076877
-0.043762024 -0.054153036 0.09806347 0.0075884103 -0.04554506 0.110943764 0.011507372 0.06764586
0.04988707 4.8250513e-07 -0.08809735 -0.0064413873 -0.08228371 -0.12037797 -0.029959736 -0.10298814
0.02232001 0.09447651 -0.036904495 -0.06252964 0.059021536 0.09645721 -0.13041699 -0.015251339
0.03277957 -0.06742279 -0.05038419 -0.11166401 -0.07125004 -0.06785099 -0.06344548 0.12168797
0.14339837 0.013229762 0.038707007 -0.030188086 0.09256318 -0.022872785 -0.03874205 0.0153501695
-0.112964205 0.0056313053 0.06978615 -0.035893682 0.08405682 -0.062174935 0.04508864 0.017556654
0.09003322 -0.012507352 0.123671964 0.053463757 0.088891104 -0.07909086 -0.105546586 0.05706547
0.051463448 0.10672077 -0.00291861 -0.060338605 0.097338416 0.03868557 0.105603814 -0.0260763
0.06912158 0.017253764 -0.04538219 0.0013355544 0.035150375 -0.03909135 -0.065529935 -0.11726248
-0.054334506 0.10880729 0.082833536 -0.07937497 -0.04500142 -0.10046113 0.024315625 0.1308635
0.059976276 0.09152409 -0.044480965 -0.015649438 -0.07331079 0.09272279 0.050600287 0.006786429
-0.024845397 0.05827661 -0.011372288 0.13001075 -0.08037532 0.05898474 -0.046434402 0.04935223
-0.049129006 0.037509914 0.015331001 -0.084576495 0.048266217 0.10021043 -0.11478753 0.0982242
-0.027709955 0.11525071 0.017902289 -0.055870146 -0.026714414 0.06496797 -0.019361177 -0.08179968
0.0693586 0.03203133 0.005728986 0.06891465 -0.093972996 0.091306314 0.07417882 0.012016186
0.048310637 0.016687343 -0.112455286 -0.04536108 0.026623227 -0.05213296 0.13490656 0.119746

encoder.layers.0.linear2.weight f4 [64, 256]
00000000: 9ac7 393d eb24 ea3c b7be 8e3b af20 5f3d
00000010: 9411 a73c 7d9a 233d cd36 453c 1931 433d
00000020: c8a2 503d 6bfc babc 1bb9 c3bb a334 b23b
00000030: 5ba1 36bd 83ab 33bd b74b d23c 6f68 63bd
00000040: f0b2 eabc 3271 14bd cf74 233b c85d 173d
00000050: 9c94 4ebd 1058 03bc f139 c1bc c38b 0a3d
00000060: f073 b23b 5442 59bd ba22 4cbd 310f 21bd
00000070: 28b2 7a3c c42a 653c 88c0 4a3b 27bd 39bd
00000080: 43c5 cdbb 1a4d c43c b5ba ae3a 0160 4ebd
00000090: f52d 7dbb a487 d1bb 9e05 073d bdc7 093a
000000a0: f92b 613c 4e74 4a3d 763d 403d 510d 85ba
000000b0: 1b58 863d dda4 5dbb 30f9 26bc ecad bb3c
000000c0: c20a e1bc ade7 1b3d f998 a43d 128d 1fbd
000000d0: f535 5c3c 8379 4dbd eae5 f6b8 e890 013d
000000e0: b514 fd3c 6423 763d 9e7b f7bc 2172 d63c
000000f0: a2d5 433d 6b39 293c f3c0 f2bb 5c23 603d
00000100: 5bd4 38bd d498 9ebc 1386 50bd dbe9 23bd
00000110: eef5 e73b 9327 0e3d 3c8e 3bbd 229e dabc
00000120: f6ae 21bc 51f2 583d 6437 853b 8496 20bd
00000130: cf31 84bd db67 6b3d 552a 663d a22f 16bd
00000140: 448a 0c3d 9a56 963c dc7c f7bc 2d58 4fbc
00000150: fd06 f83c 8c0e 1b3c 585d 92bc 640a fc3c
00000160: a38c ff3c a4fe 7dbd f694 b83c bfe9 5c3d
00000170: a03b 1d3d 5b3f b9bc 276f 43bd 1aee 613d
00000180: c93b d739 4654 ab3c a364 593d f43a c13b
00000190: 40ba 18bd 3cce 4b3d 59ea 233d 37ed 7c3d
000001a0: fa01 8aba ab54 c8bc d5d2 783c eb9f 6a3d
000001b0: 2524 963c 7f65 19bc e0a6 1abd 2af4 6e3d
000001c0: 6c8c cbbc d63b eebc c810 473d ee1b e53c
000001d0: 37d8 3ebc 0d3c 453d cbbe 853c dd0c 06bc
000001e0: 0202 babb 6fbc 293c 803f 28bd 9f9c 433d
000001f0: a217 1f3d 13ac 793c c7aa dd3c 7ed7 303c
00000200: 4a91 143d 6638 2fbd 276f 62bd 7a37 5ebd
00000210: 6907 47bd 873d 583d 366a 07bc 7330 1abc
00000220: b2b8 45bd 63fc 153d 88d6 49bd 784c d3bc
00000230: 75e7 69bd f2f4 7d3d 969d 563c 04a8 0d3d
00000240: c471 09bd b98d 23bd 0b8f 553d ffcf 223d
00000250: d7d1 bf3c 29dd be3c 29fe 5fbd 5a7a 063d
00000260: d462 723d 8c9a 64bc ab2a b23c 64c3 c9bc
00000270: fa40 7d3d 2c7a 8f3d 296d 2d3d dd87 66bd
00000280: 2d26 7fbd 94bd b0bc c852 ecbc afdb ec3c
00000290: fcd1 073d b36c cb3c aa0a 4a3c f31c 0dbd
000002a0: 1dbe 5cbd b364 133c 0483 9abc 46b4 2f3c
000002b0: 6ddf 8ab9 eb84 293d 39dd 16bc a717 383c
000002c0: 53e7 68bd 4223 a03d e6c1 b7bb 43ad 9abc
000002d0: 4024 5d3d f292 e7bc e0cf 303d 633f 233d
000002e0: c7dd 07bd bc60 1a3d 1c27 17bd 3f2d 323d
000002f0: d34c 273d be0f 3e3c 674f e138 952e 7ebc
00000300: 6cfa 4b3c 0203 89bd 9af7 403d e202 6ebd
00000310: ae5c b43c 2c1c 663a 4601 5abd d275 233d
00000320: 303d 4c3d 399f 7d3d 1ac1 ecbc c3e5 263d
00000330: ce89 01bd ec37 a73b e80a 4abd 10cf 9e3c
00000340: 470f 0b3d 24b0 1d3c 0796 dc3b d63f 8e3c
00000350: 5c0b 3ebd e632 a73b bdcc 6bbd ba9a bbbb
00000360: f1e7 5c3d 7605 583c b08a 3bbd 22a9 34bd
00000370: c38d 4e3d d7bb acbc 7a08 2d3c da21 7dbd
00000380: f4ac 333d e97b 4b3d e103 7bbd 27b3 92bc
00000390: 93d6 78bd e5ed e63c 15b2 67bd 44ef ddbc
000003a0: 99b1 253d e757 443d 5f37 bebc b6b5 7c3d
000003b0: 0dd7 933d c352 d7bc dbb3 383d 822e 143d
000003c0: 8f9b 9abb c42e e83c 3367 bebc 68d3 f63c
000003d0: c542 0a3d 9367 5ebc 0d30 793c 36e1 c93c
000003e0: 68bb 3f3d 44b5 ffbc 97e5 38bd 8e5e 09bc
000003f0: 84ef 613d 8ee2 3ebc 82b2 983c 1c67 34bd
0.04535637 0.028582057 0.004356231 0.05447453 0.020394124 0.039942253 0.012036991 0.047654245
0.05093649 -0.02282544 -0.005972994 0.0054384037 -0.044587474 -0.04386474 0.02567087 -0.055519518
-0.028649777 -0.036240764 0.002494145 0.03695467 -0.050434694 -0.008016601 -0.023587199 0.033824693
0.0054459497 -0.05304177 -0.049837805 -0.03932113 0.015301265 0.013987247 0.0030937511 -0.045346405
-0.006279619 0.023962546 0.001333079 -0.050384525 -0.003863213 -0.0063943435 0.03296434 0.00052558986
0.013743394 0.049427323 0.046933614 -0.0010151063 0.065597735 -0.003382019 -0.010191247 0.02291008
-0.02747095 0.03806274 0.0803699 -0.038952895 0.013440599 -0.05016471 -0.00011773019 0.031632334
0.030893663 0.060092345 -0.030210312 0.026177468 0.047811158 0.010328631 -0.0074082552 0.05472122
-0.045124393 -0.019359984 -0.050909113 -0.040017944 0.0070788777 0.03470571 -0.045789942 -0.026686732
-0.009868374 0.052965466 0.004065441 -0.039206043 -0.06454813 0.05747209 0.056192715 -0.03666652
0.034311548 0.018351842 -0.030210905 -0.0126553 0.03027677 0.009463917 -0.017866775 0.030766673
0.03119499 -0.062010422 0.022531968 0.053933855 0.03838694 -0.022613218 -0.047713425 0.055158712
0.0004105254 0.020914208 0.05307449 0.0058969203 -0.037286997 0.049757227 0.040018413 0.061749663
-0.0010529154 -0.024454435 0.015186985 0.057281416 0.018327782 -0.009362577 -0.0377568 0.05833832
-0.024847232 -0.029081266 0.04859999 0.02796742 -0.011648229 0.048152972 0.016326329 -0.008181778
-0.005676509 0.0103598675 -0.041076183 0.047756787 0.038840897 0.01523878 0.027058972 0.010793565
0.03627137 -0.042778395 -0.055281784 -0.054252125 -0.04859105 0.052793052 -0.008265069 -0.009410965
-0.048271842 0.036617648 -0.04927686 -0.0257933 -0.0571055 0.062001176 0.013099095 0.03458406
-0.03355576 -0.03993008 0.05213837 0.03974914 0.02341549 0.023298817 -0.054685745 0.032831527
0.05917628 -0.0139528625 0.021748861 -0.024629302 0.061829545 0.07005724 0.04234043 -0.056281913
-0.062292267 -0.021574773 -0.028848067 0.028913347 0.03315924 0.024832105 0.012331644 -0.034451436
-0.053892244 0.0089961765 -0.018861301 0.010724133 -0.00026487876 0.041386526 -0.009208017 0.011236108
-0.056861233 0.07819225 -0.0056078313 -0.018881446 0.05398965 -0.028268311 0.043166995 0.039855372
-0.033170488 0.03768991 -0.036902532 0.04350018 0.04084475 0.011600433 0.00010743626 -0.015514036
0.012449842 -0.06690027 0.04711113 -0.058108218 0.02201685 0.00087780016 -0.05322387 0.039907284
0.04986304 0.061919425 -0.028900672 0.04074646 -0.03162556 0.005103102 -0.049326807 0.019385844
0.033950116 0.009624515 0.006731752 0.017364424 -0.046397552 0.005102503 -0.0575683 -0.005725232
0.053932134 0.013184896 -0.04578656 -0.04410661 0.050428163 -0.021085663 0.010561103 -0.06179986
0.043866113 0.049678717 -0.061282996 -0.017907692 -0.06075151 0.028189609 -0.056566317 -0.02709163
0.040452573 0.047935393 -0.023219762 0.06169673 0.07218752 -0.026284581 0.0450934 0.036177166
-0.004718251 0.028342612 -0.023242569 0.030130103 0.033755083 -0.013574499 0.01520921 0.024643522
0.046809584 -0.031214364 -0.04514083 -0.00838436 0.05516006 -0.0116506945 0.018639807 -0.044043645

encoder.layers.0.linear2.bias f4 [64]
00000000: c3c0 e33c 9b62 233d c246 82bd d23e acbc
00000010: e3a3 33bd 0c7f 93bb 1d3a f0ba 4d16 59bd
00000020: d18b c7bc ef9d 84bc 148d 17bd 6dbc 993b
00000030: 0523 3e3d 639a abbc 8293 0dbd c6ac d03b
00000040: 31cb 4a3d 7218 453c d3bd 53bd e1a8 7dbc
00000050: 4299 6e3c 6c92 42bc 05de 24bd b758 143d
00000060: 2c7d 293d 2b40 633d ec01 623a 5f6f 05bd
00000070: 07f5 b33c e018 cd3c a70b 14bc 9101 f4bc
00000080: b7fb 0f3d ea06 f03c 0f8d 6ebd 421b b13a
00000090: a7bf 26bc 8b17 693d 1802 39bd 4edf 9d3c
000000a0: 3a17 d3bc 23ae d7bc 9477 923b 9867 e0bc
000000b0: 3837 a6bc 5499 0abd 0dcf 11bd c26a 4bbd
000000c0: e160 2abd 9cfc 933b a03f 74bd 246a 0cbc
000000d0: 8348 07bb 2b29 873d 20fd dabc 59c5 10bd
000000e0: fa94 aabc 0c9c 26bd b69b 2e3d 10bc a13c
000000f0: f6ad 413c 2396 58bd 04fb 3dbc d44c 84bc
0.027801877 0.03988896 -0.06361152 -0.021026049 -0.043857466 -0.004501229 -0.0018327866 -0.052999783
-0.024358662 -0.01618859 -0.036999777 0.0046916516 0.046420116 -0.02094764 -0.034564503 0.0063682524
0.049510185 0.012029754 -0.051694702 -0.015482158 0.014562907 -0.01187573 -0.040250797 0.036217418
0.04137914 0.055481117 0.0008621502 -0.032576915 0.021967424 0.025036275 -0.009035981 -0.029785903
0.035152163 0.029300172 -0.058239993 0.0013512152 -0.010177529 0.056907218 -0.045168012 0.019271519
-0.025767911 -0.026328152 0.004469821 -0.027393147 -0.020290002 -0.03383763 -0.03559785 -0.04966236
-0.041596297 0.0045161974 -0.05963099 -0.008570228 -0.0020642586 0.06599649 -0.026732028 -0.035344455
-0.02082299 -0.04067616 0.042628966 0.019742996 0.011821261 -0.052877557 -0.011595491 -0.016149916

encoder.layers.0.norm1.weight f4 [64]
00000000: 4828 7e3f eefa 7b3f 04f4 823f b5c0 7e3f
00000010: 0674 7c3f 7cef 7c3f e112 7d3f aec2 823f
00000020: 300c 7d3f f700 7a3f 6ec9 7e3f b1d1 7f3f
00000030: b130 7d3f 65e9 813f c697 803f 9209 7c3f
00000040: 003f 7c3f 2114 7d3f 93cd 7d3f 2038 7d3f
00000050: 049c 7c3f 234c 7c3f 934a 7c3f 43a8 843f
00000060: 9b2b 823f c5af 7d3f c320 7d3f 4cb9 803f
00000070: 5030 7e3f 2620 803f 0dec 813f 7aa0 7f3f
00000080: cad2 7a3f 2d61 803f 00ff 7f3f 9c68 813f
00000090: f627 813f 1f65 7a3f 7071 7d3f 4308 803f
000000a0: 7191 7e3f 243e 7c3f c88f 7e3f dda8 793f
000000b0: a45f 823f 512e 7f3f ea68 803f 79e5 7a3f
000000c0: 7038 7c3f cb9c 7c3f b320 7b3f 0461 7c3f
000000d0: 5d13 7c3f 3b59 823f 9cb2 7a3f 5bf5 7c3f
000000e0: 621b 7e3f 14e5 7d3f c601 833f 5db0 7e3f
000000f0: 94ad 803f c3ed 7b3f b32b 813f 793f 873f
0.99280214 0.98429763 1.0230718 0.995128 0.9861454 0.98802924 0.9885693 1.0215662
0.9884672 0.9765772 0.9952611 0.9992934 0.9890242 1.0149351 1.0046318 0.98452103
0.9853363 0.9885884 0.99141806 0.98913765 0.9867556 0.98553675 0.9855129 1.0363849
1.0169557 0.9909633 0.98878115 1.0056548 0.9929247 1.0009811 1.0150162 0.9985424
0.9797789 1.0029656 0.99998474 1.0110049 1.009032 0.9781055 0.99001217 1.0002521
0.99440676 0.9853232 0.9943814 0.9752329 1.0185437 0.9968005 1.0032017 0.980064
0.98523617 0.9867675 0.9809677 0.98585534 0.98467046 1.0183481 0.97928786 0.9881188
0.9926053 0.9917767 1.0234916 0.9948786 1.0052972 0.9840967 1.0091461 1.0566245
