save_results/autoformer_short_term_90d_run2.pt (torch, 437661 bytes, 28 tensors)

input_embedding.weight f4 [64, 12]
0.27165422 0.211802 -0.09950952 0.23711067 0.19936694 0.06742244 0.03821523 0.2057338
0.25879246 0.20769396 -0.16425335 0.22173496 -0.092655145 0.23655598 -0.25852546 -0.2562401
-0.15309969 -0.064365044 -0.07884745 0.15862088 0.031944625 -0.25534397 -0.24314253 0.116298236
-0.13404265 -0.078538865 0.15413508 -0.07427565 -0.09200729 -0.102491744 0.049076553 -0.24932805
0.06651147 -0.1080735 -0.16201504 0.04024725 0.20741789 -0.011683866 -0.24961801 0.016499318
0.095544964 -0.012135637 0.21081497 -0.11365243 0.053772155 -0.049276676 -0.26031443 -0.25126347
0.19941439 -0.1403914 0.023069393 0.12644757 -0.11122056 0.13824762 -0.26282936 -0.1559221
0.13389473 0.23428625 -0.24461368 -0.042975765 -0.014157709 -0.2698677 0.2580585 -0.07210581
0.16611607 0.21729727 -0.023870504 -0.15216003 0.28303322 0.14111747 -0.18578696 0.12582186
-0.24151263 0.19004956 -0.17124347 0.28359175 -0.15235746 0.051149853 0.24714814 -0.23414558
0.040954404 0.16138522 -0.21321653 -0.07253682 -0.21903493 -0.10791524 -0.04896603 0.25697032
-0.119343854 0.21678656 0.1521892 -0.27658588 0.16973737 0.07914334 -0.255852 0.067374945
-0.18158095 -0.09665129 -0.20011134 -0.27086428 -0.19109298 -0.12256848 -0.06455647 0.16402869
-0.21287943 -0.15675513 0.27153295 0.08881351 -0.08976605 -0.13945879 -0.2326671 -0.3012645
0.1666484 -0.10035268 -0.15909551 -0.23359352 0.22294953 0.07948933 0.15498757 0.20140368
-0.06427713 -0.22019792 0.19342981 0.25302333 0.13761134 -0.08237578 -0.21055394 0.013854998
-0.036973875 -0.13623369 -0.19389611 -0.12323829 0.025821673 0.11601242 -0.17359102 -0.016444253
-0.16459206 0.18043065 -0.18194674 -0.047995858 0.24891356 -0.16628492 0.16046244 0.09225979
0.10714491 -0.06226861 0.045378935 0.18694113 -0.1907426 0.15608026 -0.19862346 -0.01766172
0.08975754 0.21634105 -0.01266842 -0.2875799 0.24671488 -0.21688929 -0.22972028 0.023855789
0.0553667 0.047786504 -0.014622934 -0.07793055 -0.00038027944 -0.15164661 -0.2616666 0.2540951
0.087683044 -0.27661833 -0.19698763 -0.09190612 0.25008786 0.14773026 -0.27807343 -0.27403426
0.052910123 0.244528 0.17012 -0.07740361 -0.054048777 0.110944025 0.22937953 0.1036823
-0.06748405 0.020118354 0.034535315 0.07513037 -0.2604895 -0.014699782 -0.16656849 0.22447932
0.027591143 -0.011639093 -0.2064565 -0.032178175 -0.032842096 -0.26819277 -0.11486227 -0.27683198
0.16842237 -0.02396509 0.15808728 -0.2192239 -0.14307064 0.031068262 0.23245598 0.10248879
-0.12863588 -0.15918718 -0.18160619 0.020949185 0.049686108 -0.03870724 -0.068445645 -0.25617963
-0.19869432 0.25369355 -0.28022158 0.18422754 0.08365205 0.13723269 -0.11774785 0.22552982
-0.27972898 -0.04217822 0.0376301 0.18187056 0.21267752 0.2683806 0.025137082 -0.26032442
0.1363091 0.2498873 0.12458413 0.26188496 -0.04984031 0.16797227 0.17047492 0.10226336
-0.00062094437 -0.2766318 0.0034235036 0.035490666 -0.12754865 0.15408592 -0.2301192 0.16568418
0.14384365 -0.22320059 0.1676265 0.20770846 -0.25320292 0.079603836 0.04714119 0.1403699
00000000: 4316 8b3e a0e2 583e a6cb cbbd 24cd 723e
00000010: d926 4c3e c714 8a3d 9387 1c3d e2ab 523e
00000020: 7280 843e baad 543e 0832 28be 7d0e 633e
00000030: fbc1 bdbd bb3b 723e 735d 84be e731 83be
00000040: 2ac6 1cbe d2d1 83bd c67a a1bd 836d 223e
00000050: 5ed8 023d 72bc 82be 5bfa 78be c52d ee3d
00000060: 7a42 09be fcd8 a0bd 96d5 1d3e d51d 98bd
00000070: 516e bcbd 31e7 d1bd 7f04 493d da4f 7fbe
00000080: 2a37 883d a455 ddbd 45e7 25be 4dda 243d
00000090: 5b65 543e b06d 3fbc dd9b 7fbe 9429 873c
000000a0: 14ad c33d 8dd4 46bc e1df 573e 9bc2 e8bd
000000b0: 3140 5c3d 57d6 49bd ef47 85be 9ba5 80be
000000c0: 4933 4c3e c3c2 0fbe 06fc bc3c 797b 013e
000000d0: 9bc7 e3bd c990 0d3e 9291 86be 0baa 1fbe
000000e0: b31b 093e bce8 6f3e 027c 7abe 5b07 30bd
000000f0: bcf5 67bc 192c 8abe 3e20 843e 36ac 93bd
00000100: 551a 2a3e 2d83 5e3e 138c c3bc d7cf 1bbe
00000110: bbe9 903e 1981 103e f03e 3ebe 72d7 003e
00000120: 164f 77be 5a9c 423e 735a 2fbe f032 913e
00000130: 9803 1cbe 8282 513d 6714 7d3e dcc3 6fbe
00000140: cebf 273d 2b42 253e 6f55 5abe 2f8e 94bd
00000150: b14a 60be aa02 ddbd 9b90 48bd 9d91 833e
00000160: 8d6a f4bd 4cfd 5d3e 7cd7 1b3e aa9c 8dbe
00000170: a2cf 2d3e e715 a23d 09ff 82be e0fb 893d
00000180: 5bf0 39be 1df1 c5bd fde9 4cbe b9ae 8abe
00000190: e1ad 43be 2f05 fbbd 2f36 84bd 23f7 273e
000001a0: 11fd 59be 6b84 20be 5e06 8b3e dce3 b53d
000001b0: 43d7 b7bd 49ce 0ebe 4940 6ebe 573f 9abe
000001c0: e1a5 2a3e b585 cdbd efe9 22be 2433 6fbe
000001d0: e24c 643e 4dcb a23d 10b5 1e3e c43c 4e3e
000001e0: baa3 83bd 907b 61be 7712 463e 468c 813e
000001f0: fde9 0c3e a2b4 a8bd 749b 57be 1300 633c
00000200: eb71 17bd d880 0bbe b48c 46be 5b64 fcbd
00000210: f987 d33c eb97 ed3d d8c1 31be 19b6 86bc
00000220: d28a 28be d0c2 383e 3f50 3abe 4e97 44bd
00000230: 32e3 7e3e 9846 2abe 4450 243e b3f2 bc3d
00000240: ca6e db3d 5f0d 7fbd 43df 393d 7f6d 3f3e
00000250: 0752 43be 81d3 1f3e f363 4bbe 50af 90bc
00000260: cdd2 b73d 8288 5d3e 348f 4fbc ac3d 93be
00000270: d3a2 7c3e 3a18 5ebe cb3b 6bbe 376d c33c
00000280: 31c8 623d c8bb 433d 0895 6fbc 0d9a 9fbd
00000290: 3e60 c7b9 4049 1bbe 2af9 85be c118 823e
000002a0: 2b93 b33d eba0 8dbe 20b7 49be 4739 bcbd
000002b0: 840b 803e 9a46 173e a45f 8ebe 384e 8cbe
000002c0: 49b8 583d 8c65 7a3e f033 2e3e c985 9ebd
000002d0: 4062 5dbd 9f36 e33d 78e2 6a3e 6357 d43d
000002e0: 1435 8abd 3fcf a43c e774 0d3d f4dd 993d
000002f0: e15e 85be 5bd7 70bc ee90 2abe e8dd 653e
00000300: d206 e23c e5b1 3ebc 5569 53be 43cd 03bd
00000310: 6f85 06bd 9050 89be e93c ebbd ecbc 8dbe
00000320: ea76 2c3e 7052 c4bc a2e1 213e 3b7c 60be
00000330: 1c81 12be de82 fe3c f108 6e3e a5e5 d13d
00000340: 20b9 03be f701 23be f9f6 39be a09d ab3c
00000350: a983 4b3d 7c8b 1ebd 3b2d 8cbd fa29 83be
00000360: 8676 4bbe 1fe4 813e 3479 8fbe 25a6 3c3e
00000370: c451 ab3d ba86 0c3e c925 f1bd 4af1 663e
00000380: a338 8fbe 12c3 2cbd 0522 1a3d 473c 3a3e
00000390: 23c8 593e 2f69 893e 48ec cd3c 3e49 85be
000003a0: 9d94 0b3e 75e2 7f3e f725 ff3d c915 863e
000003b0: 5a25 4cbd ec00 2c3e fa90 2e3e 746f d13d
000003c0: dfc6 22ba afa2 8dbe dc5c 603b a95e 113d
000003d0: 1d9c 02be b3c8 1d3e 5ea4 6bbe 1da9 293e
000003e0: c04b 133e b28e 64be 48a6 2b3e 87b1 543e
000003f0: d0a3 81be 5607 a33d 1f17 413d 21bd 0f3e

input_embedding.bias f4 [64]
-0.09793028 0.18567945 0.21439171 0.12160187 0.24274805 0.15572673 -0.14510606 -0.08524979
0.2838123 0.2551261 -0.02261999 -0.22028796 -0.02326112 0.23592383 0.0917115 0.13829981
-0.20043832 -0.0430217 0.21318251 -0.009030023 0.16689633 -0.20572561 0.03352236 -0.10119409
-0.19711104 -0.073550686 -0.24298695 -0.28489453 -0.1683961 0.25757745 0.17934032 0.059030067
0.25710627 0.23790623 0.15681462 -0.08054275 -0.18084803 -0.09382051 0.05171503 0.20567085
0.25602564 -0.1363504 -0.2290917 -0.152796 -0.06703915 -0.030961715 -0.08643084 -0.15453415
0.17380744 0.14703628 -0.057826575 0.007684845 -0.19308317 0.20840292 -0.02894683 -0.21760991
0.020220146 -0.0655371 0.09630435 0.06361644 -0.00414287 0.04246235 0.13460746 0.20016333
00000000: ac8f c8bd c122 3e3e 8089 5b3e 670a f93d
00000010: f292 783e d476 1f3e af96 14be 7197 aebd
00000020: d94f 913e e39f 823e 8f4d b9bc 2b93 61be
00000030: 1b8e bebc 0496 713e 3dd3 bb3d 779e 0d3e
00000040: b43f 4dbe 8637 30bd 844c 5a3e a9f2 13bc
00000050: dfe6 2a3e bca9 52be be4e 093d d93e cfbd
00000060: 7ad7 49be bea1 96bd 92d1 78be b2dd 91be
00000070: 0770 2cbe 31e1 833e fda4 373e 83c9 713d
00000080: 6fa3 833e b19d 733e 0394 203e 99f3 a4bd
00000090: 3a30 39be f824 c0bd 24d3 533d 619b 523e
000000a0: cb15 833e 709f 0bbe 0497 6abe 8e76 1cbe
000000b0: d24b 89bd 6ca3 fdbc a702 b1bd 333e 1ebe
000000c0: 94fa 313e ae90 163e 8fdb 6cbd 27d1 fb3b
000000d0: 98b7 45be 9367 553e e721 edbc 22d5 5ebe
000000e0: b8a4 a53c 5138 86bd 373b c53d 5649 823d
000000f0: eac0 87bb 00ed 2d3d 8ad6 093e 9ef7 4c3e

encoder.layers.0.self_attn.in_proj_weight f4 [192, 64]
0.23343092 -0.1207367 -0.072035015 0.038783636 0.28771126 0.04603539 -0.024831146 -0.10049891
-0.04010184 -0.039619252 -0.20308994 -0.15461798 0.24218792 0.1277032 -0.06385596 0.13232066
0.01728372 -0.19837958 0.22901364 0.036731973 -0.0481204 -0.009829001 0.00058487244 0.05298024
0.18400714 -0.094832584 -0.044397045 -0.22008324 -0.117896974 0.058267146 0.23174578 -0.005502679
0.0361332 0.14410038 0.10570731 0.057199858 -0.246193 0.14043021 0.003938878 0.24039741
0.05888045 0.07074567 -0.040418502 0.2297347 -0.031031234 0.16279922 0.019729674 -0.20662315
0.038197853 -0.01262694 0.21648388 0.24093303 -0.037568826 0.2589974 -0.018795533 -0.21337922
-0.10845333 0.09882133 0.18605217 -0.112076655 -0.08557688 -0.056362126 -0.015772969 0.25359705
0.10546684 -0.019041736 0.110741906 -0.06796293 0.28052998 0.24745534 0.024014859 -0.1304046
-0.2072634 0.13553225 -0.22435735 -0.110624306 0.14312968 -0.0237363 -0.02272113 0.05721755
-0.072137885 -0.19692233 0.30320436 0.14313972 -0.023099937 -0.10613803 -0.13341582 -0.24357088
0.24682567 -0.021228798 -0.2029264 -0.22263953 -0.18540104 0.13077234 0.26726717 0.026350604
-0.029542018 -0.0013138072 0.20811217 0.26760465 -0.057088412 0.07139876 0.26921952 0.15491869
0.17475794 0.1840843 -0.28340492 0.1336198 -0.23119646 -0.11046423 -0.27854413 -0.25512812
0.093273886 0.09443018 0.12991795 0.18610078 0.19488564 0.30199257 0.0022581222 0.0023945333
-0.077281795 -0.03577915 0.10912302 -0.016910972 -0.15165068 0.11655575 0.08474456 0.0859925
-0.0077688154 0.16729449 -0.09259092 -0.055341944 -0.27284977 -0.0607118 0.14002025 0.111583255
0.1324744 -0.17675744 0.047756832 0.061497863 -0.19907697 -0.14310874 -0.008137832 0.034143396
0.23222484 0.11463231 -0.035614558 -0.13710774 -0.08503047 0.055268127 0.065061145 0.12520291
0.050856788 0.1973559 0.14675526 0.002864683 0.010099734 -0.14295648 -0.2174626 -0.11435418
-0.0110944 -0.15275668 -0.1850046 0.023729905 0.11798989 0.024415486 -0.07259485 0.010755754
-0.14663602 -0.12437867 0.028258579 0.0061007976 0.0044903657 0.06893837 0.034394346 0.17984715
0.022911195 -0.20437607 -0.13179374 -0.07813721 -0.08576888 -0.009841418 -0.14434595 0.15301977
0.038772207 -0.07674347 -0.11930966 0.069583364 -0.029911881 0.021289878 -0.033292692 -0.12871341
0.22621417 0.06334299 0.060152788 -0.010552702 0.16597518 -0.019493675 -0.22297381 0.044965673
0.060245086 -0.040302623 -0.013907466 0.052508175 0.023581909 0.0904552 0.06367458 -0.017933784
-0.25571626 -0.10329452 0.19518942 0.18267305 0.1437435 -0.11601586 0.039682534 -0.24606815
0.03552397 -0.040552687 -0.019510545 -0.1546392 -0.21245793 0.23898253 0.15761581 -0.053037483
0.19356242 0.077912696 0.12015065 0.0015656535 -0.12398086 -0.10842354 0.23029299 0.01185337
0.19915359 0.16009687 -0.12279525 0.21288724 -0.08337514 -0.0006983708 -0.22996593 -0.15850157
0.11979595 -0.0083776675 0.24821898 0.13196875 0.1491156 0.02382601 0.24324994 -0.1872279
0.094563 0.12313212 0.23222663 -0.12053267 -0.23753648 0.014637012 -0.043232914 0.16986755
00000000: 8408 6f3e ce44 f7bd 1887 93bd 97db 1e3d
00000010: e44e 933e 9b8f 3c3d b06a cbbc 5fd2 cdbd
00000020: d441 24bd cc47 22bd cff6 4fbe 2d54 1ebe
00000030: 1c00 783e a1c4 023e eac6 82bd 117f 073e
00000040: 9796 8d3c 0424 4bbe 8d82 6a3e 4474 163d
00000050: e619 45bd d109 21bc 2052 193a cf01 593d
00000060: 5e6c 3c3e 9637 c2bd add9 35bd 805d 61be
00000070: f873 f1bd 88a9 6e3d c44e 6d3e d14f b4bb
00000080: 6800 143d 0d8f 133e 137d d83d 664a 6a3d
00000090: 051a 7cbe f0cc 0f3e b411 813b bd2a 763e
000000a0: a02c 713d 1be3 903d df8d 25bd 933f 6b3e
000000b0: 3735 febc d7b4 263e 20a0 a13c 0595 53be
000000c0: 5a75 1c3d 3ae1 4ebc f3ad 5d3e 26b7 763e
000000d0: c5e1 19bd 4f9b 843e 17f9 99bc 1580 5abe
000000e0: c81c debd d662 ca3d 7684 3e3e 7288 e5bd
000000f0: ee42 afbd f9db 66bd 5036 81bc 79d7 813e
00000100: 00ff d73d 6afd 9bbc a7cc e23d 2630 8bbd
00000110: a0a1 8f3e ef64 7d3e cfba c43c c988 05be
00000120: db3c 54be f7c8 0a3e efbd 65be ff8e e2bd
00000130: 9690 123e a172 c2bc aa21 babc f35c 6a3d
00000140: 07bd 93bd 02a6 49be 9a3d 9b3e 3893 123e
00000150: 143c bdbc e55e d9bd 289e 08be a56a 79be
00000160: debf 7c3e 04e8 adbc f0cb 4fbe 9efb 63be
00000170: c5d9 3dbe 2fe9 053e 3ed7 883e 39dd d73c
00000180: 1a02 f2bc 0e34 acba 5b1b 553e 7a03 893e
00000190: 8ad5 69bd 8339 923d 24d7 893e 01a3 1e3e
000001a0: bff3 323e 9880 3c3e 731a 91be a1d3 083e
000001b0: c4be 6cbe 123b e2bd 569d 8ebe 27a0 82be
000001c0: 6106 bf3d 9c64 c13d 3609 053e 3491 3e3e
000001d0: 1a90 473e c59e 9a3e 01fd 133b 9aed 1c3b
000001e0: eb45 9ebd 288d 12bd e47b df3d e188 8abc
000001f0: 514a 1bbe c8b4 ee3d 8e8e ad3d d61c b03d
00000200: 8c91 febb 3f4f 2b3e 4fa0 bdbd 3cae 62bd
00000210: f7b2 8bbe f0ac 78bd 7861 0f3e c385 e43d
00000220: 5ea7 073e e7ff 34be ab9c 433d 2fe5 7b3d
00000230: d5da 4bbe 198b 12be 8b54 05bc f2d9 0b3d
00000240: 59cc 6d3e 58c4 ea3d 92e0 11bd f965 0cbe
00000250: 7424 aebd d560 623d c73e 853d 3135 003e
00000260: 354f 503d aa17 4a3e 0347 163e 68bd 3b3b
00000270: 5b79 253c 2f63 12be 84ae 5ebe 8632 eabd
00000280: 49c5 35bc 3f6c 1cbe d971 3dbe 3865 c23c
00000290: afa4 f13d fc02 c83c 9cac 94bd e738 303c
000002a0: c127 16be 3eba febd 897e e73c 33e9 c73b
000002b0: eb23 933b 8f2f 8d3d 16e1 0c3d da29 383e
000002c0: 42b0 bb3c f647 51be f0f4 06be 6706 a0bd
000002d0: 98a7 afbd e63d 21bc 6dcf 13be 37b1 1c3e
000002e0: 9bcf 1e3d ae2b 9dbd 9f58 f4bd b981 8e3d
000002f0: c309 f5bc 1c68 ae3c eb5d 08bd 73cd 03be
00000300: b0a4 673e f8b9 813d c562 763d 3de5 2cbc
00000310: 66f5 293e 33b1 9fbc 3f53 64be ed2d 383d
00000320: 8dc3 763d 5d14 25bd 24dc 63bc d012 573d
00000330: d92e c13c 9340 b93d d167 823d dfe9 92bc
00000340: 3eed 82be 148c d3bd bcdf 473e a50e 3b3e
00000350: 7f31 133e b999 edbd 278a 223d 4af9 7bbe
00000360: 9581 113d 931a 26bd 94d4 9fbc bd59 1ebe
00000370: 928e 59be d6b7 743e 0a66 213e d53d 59bd
00000380: 3a35 463e b190 9f3d 8b11 f63d 9d36 cd3a
00000390: ade9 fdbd 290d debd edd1 6b3e a334 423c
000003a0: ebee 4b3e 6ff0 233e 137c fbbd 1dff 593e
000003b0: 96c0 aabd df12 37ba 307c 6bbe 3c4e 22be
000003c0: 9457 f53d 7c42 09bc 1e2d 7e3e d122 073e
000003d0: c3b1 183e c42e c33c 8316 793e acb8 3fbe
000003e0: 3faa c13d b12c fc3d d1cc 6d3e d5d9 f6bd
000003f0: c33c 73be 14d0 6f3c ff14 31bd c2f1 2d3e

encoder.layers.0.self_attn.in_proj_bias f4 [192]
0.028198006 0.06662509 -0.048810534 0.034449052 0.00897874 0.028222669 0.019754026 -0.03655705
-0.028907785 0.033912808 -0.05657957 0.051636837 -0.038906705 -0.053295247 -0.07358034 0.015992884
-0.07656285 -0.06432506 0.026106322 0.115025476 0.058523312 -0.076222345 0.085093774 0.05022646
-0.07386905 -0.097542524 -0.016182264 0.091427326 -0.07215524 0.013639565 0.09091589 0.05564346
0.005925817 0.04281604 0.012345175 -0.0039531896 0.013699642 -0.0714501 0.06383551 0.0765444
-0.0016861549 -0.00084769324 0.0066010845 0.0014067345 0.009480976 0.06974434 -0.0036651385 -0.006589277
0.037545007 -0.05803686 0.050927322 0.027667109 0.0884299 -0.0036012041 -0.015884764 0.024128372
-0.0038883702 -0.009311312 0.052654605 -0.023598062 -0.04469488 -0.0068784975 -0.075673066 -0.009819189
3.8169782e-07 -1.4957343e-06 3.521936e-07 -7.8452985e-07 -2.518088e-07 7.8810876e-07 -1.864552e-07 5.2850726e-07
7.558005e-07 5.017834e-07 -4.2070292e-07 2.3015446e-08 -2.7841955e-07 3.726317e-08 -1.0062727e-06 -1.126957e-06
7.125286e-07 3.6466324e-07 -7.704829e-08 -6.980387e-07 -1.4557357e-06 8.3402546e-07 -1.8829584e-06 -9.617924e-07
8.039444e-07 8.470316e-07 -1.4750937e-07 -8.90127e-07 9.0067385e-07 -4.8111025e-07 -1.1834393e-06 -1.0791815e-06
3.5797873e-07 2.7021974e-07 -2.6788976e-07 4.2046955e-07 -2.3015346e-07 2.5685384e-07 -2.0130027e-07 -2.7062217e-07
2.3143463e-07 -8.892738e-08 -1.1522573e-07 1.981075e-07 -8.279878e-08 -4.0200052e-07 -1.6578615e-07 3.7068054e-07
4.5179303e-07 -3.8708234e-07 -7.909542e-08 1.1610163e-08 -7.6246586e-08 9.4799496e-08 2.0541468e-07 1.3779001e-08
-1.2540856e-07 4.164374e-07 8.5309594e-08 2.6865388e-07 -2.7879094e-07 3.2701766e-07 2.7670725e-07 4.7174634e-08
0.011963643 -0.014441875 -0.010914091 0.012764665 -0.0140281655 0.013383629 -0.0023195874 -0.011398856
-0.011594455 -0.0087432815 0.011857305 0.0066673905 0.013718561 0.012142892 0.016199002 0.0066244444
-0.011837914 0.009980426 0.0132668475 -0.015981236 0.0031198657 -0.0016104091 0.0061263014 0.008861093
0.009032217 -0.0189163 0.0014439025 0.0040915706 0.012158802 -0.008795116 -0.0077834656 0.00093412236
0.012858802 -0.009292881 0.004615219 -0.009595055 0.017571583 -0.009403887 0.013286535 -0.0067277057
0.0019214874 0.006210038 -0.008706565 -0.019197265 0.007329442 -0.006744893 0.014224695 0.009171986
-0.021367166 0.003013869 -0.0047703274 0.004355719 0.008026649 -0.00443965 -0.005476559 -0.0075648148
0.00964114 0.0010909825 0.011081319 -0.00021706353 0.015314842 0.0032836958 -0.018393764 0.0014005834
00000000: 81ff e63c bc72 883d 8eed 47bd 731a 0d3d
00000010: 911b 133c 3a33 e73c 32d3 a13c d8bc 15bd
00000020: 05d0 ecbc 28e8 0a3d fbbf 67bd 2681 533d
00000030: a35c 1fbd 1e4c 5abd 4ab1 96bd 8203 833c
00000040: fccc 9cbd dbbc 83bd eddc d53c 7a92 eb3d
00000050: 24b6 6f3d 761a 9cbd a545 ae3d 43ba 4d3d
00000060: a848 97bd 60c4 c7bd ab90 84bc 403e bb3d
00000070: 20c6 93bd 7b78 5f3c 1c32 ba3d 66ea 633d
00000080: 5b2d c23b df5f 2f3d 6b43 4a3c c289 81bb
00000090: 7774 603c 6e54 92bd 31bc 823d 4fc3 9c3d
000000a0: f801 ddba bb37 5eba e94d d83b 2d62 b83a
000000b0: 1856 1b3c 1fd6 8e3d d232 70bb ddea d7bb
000000c0: cbc8 193d 0fb8 6dbd 2b99 503d 22a6 e23c
000000d0: bc1a b53d 2e02 6cbb c420 82bc dda8 c53c
000000e0: 07d4 7ebb 798e 18bc 5bac 573d b950 c1bc
000000f0: fa11 37bd 0565 e1bb 7bfa 9abd aae0 20bc
00000100: 26ec cc34 0ac1 c8b5 1f15 bd34 7b98 52b5
00000110: 5730 87b4 6c8e 5335 6a34 48b4 bede 0d35
00000120: 37e2 4a35 4bb2 0635 f8dc e1b4 80b3 c532
00000130: b179 95b4 4a0b 2033 440f 87b5 f341 97b5
00000140: 9844 3f35 efc6 c334 bf75 a5b3 db60 3bb5
00000150: b362 c3b5 cbe1 5f35 f5b9 fcb5 ef16 81b5
00000160: a3ce 5735 915f 6335 1163 1eb4 10f1 6eb5
00000170: d6c5 7135 a525 01b5 aad6 9eb5 65d8 90b5
00000180: 3930 c034 b812 9134 7dd2 8fb4 e5bc e134
00000190: 1a20 77b4 b9e5 8934 ff24 58b4 074a 91b4
000001a0: 4480 7834 58f8 beb3 0472 f7b3 60b7 5434
000001b0: 1ccf b1b3 88d2 d7b4 f302 32b4 f201 c734
000001c0: f68d f234 31d0 cfb4 2bdb a9b3 0976 4732
000001d0: 01bd a3b3 9394 cb33 f58f 5c34 b0b8 6c32
000001e0: 0ba8 06b4 b892 df34 7233 b733 823b 9034
000001f0: bcac 95b4 f790 af34 5b8e 9434 0f9d 4a33
00000200: 2803 443c 9d9d 6cbc 04d1 32bc e322 513c
00000210: 64d6 65bc 0247 5b3c 3804 18bb 44c2 3abc
00000220: abf6 3dbc fb3f 0fbc 2445 423c 207a da3b
00000230: d1c3 603c fbf2 463c c5b3 843c de11 d93b
00000240: cff3 41bc f184 233c 315d 593c 15eb 82bc
00000250: a976 4c3b 5d14 d3ba 24bf c83b 1e2e 113c
00000260: ddfb 133c 5bf6 9abc 5441 bd3a 9512 863b
00000270: b635 473c 6419 10bc 710c ffbb e4df 743a
00000280: baad 523c 2b41 18bc 433b 973b 9434 1dbc
00000290: 48f2 8f3c c312 1abc c4af 593c 1674 dcbb
000002a0: 6bda fb3a 937d cb3b fba5 0ebc 9543 9dbc
000002b0: d12b f03b 4304 ddbb b20e 693c 1946 163c
000002c0: 320a afbc 5584 453b 6850 9cbb 6bba 8e3b
000002d0: 3582 033c 7c7a 91bb b574 b3bb 44e2 f7bb
000002e0: dff5 1d3c 4cff 8e3a 6c8e 353c 8c9b 63b9
000002f0: 1aeb 7a3c 4633 573b 85ae 96bc c893 b73a

encoder.layers.0.self_attn.out_proj.weight f4 [64, 64]
0.02359038 0.066267245 0.05510249 0.048175037 -0.04234643 0.13090721 0.04256505 -0.07734773
-0.03909962 0.0979593 0.07677195 0.011336555 -0.03884343 -0.0657105 0.12322919 0.051213827
0.041831557 -0.0793311 -0.03866613 0.077144764 -0.10920962 -0.10506567 -0.1309647 0.106384136
0.04832486 -0.024359755 0.032355182 0.013820695 -0.101609804 0.10313453 0.07121632 -0.060272146
0.120661736 0.09227981 0.07442423 -0.005037084 -0.038710825 -0.10239491 -0.07266056 0.06465433
0.057006128 -0.021964468 0.12951107 0.09157161 -0.04008157 0.055525485 0.038885716 0.043677438
-0.10396548 0.049007792 0.078000486 -0.088993154 -0.05509268 -0.02410306 0.024261368 -0.01383511
-0.055036347 -0.091884136 -0.111205354 -0.035011556 0.03577729 -0.020047294 -0.10415165 -0.09420668
-0.0016691623 -0.00061067997 -0.081019446 -0.13110586 -0.03908885 0.03338614 0.098755926 -0.018913124
0.018449537 -0.028500482 0.09300851 0.12027345 0.02255747 -0.09118859 -0.028812768 0.008972616
0.05745552 0.059121326 -0.08298997 0.14186597 0.07777715 0.011217318 0.053777717 -0.03237047
0.07717381 0.14083795 0.02193159 0.061429072 -0.030885078 -0.117138125 0.11372805 -0.070114516
-0.092548616 0.080811486 -0.08907496 0.045635033 -0.08306175 0.06389373 0.12667264 -0.057955805
0.0697168 0.03356731 -0.063404486 0.12122844 -0.061147805 0.10568736 -0.02770647 0.013808762
0.12433178 0.12518802 0.03788913 0.042312883 0.009388943 -0.10473162 -0.07841879 -0.04084825
-0.10222247 -0.06810911 -0.03774131 0.007923462 0.0787892 -0.05350856 0.13940226 -0.045974724
-0.10457065 0.043184016 -0.02485608 0.10511213 0.03989004 0.04467181 0.07020646 -0.077723876
0.08970769 0.11181415 -0.004844176 -0.030897232 0.02935989 -0.06629772 0.107293665 0.02089817
-0.10551208 0.068889596 -0.044134647 -0.059525292 0.09853999 -0.014457687 0.0005422601 -0.01209079
-0.060057648 0.13265269 0.03828679 -0.1243433 0.009510494 -0.046885204 0.10971882 -0.06665923
-0.11976444 -0.0927423 0.0060271807 -0.008186188 -0.0121257845 0.06319717 -0.07808509 -0.02842108
0.06015524 -0.020982241 0.09418556 0.111055516 0.1074924 0.07748351 -0.039017692 0.03641875
-0.0053277966 0.0043197456 0.013654211 -0.061465915 -0.01582255 0.024104051 -0.08490091 0.13705125
-0.0595598 -0.054537334 0.017120268 0.025540771 -0.02151896 -0.01027335 0.04430594 0.034528177
-0.0005713382 0.02495566 -0.13842383 0.1255601 -0.0690735 -0.1020441 -0.097261325 -0.059124567
0.050565615 -0.08093695 -0.03489423 -0.03188232 0.14106475 0.09247742 -0.11804427 0.00050575467
0.0013791381 0.12149503 0.014507198 -0.025088556 -0.08034653 0.030138835 0.13048685 -0.021257898
0.04207331 -0.026332416 0.11247985 -0.016105216 -0.042572133 -0.032573424 -0.08295984 0.098653294
-0.041911624 -0.04845175 0.004406665 0.058652036 0.03830006 -0.0036126354 -0.114849485 0.01718129
-0.0011312377 0.01929285 -0.10518544 -0.121956795 -0.012164417 0.03460801 -0.0479697 -0.056375604
0.07411747 -0.08281365 0.03607913 0.1115216 0.11228279 0.12277129 -0.039507773 -0.033877637
-0.06522072 -0.10280825 0.047974456 0.06952896 0.024143398 -0.02312057 0.0008143533 -0.06727275
00000000: 9d40 c13c 1fb7 873d 26b3 613d 3053 453d
00000010: 7373 2dbd 8a0c 063e b158 2e3d 7d68 9ebd
00000020: ec26 20bd e39e c83d 9d3a 9d3d f5bc 393c
00000030: 4a1a 1fbd 3a93 86bd 965f fc3d 97c5 513d
00000040: 9157 2b3d 5878 a2bd 6060 1ebd 13fe 9d3d
00000050: 4ba9 dfbd ac2c d7bd 9c1b 06be eddf d93d
00000060: 4af0 453d 1c8e c7bc de86 043d 3270 623c
00000070: cd18 d0bd 3238 d33d ddd9 913d eddf 76bd
00000080: 801d f73d 32fd bc3d bb6b 983d 200e a5bb
00000090: 3e8f 1ebd 6cb4 d1bd 0fcf 94bd 7d69 843d
000000a0: 427f 693d d4ee b3bc 8d9e 043e e589 bb3d
000000b0: 932c 24bd b16e 633d a146 1f3d 1de7 323d
000000c0: dbeb d4bd 65bc 483d b8be 9f3d 0b42 b6bd
000000d0: dda8 61bd c873 c5bc c7bf c63c a8ac 62bc
000000e0: cb6d 61bd c02d bcbd a2bf e3bd 4768 0fbd
000000f0: 358b 123d 393a a4bc 764d d5bd 6fef c0bd
00000100: cbc7 daba 0a16 20ba 86ed a5bd 9d40 06be
00000110: a11b 20bd e8bf 083d 8c40 ca3d b2ef 9abc
00000120: 7c23 973c d879 e9bc 3f7b be3d ed51 f63d
00000130: 71ca b83c 15c1 babd c108 ecbc e101 133c
00000140: 7b56 6b3d 3429 723d a5f6 a9bd 5045 113e
00000150: a049 9f3d d7c8 373c 0646 5c3d e696 04bd
00000160: 4d0d 9e3d d337 103e e1a9 b33c 0d9d 7b3d
00000170: b402 fdbc 1de6 efbd 40ea e83d 3398 8fbd
00000180: 218a bdbd 7e80 a53d ef6c b6bd cdeb 3a3d
00000190: 471c aabd b7da 823d 79b6 013e 1163 6dbd
000001a0: aec7 8e3d e07d 093d 36da 81bd 9e46 f83d
000001b0: 1f76 7abd 9d72 d83d aef8 e2bc 253e 623c
000001c0: a9a1 fe3d 4a31 003e a231 1b3d 4650 2d3d
000001d0: 15d4 193c 887d d6bd 089a a0bd 7f50 27bd
000001e0: 045a d1bd ca7c 8bbd a296 1abd 69d1 013c
000001f0: 3b5c a13d cb2b 5bbd 77bf 0e3e fe4f 3cbd
00000200: 2329 d6bd b9e1 303d fa9e cbbc 0745 d73d
00000210: bd63 233d caf9 363d 68c8 8f3d b22d 9fbd
00000220: aab8 b73d d1fe e43d e5bb 9ebb 311c fdbc
00000230: 2784 f03c 19c7 87bd c8bc db3d a432 ab3c
00000240: b816 d8bd fd15 8d3d 88c6 34bd cbd0 73bd
00000250: 56cf c93d efdf 6cbc 7626 0e3a 7318 46bc
00000260: 02ff 75bd 1bd6 073e 9cd2 1c3d b3a7 febd
00000270: e7d1 1b3c b30a 40bd 43b4 e03d a284 88bd
00000280: 0f47 f5bd adef bdbd a87f c53b 5c1f 06bc
00000290: 3aab 46bc 856d 813d 13eb 9fbd 53d3 e8bc
000002a0: 5765 763d f3e2 abbc 5ce4 c03d 1371 e33d
000002b0: fa24 dc3d adaf 9e3d 04d1 1fbd d42b 153d
000002c0: cc94 aebb a78c 8d3b e9b5 5f3c afc3 7bbd
000002d0: 4b9e 81bc dc75 c53c 87e0 adbd 2a57 0c3e
000002e0: faf4 73bd 8a62 5fbd ce3f 8c3c e13a d13c
000002f0: 8848 b0bc 8e51 28bc 257a 353d 6b6d 0d3d
00000300: dcc5 15ba d06f cc3c fabe 0dbe d492 003e
00000310: 6876 8dbd 7ffc d0bd f230 c7bd 9a2c 72bd
00000320: e41d 4f3d 46c2 a5bd 41ed 0ebd 0997 02bd
00000330: 4773 103e cd64 bd3d 32c1 f1bd 9f94 043a
00000340: 32c4 b43a 63d2 f83d 99af 6d3c 8486 cdbc
00000350: b98c a4bd b8e5 f63c 589e 053e 0b25 aebc
00000360: 1055 2c3d 14b7 d7bc d65b e63d 16ef 83bc
00000370: 1e60 2ebd b66b 05bd d9e6 a9bd bd0a ca3d
00000380: 86ab 2bbd 5875 46bd c965 903b 1e3d 703d
00000390: 86e0 1c3d f7c1 6cbb 3536 ebbd c7bf 8c3c
000003a0: 0a46 94ba 0a0c 9e3c 776b d7bd 7cc4 f9bd
000003b0: 434d 47bc 21c1 0d3d e07b 44bd 1bea 66bd
000003c0: e6ca 973d 349a a9bd b6c7 133d 7065 e43d
000003d0: 85f4 e53d 846f fb3d e7d2 21bd 47c3 0abd
000003e0: 7192 85bd 228d d2bd dd80 443d 3365 8e3d
000003f0: 60c8 c53c 5a67 bdbc 537a 553a 4cc6 89bd

encoder.layers.0.self_attn.out_proj.bias f4 [64]
-0.004087554 -0.009858565 -0.01408234 0.010154811 0.008823901 -0.007145015 -0.0033930335 0.0066071963
-0.0062080524 -0.017408662 -0.003931005 -0.0037501596 -0.0034090204 -0.0028035447 0.0051618344 -0.0042838785
-0.01082243 -0.008306816 0.008145504 0.009479672 -0.0052801794 -0.010048789 0.0055178953 0.007412052
0.013009529 0.010438195 0.0019824496 0.004899008 -0.008701012 0.009735773 0.008303451 -0.006020605
-0.01356558 0.0064053754 0.011621705 0.010134501 0.0028368856 0.010437743 0.007992074 0.007880109
-0.004614123 0.005581966 -0.0041232104 -0.009753808 -0.0035532545 0.005669561 -0.013563671 0.00073650095
0.0016253698 -0.015442884 0.011615937 0.011870419 0.0019899455 -0.0016293284 -0.0006396777 -0.011863258
-0.005244302 -0.005509904 -0.004270702 0.0037088504 -0.016300498 -0.005010742 0.015848145 0.00051072094
00000000: e3f0 85bb d285 21bc 9db9 66bc 5d60 263c
00000010: 2092 103c bb20 eabb a85d 5ebb 2e81 d83b
00000020: eb6c cbbb 9c9c 8ebc a9cf 80bb 3dc5 75bb
00000030: df69 5fbb adbb 37bb 9b24 a93b c75f 8cbb
00000040: 9050 31bc 5019 08bc b874 053c a050 1b3c
00000050: 5b05 adbb ada3 24bc 76cf b43b cce0 f23b
00000060: eb25 553c f704 2b3c fceb 013b dc87 a03b
00000070: b08e 0ebc cb82 1f3c 330b 083c 7f48 c5bb
00000080: 2b42 5ebc 2fe4 d13b f768 3e3c 2e0b 263c
00000090: 0beb 393b 1103 2b3c 30f1 023c 931b 013c
000000a0: 1232 97bb ede8 b63b ff1b 87bb 70ce 1fbc
000000b0: b8dd 68bb bac7 b93b 293a 5ebc be11 413a
000000c0: 5c0a d53a 2604 7dbc c550 3e3c 257c 423c
000000d0: bf69 023b 308f d5ba 0bb0 27ba 1c5e 42bc
000000e0: 65d8 abbb 6d8c b4bb 3ff1 8bbb 2f10 733b
000000f0: 9f88 85bc 2731 a4bb f8d3 813c e7e1 053a

encoder.layers.0.linear1.weight f4 [256, 64]
0.02258255 0.09499465 -0.08695713 0.06508712 0.04135556 0.0012945218 -0.11808325 0.04783086
0.00026214507 -0.005776702 -0.09863526 -0.068369955 0.10171854 -0.10045218 0.020380761 0.0750045
-0.08014415 0.054808002 0.08844888 0.06407287 -0.10715206 -0.06756451 0.0009307706 -0.06776923
0.052787177 0.018923903 -0.10553612 0.112819165 -0.012765846 0.118080996 -0.11463596 0.1088162
0.058055505 0.041002113 0.027100978 -0.10165852 0.036543097 -0.031955376 -0.030487137 0.0028876783
0.06584985 0.10385658 0.016504407 -0.00018488191 0.07391153 -0.02145188 -0.08554522 0.10689156
-0.021324106 -0.0114301285 0.023207959 0.09603531 0.11518195 0.10416727 0.033055335 0.03566659
-0.017822774 -0.07496783 0.03647407 -0.11128532 -0.06915291 -0.11721067 0.019178601 -0.04083176
0.025920816 0.017857019 -0.098278396 0.03304654 -0.13053812 0.0950579 -0.10607568 -0.07914394
0.0051322286 0.025690384 -0.10776388 -0.030516908 -0.0028830273 0.014191792 -0.0055946177 0.113309786
-0.005699322 0.025247047 0.0066163396 0.022906607 -0.11350381 0.0049132663 0.012155312 0.110003404
-0.10855102 0.01163233 -0.018730411 -0.11024955 -0.023208048 0.0050435266 -0.061833203 0.03234279
0.0017400383 -0.107134864 0.048795044 0.024295138 -0.014934865 0.065368064 0.02388872 -0.08888587
-0.08188466 0.003523585 -0.08791387 0.10264583 -0.06709418 -0.14835897 -0.016057106 0.030789528
0.099374145 0.09871094 0.002063094 -0.10999647 0.017052438 0.053021345 -0.13445842 0.0501043
0.1090766 0.020629432 0.11246233 0.03818531 -0.048653647 -0.04016072 -0.028939405 0.021453645
0.0917945 -0.058568425 0.034462404 0.005139628 0.045941547 0.061960068 0.088837944 0.019662557
0.11249019 -0.046050876 -0.113686636 0.071508735 -0.09743989 -0.14097254 0.06304892 -0.117115825
0.019378029 -0.108579785 0.080760896 -0.03748847 -0.01877659 0.10535902 0.11314969 -0.011465158
0.108262755 -0.059708342 -0.07649537 0.002261148 -0.066589184 -0.053334393 -0.0038049396 -0.047187544
0.058629297 -0.006936965 -0.11568333 -0.02547146 0.042233914 0.034672335 -0.012792105 -0.10992181
-0.057719164 0.09013839 0.020154633 -0.12569486 0.07087583 -0.09387126 -0.066629365 -0.11174593
-0.042375796 0.11975703 -0.1351186 -0.052617457 -0.009987206 0.057164535 -0.0037695256 -0.07510241
0.0059042703 -0.12736559 -0.046420954 -0.022878537 0.03559563 0.04138162 0.096818596 0.010237896
-0.06378161 -0.06370374 0.07802855 0.08457269 -0.061999198 -0.01733356 0.056777965 0.09150342
-0.00087672815 -0.009518056 -0.11513552 0.01874159 0.06744902 -0.069118485 0.08558991 0.022148965
0.026408996 -0.020154502 0.010784637 0.07144392 0.021675812 -0.045144737 -0.0726925 -0.024231888
-0.069161795 0.062090818 -0.006123963 0.017116273 -0.02561131 -0.07813765 -0.11191583 0.08520294
-0.068484895 0.01921159 0.11489823 -0.07617572 -0.050105803 -0.031246703 0.015535866 0.008392443
0.044948444 -0.01606854 -0.06205953 -0.013566308 -0.05134917 -0.073719114 -0.029308697 -0.046366338
-0.10667515 0.115312755 -0.06075251 -0.11668845 0.122000724 -0.043208893 0.14096455 -0.049277212
-0.09638746 -0.0604929 -0.0035428808 -0.11990859 0.0850043 -0.07223462 -0.10413477 -0.09692842
00000000: 0aff b83c 8e8c c23d 9416 b2bd 654c 853d
00000010: 7364 293d f2ac a93a a2d5 f1bd 4bea 433d
00000020: 8470 8939 7d4a bdbb 4801 cabd 8c05 8cbd
00000030: cf51 d03d dfb9 cdbd 8ef5 a63c f69b 993d
00000040: 9e22 a4bd 5b7e 603d b024 b53d a338 833d
00000050: 8a72 dbbd 435f 8abd f5fe 733a 98ca 8abd
00000060: 5e37 583d 4d06 9b3c 5223 d8bd bc0d e73d
00000070: d727 51bc 73d4 f13d 42c6 eabd 07db de3d
00000080: 9ccb 6d3d d5f1 273d df02 de3c 5832 d0bd
00000090: 37ae 153d a4e3 02bd 29c0 f9bc 343f 3d3b
000000a0: 49dc 863d c2b2 d43d 4034 873c dcdc 41b9
000000b0: ee5e 973d dabb afbc 5532 afbd f6e9 da3d
000000c0: e4af aebc 6f45 3bbc 9e1e be3c 29ae c43d
000000d0: 84e4 eb3d a655 d53d 0865 073d 2117 123d
000000e0: 1101 92bc bc88 99bd d665 153d 8fe9 e3bd
000000f0: 0aa0 8dbd 260c f0bd 711c 9d3c 343f 27bd
00000100: e457 d43c e248 923c 2f46 c9bd cf5b 073d
00000110: c9ab 05be b7ad c23d 353e d9bd 3816 a2bd
00000120: 412c a83b a474 d23c 4fb3 dcbd 98fe f9bc
00000130: 2cf1 3cbb b184 683c 0e53 b7bb f60e e83d
00000140: 61c1 babb e5d2 ce3c e1cd d83b a3a6 bb3c
00000150: af74 e8bd 77ff a03b 1327 473c 7749 e13d
00000160: ff4f debd 8795 3e3c 8570 99bc 84ca e1bd
00000170: ce1e bebc 2b44 a53b d044 7dbd e079 043d
00000180: ff11 e43a 8669 dbbd 50dd 473d 9906 c73c
00000190: 5db1 74bc b1df 853d 47b2 c33c cc09 b6bd
000001a0: 25b3 a7bd f2eb 663b 300c b4bd fa37 d23d
000001b0: ac68 89bd 6aeb 17be 318a 83bc 523a fc3c
000001c0: ac84 cb3d f628 ca3d f934 073b d445 e1bd
000001d0: 8eb1 8b3c e92c 593d 78af 09be 2b3a 4d3d
000001e0: 8d63 df3d 0eff a83c a652 e63d 3368 1c3d
000001f0: 0c49 47bd 917f 24bd 5512 edbc 8ebf af3c
00000200: c1fe bb3d 72e5 6fbd 7328 0d3d 536a a83b
00000210: 342d 3c3d d7c9 7d3d abf0 b53d 5f13 a13c
00000220: 4261 e63d d89f 3cbd 8ad4 e8bd 2c73 923d
00000230: 918e c7bd 1b5b 10be cb1f 813d 6cda efbd
00000240: acbe 9e3c 145f debd f865 a53d 838d 19bd
00000250: 5dd1 99bc 78c6 d73d 06bb e73d 5cd8 3bbc
00000260: ddb8 dd3d bc90 74bd 9ba9 9cbd c52f 143b
00000270: e95f 88bd 2a75 5abd 4b5c 79bb ba47 41bd
00000280: 4625 703d 7b4f e3bb 62eb ecbd 86a9 d0bc
00000290: 78fd 2c3d 9404 0e3d fa95 51bc b01e e1bd
000002a0: ee6a 6cbd 7a9a b83d 541b a53c 27b6 00be
000002b0: 5927 913d 933f c0bd fa74 88bd 0ddb e4bd
000002c0: 3e92 2dbd 2c43 f53d 885c 0abe 6785 57bd
000002d0: 61a1 23bc 5c25 6a3d 250a 77bb 4bcf 99bd
000002e0: 9c78 c13b 206c 02be e623 3ebd c56b bbbc
000002f0: b9cc 113d c67f 293d d448 c63d d9bc 273c
00000300: ef9f 82bd 1b77 82bd 6fcd 9f3d 7234 ad3d
00000310: dff2 7dbd 1cff 8dbc 0390 683d 2566 bb3d
00000320: 3bd4 65ba 9ff1 1bbc 2ccc ebbd f787 993c
00000330: b622 8a3d fe8d 8dbd c349 af3d bf71 b53c
00000340: ae57 d83c 0e1b a5bc 0cb2 303c 3151 923d
00000350: 7991 b13c b0e9 38bd cedf 94bd f481 c6bc
00000360: b3a4 8dbd f152 7e3d 86ab c8bb 6d37 8c3c
00000370: cfce d1bc a206 a0bd 2034 e5bd e17e ae3d
00000380: cf41 8cbd a061 9d3c c34f eb3d 0402 9cbd
00000390: be3b 4dbd 16f9 ffbc 258a 7e3c 7580 093c
000003a0: dc1b 383d 2ca2 83bc 2232 7ebd 3845 5ebc
000003b0: 8253 52bd 0cfa 96bd cb18 f0bc a1ea 3dbd
000003c0: 8078 dabd 1829 ec3d a0d7 78bd 5bfa eebd
000003d0: 84db f93d cffb 30bd 0359 103e e7d6 49bd
000003e0: ca66 c5bd 67c7 77bd ad2f 68bb a392 f5bd
000003f0: bc16 ae3d bfef 93bd 9c44 d5bd 6882 c6bd

encoder.layers.0.linear1.bias f4 [256]
0.07744787 0.056522332 -0.03136857 0.007055819 0.114145085 -0.01787386 0.1299229 0.13743022
0.1327551 0.12029505 -0.040122334 -0.0048396867 -0.077581294 0.06974443 0.08794653 -0.012330039
0.116692595 -0.03361585 0.12694311 0.0010526315 0.051495634 -0.06663638 -0.105043106 0.11178602
-0.121647425 -0.044656765 0.04792368 -0.12682688 0.04101921 0.051615976 0.04101801 -0.03467128
0.011356157 0.07912003 0.11844787 -0.08389847 0.09106875 0.040951315 0.12438373 -0.059696462
0.119932614 0.08009055 -0.053703208 -0.102096945 0.04748767 0.024314614 0.12259699 -0.05344338
-0.11055226 0.05259047 -0.07506502 0.08866036 0.007579663 0.10064193 0.019988948 -0.052419048
0.047635477 0.121006876 0.09588978 -0.12033518 0.13562334 0.056353662 -0.09297094 0.035085406
0.0683036 0.06562076 0.068856575 -0.012380807 -0.09540571 0.042968534 -0.06858389 0.06771061
0.03556741 -0.013939397 0.054817922 0.038632017 -0.020349713 -0.05443623 -0.068151854 0.11214846
0.06573575 0.028598329 0.08365091 0.09462927 0.035873566 -0.055207234 0.07184003 0.122946106
-0.060122836 0.0026647935 0.021974623 -0.03626643 0.070380196 -0.055735182 0.075903036 -0.083260834
-0.061217535 -0.10465335 0.09527244 0.060759503 0.021464068 0.1267971 0.099947855 0.05980784
0.0033397623 0.06982982 -0.016687635 -0.025743404 0.06689467 -0.025602875 -0.04972544 0.108585924
0.03165796 0.06316886 -0.06903409 0.11176477 -0.0020123096 0.082331076 0.06272843 -0.049159918
0.03218709 0.070763096 -0.043749575 0.038109247 -0.0896777 -0.11290385 -0.00502333 -0.06888148
-0.11340885 0.014123267 -0.100795574 0.016395548 -0.07722362 0.10305 -0.030192763 -0.06463255
0.10089599 0.015664177 -0.08397425 0.0051921094 0.070557214 0.094498426 -0.10320511 0.0041562114
0.067638434 -0.052416813 0.020358725 -0.06608752 -0.039186623 -0.08901452 -0.05849189 0.069316655
0.004350294 -0.035315603 -0.022594796 -0.10634008 0.119002625 -0.03203789 0.00885976 -0.036129773
0.111210145 0.027747555 0.09325971 -0.035224274 0.12583451 0.12475475 0.004969303 -0.094367914
0.007998353 -0.016685598 -0.108037055 -0.10835484 0.03493931 0.055494122 -0.11171327 -0.024514994
0.09320832 -0.04128775 0.07598401 0.1033467 0.059910044 0.06197923 -0.03784009 0.099923626
-0.10525447 -0.044581532 0.018220888 0.0770853 -0.03543801 -0.044772632 -0.07282739 0.02583531
-0.107630275 -0.06485129 0.07582435 -0.0681858 0.09574964 -0.093880996 0.00068354845 0.03518566
-0.026863638 -0.0018784337 0.09856282 0.04086202 -0.043809157 0.03253387 -0.066460826 -0.08124801
0.02226545 -0.06880948 -0.033024948 -0.10741409 0.09370175 0.075695686 -0.077861235 -0.042182263
0.0023251649 -0.019557636 0.08821227 0.025141455 0.02273232 0.124626875 -0.0004286195 -0.030224238
0.122649655 -0.019760935 -0.07439658 0.12577336 0.0869003 0.020523788 0.0962999 0.08355973
0.11297364 -0.10011062 -0.01002612 0.123172924 -0.01124084 -0.09673997 -0.015478207 0.06833331
0.041714404 0.016285105 -0.11896631 0.10723406 0.08743785 0.04932149 0.09543394 -0.0011756786
-0.056532543 0.07732446 -0.05491216 -0.02597227 0.097950324 0.07149783 -0.08045139 -0.04581085
00000000: fd9c 9e3d f683 673d 547c 00bd 8034 e73b
00000010: e6c4 e93d 346c 92bc 820a 053e 82ba 0c3e
00000020: f4f0 073e 405d f63d 5157 24bd 3c96 9ebb
00000030: f1e2 9ebd 2bd6 8e3d 4f1d b43d ef03 4abc
00000040: 87fc ee3d c6b0 09bd 60fd 013e 74f8 893a
00000050: 16ed 523d a878 88bd d720 d7bd 12f0 e43d
00000060: 4922 f9bd 03ea 36bd 9f4b 443d e8de 01be
00000070: c203 283d 466b 533d 8002 283d 7903 0ebd
00000080: 2d0f 3a3c af09 a23d cc94 f23d f6d2 abbd
00000090: 4182 ba3d 91bc 273d e6bc fe3d 4784 74bd
000000a0: 3b9f f53d 8406 a43d e5f7 5bbd 3418 d1bd
000000b0: 6e82 423d 712f c73c 2114 fb3d 72e7 5abd
000000c0: 3969 e2bd 1b69 573d b0bb 99bd 9093 b53d
000000d0: d25e f83b 5b1d ce3d ddbf a33c 5bb5 56bd
000000e0: 6b1d 433d 74d2 f73d dc61 c43d 4a72 f6bd
000000f0: d8e0 0a3e 19d3 663d 8c67 bebd b7b5 0f3d
00000100: c2e2 8b3d 2d64 863d ad04 8d3d ded8 4abc
00000110: 1264 c3bd c6ff 2f3d b675 8cbd dcab 8a3d
00000120: 22af 113d 1262 64bc c288 603d 9b3c 1e3d
00000130: 71b4 a6bc 86f8 5ebd 3393 8bbd 17ae e53d
00000140: 77a0 863d 0b47 ea3c 2b51 ab3d fecc c13d
00000150: 29f0 123d fb20 62bd de20 933d 2bcb fb3d
00000160: 5d43 76bd d1a3 2e3b 2004 b43c 1c8c 14bd
00000170: 7e23 903d 934a 64bd 0d73 9b3d a884 aabd
00000180: 3dbf 7abd 7f54 d6bd 321e c33d f5de 783d
00000190: 6ad5 af3c 19d7 013e 76b1 cc3d 11f9 743d
000001a0: eadf 5a3b f002 8f3d 82b4 88bc d5e3 d2bc
000001b0: 1300 893d 1fbd d1bc e7ac 4bbd 4c62 de3d
000001c0: c7ab 013d ad5e 813d bf61 8dbd ede4 e43d
000001d0: f4e0 03bb 329d a83d c377 803d e95b 49bd
000001e0: 9cd6 033d 3eec 903d c132 33bd 7118 1c3d
000001f0: f1a8 b7bd 223a e7bd bf9a a4bb bc11 8dbd
00000200: e642 e8bd 4665 673c e96d cebd f54f 863c
00000210: 6b27 9ebd e10b d33d d056 f7bc 125e 84bd
00000220: 8fa2 ce3d 2952 803c b1fa abbd 9222 aa3b
00000230: 4d80 903d 6488 c13d 335d d3bd d430 883b
00000240: 0586 8a3d 03b3 56bd 57c7 a63c e558 87bd
00000250: 2782 20bd 3f4d b6bd 3195 6fbd e4f5 8d3d
00000260: e98c 8e3b 18a7 10bd b918 b9bc d4c8 d9bd
00000270: a6b7 f33d 2a3a 03bd 8728 113c d0fc 13bd
00000280: 25c2 e33d d74e e33c f2fe be3d 5447 10bd
00000290: c3da 003e 6b7f ff3d 89d5 a23b f743 c1bd
000002a0: 860b 033c 3cb0 88bc 8842 ddbd 24e9 ddbd
000002b0: 861c 0f3d ce4d 633d edc9 e4bd abd3 c8bc
000002c0: 01e4 be3d 581d 29bd 819d 9b3d 6fa7 d33d
000002d0: 3c64 753d efdd 7d3d 36fe 1abd c2a4 cc3d
000002e0: a88f d7bd 209b 36bd f943 953c e6de 9d3d
000002f0: 7227 11bd 8263 37bd 8726 95bd 92a4 d33c
00000300: 436d dcbd c1d0 84bd cc49 9b3d ffa4 8bbd
00000310: 6318 c43d ae44 c0bd 2930 333a d71e 103d
00000320: 2211 dcbc c735 f6ba 4edb c93d ef5e 273d
00000330: 3b71 33bd 3c42 053d 9d1c 88bd 5b65 a6bd
00000340: 0866 b63c fceb 8cbd 2b45 07bd ebfb dbbd
00000350: b4e6 bf3d 5706 9b3d b675 9fbd 4fc7 2cbd
00000360: cb61 183b 5637 a0bc a2a8 b43d 74f5 cd3c
00000370: 2139 ba3c 603c ff3d 56b8 e0b9 d298 f7bc
00000380: be2f fb3d afe1 a1bc 3c5d 98bd bbca 003e
00000390: c9f8 b13d 8121 a83c e238 c53d 5d21 ab3d
000003a0: b95e e73d cc06 cdbd 9844 24bc 1642 fc3d
000003b0: 802b 38bc 9b1f c6bd 4e98 7dbc 56f2 8b3d
000003c0: b9dc 2a3d 5768 853c 9ca4 f3bd 889d db3d
000003d0: 9e12 b33d 5505 4a3d df72 c33d 3a19 9aba
000003e0: ab8e 67bd 495c 9e3d 93eb 60bd ccc3 d4bc
000003f0: 2e9a c83d 746d 923d b3c3 a4bd 28a4 3bbd

encoder.layers.0.linear2.weight f4 [64, 256]
0.033324353 0.025323747 0.033027858 -0.047783796 -0.058764745 0.014100193 -0.0024994062 -0.02712922
-0.07033531 -0.019163601 0.049488157 -0.053947475 -0.0064376444 -0.045365863 -0.026346277 0.043434463
-0.03317805 -0.061414298 0.030418493 0.041343804 0.0283899 -0.06370654 0.013118374 0.04555355
0.003634972 0.04266269 0.04904066 -0.003595498 -0.064273536 -0.035112914 -0.0014423789 0.00476508
-0.027721107 -0.059176013 -0.050841767 -0.010890701 -0.018744899 -0.056120854 -0.0074109 -0.062837586
-0.073630944 0.03843477 -0.011423873 0.051596127 0.0037109246 -0.02692783 -0.011280891 -0.022463972
-0.06417492 -0.056653976 0.0068028965 0.0477279 -0.03877029 -0.025164552 -0.013324837 -0.048269298
-0.007917654 -0.01634574 -0.0011924653 -0.038365874 -0.011752568 -0.05446302 0.017222613 0.03448576
0.010227413 -0.018369047 0.01578498 0.016688002 0.036373653 -0.0639064 0.062476747 -0.021034313
0.0192743 0.082396455 -0.04944636 0.05252027 -0.032046326 -0.045094665 0.04338115 0.0617847
0.025755847 -0.002609975 -0.01114408 0.036262766 -0.004779978 -0.01593775 0.00399159 -0.011268265
0.04334816 0.016482407 -0.060012285 -0.037267353 0.005224201 -0.0049263383 -0.034896404 -0.013228878
0.028103082 -0.048019946 -0.06880619 -0.036295358 -0.050167114 -0.04621001 -0.06195237 0.054372724
-0.03820936 0.022110144 0.05819398 0.04146003 -0.061436456 0.048625223 -0.053438596 0.05451901
-0.051297646 0.045193944 0.053841803 -0.048008624 -0.056212895 -0.044691127 0.066389486 0.010608253
0.013399612 0.021746151 -0.039392013 -0.02696573 -0.010755325 -0.055356365 0.08066789 0.055741616
0.031413306 -0.011433784 -0.03588795 -0.030143177 -0.045175225 -0.017147442 -0.00023133449 -0.048595436
0.06856692 0.044387594 0.030837556 0.04844779 -0.039783463 -0.0012686203 -0.028041715 -0.0129781915
0.034835927 -0.023341559 -0.063732505 0.04382805 -0.06720533 -0.034865234 -0.027756995 -0.06681165
0.04886654 -0.008095035 0.013946446 0.018691925 -0.060441818 0.051492583 -0.03421312 -0.05354531
-0.05601148 -0.058027893 -0.051633433 0.010067658 0.03825435 -0.022703452 0.011120688 -0.022520445
-0.0143597 -0.056628305 0.024561316 0.024532886 -0.023550838 -0.026691165 -0.056246277 0.045429505
0.031111034 0.03542159 0.013893165 0.0087090805 0.015149429 0.001319609 0.00042737127 0.05083426
0.026531314 -0.031808753 0.0137248095 0.030630412 -0.048823424 -0.048183747 0.06677625 0.02550842
-0.026140755 0.063629374 -0.040011466 0.0059821242 0.06438603 -0.042759947 0.0060909837 0.03293917
0.0016411587 -0.043882888 0.008157276 -0.06417987 0.010219711 -0.056200758 0.023584805 -0.015487076
-0.049162686 0.052690405 -0.0074679903 0.009866538 0.048893604 -0.03481219 0.0014835632 -0.03707103
0.023510857 0.044769492 -0.0396163 0.066781074 0.011769783 -0.006333987 0.037985325 0.05495325
0.017113412 -0.0059800562 -0.045146823 0.061405204 0.040410023 0.014486417 -0.04480033 0.029033821
-0.050973654 -0.045861572 0.042593572 -0.03871222 0.024467764 0.03241001 -0.028107103 -0.050224103
0.04247696 -0.071664356 0.0057864087 -0.0141229555 -0.010995078 0.052241087 -0.023816258 0.017574063
-0.032941926 0.019339863 0.041866995 0.042435028 0.013321524 -0.043577354 -0.064708926 0.035504688
00000000: 1e7f 083d bf73 cf3c 3848 073d f1b8 43bd
00000010: 4db3 70bd 7f04 673c 14cd 23bb 193e debc
00000020: f60b 90bd fcfc 9cbc 18b4 4a3d 07f8 5cbd
00000030: e0f2 d2bb 8ed1 39bd 26d4 d7bc 56e8 313d
00000040: b5e5 07bd 8f8d 7bbd 3430 f93c 1f58 293d
00000050: f091 e83c 9378 82bd 73ee 563c 5c96 3a3d
00000060: b638 6e3b 13bf 2e3d dcde 483d 72a2 6bbb
00000070: d8a1 83bd 8fd2 0fbd 340e bdba 6324 9c3b
00000080: 6017 e3bc 8c62 72bd 753f 50bd e96e 32bc
00000090: e78e 99bc fbde 65bd 23d7 f2bb feb0 80bd
000000a0: d2cb 96bd c76d 1d3d 322b 3bbc 7656 533d
000000b0: fc32 733b c197 dcbc 7cd3 38bc 5d06 b8bc
000000c0: 246e 83bd 000e 68bd d5ea de3b 557e 433d
000000d0: 98cd 1ebd e425 cebc 6b50 5abc 07b6 45bd
000000e0: 0cb9 01bc 80e7 85bc 7f4c 9cba 8925 1dbd
000000f0: d88d 40bc 9e14 5fbd 7016 8d3c f140 0d3d
00000100: e190 273c af7a 96bc 814f 813c 47b5 883c
00000110: 8afc 143d 5ce1 82bd 9ee7 7f3d 2750 acbc
00000120: 23e5 9d3c 79bf a83d 4488 4abd 7f1f 573d
00000130: 0243 03bd 2fb5 38bd 6fb0 313d f411 7d3d
00000140: edfd d23c 1d0c 2bbb a995 36bc 4488 143d
00000150: 5da1 9cbb e28f 82bc e2cb 823b 879e 38bc
00000160: d78d 313d 1d06 873c 71cf 75bd a7a5 18bd
00000170: c62f ab3b 1f6d a1bb 88ef 0ebd f0bd 58bc
00000180: 6f38 e63c 90b0 44bd 42ea 8cbd 71aa 14bd
00000190: 087c 4dbd b546 3dbd c5c1 7dbd efb5 5e3d
000001a0: 6b81 1cbd 5520 b53c d05c 6e3d fed1 293d
000001b0: cba4 7bbd 3e2b 473d 6ee2 5abd 534f 5f3d
000001c0: 7b1d 52bd 491d 393d 3989 5c3d b1a4 44bd
000001d0: 7e3f 66bd 0b0e 37bd 36f7 873d 3dce 2d3c
000001e0: 0c8a 5b3c fc24 b23c 8559 21bd 3ce7 dcbc
000001f0: 1a37 30bc 5bbd 62bd 3535 a53d 5251 643d
00000200: 3dab 003d c454 3bbc 3eff 12bd d3ee f6bc
00000210: a809 39bd cb78 8cbc 6192 72b9 020c 47bd
00000220: d06c 8c3d c4cf 353d 0b9f fc3c 3171 463d
00000230: fcf3 22bd d547 a6ba bdb7 e5bc 7ba2 54bc
00000240: 1eb0 0e3d cc36 bfbc 3086 82bd 0b85 333d
00000250: f3a2 89bd d9ce 0ebd a362 e3bc 8cd4 88bd
00000260: 4828 483d 0aa1 04bc a27f 643c cf1f 993c
00000270: d791 77bd e3e9 523d 0e23 0cbd 5452 5bbd
00000280: 4b6c 65bd a8ae 6dbd 947d 53bd d1f2 243c
00000290: 98b0 1c3d 97fc b9bc 8c33 363c cc7c b8bc
000002a0: f244 6bbc 15f3 67bd d034 c93c 31f9 c83c
000002b0: b0ed c0bc 6ea7 dabc 7f62 66bd 4a14 3a3d
000002c0: 91dc fe3c 3b16 113d 28a0 633c 88b0 0e3c
000002d0: 5035 783c bbf6 ac3a cd10 e039 9637 503d
000002e0: 3358 d93c e549 02bd 06de 603c a1ec fa3c
000002f0: 12fb 47bd 525c 45bd fdc1 883d 09f7 d03c
00000300: 2325 d6bc 1e50 823d 10e3 23bd b205 c43b
00000310: d3dc 833d 0e25 2fbd e096 c73b 39eb 063d
00000320: 261c d73a 8bbe 33bd 18a6 053c bc70 83bd
00000330: 9370 273c c432 66bd ec34 c13c 81bd 7dbc
00000340: d05e 49bd e5d1 573d 0bb6 f4bb 43a7 213c
00000350: a944 483d 3a97 0ebd 1f74 c23a cbd7 17bd
00000360: d799 c03c 3760 373d b444 22bd 84c4 883d
00000370: 0cd6 403c 568d cfbb 8096 1b3d a916 613d
00000380: 6d31 8c3c 59f4 c3bb e0eb 38bd 0684 7b3d
00000390: fb84 253d 7058 6d3c 8d80 37bd 56d8 ed3c
000003a0: c0c9 50bd 58d9 3bbd 9976 2e3d b490 1ebd
000003b0: 9f70 c83c 5cc0 043d de40 e6bc cab7 4dbd
000003c0: 52fc 2d3d c3c4 92bd ea9b bd3b f863 67bc
000003d0: b324 34bc c0fa 553d 501a c3bc 7bf7 8f3c
000003e0: 1dee 06bd a26e 9e3c ba7c 2b3d 5ad0 2d3d
000003f0: 8542 5a3c 2b7e 32bd 1d86 84bd 5d6d 113d

encoder.layers.0.linear2.bias f4 [64]
0.006707661 0.010213763 0.024858288 0.066457845 -0.0015765979 -0.059011433 0.011973019 -0.023543583
-0.05537267 0.009874197 0.03895861 -0.00043145887 -0.047570363 -0.010712624 -0.0022140082 0.016650027
-0.062355384 -0.05505495 0.04391956 -0.0045845937 -0.046939723 -0.023196533 -0.038446926 0.017459705
-0.0009868796 -0.040095195 -0.037439447 0.00062784937 -0.019825634 0.031329352 0.04770603 0.051083487
0.0484623 0.036247116 0.00929797 -0.035901908 -0.02772335 -0.045109253 0.0048969835 -0.046593487
-0.0066492464 -0.006637105 -0.008044127 0.00016202504 0.04617011 0.04581021 -0.05680138 0.04401802
-0.0073526707 -0.027561093 -0.0017878729 -0.04340803 0.056508154 -0.06250337 0.024137763 0.006009687
-0.0487528 -0.017945064 -0.050104707 0.01689166 0.045892965 -0.052746713 0.06251539 -0.053306226
00000000: f0cb db3b a157 273c 9ca3 cb3c 0d1b 883d
00000010: d9a5 ceba f9b5 71bd 7b2a 443c 79de c0bc
00000020: 74ce 62bd 62c7 213c 1093 1f3d 6e35 e2b9
00000030: 24d9 42bd 0084 2fbc e518 11bb a365 883c
00000040: 5c68 7fbd 4d81 61bd ffe4 333d 5c3a 96bb
00000050: de43 40bd a806 bebc 867a 1dbd a807 8f3c
00000060: 2f5a 81ba dc3a 24bd 1b5a 19bd 4296 243a
00000070: 5e69 a2bc 3553 003d 6667 433d eb3c 513d
00000080: 6880 463d db77 143d 8356 183c e10d 13bd
00000090: 141c e3bc 7bc4 38bd e076 a03b d0d8 3ebd
000000a0: ece1 d9bb 127c d9bb 84cb 03bc 44e5 2939
000000b0: df1c 3d3d 7da3 3b3d 90a8 68bd 3d4c 343d
000000c0: acee f0bb cdc7 e1bc 0f57 eaba 9ecc 31bd
000000d0: 1875 673d c401 80bd 8fbc c53c e9ec c43b
000000e0: 04b1 47bd 8701 93bc 983a 4dbd 6160 8a3c
000000f0: 43fa 3b3d f00c 58bd 1208 803d a157 5abd

encoder.layers.0.norm1.weight f4 [64]
0.9858766 0.98186177 0.9975519 1.007822 1.0088887 1.001748 0.9971075 0.9920102
0.9772335 0.9893131 0.98881745 0.98363215 0.98901093 0.9822743 1.0041207 0.9743827
1.0180945 1.017531 1.0124515 1.0150892 0.97810185 1.009702 0.9950149 0.9711075
1.0174416 0.9858349 0.99329627 1.0050322 1.0109376 1.0050786 1.0004777 0.9983186
0.98425335 0.9849261 1.006311 0.98986405 0.9878324 0.98623437 1.0192169 1.0161963
0.992142 0.99319595 1.0049239 1.0203363 0.99609196 0.9798538 1.0133309 0.99117327
0.9974591 0.99179626 1.0038052 0.9941257 1.0088611 0.9850501 1.0304278 1.0146202
0.9859786 1.0052757 0.99154663 0.98102075 1.039595 0.9824946 1.0245999 0.99101084
00000000: 6962 7c3f 4b5b 7b3f 905f 7f3f 5000 813f
00000010: 4423 813f 4739 803f 7042 7f3f 61f4 7d3f
00000020: fa2b 7a3f a043 7d3f 2423 7d3f 51cf 7b3f
00000030: d22f 7d3f 5476 7b3f 0787 803f 2571 793f
00000040: ec50 823f 753e 823f 0398 813f 71ee 813f
00000050: e264 7a3f ea3d 813f 4cb9 7e3f 809a 783f
00000060: 873b 823f ad5f 7c3f aa48 7e3f e5a4 803f
00000070: 6766 813f 6aa6 803f a70f 803f cf91 7f3f
00000080: 07f8 7b3f 1e24 7c3f cdce 803f bb67 7d3f
00000090: 96e2 7c3f db79 7c3f b375 823f b812 823f
000000a0: 05fd 7d3f 1742 7e3f 59a1 803f 619a 823f
000000b0: e2ff 7e3f b3d7 7a3f d4b4 813f 88bd 7d3f
000000c0: 7b59 7f3f 5ce6 7d3f b07c 803f 067f 7e3f
000000d0: 5c22 813f 3e2c 7c3f 0fe5 833f 13df 813f
000000e0: 1869 7c3f e0ac 803f 00d6 7d3f 2d24 7b3f
000000f0: 7311 853f c484 7b3f 1726 833f e3b2 7d3f
