save_results/autoformer_short_term_90d_run3.pt (torch, 437661 bytes, 28 tensors)

input_embedding.weight f4 [64, 12]
00000000: 6b68 7b3d 84a6 8d3d 7a0a 33bc 17f6 473d
00000010: 58e0 5a3e 913c 27be 98ba 0bbb 22f9 fe3d
00000020: 8983 2fbd c383 46be 816e 34bd e4f1 bebc
00000030: 0b76 4b3e 44aa b43d bcef 52be a68c 553e
00000040: 3fa2 c5bd 98ed 94be 61e5 66be 0192 52be
00000050: 0a2c 713e fc72 2fbe 2c56 503e c12d 7e3e
00000060: 4a39 19be b563 2a3e c04f 283d f13a 333e
00000070: c5ed 82be 4ffc e63d d00e 91be f250 8a3e
00000080: 1204 703e 50b3 5abe e2b6 6a3e c39d 2a3d
00000090: e6b1 2cbe c586 0ebd 30b6 033e eb4f 083e
000000a0: e31a 01be 4170 783d b513 c2bb 5144 56bd
000000b0: e340 55bc 312b 403e 3b21 2e3c aa6f 48be
000000c0: a59e 9b3d e929 6ebe 9de6 a6bb 0dea fb3d
000000d0: 414b 8dbe e6a9 3cbd 1d61 8cbe c394 033e
000000e0: 8538 1a3d 5ce0 03be 980d 953a 420c 2bbe
000000f0: 14cb 39be 34bd 3c3c e782 83be 6950 5e3e
00000100: b27f 2e3d 664f e93d af9d 4b3e c799 243e
00000110: 4f47 78bc e6b7 363e e871 8cbd df02 7a3c
00000120: 918e 7cbe 9e8f 67be 4027 6d3d 8d59 a43a
00000130: b56b 213d b9a2 cc3d 6a09 3cbe 33e4 0b3e
00000140: c72b 893e b8e5 de3d b8e0 96be ae94 033e
00000150: 6bd7 a1bd e48a 16be 8ce4 5b3e f77b 3ebe
00000160: 72c7 843e 9b43 783b 9bfd e13c 7674 2cbe
00000170: cf80 193e 4f13 293d 0792 07be 2273 563e
00000180: ebd8 383d 8a23 663c f62a b23c 5471 73bc
00000190: 5ef3 813d 75a0 2cbc 4834 0b3e c28e 863c
000001a0: afc8 2a3e 3634 89be 1add 62be e977 5e3d
000001b0: ac7f d13c f24f ce3b d273 05bd 5134 6dbe
000001c0: 8c22 f5bd 35b0 babd 6bd9 80be 9c98 393e
000001d0: a499 67be 82d8 373d 14f5 60be 7c21 a5bd
000001e0: ff62 8ebe 9608 3cbe 8f63 1cbe 5eca a6bd
000001f0: db7b 04be f0fb 1b3d 0061 2c3e 07a8 a23d
00000200: 2426 9b3d d594 73be 56c9 a73d 4054 0cbe
00000210: ce4b 523e 03e1 8cbe 4f62 8ebe 22d7 58bd
00000220: 38c3 87be e21c ce3d 9eb0 14be f101 93be
00000230: 8ab0 7f3e 0000 89be 5549 833e 168a 0d3e
00000240: 1155 703d 99a6 e73d 345f e7bd 9529 5d3e
00000250: 758f f93d af88 1cbc 94b4 cfbd 1108 073e
00000260: ac00 503e 8ff6 c13d b8fb 12bd 7e67 5dbc
00000270: 1eb6 06be 49cb 09be bf73 d73d 9a3b 17bd
00000280: 5a64 31bd 2623 1e3e 1fcd 94be b2cf c83d
00000290: 2185 0a3e 5d19 62be 2f79 0ebe 8ec9 8ebe
000002a0: 7c6c 2d3b 9688 743e 5105 aebc 7294 923e
000002b0: ffb8 55be 32a7 42be f93b fd3d 8ac3 94be
000002c0: 04b2 0ebc c512 6e3d 8d15 083e 26e1 65be
000002d0: 9c2c 643e 642b 9bbd b2c1 6a3e 8e32 29bd
000002e0: c3d7 12be 8497 57be 3049 82bd bfc7 313e
000002f0: 939d 1e3e 9247 293e 06c6 6bbd 67b2 2f3e
00000300: db70 cabd 6755 083e 1b12 723d 0c05 863e
00000310: f173 6c3e 3ac7 8bbe 2120 633e 90ba 4ebe
00000320: dbb2 df3c 2e03 57be ec30 84bd ee14 1f3e
00000330: f5ac 603d ddce f7bd f48f f43d e8c0 54bd
00000340: 6698 763e 3e56 ed3d 5bef 42bd 472e 6d3e
00000350: 4ab4 a0bc 0f3a a4bd 7885 0f3b 5557 433e
00000360: 07d1 7dbe 42d9 6b3d 3f79 363e 5ca6 873e
00000370: 1735 38bd b233 c6bd 4792 dabd f9c0 17be
00000380: f466 38be 6566 783e cfce 81be 90a6 59bd
00000390: 41d8 953d d830 883e d486 393e a27e 353e
000003a0: e8a0 5cbe 2e04 7b3e 497d 4fbe 1dcd 05be
000003b0: 2a3c 7fbd 30fa 3bbe de27 77bd 2ca7 c0bd
000003c0: 9d84 84bc c506 953d c732 213e 2bdc 59bc
000003d0: 90e4 adbd 6711 103e e9de ef3d 7280 1ebe
000003e0: 3a9a 4e3d 27dd 5cbe b79e 3ebe 7ceb 00bd
000003f0: 8402 4dbe a65f 273e f15e 2dbe a323 c6bd
0.061378878 0.06916526 -0.010927791 0.048818674 0.21374643 -0.16331698 -0.0021320935 0.12449862
-0.04285005 -0.193862 -0.044050697 -0.023308702 0.19869249 0.08821538 -0.20599264 0.20854434
-0.096500866 -0.2908752 -0.22548439 -0.20563509 0.23551956 -0.17133707 0.20345372 0.24822141
-0.1496326 0.16639598 0.04109168 0.17502953 -0.2557203 0.11278593 -0.28331614 0.2701488
0.23439053 -0.21357465 0.22921327 0.04165436 -0.16864738 -0.034796495 0.12862468 0.13311736
-0.12607913 0.06065393 -0.0059227594 -0.052311245 -0.0130159585 0.18766476 0.01062804 -0.19573846
0.075986184 -0.23258175 -0.005093409 0.12300501 -0.27596477 -0.046060465 -0.27417842 0.12849717
0.037651557 -0.12878555 0.0011371849 -0.16703895 -0.18143874 0.011519719 -0.25685808 0.21710362
0.04260225 0.11392097 0.1988437 0.16074286 -0.01515372 0.17843589 -0.068576634 0.015259474
-0.2466376 -0.2261338 0.05789876 0.0012538895 0.039409358 0.099919744 -0.18362966 0.1366127
0.26791212 0.10883659 -0.29468322 0.12849686 -0.07902416 -0.1470142 0.21473902 -0.18601976
0.25933415 0.0037882093 0.027586749 -0.16841301 0.14990543 0.04127818 -0.13239299 0.20942357
0.045128744 0.014046559 0.021749001 -0.0148585625 0.06345247 -0.010536303 0.13594162 0.016425494
0.16678117 -0.26797646 -0.22154656 0.054313574 0.025573574 0.0062961513 -0.032581158 -0.23164488
-0.1196948 -0.0911564 -0.25165877 0.18124622 -0.22617203 0.044884212 -0.2196849 -0.08063027
-0.27809903 -0.1836265 -0.15272354 -0.08144067 -0.12937872 0.038082063 0.16833878 0.07942205
0.07575634 -0.23787244 0.08192699 -0.13704014 0.2053673 -0.2751542 -0.27809379 -0.05293954
-0.26516128 0.10064103 -0.14520499 -0.2871242 0.24969688 -0.26757812 0.25641885 0.13822207
0.058674876 0.11311073 -0.112974554 0.21597894 0.121855654 -0.009554072 -0.101418644 0.13186671
0.20312756 0.094708554 -0.03588459 -0.013513444 -0.1315541 -0.13456453 0.10520124 -0.036922075
-0.043308593 0.15443096 -0.29062745 0.0980524 0.13527347 -0.22079988 -0.13913415 -0.2788815
0.0026462367 0.23880228 -0.02124277 0.2862888 -0.20871352 -0.19009092 0.123649545 -0.29055434
-0.008709434 0.05812337 0.13289471 -0.22449169 0.22282642 -0.075766355 0.22925451 -0.04130798
-0.14340119 -0.21053892 -0.06361616 0.17361353 0.15489797 0.16531208 -0.057561897 0.17157899
-0.09884807 0.13313828 0.059099298 0.26175725 0.23091103 -0.27300435 0.22180225 -0.20188355
0.027306965 -0.20997307 -0.064546436 0.15535328 0.054852445 -0.12100003 0.119415194 -0.051941782
0.24081573 0.11588715 -0.04759155 0.23162185 -0.019617219 -0.08018886 0.0021899622 0.19076283
-0.24786769 0.05758024 0.17819689 0.2649411 -0.044972505 -0.09677829 -0.106724314 -0.14819707
-0.18008024 0.2425781 -0.25353095 -0.053137362 0.07316638 0.26599765 0.18117839 0.17724088
-0.21545756 0.24513313 -0.20262636 -0.13066526 -0.062313236 -0.18357158 -0.060340755 -0.094068855
-0.016176516 0.07276682 0.15742026 -0.013297121 -0.084908605 0.14069138 0.117124386 -0.15478685
0.05044005 -0.21568738 -0.18615232 -0.031474575 -0.20020491 0.1634508 -0.16930749 -0.09674766

input_embedding.bias f4 [64]
00000000: e1d3 c83d ef28 ad3d b982 0a3d b87e f93d
00000010: 630a 333d b9eb 6c3e e2e6 8bbe a6f6 313e
00000020: d3d2 633e c5fe 843e f9e2 7a3e 4578 98bd
00000030: 2827 123e 961e 70bd 2cd4 78bc f6d2 373e
00000040: 813c 86be 38b8 73be f7f8 8d3c ca23 32be
00000050: 4dea 4cbe 1e2e 02bd 1da1 5d3d ff31 6bbe
00000060: 5532 65be 3dab 8abe a59a 6f3e 8071 59ba
00000070: 542b c6bd ff42 e2bd dd27 a03d 401c 873e
00000080: 9197 85bc 3821 a03d 0eba 283e 4657 eabd
00000090: a43c 8f3e 1dc0 723e 369b 813d fe69 47be
000000a0: c172 81be 123d 813d aa1a 5dbd d808 943d
000000b0: 3de3 3b3e d9ff e03c cffb 89bd 4d79 7c3e
000000c0: 2638 eabc bc82 593e 655c 643d f2cd 0dba
000000d0: 86e6 ff3d d269 6e3e 15e1 4bbd d328 86be
000000e0: b08c 41be a187 70be 7df3 59bd feca 00bd
000000f0: 0718 a6bc 149c 21be c5d7 693d 76af e63d
0.09806038 0.08455073 0.033816073 0.12182373 0.043711077 0.23136796 -0.27324587 0.17379245
0.22248392 0.25975624 0.24500646 -0.074448146 0.1427275 -0.05862292 -0.0151873045 0.17951569
-0.26218036 -0.23800743 0.01733063 -0.17396465 -0.20011254 -0.031782262 0.054108728 -0.22968291
-0.22382481 -0.2708377 0.23398836 -0.0008294806 -0.09676233 -0.11047935 0.07820103 0.2638874
-0.016307624 0.07818836 0.16477224 -0.11442427 0.27975953 0.23706098 0.06328432 -0.19474027
-0.25282863 0.06310476 -0.053980507 0.07228249 0.18348403 0.027465748 -0.06737482 0.24655648
-0.028591227 0.21241277 0.055752177 -0.00054094114 0.12495141 0.23282555 -0.0497752 -0.2620302
-0.18901324 -0.23489238 -0.053210724 -0.03144359 -0.020275129 -0.15782195 0.05709054 0.11263935

encoder.layers.0.self_attn.in_proj_weight f4 [192, 64]
00000000: 375d 4cbe 0e81 b5ba 0bc7 b3bc 3e6b 1cbe
00000010: c039 80bc 8eb3 42be ffc7 a73d 19f6 fcbd
00000020: cea1 dbbd a226 df3d 6d4d 153e 0b37 253e
00000030: 11bd c2bd 4470 28bc eb3a f23c 7879 3bbe
00000040: 8f30 193d 23f6 153d e358 063e 5241 3f3d
00000050: 20e7 363d bf40 4c3e d0e6 18bd 0499 243e
00000060: 6ed4 b93d 45f8 033e 9116 1a3e a18a eebd
00000070: 24e1 54bd 4e75 7c3d c5aa cebc dcf6 63be
00000080: 199a 993e b340 263d 7ce1 333d 1f80 b73d
00000090: f760 1ebe 245a 74bd 6432 27be 18b6 de3d
000000a0: 13b2 023c 3117 9d3d 3658 113e a507 e03c
000000b0: 08de 8dbd d632 09bd 6c69 163e 2afe c63d
000000c0: 24ac 643d c070 20be a94d 023d 58e4 9f3a
000000d0: ce6e 3dbe e36d 6cbd fe3c 4f3e 7e8d b03d
000000e0: 62b1 b93d 8c15 c03d ab23 003e 6a2f 513c
000000f0: 0ec2 68bd 3d82 ed3d 9de8 97bd 9ba6 40bd
00000100: 9d50 013e 1d9a 25bd 99da 193e f1a9 823e
00000110: 2f2f ebbd b059 7e3e 4335 a9be 96e2 d23d
00000120: 55f5 953e 8793 f33d 638c c53d 5e9c f6bd
00000130: e5a6 403e 9cf4 68be 2c76 163d d692 4c3e
00000140: 12d0 97be 4405 cc3c 0385 81be a8c3 df3d
00000150: 4706 70be f8a7 a4b9 4356 313e 7ef6 9dbe
00000160: 83aa 6cbe 4838 2e3c e2dc b53c a396 ae3d
00000170: c31f 4bbc 2146 e2bc 76cb 3c3d 12e3 de3d
00000180: 759d 81be 01e4 e7bc 6eb4 bc3c 0c69 afbd
00000190: fb9b 933d b638 013e 568f 773e 8e54 b0bd
000001a0: e6da 90be ce31 fb3c 6879 eabd 79fd 6bbe
000001b0: 37e9 493e 887a 64be 766c a0bd 94f8 2fbd
000001c0: 7f51 1d3d 46ee 8e3d e149 ad3d 3018 5f3e
000001d0: 7471 9d3e 6638 013e cb55 1ebe 44f0 eebd
000001e0: 1331 f6bc f77a 2bbd 8077 96be 63c1 a2bb
000001f0: 8cb3 b03d 4644 54be 4037 f93d 0305 7a3e
00000200: c7bd 30bc 9876 f83d 5d60 823e 3f64 393e
00000210: 96c0 91bc 9d84 9f3e c249 25be 22ff 853e
00000220: 0a8c a93e 0e3d 5a3d 38d6 3fbd 2f89 45bd
00000230: b93c 9d3e d146 13bd 6d61 053e def3 1a3e
00000240: 78b4 00be 5452 f2bd 153d 36be 5cc9 e5bc
00000250: d065 90be c736 8fbe f4f8 6a3e 918c 44be
00000260: 7654 3bbe fc6c 04be 6fe7 6ebd d833 c73c
00000270: fb9f 81be 0c39 febd bcc7 14be e0d2 703e
00000280: 0f50 b6be f13e d23d 67f8 633e 268b f3bc
00000290: 36dc 1e3e a539 733d 26e8 0f3e 6205 49be
000002a0: 66f3 0ebd deac 873d 538a c83d 6f01 18bd
000002b0: c557 053e 24ea 78be 5129 18bd 7dad d93d
000002c0: 4d8f 483e 5ac3 8b3e ed4c 843d 3447 483e
000002d0: 0e6f 6e3e 68e8 263d 9e55 75be 93aa 9bbe
000002e0: a629 08be ed84 b0bd 1f46 89be 2019 15be
000002f0: 0e90 c03d da6a 54be f11c 163e 2644 303d
00000300: 780d 2f3e fa7b 86bd f852 963e 8282 f53d
00000310: fe13 0abd 9c55 75bc c878 85be 4719 483e
00000320: 650f 423e 1aa0 22be a901 ad3d 2186 38be
00000330: e7a3 2e3e d30b 46be 2957 573d 05d4 443e
00000340: 3443 91be 9c6a 71bd e444 21be 70da fb3d
00000350: 6532 2ebe 40e3 39be 93bf 923e 4df3 8bbb
00000360: 6680 b93c 3ccc 283d b2bf f9bc 1af5 d03d
00000370: 1471 5ebe 4a89 c9bd b307 67bd 194a 5a3e
00000380: 7d53 b5bc b2c8 413e 0623 423e 1887 dfbc
00000390: b4a3 593e f644 5b3e 8ca9 ca3c 0c1f 3bbe
000003a0: 3dfc 2fbe 2fb5 38bd 300f 90bd 4eb3 0dbe
000003b0: 51bf 0f3e b6e2 dabd 49e8 50be 74d1 5f3e
000003c0: 07f8 e1ba 84ac 843e 6e38 8b3d e269 5d3d
000003d0: 4aaa 623e 191b cebd bb5c 1cbe c6f9 dfbc
000003e0: b039 f4bd f262 35be 5d9c 49bd 98bd 1dbe
000003f0: e062 1a3d 5e12 89be 4fe6 d93d aac4 413d
-0.19957434 -0.0013847665 -0.021945497 -0.15275285 -0.015652537 -0.19013807 0.08192443 -0.12351627
-0.10724221 0.108960405 0.14580317 0.16134278 -0.09508718 -0.010280672 0.02956911 -0.18308055
0.037399825 0.036611687 0.13119845 0.046693154 0.04465401 0.19946574 -0.037329495 0.16073996
0.09073721 0.12887676 0.15047671 -0.11647535 -0.051972523 0.061635308 -0.025227914 -0.22262138
0.3000038 0.040589046 0.04391621 0.08959984 -0.15466677 -0.059656277 -0.16327816 0.108745754
0.0079770265 0.07670439 0.14193806 0.027347395 -0.06927115 -0.033495747 0.14688653 0.09716447
0.05582823 -0.1566801 0.031812344 0.0012198789 -0.184993 -0.057721984 0.2023811 0.086207375
0.09067036 0.0937911 0.12513606 0.012767652 -0.05682569 0.115971066 -0.07417414 -0.047033887
0.12628408 -0.040430177 0.15024795 0.2552028 -0.11483609 0.248389 -0.33048448 0.10297124
0.29288736 0.11893373 0.09645917 -0.120415434 0.18813665 -0.22749561 0.03673379 0.19977888
-0.29650933 0.024904855 -0.25296792 0.1092599 -0.23439895 -0.00031405664 0.17318062 -0.3085212
-0.2311192 0.010633536 0.022200052 0.085248254 -0.012397709 -0.02762133 0.046092473 0.10883154
-0.25315443 -0.028306963 0.023035254 -0.08564958 0.07207485 0.1261929 0.24175772 -0.086098775
-0.28292006 0.030663397 -0.11448938 -0.23045911 0.1971787 -0.22312367 -0.07833187 -0.042961672
0.0384078 0.06979041 0.08461357 0.2178657 0.3075062 0.1261917 -0.15462415 -0.11666921
-0.030052697 -0.041865315 -0.29388046 -0.004966901 0.08627996 -0.20729169 0.12168741 0.24415974
-0.010787434 0.12131995 0.25464144 0.18104647 -0.017792027 0.31155863 -0.16141418 0.26171213
0.33114654 0.053280883 -0.046835154 -0.04822653 0.3071039 -0.035956208 0.13025446 0.1513209
-0.12568843 -0.11832109 -0.17796738 -0.028050117 -0.28202677 -0.2797148 0.2294653 -0.19194247
-0.18293938 -0.12932199 -0.05832618 0.024316713 -0.25317368 -0.124132246 -0.14529318 0.23517942
-0.35607955 0.10265911 0.22262727 -0.029729437 0.15513691 0.059381146 0.14053401 -0.1963096
-0.03490009 0.06624769 0.09792008 -0.037110742 0.13021763 -0.24308068 -0.037148777 0.106287934
0.19585915 0.2729748 0.06459985 0.19558412 0.23284552 0.040748984 -0.23958442 -0.30403575
-0.13297138 -0.086191036 -0.2681131 -0.14560366 0.09402476 -0.20743886 0.14659478 0.04303374
0.17094982 -0.065666154 0.29360175 0.11987783 -0.033710472 -0.014974024 -0.2606871 0.19540893
0.18951185 -0.15881386 0.08447582 -0.18019916 0.17054711 -0.19340448 0.052573357 0.19221504
-0.28371584 -0.05893956 -0.15748936 0.12297523 -0.17011411 -0.18153095 0.28661785 -0.004270947
0.022644233 0.041210398 -0.030486915 0.102029994 -0.21722823 -0.09840639 -0.056403827 0.21317329
-0.022134537 0.18924215 0.18958673 -0.027286097 0.21253854 0.21413025 0.02473905 -0.18273562
-0.17186065 -0.045094665 -0.07034147 -0.1383793 0.14037825 -0.10687773 -0.2040111 0.21857244
-0.0017240056 0.2591287 0.067978725 0.054056056 0.22135273 -0.10063762 -0.15269749 -0.027340781
-0.119250655 -0.17713526 -0.049221385 -0.15404356 0.03769195 -0.26771826 0.10639631 0.047306694

encoder.layers.0.self_attn.in_proj_bias f4 [192]
00000000: 9a3e 62bd 4f65 8c3d 4ea5 113e f8c1 aa3d
00000010: a624 fa3c 7e4b 6a3d 7a0e b2bd c32c 5e3d
00000020: 9a74 fdbc f348 72bd d479 f63d f475 e43d
00000030: bc32 a83d 4f03 423d 370e 923b 628e 053e
00000040: 7f81 fb3c 17ad 043d dc3e 31bd 2224 5d3d
00000050: 484a 12bd 6130 0b3d 22fc 503c baa6 323d
00000060: 86c1 9b3c 31f1 153d a652 b439 7146 3a3d
00000070: b4a7 d1bc a0b5 5f3d d931 dcbc e09b 16bd
00000080: 4c9b 86bc c6d0 25bd b30b d4bc 5469 2d3d
00000090: 9fe8 673d 91b4 cabc eb47 3fbd 8867 e53c
000000a0: af4c a8bc e0b5 dc3d 5135 b93d ffc0 56bd
000000b0: efbb a3bd 9175 9abc e346 8bbb 4e15 76bc
000000c0: 73e4 a73c 12b6 09bd 4e77 3a3d a16f 043d
000000d0: 039e 1f3d 4395 fbba 5362 1d3d ecfb cb3c
000000e0: 12a0 a93c 70ad 903c f544 c3bc 5c8e 923c
000000f0: f2f9 203c cda9 5f3d 6542 133d 1377 1b3d
00000100: 24e3 78b5 fa7a 3036 ea9d 6336 8653 4236
00000110: 983e a434 b880 ac33 7467 8733 7ee0 bb35
00000120: f496 83b5 15b5 a9b5 41de 2936 07fb 4436
00000130: b88a e935 c31c 7535 ef8e a134 414f 2635
00000140: 7141 f6b4 30ab f1b5 c734 0136 dcb6 a4b5
00000150: 47c9 e535 780f d8b2 81c5 97b5 4890 42b5
00000160: 9cb1 4233 8101 04b5 ece0 48b5 bc43 c4b5
00000170: e4b5 9b35 748d 3eb6 30c4 a835 eca7 3cb3
00000180: 6635 28b3 53f5 8635 264a 1435 11a8 36b5
00000190: fb56 cab5 d791 2635 8a1c c835 3574 94b4
000001a0: 51ca 6e34 9347 98b5 211f c0b5 4505 3e35
000001b0: 4533 1036 8cfa dd35 a48f 3135 ebf7 a634
000001c0: dcb7 bbb4 e1f8 15b5 e0de da34 1261 1232
000001d0: eee9 b034 30cd bcb5 19d8 e034 b376 f833
000001e0: 8764 4734 78c3 0233 f87f 79b5 a601 dfb2
000001f0: b2a9 fcb4 2646 2934 aca7 2035 8c3a ad35
00000200: 38e5 0abc cd82 583c 4e73 c43b ae96 7e3c
00000210: 7c60 26bc f016 5c3b 5397 e8bb 66a4 3b3c
00000220: fa0d 393c cea6 8e3c c283 b13b 462c 32bc
00000230: 08d8 fa3b 6c3d a7bb ced5 39ba 7e62 c539
00000240: f307 a8bb 6ea0 fb3b 5812 5b3c 152e c63b
00000250: 202e 1c3c e145 2dbc 7137 3b3c 6d42 c6bb
00000260: 7ee9 4cbb 1eb7 8dbb acd8 74bc 790c 98bb
00000270: 6dc3 0dbc 733b a3bc 94e1 2d3c ccf4 f03b
00000280: 2a9e 5fbc b568 73bb c4ea e33c c619 17bc
00000290: ea1d 133c f06f c5bb db25 b13b 76ff 19bc
000002a0: 317a eebb a7dc 47bc 09cd 103c f692 00bc
000002b0: 25dd 143c e84e babb 4386 88bc a108 893c
000002c0: 3aaa e9bb f1bc 253a 6cee 863a a834 293c
000002d0: f3db 803a 68c2 f43b f197 f53b 9156 043c
000002e0: 2b76 39bc 6f12 1cbc 6b87 8a3b ac4b ca38
000002f0: 03e1 9c3c be75 c4b9 7ad2 a13b b604 463c
-0.055235483 0.068552606 0.14223215 0.08337778 0.030535053 0.0572009 -0.086941674 0.054241907
-0.030939389 -0.0591516 0.120349556 0.1115531 0.08212802 0.047366437 0.004457261 0.13042596
0.030701397 0.032391634 -0.043272838 0.053989537 -0.03571537 0.033981685 0.012755426 0.043616034
0.019013178 0.03660697 0.00034393853 0.045477334 -0.025592662 0.05461657 -0.026879238 -0.036769748
-0.016431473 -0.040482305 -0.025884485 0.042336777 0.05661833 -0.024744304 -0.046699446 0.02800347
-0.020544378 0.107768774 0.090433724 -0.05243015 -0.0799483 -0.018854888 -0.0042503937 -0.015019728
0.020494675 -0.0336209 0.045523934 0.03233302 0.03896905 -0.0019194264 0.038423847 0.0249004
0.02070621 0.017660826 -0.023836592 0.017890148 0.009825217 0.054605294 0.03595199 0.037955355
-9.271773e-07 2.6297625e-06 3.3917554e-06 2.895687e-06 3.0592923e-07 8.032788e-08 6.3052454e-08 1.3997922e-06
-9.804194e-07 -1.2644183e-06 2.5312331e-06 2.9352393e-06 1.7400225e-06 9.1311466e-07 3.0092585e-07 6.195515e-07
-4.5868686e-07 -1.8005721e-06 1.9253218e-06 -1.2272171e-06 1.7120409e-06 -2.5152744e-08 -1.1307858e-06 -7.248059e-07
4.533068e-08 -4.917602e-07 -7.483311e-07 -1.4622851e-06 1.1601337e-06 -2.8394543e-06 1.2574073e-06 -4.3924885e-08
-3.9164114e-08 1.0055177e-06 5.5242197e-07 -6.804485e-07 -1.5075487e-06 6.2052044e-07 1.4909467e-06 -2.76517e-07
2.223908e-07 -1.1345713e-06 -1.4314174e-06 7.0788184e-07 2.1487515e-06 1.6538702e-06 6.6146663e-07 3.1100294e-07
-3.496524e-07 -5.586899e-07 4.0767827e-07 8.52039e-09 3.295276e-07 -1.4066809e-06 4.1880483e-07 1.1569991e-07
1.8569891e-07 3.044576e-08 -9.294595e-07 -2.5961366e-08 -4.7062127e-07 1.5764871e-07 5.984864e-07 1.2906544e-06
-0.008477502 0.013214779 0.0059951907 0.0155388545 -0.01015484 0.0033583008 -0.0070981174 0.01145277
0.011294836 0.017413523 0.005417318 -0.010874813 0.0076551475 -0.0051037576 -0.00070890493 0.0003764815
-0.0051279007 0.007679037 0.013371073 0.006047974 0.009532481 -0.010575742 0.0114267925 -0.006050399
-0.0031267102 -0.004324808 -0.014944237 -0.0046401587 -0.00865255 -0.019925809 0.010612864 0.007353401
-0.013648549 -0.0037141268 0.027821906 -0.009222453 0.0089793 -0.006025307 0.005406124 -0.009399286
-0.00727775 -0.012198604 0.008837947 -0.007847538 0.009085928 -0.005685676 -0.016665583 0.016727747
-0.0071308883 0.0006322405 0.0010294444 0.010327496 0.0009831175 0.007469464 0.0074949195 0.00807728
-0.011319677 -0.009525879 0.004227569 9.6462056e-05 0.019150263 -0.00037471758 0.004938421 0.012086084

encoder.layers.0.self_attn.out_proj.weight f4 [64, 64]
00000000: e848 243c 879f 333d 4f94 9bbc 11b0 e0bd
00000010: c181 e5bd 112a 8cbd f27f 38bc cfad 07bc
00000020: 18df f93d bef2 bebd a75f dbbd 4806 50bd
00000030: 21bc 153c def0 de3c e547 83bd 79a2 c2bc
00000040: 6495 03bd 6b08 24bc 3bbf a33c fd07 ca3d
00000050: 118c de3c 9aa5 6fbd 0959 4abc b669 c8bc
00000060: 9c57 9bbd 8f5a 0fbd 80eb 11be d529 813d
00000070: bd35 793d 40b1 bebd 7bf9 b13d 4e8a e13d
00000080: 4f24 37bd 3107 f2bd bd09 2a3e 2006 a9bd
00000090: 0362 b1bc 1507 563d f1af 833d 08ab 8c3c
000000a0: 86e4 66bd f770 dfbd e54d e1bd 9ff2 493d
000000b0: ad4f 263d 55f6 123d a63a 2bbd b4b8 4c3d
000000c0: 9558 49bd f95c 30bc 86c3 3f3d a73c 1fbc
000000d0: 3c1c a63d bf76 cdbd 1ecf 373d f3d8 f43c
000000e0: cd42 f1bc 4264 1f3d 3d34 843d 1046 cb3d
000000f0: 5503 0cbd 3e72 883d d8a5 fe3d 8590 78bd
00000100: b1ab ce3d 80a4 0cbd e534 0ebe 25b7 c03d
00000110: cc2d c8bc d475 9e3d 8a22 333d cff9 53bc
00000120: 595b e0bc c147 b7bb 75dd 983c 46ab be3c
00000130: a3bd 843d b099 93bd 9a6a 0bbb 8af9 f83d
00000140: 1990 8dbd bac1 8cbd efaa 99bd 2233 d7bc
00000150: 64b7 58bc 667f dc3d 37df fd3b 7c39 8e3d
00000160: d844 453c ac5d 773d 2b3a 13bd 1866 f23d
00000170: bf21 0f3e 81fb 4b3d d329 afbd b3f5 e13d
00000180: 25e9 7c3d 0c4d 4dbc ce9b 983d 300a 473d
00000190: a679 12be 6912 df3d 973e c23d 2e84 9cbd
000001a0: bc35 91bb 0da9 a13d e6f6 5d3b 992a b2bd
000001b0: f322 a93d a59f b6bd 87ac 113e bd60 d9bd
000001c0: 1e23 873d 0c6c 87bd 3a62 8fbd 3605 203d
000001d0: 3f47 e1bd cf03 b2bd 28e3 1bbd f885 d6bc
000001e0: 3f93 a5bc 02ec c53d a31e f1bd 52f1 55bd
000001f0: a6cd b4bc b287 8d3d 92ba 1c3d 29d0 f5bd
00000200: aa5b d13d 777c e63c 1eea 843d 0053 413c
00000210: d17c 27bd d8d9 c4bd 72dd 9ebc 6a69 0e3d
00000220: 14e9 e8bd 5a09 9dbb 6ad5 403d 91a1 d43c
00000230: 3ebf 553d 5f6a 933c bcb2 89bd 7176 3a3d
00000240: a494 873d 237c ea3d 1196 71bd 207a 37bd
00000250: 14bf f23a cd1a 87bd 6f91 b3bb e4b6 85bd
00000260: d9b9 8fbd 8a36 a8bd 969b 163d 32ff d03d
00000270: 3bc3 67bd 26ec 453d cdb5 db3d 603e 12bd
00000280: d2f6 27bc 6648 6fbd d868 bfbc f942 fbbd
00000290: 8dc7 2fbd c3a1 49bc 0486 e33d 3db9 163c
000002a0: b2e7 0fbd 96c1 4ebc 8a2c ed3d 4ca6 f8bd
000002b0: a19c f23c e4f1 6d3d 43d7 91bd a78d 3cbd
000002c0: f8af babd fb71 da3d 83a6 cc3d 96b4 40bc
000002d0: 2b50 e3bd 138d fd3c 1254 c2bd 5811 41bc
000002e0: 792e 91bd 607e 953d 2aea ec3d 9e9e 59bd
000002f0: 0e80 f03d dc77 053e e3bb cfbd a601 69bd
00000300: c2c2 c93d 30fe d93b 9c06 523b 1767 9f3d
00000310: aebd b1bd 5c54 ed3b 148a cfbd 79dc b8bb
00000320: 4bd0 d23c 235b d83b 529c 893d 4772 d63d
00000330: e247 d63d ac25 0d3e ceba 17bd b064 c2bd
00000340: aed0 a8bd 60cf b43b 4e8d 643d 352d 0c3d
00000350: aaa9 553c a1bd 01bd 80e2 07be 71ee 80bc
00000360: 5c59 01be 4d06 053d 2159 91bd 0e18 94bd
00000370: 56ce eb3b 0f6a a8bc 5927 89bd ed28 3bbc
00000380: fba1 d3bd c872 fdbd b8f7 943d ca39 11bd
00000390: 537d 7cbd 7927 2d3d 7858 e5bc c8f1 e03c
000003a0: b13d aebd a279 c6bd ccd2 9f3d 856d 20bd
000003b0: fabb ee3c 5416 b2bd 9297 4bbd 5d5f 80bd
000003c0: 40bf 353c a8d4 983d 3855 75bd 1d1f 24be
000003d0: b5c2 60bd c292 e3bd 7602 0d3e 0cb4 71bc
000003e0: f4ca 583d 9e73 0f3a 00a5 a8bd dbdd 983d
000003f0: 7352 be3d 4593 0b3e 92b9 b83d dcd3 8c3c
0.010027148 0.04385331 -0.018991617 -0.10971082 -0.11206389 -0.06843961 -0.011260973 -0.008281185
0.12200755 -0.09323643 -0.107116036 -0.05078724 0.009139092 0.027214464 -0.06410197 -0.023759114
-0.032124892 -0.010011773 0.019988647 0.09864805 0.027166398 -0.05850754 -0.012350329 -0.02446447
-0.075850695 -0.034998473 -0.14249992 0.06306807 0.060842264 -0.093111515 0.08690163 0.11012708
-0.04471236 -0.11817778 0.16605277 -0.082531214 -0.021653181 0.052252848 0.064300425 0.017171398
-0.05637028 -0.10910218 -0.11001185 0.049303647 0.04060333 0.03587945 -0.04180398 0.049980834
-0.049156744 -0.010764354 0.046817325 -0.0097190505 0.08110854 -0.10032415 0.044875257 0.029888606
-0.029450798 0.038913973 0.06455276 0.09925473 -0.034182865 0.06662415 0.12433976 -0.0606847
0.10091341 -0.034336567 -0.13887365 0.09409932 -0.0244359 0.07737318 0.04373411 -0.012937977
-0.027387308 -0.0055932705 0.018660286 0.023275029 0.06481483 -0.07207048 -0.0021273256 0.12156971
-0.0691225 -0.06872888 -0.07503306 -0.0262695 -0.0132273175 0.10766487 0.0077475565 0.06944558
0.012040339 0.060392067 -0.035944145 0.11835879 0.13977717 0.0498004 -0.08552899 0.110331915
0.06174578 -0.012530576 0.074515924 0.0485937 -0.14304218 0.10892183 0.09484594 -0.07642399
-0.0044314545 0.07893572 0.0033869087 -0.08699531 0.08258619 -0.089171685 0.1422597 -0.106141545
0.06598495 -0.06612405 -0.07001157 0.03906747 -0.10999917 -0.08692133 -0.03805843 -0.026186928
-0.020211814 0.096641555 -0.117734216 -0.052232094 -0.022070717 0.069106475 0.038263865 -0.12002594
0.10222562 0.028135521 0.06489967 0.011799574 -0.04089052 -0.09611863 -0.019392703 0.0347685
-0.11372581 -0.0047923746 0.047078528 0.025955947 0.052184336 0.017995058 -0.06723544 0.04552311
0.06620148 0.114494585 -0.058981005 -0.0447942 0.001852008 -0.06596909 -0.0054799835 -0.06529024
-0.070178695 -0.082135275 0.036769472 0.10204925 -0.05658267 0.04832091 0.10728035 -0.035704017
-0.010251718 -0.058418654 -0.023365423 -0.122686334 -0.042914916 -0.012306633 0.11109546 0.009199438
-0.03513307 -0.012619397 0.11580761 -0.121410936 0.029615702 0.058092013 -0.07121136 -0.046033528
-0.091155946 0.10666271 0.09992697 -0.011761805 -0.11099275 0.030951058 -0.094886914 -0.01178392
-0.07088942 0.07299495 0.11568101 -0.053129785 0.117431745 0.13034004 -0.101432584 -0.056886338
0.098516 0.006652616 0.0032047397 0.07783335 -0.08678757 0.0072427224 -0.10133758 -0.0056415168
0.025734087 0.006602661 0.06719269 0.104710154 0.10462929 0.13783902 -0.037043385 -0.09491861
-0.082429275 0.005517885 0.05579882 0.0342228 0.013040939 -0.031674985 -0.13269997 -0.015738698
-0.12631744 0.032476712 -0.07097078 -0.072311506 0.007196228 -0.020558385 -0.06696958 -0.011423332
-0.1033363 -0.123754084 0.07273811 -0.035455503 -0.061642956 0.042273972 -0.027996287 0.02745904
-0.085078605 -0.09691168 0.07803878 -0.039166946 0.029142369 -0.08695665 -0.049705096 -0.06268189
0.011092961 0.07462436 -0.059895724 -0.16027494 -0.054873187 -0.11111976 0.1377047 -0.014752399
0.052927926 0.00054722454 -0.08234596 0.074641906 0.0929307 0.13630398 0.0901977 0.017190866

encoder.layers.0.self_attn.out_proj.bias f4 [64]
00000000: a30b 673c 2b60 6fbc 2b2c cd3a ec5b 0e3c
00000010: f350 92bc 7635 aabb 950d 53bc 26ae 003c
00000020: d62d 3bbc bca5 ba3b b5c6 febb e686 03bc
00000030: b293 a23b c9bb 81bb b423 65bb ac3b e9bb
00000040: 6152 3f3c f34a bebb 2075 c23b 1083 423c
00000050: 0fde 273c 0312 2a3b 8338 af3c bb52 4bbc
00000060: 4bce d4bb 1a76 04bc 62e2 01bc 8c4d 353c
00000070: 54b7 163c 4471 1cbc ca13 21bb 422d 01bb
00000080: 7bd8 ffbb 84cd 123b c871 0c3c 8a49 2bbc
00000090: 3da9 203c a563 113b d25e 13bb c1d0 8b3a
000000a0: aef4 53ba b7d0 e63b a86b 2a3c 8d0c 863b
000000b0: e64c c73b d069 71bc fbe7 103c 5700 35bc
000000c0: e8a4 9d3a e4e7 f73b 9eb6 01bc a399 ecbb
000000d0: c526 843c 7a0e 2f3c 7d32 83bc c962 8ebb
000000e0: 8600 283b 17be 253c 1ae8 dd3a afd0 f039
000000f0: 5602 373c 39b2 ffbb 2e8d 213c a280 33ba
0.0141018955 -0.014610331 0.0015653422 0.008688908 -0.017860865 -0.0051943613 -0.012881656 0.00785402
-0.011424502 0.0056960266 -0.0077751526 -0.008027768 0.0049614543 -0.0039591533 -0.0034963908 -0.007117709
0.0116773555 -0.0058072745 0.0059343725 0.011872068 0.010245814 0.0025950677 0.021389252 -0.012409861
-0.0064943186 -0.008084798 -0.007927509 0.011065852 0.009198982 -0.009548489 -0.0024578446 -0.0019710814
-0.007807789 0.002240033 0.008572049 -0.010454545 0.009805975 0.0022184637 -0.0022486937 0.0010667072
-0.00080854713 0.0070439237 0.010401644 0.0040908516 0.006082165 -0.0147347 0.008844371 -0.011047444
0.0012027295 0.0075654853 -0.0079170745 -0.0072204634 0.016131768 0.010684604 -0.016015286 -0.004345272
0.0025635078 0.010116122 0.0016930134 0.0004593185 0.0111699905 -0.007803228 0.00986032 -0.0006847476

encoder.layers.0.linear1.weight f4 [256, 64]
00000000: edea ec3d b317 953c e2d8 72bd 24de 0c3c
00000010: 9c70 d9bd 0b8c 333d d22a 1abc f8b1 9e3d
00000020: 1bd8 99bd 0d6a 313d 2092 3abd 03b6 cebd
00000030: 80e6 cd3d 66c4 bebd cab1 66bc ddec a2bd
00000040: 6b5e d23d f8b1 9c3c 67a0 223d bfc6 dfbc
00000050: 358f dd3c 29a4 7c3c 813a 873d eb1d fe3d
00000060: 2390 d13d 1c13 d63d ab74 a33d 537d b33d
00000070: a7dd 67bd 4d6b b2bd 02d9 69bd af78 56bb
00000080: a576 70bd b843 cbbd cd6d c83b ec55 a0bd
00000090: 7652 b63d 68a0 e9bd 3073 febd 715c cc3b
000000a0: 680d 5d3d 969c 66bd 8d46 983d 7d7a e7bd
000000b0: a13b dabd 5dd0 a03d 022e 8d3d 1ecd 8c3d
000000c0: ec58 e63d c53c e6bd 195f efbd ef28 26bd
000000d0: 40e6 863d e304 dcbd 0dff 073e bca5 883c
000000e0: df35 923d 50b9 833d e013 b4bd 99b0 2a3b
000000f0: a408 8e3d 772c 7dbd bd6f 0dbe 0abe aabd
00000100: 7606 123d 7ca5 f2bc 2875 1d3d 4801 8a3c
00000110: 16bc 37bc 9126 143c 2ff0 acbd 3563 71bd
00000120: c14a 583d 3fd4 8fbd f31f c1bc f1c6 9c3d
00000130: 510d 67bd 540f 5b3d 6c3a eb3c aff8 babc
00000140: 8e28 373e 8d77 88bd faf1 10be e73c 553b
00000150: dc9e b03d e1e8 f8bd 5680 69bd 9a63 8e3d
00000160: 9749 09be 28d6 773d 7f2b 9c3c cffe 67bc
00000170: dc78 37bd 1074 003c 8ecc 6dbd 7acd d8bd
00000180: 85db 6bbd dfce 653d 7d86 343c cea5 d73d
00000190: 8a43 c7bd 9adf b23d 6173 593d c62f 2a3d
000001a0: 6c22 d6bd 5fc7 f0bc 08d9 fe3d e293 ed3d
000001b0: 5993 cfbd 0e85 8b3d 962f b8bd 0d9e 14be
000001c0: 1516 d7bc 272f 8a3d b298 2e3d 0e34 b83d
000001d0: 7d02 debd baa7 d9bd 64a6 2ebd ce2c e63d
000001e0: 8c16 353e c225 e03d 0bb6 79bd e2e0 803c
000001f0: 14d7 c23c 07fd e6bd fd97 cabd 53f0 97bd
00000200: 952c 03be 8b87 c4bb c9ed 393d f326 84bd
00000210: 4536 4fbd a1ba 6a3d 52f2 803d c71d 09be
00000220: 79d3 0bbd df1c 023e 2914 ea3d e4d5 51bd
00000230: c116 bdbd 4361 f83d 3da7 cbbc b31f aebd
00000240: 1704 143c 9c36 27bd b4b2 aebd b239 abbd
00000250: 9b27 bf3d 7d7e 09bd 7ab0 983d 2c85 9ebd
00000260: 7ad0 fb3d f67f dfbd 41a5 a3bd de73 323d
00000270: 2be7 483b 815e 6e3d c20c ad3c 8075 b53d
00000280: 94d9 a03d 0e75 fbbc f3c8 7a3c 4315 83bd
00000290: e12d 8cbd 9cc6 a2ba ef21 973d a32d 7bbd
000002a0: 62bc e7bd 2d25 203d bd1a 023d eb9f 29bd
000002b0: 6dee d23d 7dc6 26bc 4252 0cba 8713 8ebc
000002c0: 46d5 ef3c da67 bbbd 53d0 8d3d 0066 b1bd
000002d0: 7c07 a03d 9664 d23d ffac ea3d bbca b9bb
000002e0: 888e e0bc 4858 ea3c cf66 a5bd c9ed 8fbd
000002f0: 04b5 813d 5323 4a3d 3395 cf3d a495 c2bd
00000300: 9f67 b43d 66eb 473d 7f85 113d 0c5d 8d39
00000310: 0800 a93d 8f25 4f3d d1d9 993c 4efe 013d
00000320: 0c9c a0bd e97b 373c 23ec 993d fb0e 573d
00000330: c950 22bd 6527 a3bd c589 8a3c 199a 58bd
00000340: cc73 ef3b 5813 963c ce26 05bb 9f14 163d
00000350: c773 ce3c 272f 053d d83c 92bd bcf1 8c3d
00000360: 30d9 0d3e dba1 7dbd 0f04 9fbd d9a1 b9bd
00000370: 5905 463d 9802 99bc a89d c4bd 8022 e8bd
00000380: 1f2c ba3d 4593 bdbd 9dfd 063d 2c92 b03c
00000390: 0006 363d 1ec7 b7bd 9263 bb3d a4b2 d7bd
000003a0: 094c 92bd 9c19 a9bd 879e 76bd 5de5 8a3c
000003b0: 41e5 86bd cee4 e73d 423a c7bc af00 81bd
000003c0: c56c 663d 06f4 72bd 5ba2 a33d 3166 1a3d
000003d0: 7042 943d 8bbd f03d 7fc2 cbbd 6c6a c9bd
000003e0: fa63 163d 7bec fd3c e6fc 30bd 2623 82bd
000003f0: 88fe 2f3d 676e 9f3c 62cf 56bd f9a0 e4bb
0.11568246 0.018199777 -0.059288867 0.008597884 -0.10617182 0.043834727 -0.009409623 0.077487886
-0.07511922 0.04331403 -0.045549512 -0.1009331 0.1005373 -0.09314804 -0.014080474 -0.07955334
0.10271915 0.01912783 0.039703753 -0.02731645 0.027045825 0.015419998 0.066029556 0.1240805
0.1023257 0.104528636 0.07981237 0.08764138 -0.05660787 -0.08711872 -0.05709172 -0.0032725742
-0.0587069 -0.09925026 0.006116605 -0.07828888 0.08902447 -0.11407548 -0.12424314 0.006236606
0.053967863 -0.056301676 0.074353315 -0.1130266 -0.106559046 0.07852242 0.06893541 0.068750605
0.11247429 -0.112420596 -0.1168806 -0.04056638 0.065868855 -0.107431196 0.13280888 0.01668059
0.07139181 0.0643183 -0.08792853 0.0026045202 0.06935242 -0.061809983 -0.13812156 -0.08337028
0.035650693 -0.029619925 0.038441807 0.016846314 -0.011214277 0.009042398 -0.08444249 -0.0589325
0.052805666 -0.070229046 -0.023574805 0.076551326 -0.056409184 0.053481415 0.028714381 -0.02282366
0.17886564 -0.066634275 -0.14154807 0.0032537521 0.0862405 -0.12153793 -0.057007156 0.06952591
-0.13406979 0.06050697 0.01906371 -0.014159872 -0.044792995 0.007840171 -0.058056407 -0.105860665
-0.057582397 0.05610549 0.011018393 0.105296716 -0.09729679 0.08734055 0.05308855 0.041549467
-0.10455784 -0.029391943 0.12443739 0.11600472 -0.10135526 0.068124875 -0.08993451 -0.14513417
-0.026255647 0.06747275 0.04262609 0.08994304 -0.10840318 -0.106276944 -0.04263915 0.112390146
0.17684382 0.10944702 -0.060964625 0.015732232 0.023784198 -0.1127873 -0.09892271 -0.07418885
-0.12809975 -0.0059976033 0.045392785 -0.064527415 -0.050588865 0.05730689 0.06296219 -0.13390265
-0.034137223 0.12706326 0.114296265 -0.051229373 -0.092328556 0.12127926 -0.024860019 -0.0850214
0.009034178 -0.040823564 -0.08530179 -0.08360614 0.09333726 -0.033567894 0.07455535 -0.07740244
0.12295623 -0.109130785 -0.07990504 0.04356753 0.0030655365 0.058195595 0.021124247 0.08860302
0.07854 -0.030695464 0.015306699 -0.0640054 -0.06844688 -0.0012418809 0.07379519 -0.06132282
-0.11315228 0.039097954 0.03176378 -0.041412275 0.10299382 -0.010179159 -0.00053528335 -0.017343296
0.029276501 -0.091506675 0.069245 -0.08662033 0.078139275 0.102730915 0.11458778 -0.0056699193
-0.027411714 0.028606549 -0.0807625 -0.07027776 0.06333354 0.049350094 0.10135879 -0.09501198
0.08808827 0.048808478 0.035527702 0.0002696294 0.08251959 0.050572928 0.01878062 0.031736664
-0.078422636 0.011198976 0.07515743 0.05250452 -0.039627824 -0.07966498 0.016911397 -0.052881334
0.0073075052 0.01831977 -0.002031732 0.03664076 0.025201691 0.03251567 -0.07140511 0.06882045
0.13852382 -0.061921936 -0.07764446 -0.09064073 0.048344944 -0.018677995 -0.09600383 -0.11334705
0.09090447 -0.09256605 0.03295671 0.021554075 0.044439316 -0.089735255 0.09149851 -0.1053212
-0.07143409 -0.08256838 -0.060209777 0.016955072 -0.065866955 0.11322938 -0.024319772 -0.062989585
0.056256074 -0.05931475 0.07989951 0.037695114 0.072392344 0.117549025 -0.099492066 -0.098347515
0.03671644 0.030996552 -0.043209933 -0.0635436 0.04296735 0.019461824 -0.05244387 -0.0069771972

encoder.layers.0.linear1.bias f4 [256]
00000000: a814 833d 519e 91bc bc8c aabd 57c7 2fbb
00000010: d9be 9fbd 0b70 8dbd f8ae bb3d c9e3 123e
00000020: 69b8 093d b1ff 8a3d d880 b03d ee5f 153b
00000030: 1a89 bebd 1748 3bbd 542b 933d 9e8e e13c
00000040: 7df5 f83d 1dc0 e4bd 6977 f13d e305 6fbd
00000050: bd6b fdbc ea09 07be 2f18 e13d 2bd6 133d
00000060: 69a1 79bd 5280 45bd 2d77 9ebc b4f7 623a
00000070: 787b c9bd 907f 7cbd cc5f 87bd 574d b03d
00000080: bbc8 093d 11bd 8cbc 5d58 b53c 4656 f9bd
00000090: d6b5 9f3d a34e 43bc eadd 923d e6c0 013d
000000a0: 3eae 923c d339 ffbc 53e8 a93d adc5 aebd
000000b0: 6e7d debd 7e24 99bd 8fde ec3c 0c8c 54bd
000000c0: 3d77 afbd b23f e6bd 056d 673c 937e ff3c
000000d0: 3fa9 c9bc 605a d0bd 4281 8eba a001 853d
000000e0: cb6e a5bd 6677 223d f670 ca3d b5ac c53d
000000f0: 1215 563d 5df0 cebd 9215 59bb ba04 323d
00000100: ca2a c9bd bcaf 8dba 29c6 d83d c334 f93d
00000110: 7c7b c1bd a6ed ea3d f8f1 dfbc ee8b 22bd
00000120: b62c 23bd 8dcf 933c eb18 653d 7ee5 35bd
00000130: 571f 583d 8450 76bb 5fe9 953d 1327 93bd
00000140: 9bff d9bb b951 0cbd 8d4d eb3d 6559 ecbd
00000150: 8eb9 69bd b287 453d 77f3 7fbd 8b3d 423d
00000160: 9020 cbbd 8785 943d 200f 1bbd 327d e0bd
00000170: 761e 813c 2c55 b53c b3bc 8f3d 6f7d 8ebd
00000180: 5fb2 233d 5189 18bd 6ebb 8bbd 2773 ffbb
00000190: b046 99bd 871f e4bd c1a1 a9bd 0d8f 8c3d
000001a0: fc7c b53d 4dd9 b93d 7d66 c2bd 2247 183d
000001b0: b9a1 b33d b6e1 55bd f397 c3bd bb56 3cbc
000001c0: bdb1 ec3d db21 a23c e68c 063d 185e 9fbd
000001d0: c2b2 bb39 7464 11bb 612b 08bd 0fac 8d3d
000001e0: 0ad1 9abd 96d5 d33d 0606 a73d 20fa 23bd
000001f0: 7d26 7f3d 4199 c43d 9233 983d 28e1 1cbc
00000200: 141d 793d 1b8d a83c ecb9 333d ea70 4f3d
00000210: 8c3b f03c 7836 823d 6746 e6bd ddcb f6bc
00000220: a88b dabd 9fbb 6abc 639b 003e 231c f13d
00000230: 21c0 81bd 00ec 303d eac7 20bd d874 c3bd
00000240: c678 083d 1751 09bd d156 e23d b4c7 92bd
00000250: 5e51 10bd 9e75 e0bc 667c acbd af2b 853d
00000260: e09b 953b cf9f a83d 9f5b 9f3c 28b1 c23d
00000270: 4b99 bb3d 82f3 913d 933e e13d 1d9d 433d
00000280: 886b 9d3d 27cb ad3d 39bb 5fbd 78e8 6d3d
00000290: 00f5 a83d 92ad 6a3d 95ba 7abd 0624 fc3b
000002a0: 1ac0 1a3c 63b2 62bd f5a9 273e 563a 023e
000002b0: ae2a 05bd 9e26 d7bd ecdb e63d 0c6c 52bd
000002c0: b18d a5bd f3ce e4bd 97a6 f53d d01f 9ebd
000002d0: b6c5 90bb eac8 ff3d 2799 8abd 743c 443c
000002e0: 7531 953d f27a bfbc 75ee b7bc a489 863d
000002f0: cb7d 833d 9700 88bc 56a9 3d3d 53e8 233d
00000300: e8f3 adbd fca8 053c 72ee a03a 88a6 bc3d
00000310: 1736 d73d 39d1 d43d 19a8 ebbd fce6 0abd
00000320: 71f1 d43d 4ecb e4bd 32a0 693c dbf0 9fbd
00000330: 3b88 92bd 7014 f1bc 4af9 0e3e 471d d9bd
00000340: ca09 993d 8a75 503c e01c 22bd a07e c0ba
00000350: f8c5 003e 861c 853d b807 283d 173e d93c
00000360: 2336 fe3b 22e9 b13c 43b2 e2bd 2faf a6bd
00000370: c1f9 083e 61f4 74bc 7c4f f5bd 62b8 cb3c
00000380: 312e 03bb b4af cfbd e227 e33d 64c0 6739
00000390: 2587 a43d 27af e6bc b3e2 b3bc aa00 db3d
000003a0: 3113 aebc 5a2c dd3d 3de1 eabd 0cec 083b
000003b0: 67f3 0139 9857 d93d 5d5f 8dbd 2655 9f3d
000003c0: 5727 df3c 02bd 6dbd 935a 99bc e1d8 223d
000003d0: 3c68 743d 3716 03be 3740 91bc 94c3 ae3d
000003e0: ff7d f63d a447 c03d 279b cd3b def1 5b3d
000003f0: acc1 803d 0c8d 3f3d d2e9 ff3d 14f0 5a3c
0.06400424 -0.017775686 -0.08327624 -0.0026821697 -0.07800073 -0.06906136 0.09164232 0.14344706
0.033623133 0.067870505 0.08618325 0.0022792774 -0.09303494 -0.045723047 0.071859986 0.027533825
0.12156198 -0.11169455 0.11790354 -0.058355223 -0.030935163 -0.13187376 0.10990941 0.03609292
-0.06094495 -0.04821808 -0.019343937 0.00086581265 -0.09838003 -0.06164509 -0.06610069 0.086085014
0.033638697 -0.017179998 0.022136861 -0.121746585 0.07798354 -0.011920604 0.07171233 0.031678103
0.01790535 -0.031155502 0.082962655 -0.085337974 -0.108637676 -0.074776635 0.028914718 -0.05189137
-0.08567665 -0.11242618 0.014125113 0.031188285 -0.024616836 -0.10173488 -0.0010872262 0.064944506
-0.08077773 0.03966465 0.09884827 0.09652082 0.052266188 -0.101044394 -0.003312443 0.04346154
-0.098226145 -0.0010809819 0.10584671 0.121682666 -0.09447381 0.11471109 -0.02733706 -0.03968423
-0.03983756 0.018043304 0.055931967 -0.044408314 0.052764263 -0.0037584612 0.07319903 -0.07185187
-0.006652785 -0.034257624 0.11489401 -0.11540488 -0.057061724 0.048225112 -0.062488046 0.047421973
-0.0991832 0.07252031 -0.03785622 -0.10961379 0.015761595 0.02213534 0.070184134 -0.06957518
0.03996503 -0.03724033 -0.06822859 -0.0077957097 -0.07484186 -0.11138826 -0.08282805 0.06863222
0.088617295 0.0907465 -0.09492204 0.037177213 0.087710805 -0.052217208 -0.095504664 -0.0114952875
0.115573384 0.019791534 0.032849215 -0.07781619 0.00035800604 -0.002218512 -0.033244494 0.06917583
-0.07559402 0.10343473 0.08155446 -0.04003346 0.062292565 0.09599543 0.07431711 -0.009575166
0.060818747 0.020575097 0.04387848 0.050644793 0.02932527 0.06358045 -0.11243897 -0.030126506
-0.106711686 -0.014326959 0.12559275 0.11772945 -0.06335474 0.043193817 -0.039253153 -0.095437706
0.033318304 -0.0335246 0.11051715 -0.071669966 -0.035233848 -0.027399834 -0.084221646 0.065024726
0.004565701 0.08233606 0.019452868 0.09506446 0.09160098 0.071265236 0.10998263 0.047757257
0.076865256 0.08486014 -0.05462191 0.058083028 0.08249855 0.057294436 -0.061213095 0.007694724
0.009445215 -0.055345904 0.16373427 0.12717566 -0.032511406 -0.105054125 0.112724155 -0.051372573
-0.08083666 -0.11172285 0.11994665 -0.077209115 -0.0044181 0.12489493 -0.06767493 0.011977304
0.07284824 -0.023374055 -0.022452572 0.065692216 0.064204775 -0.016601844 0.04630407 0.040016484
-0.08493787 0.008157965 0.0012278093 0.09211451 0.10508364 0.103914686 -0.115066715 -0.03391169
0.10397614 -0.1117159 0.014259385 -0.078096114 -0.0715489 -0.02942869 0.13962284 -0.10601287
0.0747257 0.012723336 -0.03957832 -0.0014686175 0.12575519 0.06499581 0.041022986 0.026518865
0.0077579184 0.021717612 -0.11069157 -0.08138882 0.13376524 -0.014950843 -0.11978051 0.024868194
-0.0020016546 -0.101409346 0.110915914 0.00022101548 0.08033589 -0.028159691 -0.021958685 0.10693486
-0.021249386 0.10799475 -0.11468742 0.0020892648 0.00012393073 0.1061241 -0.06902955 0.07779913
0.027240438 -0.05804158 -0.018719947 0.039757613 0.05966972 -0.12801443 -0.017730815 0.08533397
0.120357506 0.09388664 0.006274599 0.05369746 0.0628694 0.046765372 0.124957696 0.013362903

encoder.layers.0.linear2.weight f4 [64, 256]
00000000: c12e 7c3b 91c1 2d3d ab78 3dbd 78fe 28bd
00000010: 2d05 8fbc 5490 0fbc bba7 59bb 5fc4 8abd
00000020: 95ea b1bc 1e87 0abd 483e 763d ce56 f33c
00000030: 850f 31bb d02c 0ebd 60dc 9c3d 9aca 933d
00000040: f323 933d 2a1e 48bd 08c8 193d 0214 6abd
00000050: 25c5 b4bd 2b19 a83c b266 15bc 8808 0c3d
00000060: 2c03 093d fcbc 813d 611b 413d b1d3 543d
00000070: 9b90 6ebd e24d 803c a73c 7ebd 51dd 1dbd
00000080: a352 373d 7063 8f3b 2c3d 0e3c 3454 283d
00000090: 48b2 ba3b 3c3c 123d e05f e5bc 020e 41bc
000000a0: 3329 ed3b 3000 95bb 61bf 953c 8c18 d8bc
000000b0: d92c 843c dd13 2a3c b1d2 a23c ed01 053d
000000c0: d97d b5bb 5a45 19bd 2bae 25bc d9d0 d6bc
000000d0: 8385 d3bc e115 343c 191b 563d e53c ab3a
000000e0: 5e9b 58bc 52cd aabb ffb6 0a3d 4f05 b03d
000000f0: 07a7 98bc e8a3 1d3d aa37 973d 0c0a 17bd
00000100: 4cab 393d 96ed 0e3c 4eec 23bc 6201 da3a
00000110: 91fa 3f3d 846b 803c cfaf 9e3c 1bf0 503d
00000120: 3ac0 273d 7048 00bd 1805 a53b 552b 18bd
00000130: 9a8d debb 984e 7ebc fa06 0b3d 6589 033b
00000140: 0334 013d 718f 48bd 9661 8b3d 7874 6f3c
00000150: 5501 8b3d 0dfb 90bc a1f9 7a3d 224d ffbc
00000160: 9a0b 623d f728 253d c89a 21b8 95e1 293d
00000170: 997c 92bd 651e 9bbd b954 bfbb b32d e73c
00000180: 12e8 653d 6792 e7bb 679a 17bc 4cc0 813d
00000190: a054 1b3d f155 813d 6eb4 813d 59cd fe3c
000001a0: 017e 783b 9317 17bd 5fa4 933d 0b71 2ebd
000001b0: 4271 9d3b b333 ba3c cd33 9a3d fbf5 8f3c
000001c0: b7f6 8d3c f0c2 763d 6ee3 d9bc dbcd e9bc
000001d0: 6534 323d 69cc 463d 4d4f 7abd 4fcd 253d
000001e0: b19f 913d 3f96 213d 7553 97bb 7cfd 543d
000001f0: 8a72 223d 3f1f 873d bd11 d3bc 07ec 553d
00000200: 6a45 e33c 42c3 f13c bcf9 453c 91ec b43b
00000210: cceb 133d 25da 443d a405 a4bd 80bf 79bc
00000220: 15e1 bcbc 7a00 9c3d 70c6 9f3c 10c3 493c
00000230: 3da8 1a3d 94f3 353d 507a 133b 7f83 913c
00000240: 6da4 a13d 5113 37bd 2adc 453d 97d9 d03c
00000250: c18f a13c 42ee 6dbd 4bfd 813d 2f28 623d
00000260: bd36 abbc c89e b23b 0a72 a5bc 8659 933d
00000270: aa2c f93c 35bb 3d3d 36de b03c 0f41 863d
00000280: f77e e4bc 12f8 683b b245 063d 742e 783d
00000290: e99a 4d3c 27c5 25bd 9cb8 af3c 30c4 58bc
000002a0: f006 1cbc fde0 703d 6be9 de3c b8c8 243b
000002b0: 0f58 5e3a 0c39 ffbc 95ff e63c c0ba 6c3d
000002c0: f1b4 8e3d 70d1 f0bc 43fd 963d 8512 bf3b
000002d0: 605e 18bc 64f3 973d 63ce f33c 8968 143d
000002e0: 47d4 48bd 266a 373c 2ae6 25bd 269c 513d
000002f0: 856f 123d 11e5 813d eb16 c23c 4e87 51bd
00000300: 4bfe 653d 9921 6ebd ceb2 453d faec 14bb
00000310: a78c 30bd fece d03c 6874 34bd 56a1 a7bd
00000320: 681b da39 123d 25bd 6753 1bbd 0884 c63c
00000330: ff6b f23c 20cc 5c3d 4642 1c3d 0809 a23b
00000340: 9079 40bc 446e 08bd 46c1 773c 4992 4ebd
00000350: c6a9 0d3c fdc9 2e3c 788a 023d 60f2 9d3c
00000360: 4d47 933c 1c36 983d 13b6 1a3d cb08 a4bc
00000370: bd93 473d af73 00bd 58d0 ba3c b6c7 fe3b
00000380: b9e8 c3bc f0ca 8d3c e4c8 3ebb 6f1f 23bc
00000390: 13a6 40bc 92c3 713c 82bd 23bd dc72 603d
000003a0: d315 63bd 787d d43c 7a0b a4bc ff83 41b9
000003b0: d7c0 8a3d 5181 06bd 478a 833a 9991 e9bb
000003c0: 7a06 3e3d 82ac 9abc 65bd 573d 060a b0bc
000003d0: 1748 44bc 93c6 113d 7d4e 2f3d 05bd 643d
000003e0: 2fa4 de3b 5f2f 1dbd 7713 833d 9c1e 4b3d
000003f0: 6d9d 623d 5391 1f3d 7139 a53c e02b e1bb
0.0038480016 0.042420927 -0.046257656 -0.041258305 -0.017458523 -0.008762438 -0.0033211547 -0.06775736
-0.021718303 -0.033820264 0.06011799 0.029704478 -0.0027017307 -0.034710705 0.07659221 0.072163776
0.07184591 -0.04885689 0.03754428 -0.057147987 -0.08826665 0.020519814 -0.009118723 0.034187824
0.03345029 0.06334874 0.04714525 0.051959697 -0.058243375 0.015662137 -0.06206956 -0.038541142
0.044756543 0.0043758675 0.008681577 0.041095927 0.0056975223 0.035701975 -0.027999818 -0.011783125
0.0072375773 -0.0045471415 0.018279733 -0.026378892 0.016134666 0.010380712 0.019875856 0.03247254
-0.005538684 -0.037419654 -0.010112326 -0.026222633 -0.0258205 0.010991544 0.052271936 0.0013064413
-0.013220636 -0.0052124644 0.033865925 0.085947625 -0.018634332 0.03848639 0.07383664 -0.036874816
0.045329377 0.008723637 -0.01000507 0.0016632492 0.046869818 0.015676267 0.019370941 0.051010232
0.040954806 -0.03131908 0.0050360076 -0.0371507 -0.0067917826 -0.015521668 0.0339422 0.0020070907
0.031543743 -0.04896492 0.068057224 0.014615171 0.067873634 -0.017697835 0.06127322 -0.03116471
0.055186845 0.04032227 -3.8529543e-05 0.041474897 -0.07152671 -0.07574157 -0.005838957 0.028220033
0.056129523 -0.007067013 -0.009253121 0.06335506 0.0379225 0.0631522 0.06333242 0.031103777
0.00379169 -0.036887717 0.07209086 -0.042588275 0.004804761 0.02272973 0.075294115 0.017573347
0.017329557 0.0602445 -0.026597705 -0.028540542 0.043507 0.048534784 -0.061110783 0.040479
0.07110537 0.039449926 -0.004618103 0.051999554 0.039660014 0.065977566 -0.025765294 0.052227046
0.02774306 0.029512051 0.012083467 0.005521365 0.036113545 0.0480596 -0.08008888 -0.015243411
-0.023056546 0.076172784 0.019503802 0.012314573 0.0377581 0.044421747 0.0022503324 0.017762898
0.0789269 -0.044696156 0.048305668 0.02549438 0.019721868 -0.05808855 0.0634714 0.055214103
-0.020900125 0.005451057 -0.02019598 0.071948096 0.030416805 0.046321113 0.021590333 0.06555378
-0.027892573 0.0035548252 0.03278131 0.060591176 0.0125491405 -0.040471222 0.021450333 -0.0132303685
-0.009523138 0.058808316 0.027210912 0.0025144052 0.00084817497 -0.031155132 0.028198043 0.057795286
0.069681056 -0.029396743 0.073725246 0.005831065 -0.0092998445 0.0741947 0.029761499 0.036232505
-0.04903057 0.011194741 -0.040502705 0.051174305 0.035750885 0.06342519 0.023692569 -0.051154427
0.056150716 -0.05813751 0.048266225 -0.0022724257 -0.043102887 0.025489327 -0.044056326 -0.08185069
0.0004160062 -0.040341444 -0.037921336 0.02423288 0.029592512 0.053905606 0.03814914 0.0049449243
-0.011747733 -0.033308282 0.015121764 -0.050432477 0.008646434 0.010668275 0.031870335 0.019280612
0.017978335 0.074321955 0.037771296 -0.020023724 0.04872488 -0.031360324 0.022804424 0.0077752722
-0.023914682 0.017308682 -0.002911144 -0.009956225 -0.011758345 0.0147561 -0.03997565 0.05479704
-0.055440735 0.025938734 -0.020025004 -0.00018455087 0.067750625 -0.03283817 0.0010035717 -0.0071279523
0.046392895 -0.018881086 0.052670855 -0.021489155 -0.011980078 0.035589766 0.04279946 0.055844326
0.0067944746 -0.038375255 0.06400197 0.04958974 0.055325914 0.03895695 0.020168992 -0.0068716854

encoder.layers.0.linear2.bias f4 [64]
00000000: 02d6 ddbc ff47 57bd e517 85bc 22ce d8bc
00000010: 1fc6 23bd 3379 0f3d 00d3 0abd a988 163d
00000020: 02a2 543d fb13 d73c b398 2abd 7242 68bb
00000030: 859b 823d 0d43 1c3d 7d26 cdbc 9b85 253c
00000040: fe2c 24bc 9c1a 4dbd 0242 3bbd 48d1 b63c
00000050: 3831 9c3b dbc7 873d 58e7 de3b c8ae 0bbc
00000060: ec03 91bb 891a fdbb 927f f63c 57af 67bc
00000070: ad30 e83b 9e55 efba f1bc 47bd 989c 503d
00000080: bf8c 9a3b feaf 5bbd c58a 8a3d 39be 5dbd
00000090: ed54 1fbd 6bdd f13c 0dbe 603c 7b9d 8ebc
000000a0: 6a80 0c3d 0ed7 1a3d ce41 153d a6e1 4bbd
000000b0: 5933 2f3b ef25 333c e383 273d 0f7e 88bd
000000c0: bf1e a03c c83f 68bd 1552 fc3c fc54 613d
000000d0: 5414 0c3d ba74 9d39 b81f fcbc 8eb3 a63c
000000e0: 073b b4bc 96f5 733d 5880 61bc d1b6 40bd
000000f0: 7f54 4abd 5f14 663c dd67 ce3c 03da 70bd
-0.027079586 -0.052558895 -0.016246745 -0.02646548 -0.039983865 0.035027694 -0.03389263 0.036751423
0.051912315 0.026254645 -0.04164953 -0.0035439995 0.06377319 0.038149882 -0.025042767 0.010102655
-0.010020493 -0.050074205 -0.045717247 0.02231659 0.0047666095 0.06629916 0.0068024807 -0.008525558
-0.0044255164 -0.0077241105 0.030090127 -0.014140925 0.0070858807 -0.0018259769 -0.048764173 0.05093059
0.0047164853 -0.053634636 0.067647494 -0.05413649 -0.03889935 0.029524526 0.013717187 -0.017409077
0.034302153 0.03780275 0.03643971 -0.049775742 0.0026733486 0.010934337 0.04089726 -0.06664669
0.01954591 -0.05670145 0.030800859 0.055012688 0.034199074 0.00030032342 -0.030776843 0.02034929
-0.022000803 0.05956038 -0.01376351 -0.047049347 -0.049396988 0.014042943 0.02519601 -0.058801662

encoder.layers.0.norm1.weight f4 [64]
00000000: 606e 833f 1041 7e3f 4d87 7f3f 69e8 7c3f
00000010: f1c9 823f d5df 7c3f 94b4 813f 2670 803f
00000020: d017 7c3f 920e 793f 5734 7a3f 36c6 803f
00000030: fef6 7f3f 2c37 803f 1a20 803f 6650 7d3f
00000040: 37f1 7a3f ff3b 7c3f 13f7 7b3f d0ae 7b3f
00000050: e7df 783f f012 7b3f 951a 833f 2a57 833f
00000060: 86ad 813f a86e 763f 6aed 7d3f 4e80 7f3f
00000070: b69d 7c3f 5228 813f 97af 7b3f 5321 7e3f
00000080: b00e 7f3f 5cb2 7c3f dcd5 7f3f b642 7c3f
00000090: 6d3c 833f 1e4f 7d3f f9d3 7f3f 22d0 7c3f
000000a0: 5a96 813f 4c7e 813f dc45 7f3f a83b 7e3f
000000b0: 2168 803f bd20 843f 790e 7b3f f462 7d3f
000000c0: d034 7d3f 81d3 803f 80a2 7c3f 22a0 7c3f
000000d0: 52d7 823f 9778 803f b426 8e3f d3e2 7c3f
000000e0: a7a9 7e3f 2721 7c3f 1310 7d3f f58b 7f3f
000000f0: 3bdb 803f 1a34 813f 174e 813f a50b 773f
1.0268059 0.9931803 0.9981583 0.9879213 1.0217878 0.9877904 1.0133233 1.0034225
0.98473835 0.9728786 0.97736114 1.0060489 0.99986255 1.0016837 1.0009797 0.98950803
0.98024315 0.98529047 0.9842388 0.9831362 0.9721665 0.9807577 1.0242487 1.0260975
1.013108 0.962626 0.9919039 0.9980515 0.9867815 1.009043 0.98314804 0.992696
0.99631786 0.98709655 0.999357 0.9853929 1.0252815 0.9894885 0.9993282 0.98755085
1.0124009 1.0116668 0.9971597 0.9930978 1.0031778 1.0322491 0.9806896 0.98979115
0.9890871 1.0064546 0.98685455 0.98681843 1.022196 1.0036801 1.1105561 0.98783606
0.9947762 0.98488086 0.9885265 0.9982293 1.0066904 1.0094025 1.0101956 0.96502143
