save_results/lstm_short_term_90d_run2.pt (torch, 546325 bytes, 10 tensors)

lstm.weight_ih_l0 f4 [400, 12]
0	0xbcca3790	-0.024684697
1	0xbd94c71d	-0.0726454
2	0xbd49b062	-0.049240477
3	0xbdbfde77	-0.09368604
4	0xbd585aa3	-0.052820813
5	0xbd948d45	-0.072535075
6	0x3cb56ac1	0.02214563
7	0xbcba1bab	-0.022718271
8	0x3cc75a6a	0.024335105
9	0xbdbc0b04	-0.091817886
10	0x3d5deec8	0.054182798
11	0x3d508008	0.05090335
12	0x3cb3744d	0.021906042
13	0xbd7a20e4	-0.061066523
14	0x3b175dc8	0.002309667
15	0x3bb037d5	0.0053777494
16	0xbb5f1872	-0.003404167
17	0x3cd6d641	0.026225211
18	0x3d4cdb8e	0.05001407
19	0x3dc772e9	0.09738714
20	0x3d38d05f	0.045120593
21	0x3d69a782	0.057044514
22	0x3aec1048	0.0018010223
23	0xbce5f8b0	-0.028072685
24	0xbdb2deb2	-0.08733882
25	0xbd957379	-0.07297415
26	0xbcf81a66	-0.030286025
27	0xbdf18d70	-0.11794555
28	0x3db0af25	0.08627156
29	0xbdb3c005	-0.08776859
30	0x3dab2b84	0.08357909
31	0x3ca5a79c	0.020221524
32	0xbd39ffd0	-0.045409977
33	0xbd164000	-0.03668213
34	0x3c6857b2	0.014181064
35	0x3dd4f704	0.10398677
36	0xbd81dbc2	-0.063407436
37	0x3d9fd0b8	0.07803482
38	0xbd414600	-0.047185898
39	0xbda5ddf4	-0.08098975
40	0xbd7cb692	-0.06169755
41	0x3d4acb89	0.049510513
42	0xbd891235	-0.06692926
43	0x3d4bd136	0.049760066
44	0x3a918f4e	0.001110533
45	0x3d325561	0.043538455
46	0xbd0ee4e2	-0.03488625
47	0xbc887173	-0.01665566
48	0x3ac471ce	0.001498753
49	0x3d4b7892	0.04967553
50	0x3a47bd0c	0.0007619418
51	0xbd9ba831	-0.07600439
52	0xbd6d8c8a	-0.057995357
53	0xbdc5e77d	-0.096632935
54	0x3c74c5d0	0.01493974
55	0xbddeab60	-0.10872531
56	0xbd3f0dcf	-0.04664403
57	0xbc5c504d	-0.01344688
58	0x3d484999	0.048898313
59	0x3d91ed46	0.071253344
60	0x3db543d6	0.08850829
61	0x3d0c8923	0.03431047
62	0xbd004148	-0.031312257
63	0xbdc38fe2	-0.09548928
64	0xbd64b420	-0.055835843
65	0x3c473aa4	0.012159977
66	0x3d3574eb	0.044300955
67	0x3d4bc2b2	0.049746223
68	0xbdaee829	-0.08540375
69	0x3c345e45	0.011008804
70	0x3d968df0	0.07351291
71	0x3d24b3c1	0.04021049
72	0xbd8a9a0e	-0.06767665
73	0x3dfcc80e	0.12342845
74	0xbd991efb	-0.07476612
75	0xbdc40a55	-0.09572283
76	0xbd81d5cf	-0.06339609
77	0xbd285dfa	-0.041105248
78	0x3cc7b882	0.024379972
79	0x3d655e54	0.05599816
80	0xbcd48235	-0.025940994
81	0x3d926ef9	0.071500726
82	0x3dac7abc	0.08421847
83	0x3dad0ccf	0.08449709
84	0x3b8ffb9d	0.0043940083
85	0x3cd45bf5	0.025922755
86	0x3d46eecf	0.04856759
87	0xbca512f3	-0.020150637
88	0xbc5094f6	-0.012730828
89	0x3dadeb1f	0.084921114
90	0xbd94db05	-0.07268337
91	0x3db01621	0.08597971
92	0xbd99381f	-0.074814074
93	0x3da398d9	0.07988138
94	0xbc915762	-0.017741863
95	0x3dc01450	0.09378874
96	0x3d898f67	0.06716805
97	0x3cd63507	0.026148332
98	0xbd2fdf23	-0.04293741
99	0x3c91b026	0.01778419
100	0xbd7f4cb1	-0.062328998
101	0x3dbd8a01	0.09254838
102	0x3dbd7c98	0.0925228
103	0x3d8ca08f	0.068665616
104	0x3d36d9c1	0.04464126
105	0xbd9b51e1	-0.075839765
106	0xbd7afd65	-0.061276812
107	0x3dd8e0ba	0.10589738
108	0x3d868451	0.06568206
109	0x3d31c078	0.043396443
110	0x3cac6db1	0.021048399
111	0xbd789d93	-0.06069715
112	0x3dac7390	0.08420479
113	0x3db032f7	0.08603471
114	0xbd2d0dd5	-0.04224952
115	0xbda2a133	-0.079409026
116	0xbd8f50fe	-0.0699787
117	0xbd2891c6	-0.041154645
118	0xbd4ef6c5	-0.050528307
119	0xbd866530	-0.06562269
120	0x3d4bf3de	0.049793117
121	0x3d673502	0.056447037
122	0xbb98a987	-0.004658881
123	0xbdaf4b87	-0.085593276
124	0xbd5aab53	-0.053386044
125	0xbd9deff2	-0.077117816
126	0xbd9d51e3	-0.07681634
127	0x3c9ffce5	0.01952977
128	0x3d66e31c	0.056368932
129	0xbd575d9a	-0.0525795
130	0x3d6b7fad	0.057494808
131	0xbd7acf3b	-0.061232787
132	0xbd578c17	-0.052623834
133	0xbbef7eca	-0.0073088156
134	0x3ddce480	0.107857704
135	0xbceb84ec	-0.028749906
136	0x3d9cac6a	0.07650073
137	0x3d4774cc	0.04869537
138	0x3d9515f4	0.07279578
139	0xbdb2f024	-0.087372094
140	0x3d4d8331	0.050173942
141	0x3dde8dcb	0.108668886
142	0x3c17d1f8	0.009266369
143	0xbd92334b	-0.071386896
144	0x3dd132d6	0.10214774
145	0x3d1ead6b	0.038739603
146	0xbd98f760	-0.07469058
147	0x3da79674	0.081829935
148	0x3cf24ed2	0.0295786
149	0xbdbfbfd4	-0.0936276
150	0x3d2a096b	0.041512888
151	0x3d2a26b0	0.0415408
152	0xbd8dd118	-0.06924647
153	0x3cb09ec8	0.021560088
154	0xbd9d793c	-0.07689139
155	0xbd1a5952	-0.03768284
156	0xbd931756	-0.07182185
157	0x3bfb5f0b	0.007671242
158	0x3ac7c880	0.0015242249
159	0xbcdf619a	-0.02726822
160	0x3dcde335	0.10053102
161	0x3d8cdb31	0.06877745
162	0x3c13cb0b	0.009020577
163	0x3d602ec0	0.054732084
164	0x3d6324be	0.055454962
165	0x3d668200	0.05627632
166	0x3d7a7ceb	0.061154287
167	0xbd1671e8	-0.036729723
168	0x3dce09e2	0.10060479
169	0xbd33bd9a	-0.04388199
170	0xbbfddf1b	-0.0077475435
171	0x3d5bf0a4	0.05369629
172	0xbd3b04df	-0.045658942
173	0xbdb4ddcc	-0.08831367
174	0xbd0521fd	-0.032503117
175	0x3da1216e	0.07867704
176	0x3dbdf334	0.09274903
177	0x3da484ae	0.08033119
178	0xbd88952f	-0.066690795
179	0x3e0855e9	0.13314022
180	0x3c309707	0.010778195
181	0xbd00cbec	-0.031444475
182	0x3da9e220	0.08295083
183	0xbd8e1f38	-0.06939548
184	0x3dc4f651	0.096172936
185	0xbd92b0e9	-0.07162649
186	0xbcbd512d	-0.023109997
187	0x3dc7b022	0.097503915
188	0x3bc3965b	0.0059688515
189	0xbdbb1199	-0.09134216
190	0xbd8938e9	-0.06700308
191	0xbb6b8c6e	-0.0035941857
192	0xbdb811ba	-0.08987756
193	0xbd767999	-0.06017456
194	0xbd3029c7	-0.043008592
195	0x3d2a54c3	0.04158474
196	0x3c7d309f	0.015453487
197	0xbb86eb4b	-0.0041174046
198	0x3cffafc3	0.03121174
199	0x3c8f319e	0.017479714
200	0xbd131209	-0.03590587
201	0xbcbb6405	-0.022874841
202	0x3c18c63e	0.009324608
203	0x3da64fb9	0.08120675
204	0xbd8e9212	-0.069614545
205	0x3dcf1cb0	0.101128936
206	0xbd0eb500	-0.034840584
207	0xbbe2803b	-0.006912259
208	0x3d7ec177	0.06219622
209	0xbc7fb95d	-0.015608159
210	0xbd945d15	-0.072443165
211	0xbd07f9aa	-0.033197083
212	0xbdabb587	-0.08384233
213	0xbdaf7612	-0.08567442
214	0xbd9b49bb	-0.07582422
215	0x3baa2778	0.0051926933
216	0xbd377fab	-0.044799488
217	0x3d9bd825	0.07609586
218	0xbca3cbf9	-0.019994723
219	0xbd0a524f	-0.0337699
220	0x3bc32140	0.0059548914
221	0x3db2ec33	0.08736458
222	0xbdaf926a	-0.08572848
223	0x3bb611a4	0.005556302
224	0xbd004e20	-0.031324506
225	0xbd202995	-0.039102156
226	0xbc4c6f8f	-0.0124777695
227	0x3da63591	0.08115686
228	0x3db665ff	0.08906173
229	0xbd0f08d1	-0.034920517
230	0x3d3b61c1	0.045747522
231	0x3d48dc12	0.049038
232	0xbd4a2c72	-0.049358793
233	0xbd8c9bfb	-0.068656884
234	0x3dbac3bf	0.09119367
235	0x3df48400	0.119392395
236	0xbd3c3b39	-0.045954917
237	0x3d488a35	0.04895993
238	0x3d8756df	0.06608366
239	0xbd17c244	-0.0370505
240	0xbd8689c8	-0.065692484
241	0x3d898f28	0.06716758
242	0xbbef5000	-0.007303238
243	0x3bffca63	0.007806109
244	0x3d3ac966	0.045602225
245	0x3d549660	0.05190122
246	0x3d5981f6	0.053102456
247	0xbdb3a366	-0.087714
248	0xbda7e41c	-0.08197805
249	0x3dbe7906	0.09300427
250	0xbcee4c7c	-0.029089205
251	0xbde2bf14	-0.110716015
252	0xbbe8054c	-0.0070807096
253	0xbd540100	-0.051758766
254	0xbd8c3d0e	-0.06847583
255	0x3d9a8cba	0.07546373

lstm.weight_hh_l0 f4 [400, 100]
0	0xbd8d7cd4	-0.06908575
1	0xbd88840b	-0.0666581
2	0xbdd3863f	-0.1032834
3	0xbdf8ea76	-0.12154095
4	0x3cb62a17	0.022236867
5	0x3cdc754a	0.026911397
6	0xbd057691	-0.032583777
7	0x3d5a2baa	0.053264298
8	0xbd4d6955	-0.05014928
9	0xbcef8c49	-0.029241698
10	0x3d8f6571	0.0700177
11	0x3db3e7db	0.08784457
12	0xbc8d51ed	-0.01725098
13	0xbd4012cd	-0.04689293
14	0xbc9bb695	-0.01900796
15	0x3da12dc1	0.07870055
16	0xbdcc3742	-0.09971477
17	0xbc204299	-0.009781503
18	0xbdd884b4	-0.10572186
19	0x3ccafefc	0.02477979
20	0x3d629ac3	0.055323374
21	0x3bec083e	0.007203131
22	0xbd7863ba	-0.06064198
23	0xbdaffac4	-0.085927516
24	0x3cda0773	0.02661488
25	0x3c524379	0.01283347
26	0xbd666e62	-0.056257613
27	0x3d5d0247	0.05395725
28	0xbd3fd8b9	-0.046837542
29	0xbd66e70f	-0.0563727
30	0x3d090bc9	0.033458505
31	0x3db87bef	0.090080135
32	0xbd618ec4	-0.055067793
33	0xbd507d8c	-0.05090098
34	0xbdd081cd	-0.101810075
35	0x3d83d6fd	0.0643749
36	0x3dc1587e	0.09440707
37	0x3d730d8a	0.059339084
38	0x3d3b8c66	0.04578819
39	0xbdd8518b	-0.10562428
40	0x3a48e272	0.00076631375
41	0xbd967354	-0.07346216
42	0xbc999bab	-0.018750986
43	0xbd934615	-0.071911015
44	0xbd9ea34e	-0.07745992
45	0xbd6d0468	-0.05786553
46	0x3d94b790	0.07261574
47	0xbd50dc01	-0.050991062
48	0xbc9ed232	-0.019387338
49	0xbd90f77c	-0.07078454
50	0x3d808c7c	0.06276795
51	0x3aed76dc	0.0018117088
52	0xbd1c848a	-0.038212337
53	0x3d8c3789	0.0684653
54	0x3d839114	0.06424156
55	0xbdd22a70	-0.102620006
56	0xbd6d5aa5	-0.057947773
57	0xbd81fec0	-0.06347418
58	0x3d1bf4d7	0.038075294
59	0xbc4c20fd	-0.012459037
60	0x3dc648c3	0.09681847
61	0x3bd10da2	0.006379799
62	0xbbbc2956	-0.0057422323
63	0x3dc13245	0.09433416
64	0xbd029f0b	-0.031889956
65	0x3dac5575	0.08414737
66	0x3caecf52	0.021339092
67	0xbd454f38	-0.048171252
68	0x3d0b46fd	0.034003247
69	0xbd89f6a7	-0.06736498
70	0xbcf13331	-0.029443355
71	0x3d0fa0a9	0.035065327
72	0x3d864ae5	0.06557254
73	0xbd4b3380	-0.04960966
74	0xbd42c8fb	-0.04755495
75	0xbc7afdfc	-0.015319344
76	0xbda3b717	-0.07993906
77	0x3b1387fc	0.0022511473
78	0x3d8fc339	0.07019658
79	0x3d7971cb	0.060899537
80	0xbc61e327	-0.0137870675
81	0xbc11ed32	-0.008906649
82	0x3d924256	0.07141559
83	0x3d0f14f8	0.034932107
84	0xbd21a256	-0.039461456
85	0x3daa14d1	0.08304752
86	0x3d6da947	0.058022764
87	0x3bd3ab19	0.0064596054
88	0xbd23e247	-0.040010717
89	0x3ceff3e3	0.029291099
90	0x3d4e4c89	0.05036596
91	0xbc156d2d	-0.009120268
92	0x3dbb35b6	0.09141104
93	0x3db87bb0	0.090079665
94	0xbd65c8d5	-0.05609973
95	0xbd27cb8c	-0.0409656
96	0xbdb63578	-0.08896917
97	0x3ccea321	0.02522427
98	0xbcbf9cfa	-0.023390282
99	0x3c259ce1	0.010108204
100	0x3d813e77	0.06310742
101	0x3d0ecb1d	0.034861673
102	0x3d44e1d3	0.048066925
103	0xbd948ceb	-0.072534405
104	0x3d90188a	0.070359305
105	0x3d8085a9	0.06275494
106	0x3db39a9d	0.087697245
107	0x3db3a9ac	0.08772597
108	0xbdb8e65f	-0.09028315
109	0xbcd02f0c	-0.025413059
110	0xbd02e699	-0.031958196
111	0xbd9a722f	-0.0754131
112	0x3ca595ca	0.020213027
113	0x3cece2e4	0.028916784
114	0xbc92a8b6	-0.017902713
115	0x3c4ab29b	0.012371684
116	0x3c7e7caf	0.015532657
117	0xbccd866d	-0.025088513
118	0xbd92a2c6	-0.07159953
119	0xbc5712e6	-0.013127064
120	0x3de239d4	0.11046186
121	0xbd422025	-0.047393937
122	0xbd84052d	-0.064463
123	0x3d9d0367	0.076666646
124	0xbd240e4a	-0.04005269
125	0x3d4f49e3	0.050607573
126	0xbcaad9be	-0.02085578
127	0x3d5e7558	0.054311126
128	0x3d233ede	0.039854877
129	0x3c721afc	0.014776941
130	0x3d3e0f4c	0.046401307
131	0x3c7b0d62	0.015323015
132	0x3c27278b	0.010202299
133	0xbd1e746b	-0.038685244
134	0x3dc5e76c	0.09663281
135	0xbc9534bd	-0.018213624
136	0xbdab7f16	-0.08373849
137	0x3d49535e	0.04915177
138	0xbcabef8d	-0.02098825
139	0xbcf7f125	-0.030266354
140	0xbd3478cf	-0.044060525
141	0x3d8f0b39	0.069845624
142	0xbd9dd3a7	-0.07706385
143	0x3d82f8e6	0.0639513
144	0x3b948ecc	0.0045336243
145	0xbd5189ee	-0.05115693
146	0xbcc2a356	-0.023759525
147	0x3d31b3f9	0.043384526
148	0x3d9c3a55	0.076283135
149	0x3d8d00d0	0.068849206
150	0x3db2e096	0.087342426
151	0x3aa9e696	0.0012962397
152	0xbb5e8d1d	-0.0033958622
153	0x3bac87d3	0.005265215
154	0x3d94e39b	0.07269975
155	0x3d61a44b	0.055088323
156	0x3ac34821	0.0014898815
157	0xbd4edc75	-0.050503213
158	0x3dab10e2	0.083528295
159	0x3cb8ccf6	0.02255867
160	0xbd656e2f	-0.056013282
161	0xbc5f8f7c	-0.013645049
162	0x3b16c43c	0.0023005148
163	0x3dc64e59	0.096829124
164	0x3d987992	0.07445063
165	0x3c1a4bd4	0.009417493
166	0xbdbf41c6	-0.09338717
167	0xbb59935c	-0.0033199405
168	0xbd530c29	-0.05152527
169	0x3da67b1b	0.08128949
170	0xbd37b361	-0.044848803
171	0x3da26678	0.079297006
172	0x3c1be046	0.00951392
173	0xbd6cd1f9	-0.057817433
174	0xbdb286e1	-0.08717132
175	0xbd8c103f	-0.06839036
176	0xbda45d58	-0.080256164
177	0xbd616b98	-0.05503425
178	0x3d8abb0a	0.06773956
179	0x3daba42c	0.08380923
180	0xbc6faa15	-0.014627953
181	0x3dca3cf7	0.09874909
182	0x3ce150d8	0.02750437
183	0xbd870492	-0.065926686
184	0x3db5c18f	0.08874809
185	0xbbc329eb	-0.0059559247
186	0xbc90c51e	-0.017672118
187	0x3c18b44f	0.009320333
188	0x3d49a6f8	0.0492315
189	0xbd3095bc	-0.043111548
190	0xbd78c8e3	-0.060738456
191	0xbd9d7150	-0.07687628
192	0x3dc89691	0.09794343
193	0x3d653afb	0.05596445
194	0xbcec369a	-0.02883463
195	0xbd6b9aea	-0.057520784
196	0x39d48400	0.0004053414
197	0xbdc15eb0	-0.09441888
198	0x3d7b3b4a	0.06133584
199	0x3d531fe9	0.051544104
200	0xbd781007	-0.06056216
201	0xbc9c7e0a	-0.019103069
202	0xbc45d442	-0.012074532
203	0xbc203633	-0.009778547
204	0xbd061e83	-0.032743942
205	0xbd89d9bd	-0.067309834
206	0x3d778a20	0.06043446
207	0x3d087047	0.0333102
208	0xbd3adee1	-0.04562271
209	0x3db672d8	0.089086235
210	0x3bbe1f65	0.0058020824
211	0x3ac712ea	0.0015188132
212	0x3daca78f	0.08430397
213	0x3d95da98	0.07317084
214	0xbd89cfb9	-0.06729073
215	0xbcd15785	-0.025554428
216	0xbdb1417b	-0.086550675
217	0xbd822bd1	-0.063560136
218	0xbbca913d	-0.0061818645
219	0xbd5560b7	-0.052094188
220	0xbd3f4bc4	-0.046703115
221	0x3ccd9adf	0.025098262
222	0xbc6b16db	-0.014348711
223	0x3a598bec	0.0008298743
224	0xbdbf7936	-0.09349291
225	0xbdbe84a8	-0.09302646
226	0x3da05e42	0.07830478
227	0x3d0049ed	0.0313205
228	0xbdb0a52a	-0.086252525
229	0x3c41bfaa	0.011825481
230	0x3ccb1f61	0.024795236
231	0x3d393442	0.045215853
232	0x3d83f26c	0.06442723
233	0xbc89cc74	-0.016821124
234	0xbc0acca0	-0.008471638
235	0xbd1b789e	-0.037956826
236	0xbda780ca	-0.081788614
237	0xbc995dc8	-0.018721476
238	0xbc7fa3d6	-0.015603026
239	0xbde09094	-0.10965076
240	0xbd49b700	-0.049246788
241	0xbd2f2a96	-0.042765222
242	0xbd8b8bc5	-0.06813768
243	0x3b9642ab	0.004585584
244	0x3da3724f	0.07980787
245	0x3d52f546	0.051503442
246	0xbd66be0f	-0.056333598
247	0xbd41c676	-0.047308408
248	0x3d81ca22	0.06337382
249	0x3d119822	0.035545476
250	0x3d7f01b0	0.06225747
251	0x3d3c8ee3	0.046034705
252	0xbd342553	-0.043980908
253	0xbcac201a	-0.021011401
254	0x3d20ce3b	0.039259177
255	0xbd7c099b	-0.061532598

lstm.bias_ih_l0 f4 [400]
0	0x3db951d8	0.090488136
1	0x3ba16bdf	0.0049261893
2	0xbd8ec814	-0.069717556
3	0xbd816790	-0.06318581
4	0x3d794017	0.060852136
5	0xbcaf5e50	-0.021407276
6	0x3d861142	0.065462604
7	0x3d81c167	0.06335717
8	0x3d84ec13	0.0649034
9	0x3cb1e835	0.02171717
10	0x3dc6cb55	0.09706751
11	0xbc7feb42	-0.015620055
12	0xbcaf339e	-0.021386918
13	0xbd55f3de	-0.052234523
14	0xbd7dc125	-0.061951775
15	0x3ddd04de	0.10791944
16	0x3d3c93fc	0.046039566
17	0x3ca625e1	0.020281734
18	0x3c85ac82	0.01631761
19	0x3d64eb86	0.055888675
20	0xbdabe13e	-0.08392571
21	0x3d84bea6	0.06481676
22	0x3d820306	0.06348233
23	0x3db43053	0.087982796
24	0x3d9771db	0.07394763
25	0x3dba1ef4	0.09087935
26	0x3d6b40e4	0.05743493
27	0x3d977e41	0.07397128
28	0xbcb35f30	-0.021895975
29	0xbd9d87be	-0.076919064
30	0xbd9c80ac	-0.0764173
31	0xbcd5bcf2	-0.026091073
32	0xbd0fbf7e	-0.03509473
33	0x3d1db9d3	0.038507294
34	0x3d7c50ba	0.061600424
35	0xbd913b7f	-0.07091426
36	0xbd951dd8	-0.07281083
37	0xbc551d91	-0.013007537
38	0x3d8b5836	0.06803934
39	0x3cc28af9	0.023747908
40	0xbbcf8949	-0.0063335043
41	0xbd26c9d2	-0.040719815
42	0x3d86aa22	0.06575419
43	0x3d8ebed6	0.06969993
44	0xba11dbef	-0.00055640837
45	0xb9ce58bf	-0.00039357503
46	0x3cae13ad	0.021249617
47	0xbcb77354	-0.02239386
48	0x3bca0506	0.0061651496
49	0xbd37f3de	-0.044910304
50	0xbd3cdc4f	-0.04610854
51	0xbda72451	-0.08161224
52	0x3db84f53	0.08999505
53	0xbce61b9f	-0.028089343
54	0x3de14c20	0.11000848
55	0xbb52dcaa	-0.0032174983
56	0x3d29ec52	0.04148514
57	0xbd357f33	-0.04431076
58	0x3d39fd01	0.0454073
59	0x3d9e105c	0.07717964
60	0xbca26758	-0.019824669
61	0xbda5cb4a	-0.08095415
62	0x3d5f3ab5	0.054499347
63	0xbd1491f5	-0.036272008
64	0x3bb3753d	0.0054766224
65	0xbdc5a31c	-0.09650251
66	0x3d35aaf8	0.0443525
67	0x3cc32ba6	0.023824524
68	0xbc0d5a91	-0.00862755
69	0xbd109cb4	-0.035305694
70	0x3dc58d17	0.096460514
71	0x3d609539	0.05482981
72	0x3d4e386b	0.050346773
73	0x3d56e07a	0.05246017
74	0x3bbcdf10	0.005763896
75	0xbc8f985e	-0.017528709
76	0x3cfa5b8d	0.030561233
77	0xbd81251b	-0.063059054
78	0x3d76429c	0.060122117
79	0xbd79aa4e	-0.06095343
80	0xbd8b630e	-0.068060026
81	0x3d9a1b96	0.07524793
82	0xbd62ada9	-0.055341396
83	0x3c5bef7e	0.013423799
84	0x3d01179c	0.031516656
85	0xbd5dbc14	-0.054134443
86	0x3d6dcb65	0.0580553
87	0x3dc07709	0.09397704
88	0xbd401968	-0.04689923
89	0x3de738c2	0.112901226
90	0x3c5831ef	0.013195499
91	0xbc8b5df9	-0.017012583
92	0x3d7ebb29	0.06219021
93	0xbd73a9f8	-0.059488267
94	0x3da67a57	0.08128803
95	0x3dd68829	0.10475189
96	0xbd1a6c16	-0.037700735
97	0xbcf0954d	-0.029368067
98	0x3dbd8208	0.09253317
99	0xbcd56029	-0.02604683
100	0x3ddcd433	0.10782661
101	0x3d50e857	0.051002827
102	0x3d11ecd2	0.03562624
103	0x3c339550	0.010960892
104	0xbd15da11	-0.036584917
105	0x3dc23449	0.09482629
106	0x3c824513	0.015902078
107	0x3d7628ae	0.06009739
108	0xbd2eb053	-0.042648625
109	0x3d0d36fe	0.034476273
110	0xbc788121	-0.0151675055
111	0xbd2c8282	-0.04211665
112	0x3d01800c	0.031616256
113	0x3c51d6da	0.012807572
114	0x3d9cb6d4	0.07652059
115	0x3d2c9fad	0.042144466
116	0xbcca0486	-0.02466036
117	0x3d608f82	0.05482436
118	0xbd5a09d6	-0.053232037
119	0x3dc86b79	0.09786124
120	0xbd973c27	-0.0738452
121	0x3dc152ce	0.09439622
122	0xbd9d3eba	-0.0767798
123	0x3ccd51ea	0.025063474
124	0x3b297638	0.0025857817
125	0xbc01cb2a	-0.007921973
126	0xbbac0f98	-0.0052508824
127	0xbdaff408	-0.08591467
128	0x3d898faa	0.06716855
129	0xbdbf6159	-0.093447395
130	0x3d98aa2c	0.07454333
131	0x3dc9fbe9	0.09862501
132	0xbd9acf43	-0.07559063
133	0x3dcae23e	0.099064335
134	0x3c87fb47	0.01659931
135	0x3c28ec19	0.010310196
136	0xbd6c85c6	-0.057744764
137	0x3ccc97b4	0.024974681
138	0xbd882c48	-0.06649071
139	0x3b00b7ad	0.001964073
140	0x3d1468ab	0.03623263
141	0x3c2d8af9	0.010592216
142	0x3dceff71	0.10107315
143	0x3d729fd6	0.059234463
144	0xbd0dbde6	-0.03460493
145	0x3db52e35	0.08846704
146	0x3da73cc6	0.081658885
147	0x3ce4726d	0.027886594
148	0x3dc5a8f7	0.09651368
149	0x3be60ad4	0.007020334
150	0xbd8b0e77	-0.06789868
151	0xbdb5df1d	-0.08880446
152	0xbc564d3e	-0.013079939
153	0x3d4bb242	0.049730547
154	0x3d47061e	0.04858982
155	0xbd478ee8	-0.04872027
156	0x3db6e01a	0.08929463
157	0x3d0f6386	0.035007022
158	0xbc91c785	-0.017795334
159	0x3aa7459e	0.0012761836
160	0x3c9a7179	0.018852936
161	0x3d79b010	0.060958922
162	0x3d4bb45a	0.049732544
163	0xbd6ad891	-0.05733544
164	0xbdc256f5	-0.09489242
165	0x3b50dec3	0.0031871058
166	0x3c5e6fb7	0.01357644
167	0xbd597151	-0.053086583
168	0xbcd8d7ad	-0.02647003
169	0x3d58519d	0.052812207
170	0x3dc27450	0.09494841
171	0xbd06c4e3	-0.03290261
172	0xbd10e8e9	-0.03537837
173	0x3d7785ca	0.060430326
174	0x3d9c5465	0.076332845
175	0xbcde7664	-0.027156062
176	0xbc13d163	-0.00902209
177	0xbbd3c1c0	-0.006462306
178	0xbdd8f7a6	-0.1059411
179	0x3de01393	0.109412335
180	0xbd0f2fed	-0.034957815
181	0xbd994ba1	-0.07485128
182	0x3d61eb4d	0.05515604
183	0x3c5f9274	0.013645757
184	0xbd49d410	-0.049274504
185	0x3bfbac91	0.0076804836
186	0xbc8fe100	-0.017563343
187	0x3ce2805d	0.027649099
188	0xbd1403bf	-0.036136385
189	0x3daef857	0.08543461
190	0xbd7998f2	-0.060936876
191	0xbd0a2585	-0.033727188
192	0xbd74081e	-0.059578054
193	0xbd75e07d	-0.06002854
194	0x3d7d434d	0.06183176
195	0xbce049c4	-0.027378924
196	0xbd298a6e	-0.041391782
197	0x3d83a350	0.06427634
198	0x3d9c44ad	0.07630286
199	0x3d6f17cc	0.058372304
200	0xbcf6a132	-0.03010616
201	0x3d9409c5	0.07228426
202	0xbd9ba1c9	-0.075992174
203	0xbd377899	-0.044792745
204	0x3ce78f82	0.028266672
205	0x3d60d9b5	0.05489512
206	0x3dac2d26	0.08407049
207	0x3d143648	0.03618458
208	0x3d147a9d	0.036249746
209	0xbd99b91b	-0.07506009
210	0xbc865521	-0.016398015
211	0x3c4fe50d	0.012688887
212	0xbc5503c0	-0.013001382
213	0x3bc8543a	0.006113556
214	0x3daa99d5	0.083301224
215	0x3d7c96a2	0.061667092
216	0x3cc93406	0.02456094
217	0xbd8de2cc	-0.06928024
218	0x3db543a5	0.08850793
219	0xbdd96e32	-0.10616721
220	0x3d8a1f4d	0.067442514
221	0x3d497f4c	0.049193665
222	0xbd18ae1f	-0.03727543
223	0x3d85b5c4	0.0652881
224	0x3db63c6c	0.08898243
225	0x3d8be9c1	0.068316944
226	0x3d06e7c1	0.03293586
227	0xbda2d4f1	-0.079507716
228	0xbd55fb56	-0.052241646
229	0xbd587d27	-0.05285373
230	0xbdc98ca6	-0.0984128
231	0xbdada93d	-0.08479545
232	0x3c934e6a	0.017981727
233	0x3ca02d97	0.019552989
234	0xbdabaeff	-0.08382987
235	0x3d15d69d	0.036581624
236	0x3db7c982	0.089739814
237	0x3d79e3de	0.061008327
238	0x3d921b14	0.07134071
239	0x3d40cd59	0.047070835
240	0x3db2662f	0.08710896
241	0x3d16e119	0.036835764
242	0x3d6c8ada	0.057749607
243	0xbdd4b717	-0.10386484
244	0x3c4fabbd	0.012675223
245	0xbd383c6b	-0.044979494
246	0xbd8b592d	-0.06804118
247	0xbd5bc3d4	-0.053653553
248	0x3dd401bd	0.10351894
249	0x3ca423d9	0.020036625
250	0x3d984b6f	0.07436263
251	0xbcb8c539	-0.02255498
252	0xbd9228b8	-0.07136673
253	0xbd22fba6	-0.039790772
254	0xbca44979	-0.020054566
255	0xbdb630da	-0.088960364

lstm.bias_hh_l0 f4 [400]
0	0x3ced576e	0.028972354
1	0xbd8bf1c0	-0.068332195
2	0xbda1434a	-0.078741625
3	0xbb818261	-0.00395231
4	0xbd3c4e3d	-0.04597305
5	0xbca71d84	-0.020399816
6	0xbd6c1746	-0.057639383
7	0x3d1031c6	0.035203718
8	0x3d889bd8	0.0667035
9	0x3da5866c	0.080822796
10	0xbd3237de	-0.04351031
11	0x3d4d9637	0.050192084
12	0xbda6f5c5	-0.081523456
13	0x3d953c8d	0.0728694
14	0xbd989f9c	-0.07452318
15	0x3d942df4	0.07235327
16	0xbcf35003	-0.029701238
17	0xbd475583	-0.048665535
18	0xbc454f01	-0.012042762
19	0xbdac4a5e	-0.08412622
20	0xbcb84283	-0.022492653
21	0x3d139f41	0.03604055
22	0x3d3e41c8	0.046449453
23	0xbd73c35c	-0.05951248
24	0xbd35583a	-0.044273593
25	0x3cdade75	0.026717404
26	0x3dd4b497	0.10386007
27	0xbd22e14c	-0.03976564
28	0x3b07e78e	0.0020737383
29	0xbd045142	-0.032304056
30	0xbd8a1111	-0.067415364
31	0x3cc76ae0	0.024342954
32	0xbcf03e5b	-0.029326608
33	0x3b1b31f8	0.0023680907
34	0xbcb6c59b	-0.022311023
35	0x3d27b0f4	0.04094024
36	0x3d41f980	0.047357082
37	0x3d8f16a5	0.06986741
38	0xbcc3f413	-0.023920095
39	0x3cc10dc0	0.023566127
40	0xbcbc9797	-0.023021502
41	0xbdacb065	-0.08432082
42	0x3cd66e13	0.026175534
43	0x3d02a8ef	0.03189939
44	0xbd05e0a9	-0.032684956
45	0x3d1554ef	0.036457952
46	0x3d119a97	0.03554782
47	0xbcb25121	-0.0217672
48	0x3daa68c2	0.08320762
49	0xbd180885	-0.0371175
50	0xbd470bf8	-0.0485954
51	0xbd143748	-0.036185533
52	0xbda7f9cb	-0.08201941
53	0x3d0ec047	0.03485134
54	0x3d6bd523	0.05757631
55	0x3cfccd92	0.030859742
56	0x3dad0b57	0.084494285
57	0xbd09adea	-0.033613123
58	0x3cf19d7f	0.029494045
59	0xbc3ec409	-0.011643418
60	0xbd7d34c5	-0.061817903
61	0x3dd709c9	0.10499913
62	0x3bf249bc	0.0073940437
63	0x3da96d22	0.082727686
64	0x3d6a5539	0.05721018
65	0xbd94baed	-0.07262216
66	0x3c89c390	0.016816884
67	0x3dd41f7b	0.10357567
68	0x3dc8f292	0.098118916
69	0x3dbbd82c	0.09172091
70	0x3dc6f68d	0.097149946
71	0x3d8654c9	0.0655914
72	0x3d53bac7	0.051691797
73	0x3cf60ddc	0.030035906
74	0x3dcd0eb9	0.10012574
75	0x3ca29cb6	0.019850116
76	0x3d8b7eae	0.068112716
77	0x3d944b95	0.07240979
78	0x3ce2a21b	0.027665189
79	0x3dc2d617	0.09513491
80	0xbd96f992	-0.073718205
81	0x3cae92d5	0.02131025
82	0xbd4140d5	-0.04718097
83	0x3d9b108e	0.07571517
84	0xbb5243af	-0.00320838
85	0xbd292a10	-0.04129988
86	0xbc0dbd8e	-0.00865115
87	0x3da6efdb	0.081512176
88	0xbdafd2cf	-0.085851304
89	0x3d8f16e4	0.06986788
90	0xbd324cd2	-0.043530293
91	0xbd6dc78b	-0.058051627
92	0x3d90d263	0.07071378
93	0xbdb5179b	-0.08842393
94	0x3db8933f	0.0901246
95	0xbd841d95	-0.06450955
96	0x3d3240d4	0.043518856
97	0x3dc8b2c1	0.097997196
98	0x3d45aba0	0.048259377
99	0xbd96f175	-0.07370273
100	0x3d505d0b	0.050869983
101	0x3da9fa66	0.08299713
102	0x3d2669c2	0.040628202
103	0x3e173ada	0.14768544
104	0xbd481e1f	-0.04885685
105	0xbc876176	-0.016525965
106	0x3d8491a6	0.06473093
107	0x3d94ab18	0.07259196
108	0x3d9d40cd	0.076783754
109	0x3dd616b0	0.10453546
110	0x3d119e16	0.035551153
111	0x3da8a3ca	0.08234365
112	0x3d3bf3c6	0.045886777
113	0xbd246836	-0.040138446
114	0x3c9813a2	0.01856405
115	0x3da241dd	0.07922719
116	0x3ceb7fc6	0.02874745
117	0x3d9a7786	0.075423285
118	0xbd7aa578	-0.06119296
119	0xbc871b2d	-0.01649245
120	0xbd7f1301	-0.062273983
121	0x3ce0f4e7	0.027460529
122	0xbdb1ba24	-0.08678082
123	0x3c684197	0.014175794
124	0x3d5eb34c	0.05437021
125	0x3d8cf995	0.068835415
126	0x3d9763a6	0.07392053
127	0xbd8b6302	-0.068059936
128	0xbc84d177	-0.016213162
129	0xbdb6f58e	-0.089335546
130	0x3dadb9f4	0.08482733
131	0xbb63b5ae	-0.003474574
132	0x3dc2433b	0.094854794
133	0xbd9a9c40	-0.075493336
134	0x3b88aa56	0.0041706963
135	0xbd0ec15c	-0.03485237
136	0x3dd0c64b	0.101940714
137	0xbdb0a315	-0.086248554
138	0xbc8434d6	-0.016138475
139	0x3bc316d6	0.00595365
140	0x3d1bfc83	0.03808261
141	0xbda80a1c	-0.08205053
142	0xbd851382	-0.064978614
143	0x3ccd4c1c	0.025060706
144	0x3d071795	0.032981474
145	0x3d236c0b	0.03989796
146	0x3c65e262	0.014031025
147	0x3d827a3c	0.063709706
148	0x3cfca2d0	0.030839354
149	0xbdb46f45	-0.088102855
150	0xbd5330e6	-0.051560305
151	0xbdb621c9	-0.08893163
152	0x3d95abc0	0.07308149
153	0xbcc5336e	-0.024072375
154	0x3d8a8dba	0.067653134
155	0x3d236045	0.03988673
156	0x3d25b379	0.04045436
157	0x3d9a003d	0.07519577
158	0xbd60dd2e	-0.054898433
159	0xba964bb2	-0.0011466651
160	0x3bd00a12	0.0063488567
161	0x3cadf019	0.021232652
162	0x3d524ebe	0.051344626
163	0x3dc6675c	0.09687683
164	0xbd8d74f3	-0.06907072
165	0x3db3d971	0.08781708
166	0x3cfb1b3f	0.03065264
167	0x3db4e06a	0.08831866
168	0xbdcb5412	-0.099281445
169	0x3d58a6dd	0.05289351
170	0xbd5a5712	-0.053305693
171	0x3c830f28	0.015998438
172	0x3d61a74c	0.055091187
173	0xbce94abe	-0.028478023
174	0x3db68c0d	0.08913431
175	0x3d379368	0.044818312
176	0xbdaec106	-0.0853291
177	0xbcf8598f	-0.030316142
178	0x3d737c3d	0.059444655
179	0x3d5b77ef	0.053581174
180	0x3da40bf9	0.08010096
181	0xbddd9e9e	-0.108212695
182	0x3db3a413	0.08771529
183	0x3be93f59	0.0071181473
184	0x3d9eb85e	0.07750009
185	0xbbf0e523	-0.007351534
186	0x3d3c3dd1	0.04595739
187	0xbd610a29	-0.05494133
188	0xbd552a01	-0.05204201
189	0x3d14f3f7	0.036365476
190	0x3d5a97b2	0.053367324
191	0xbcc53bf2	-0.024076436
192	0xbd344d81	-0.044019226
193	0x3d7ccc9f	0.06171858
194	0x3db80625	0.08985547
195	0x3d962b4b	0.07332476
196	0x3d64202c	0.055694744
197	0xbdc43be4	-0.09581736
198	0x3c5f6606	0.013635164
199	0x3df2ee84	0.118618995
200	0xbdd70d25	-0.10500554
201	0x3bde3684	0.006781401
202	0x3db4a90d	0.088213064
203	0x3cc6bb3f	0.024259208
204	0xbd61f77f	-0.05516767
205	0xba3d1599	-0.0007212996
206	0xbd550e61	-0.052015666
207	0x3dbb3586	0.09141068
208	0x3d784c01	0.060619358
209	0x3a633d7a	0.00086685235
210	0x3dcf62f2	0.10126294
211	0x3dc75548	0.09733063
212	0xbc879eb5	-0.01655517
213	0xbd8a34c0	-0.067483425
214	0x3da1a9fd	0.07893751
215	0x3d597fb2	0.053100295
216	0xbd02bc36	-0.031917773
217	0x3bcdef69	0.0062846434
218	0xbd7b3ba3	-0.06133617
219	0xbda2cc47	-0.07949119
220	0x3d3036e5	0.0430211
221	0xbddf3e74	-0.10900584
222	0xbcfde389	-0.030992286
223	0xbd8bec0a	-0.0683213
224	0x3c068681	0.008210779
225	0x3c9e50b7	0.019325597
226	0x3d15dc81	0.036587242
227	0xbd6709c5	-0.0564058
228	0xbcf99657	-0.030467195
229	0x3bdfe07c	0.0068321805
230	0x3cbe6352	0.023240719
231	0x3c11be00	0.008895397
232	0x3da7cc93	0.08193316
233	0xbc0a5bbb	-0.008444722
234	0x3d77a834	0.060463145
235	0xbd077e9d	-0.033079732
236	0xbcb2239f	-0.021745501
237	0x3ad69e0e	0.0016374008
238	0xbdad9d6e	-0.08477293
239	0x3dab5bd9	0.08367128
240	0xbd33258c	-0.04373698
241	0x3d957c19	0.072990604
242	0x3c8b1b2e	0.016980734
243	0xbd220dfe	-0.039564125
244	0xbde127ad	-0.10993896
245	0xbd34c7a1	-0.044135693
246	0x3d487af7	0.048945393
247	0xbceef827	-0.029171063
248	0xbcff18d0	-0.031139761
249	0xbd9c7257	-0.07638996
250	0xbaa3dab1	-0.0012501088
251	0x3d20c51f	0.03925049
252	0xbd1d1bef	-0.038356718
253	0x3d94fdee	0.07274996
254	0xbcc10280	-0.023560762
255	0xbd194f08	-0.037428886

lstm.weight_ih_l1 f4 [400, 100]
0	0x3d9cde54	0.07659593
1	0xbda2fbcc	-0.07958183
2	0x3d7c8a2e	0.061655216
3	0x3cdf0adc	0.027226858
4	0x3ca63a60	0.020291507
5	0x3d3833ae	0.04497116
6	0x3c95a6f8	0.018268093
7	0xbd85ee9a	-0.0653965
8	0x3d27bf37	0.04095384
9	0x3dbf0d74	0.09328738
10	0xbd274d8c	-0.04084544
11	0x3dabed58	0.08394879
12	0x3da30b35	0.07961122
13	0xbd930e22	-0.0718043
14	0x3d02ea9b	0.03196202
15	0x3db16ede	0.08663724
16	0x3c3d9793	0.011571783
17	0x3cd5b7c3	0.026088601
18	0x3d716cbb	0.058941584
19	0x3d9d5a3a	0.07683225
20	0xbd3b4344	-0.045718446
21	0x3c65b553	0.014020282
22	0xba0e4d46	-0.0005428385
23	0x3c705391	0.014668361
24	0x3d8d0d2b	0.06887277
25	0x3d9e49f1	0.07728947
26	0xbd6e7a12	-0.058221884
27	0x3ccabd0e	0.024748351
28	0x3c43f835	0.011961033
29	0xbcecc8a9	-0.028904276
30	0x3d220414	0.03955467
31	0xbce642d1	-0.028108032
32	0xbdc7edd1	-0.09762157
33	0xbda45e74	-0.08025828
34	0x3d61a801	0.05509186
35	0x3d53af44	0.05168082
36	0xbdccd19d	-0.10000918
37	0xbc284ce6	-0.01027224
38	0xbd6fe528	-0.05856815
39	0xbb68ac65	-0.0035503146
40	0xbd2c138d	-0.042010833
41	0x3dbbddca	0.09173162
42	0xbc9640ee	-0.018341508
43	0x3d66eb35	0.056376655
44	0x3d34215d	0.04397713
45	0xbbb6b4ed	-0.0055757673
46	0x3c8f57b1	0.01749787
47	0x3dd0156b	0.10160335
48	0xbdb1cb11	-0.0868131
49	0xbd00e294	-0.03146608
50	0xbd607a51	-0.05480415
51	0xbd96e761	-0.07368351
52	0xbd8d87e2	-0.06910683
53	0x3c6e1af7	0.014532796
54	0xbd8b81cc	-0.06811866
55	0x3dc3abcd	0.09554253
56	0xbdbc1fc1	-0.09185744
57	0x3d18f597	0.037343588
58	0x3d362989	0.044473205
59	0xbd26b5b9	-0.040700648
60	0x3d33f647	0.04393604
61	0xbd707516	-0.05870541
62	0xbd41baa1	-0.047297124
63	0x3c82e892	0.015980039
64	0x3d8065d1	0.0626942
65	0xbdd16604	-0.10224536
66	0x3db64561	0.08899952
67	0xbdef07f7	-0.11671441
68	0xbcf76e16	-0.03020386
69	0xbd864fb9	-0.06558175
70	0x3bf448d8	0.0074549727
71	0xbd3ec77d	-0.046576966
72	0x3d68fe77	0.0568833
73	0x3d6312f5	0.055438
74	0xbda66670	-0.08125007
75	0x3de8bee6	0.11364536
76	0x3d0f6e63	0.035017382
77	0x3d7d960d	0.061910678
78	0x3d8e3c4f	0.06945097
79	0xbce964d0	-0.028490454
80	0xbd927b81	-0.07152463
81	0xbd55bc61	-0.052181605
82	0xbc9cd951	-0.019146593
83	0xbd9e6a2b	-0.07735094
84	0xbc880ed6	-0.016608637
85	0x3c84ef43	0.01622737
86	0x3d63e0c7	0.055634286
87	0x3d7aff7a	0.061278798
88	0x3da6bde6	0.08141689
89	0xbc1f20da	-0.009712422
90	0xbd9296d0	-0.071576715
91	0x3c8dda19	0.017315911
92	0x3cbfd353	0.023416197
93	0xbd4a4988	-0.04938653
94	0x3d9f18a1	0.077683695
95	0xbd64945e	-0.055805556
96	0xbd5641c1	-0.0523088
97	0x3d99f2cb	0.07517012
98	0x3c8e5327	0.017373635
99	0xbc9906c4	-0.018679984
100	0x3da64d43	0.08120205
101	0x3ccba013	0.024856603
102	0x3d8d95a1	0.06913305
103	0x3cc4f002	0.024040226
104	0xbd3a6c4c	-0.045513436
105	0xbd722251	-0.059114758
106	0xbc947b1e	-0.018125113
107	0x3dbb29c5	0.09138826
108	0x3d28afbe	0.041183226
109	0x3d82e168	0.06390649
110	0x3d89152c	0.06693491
111	0xbd90eb42	-0.07076122
112	0x3db70df2	0.08938207
113	0xbd124225	-0.03570761
114	0x3cdde182	0.02708507
115	0xbd015b84	-0.031581417
116	0x3de0ab0a	0.10970123
117	0xbd9e96ff	-0.07743644
118	0x3d1d893f	0.038460966
119	0xbc0ca6c9	-0.008584687
120	0x3d0ce040	0.03439355
121	0x3d042d2b	0.032269638
122	0xbd704833	-0.058662605
123	0x3ce4650b	0.027880212
124	0x3c418ad0	0.011812881
125	0x3b3c0a12	0.0028692526
126	0x3db5f8d8	0.08885354
127	0xbd52f44b	-0.051502507
128	0xbcf0db46	-0.029401433
129	0x3c404d58	0.01173719
130	0xbc8863b5	-0.016649107
131	0x3da34608	0.07972342
132	0xbd161a82	-0.036646374
133	0x3d90629e	0.0705006
134	0xbd38dc2b	-0.045131844
135	0xbd5a43ed	-0.053287435
136	0x3d49f228	0.049303204
137	0xbda8c297	-0.0824024
138	0x3d8b02cb	0.06787642
139	0xbdb3ffa5	-0.08788995
140	0x3d0d3798	0.034476846
141	0xbca05e82	-0.019576315
142	0x3db1af33	0.08675995
143	0xbd50823c	-0.05090545
144	0xbd46567c	-0.04842232
145	0xbd75482b	-0.059883278
146	0x3d6ff73e	0.058585398
147	0x3c98379c	0.018581204
148	0xbd280ed1	-0.041029755
149	0xbdaa9a4e	-0.083302125
150	0xbd5fa8b7	-0.05460426
151	0x3dbd5046	0.092438266
152	0xbd70f631	-0.058828536
153	0x3d341e30	0.0439741
154	0xbc9feea2	-0.019522969
155	0x3bb52b03	0.005528809
156	0xbd2299c0	-0.03969741
157	0x3c9702e4	0.018433996
158	0x3d5a6241	0.05331636
159	0xbda9e037	-0.08294719
160	0xbc34ca3c	-0.011034545
161	0xbc2a9244	-0.010410849
162	0x3d9c598c	0.07634267
163	0x3c139624	0.009007964
164	0x3c824f1c	0.015906863
165	0xbcb04445	-0.021516928
166	0xbd03c04c	-0.03216581
167	0x3dc98cce	0.098413095
168	0x3c74670e	0.014917148
169	0xbd2374b1	-0.039906207
170	0x3c6ea742	0.014566245
171	0xbd3d0843	-0.046150457
172	0xbda41ef6	-0.08013718
173	0xbdeaaa17	-0.11458223
174	0xbd079e7d	-0.03311013
175	0xbca6a54b	-0.02034249
176	0xbc9a1f17	-0.018813653
177	0xbd240573	-0.04004426
178	0xbb81aacb	-0.0039571277
179	0xbd66d557	-0.0563558
180	0xbd2bda2f	-0.041956123
181	0x3cfeda95	0.031110087
182	0x3d4d5290	0.050127566
183	0xbda9f9e8	-0.08299619
184	0xbd928fa7	-0.07156306
185	0xbdb21c09	-0.086967535
186	0xbdda6691	-0.10664094
187	0xbc8f745e	-0.017511543
188	0xbdce3984	-0.10069564
189	0x3dde7efb	0.10864063
190	0xbd19eeaf	-0.037581142
191	0xbcaaf2c9	-0.020867722
192	0xbd62ecd4	-0.05540164
193	0x3b83c0a1	0.004020766
194	0xbdb74c5c	-0.08950111
195	0xbdd8f6fb	-0.10593983
196	0xbdcb6025	-0.099304475
197	0x3c0f4550	0.008744553
198	0xbd9108c5	-0.07081751
199	0x3daf23b5	0.085517325
200	0xbd8e8647	-0.06959205
201	0x3d346821	0.044044618
202	0x3d214cb7	0.0393798
203	0x3d428193	0.047486853
204	0x3d86ec58	0.06588048
205	0xbd8edff9	-0.06976313
206	0x3dcdfa4b	0.10057505
207	0x3d2b3ceb	0.041806143
208	0x3d47634c	0.04867868
209	0x3cdb1faf	0.026748506
210	0x3a9936c9	0.0011689301
211	0xbcc31d71	-0.02381775
212	0xbdb337ee	-0.08750902
213	0x3d8f56c5	0.06998972
214	0xbd900fc2	-0.070342556
215	0x3dd29fe4	0.10284403
216	0x3db1d915	0.08683983
217	0x3d1f2cbb	0.038861018
218	0x3d9a23b9	0.07526345
219	0xbd87b3d5	-0.06626097
220	0xbd150389	-0.036380325
221	0xbdba457e	-0.09095286
222	0x3da2a62a	0.079418495
223	0x3dbe7649	0.09299905
224	0x3d50dd87	0.050992515
225	0xbc5ba81f	-0.013406782
226	0xbda5e6e7	-0.08100682
227	0xbd123b06	-0.03570082
228	0xbc06dae9	-0.008230903
229	0x3c0c606f	0.008567913
230	0x3c939cd6	0.018019121
231	0xbc016a44	-0.007898871
232	0xbc58dd70	-0.013236389
233	0x3c073e8c	0.008254658
234	0xbd1b9df7	-0.037992444
235	0xbcb0ff04	-0.021605976
236	0xbc280757	-0.010255656
237	0xbdc68174	-0.0969266
238	0x3dbef14a	0.09323366
239	0xbc34a055	-0.011024554
240	0x3c20ec3e	0.0098219495
241	0xbd8e1499	-0.069375224
242	0x3d032c98	0.03202495
243	0xbd68252a	-0.056676067
244	0xbd044d47	-0.03230026
245	0xbd9aa90f	-0.075517766
246	0x3daaec10	0.083458066
247	0xbc8d08bc	-0.017216079
248	0xbd5ba34b	-0.053622525
249	0x39a32e0c	0.0003112409
250	0xbcb7e1b7	-0.022446496
251	0xbcd586d2	-0.026065264
252	0xbd6684e4	-0.056279078
253	0xbda5b0ca	-0.080903605
254	0x3c910982	0.017704729
255	0x3d90541d	0.07047293

lstm.weight_hh_l1 f4 [400, 100]
0	0x3d1c259e	0.038121812
1	0xb9613a07	-0.00021479289
2	0xbd422611	-0.047399584
3	0x3d07396c	0.033013746
4	0xbd146166	-0.0362257
5	0x3d96b9fe	0.07359694
6	0xbd234a8f	-0.039866026
7	0xbd01920b	-0.031633418
8	0xb9f4d1b8	-0.0004669556
9	0x3d8e4629	0.06946976
10	0x3da12126	0.07867651
11	0xbca4220e	-0.02003577
12	0xbd15ad5b	-0.036542278
13	0x3d63a14a	0.05557374
14	0xbdc5b35a	-0.09653349
15	0x3db59bad	0.088675834
16	0xbd096a3d	-0.033548582
17	0x3c014672	0.007890331
18	0xbd8b4910	-0.06801045
19	0x3db166d9	0.08662195
20	0xbd13b0f6	-0.036057435
21	0xbb7a11cc	-0.003815758
22	0x3d8d1874	0.0688943
23	0xbd8d1723	-0.068891786
24	0xbd91d532	-0.07120742
25	0x3d46120b	0.04835705
26	0xbcfc80f3	-0.030823207
27	0x3b4f1e17	0.0031603628
28	0xbdbd6ac1	-0.09248877
29	0xbdccb128	-0.099947274
30	0xbd07f8fa	-0.033196427
31	0xbd649e03	-0.055814754
32	0x3db73c99	0.08947105
33	0x3d1d24da	0.038365223
34	0xbd10518e	-0.035234027
35	0x3da6a561	0.08137012
36	0xbd70c2bf	-0.058779474
37	0xbcddcead	-0.02707609
38	0x3cee85d2	0.029116545
39	0xbd71311c	-0.058884725
40	0xbcfbd805	-0.030742655
41	0xbd9644b2	-0.07337321
42	0xbca11ad2	-0.01966611
43	0x3dc493dd	0.09598515
44	0x3c688636	0.014192155
45	0xbd80efc0	-0.06295729
46	0x3bcea099	0.006305766
47	0xbdb49db4	-0.08819142
48	0x3d5ccb0a	0.05390457
49	0x3d718eda	0.058974124
50	0x3dcb882f	0.09938084
51	0x3d8099ce	0.06279336
52	0xbd44dff8	-0.048065156
53	0xbc1d0d06	-0.009585625
54	0x3da20081	0.07910252
55	0x3c3de27e	0.0115896445
56	0x3d99200c	0.074768156
57	0x3d5815b4	0.052755073
58	0xbbd9e79c	-0.0066499244
59	0x3cd32d72	0.025778506
60	0xbd8f7e4e	-0.070065126
61	0x3ce37e91	0.027770313
62	0x3dc2584a	0.09489496
63	0xbdc78f09	-0.09744079
64	0x3d809b9a	0.06279679
65	0x3dca47ff	0.098770134
66	0xbd6b3a5d	-0.057428706
67	0x3c356c97	0.011073253
68	0xbd4f10ab	-0.050553005
69	0x3dbd3ef1	0.09240521
70	0xbd966961	-0.07344318
71	0xbd412bfe	-0.047161095
72	0x3d1c5090	0.038162768
73	0x3d84f283	0.06491568
74	0xbc0ad981	-0.008474709
75	0x3c8ccbf1	0.01718709
76	0x3bb388f2	0.0054789716
77	0x3d6af5b6	0.057363234
78	0x3d70db2b	0.058802765
79	0x3d9eebf1	0.07759846
80	0x3db7992b	0.08964761
81	0x3dbddb40	0.09270334
82	0x3ce2af6f	0.027671544
83	0x3d5fc75a	0.054633476
84	0xbd982eea	-0.07430823
85	0x3d964781	0.07337857
86	0xbd751819	-0.059837434
87	0xbd2d5a1b	-0.04232226
88	0xbdcba3b5	-0.09943334
89	0x3db526b7	0.08845275
90	0x3d9778f1	0.073961146
91	0xbd2e05b1	-0.042485896
92	0x3dc50ed7	0.09621971
93	0x3d9f9a4b	0.07793101
94	0xbd00d244	-0.031450525
95	0xbd82170d	-0.06352053
96	0xbd558616	-0.052129827
97	0xbd000e87	-0.031263854
98	0x3c9ac37d	0.018892044
99	0x3d484b68	0.048900038
100	0x3d134b4f	0.03596049
101	0x3dad7339	0.084692426
102	0x3c9f0cc7	0.019415272
103	0xbc32bae1	-0.010908813
104	0x3cfe263a	0.031024087
105	0x3da3c66a	0.07996829
106	0xbd164866	-0.03669014
107	0xbd5c765d	-0.053823818
108	0xbcf53aaf	-0.02993521
109	0x3d59b74c	0.05315332
110	0xbbb274ed	-0.0054460675
111	0x3da69a10	0.08134854
112	0xbd598e6e	-0.053114347
113	0x3db2caf8	0.087301195
114	0xbc8347d5	-0.016025463
115	0x3db28cef	0.08718287
116	0x3d730afc	0.059336647
117	0xbd677f64	-0.056517974
118	0x3cda7fcd	0.026672268
119	0x3d004659	0.03131709
120	0x3b5378a2	0.0032267948
121	0xbbf237c7	-0.007391903
122	0xbcdc3309	-0.026879804
123	0xbd77eab2	-0.060526557
124	0xbde1b86c	-0.11021504
125	0x3d20e0d9	0.03927693
126	0x3da32e81	0.07967854
127	0xbd7f4077	-0.062317338
128	0x3a96a232	0.001149243
129	0xbdba2e6d	-0.09090886
130	0x3db65d91	0.08904565
131	0xbda883f1	-0.08228291
132	0x3d90a308	0.07062346
133	0xbca05b35	-0.01957474
134	0x3c72f011	0.014827744
135	0xbd9bbcf5	-0.076044
136	0xbd3a15c4	-0.045430914
137	0xbd271ada	-0.040797092
138	0xbdcae9c7	-0.09907871
139	0xbd4058ea	-0.046959795
140	0xbd39e420	-0.045383573
141	0x3c92ba40	0.017911077
142	0xbcd3ef70	-0.025871009
143	0x3dcff960	0.101549864
144	0x3d237deb	0.039915007
145	0x3d924297	0.07141607
146	0x3d8ff6ed	0.07029519
147	0x3d941567	0.07230645
148	0x3d870442	0.06592609
149	0x3d456346	0.048190378
150	0xbd20c040	-0.039245844
151	0x3cfbfb59	0.0307595
152	0xbd0a8f8b	-0.0338283
153	0xbab9be86	-0.001417116
154	0x3c8cf92d	0.01720866
155	0xbcd591d5	-0.026070515
156	0xbd981f51	-0.07427848
157	0xbd0af0ff	-0.033921238
158	0xbd8271a9	-0.06369335
159	0xbd7689c7	-0.06018999
160	0x3ceb563f	0.028727649
161	0xbd19bd3d	-0.037533987
162	0x3d7c2e32	0.061567493
163	0xbc0c5bee	-0.00856684
164	0x3c94a4a9	0.018144922
165	0xbcaf658e	-0.02141073
166	0xbd820ee8	-0.063504994
167	0x3be68f14	0.007036099
168	0x3ddecb61	0.10878635
169	0xbd9ad4b4	-0.07560101
170	0x3dd8c6b4	0.105847746
171	0x3bfb302c	0.0076656546
172	0xbcfdcb14	-0.030980624
173	0x3dabdd58	0.08391827
174	0xbdb2c64e	-0.0872923
175	0xbc288e9f	-0.01028791
176	0xbdb215ba	-0.0869555
177	0x3c908c0c	0.017644905
178	0xbc769340	-0.015049756
179	0xbd5e52fb	-0.054278355
180	0x3aeab27e	0.0017905978
181	0x3d50d8f2	0.050988145
182	0xbcbfd1fa	-0.023415554
183	0x3a9052bc	0.0011010985
184	0xbc6e4fbd	-0.014545378
185	0x3cfd304a	0.030906815
186	0x3d52bf4e	0.051451974
187	0x3cef2032	0.029190157
188	0x3d4f5c5b	0.050625186
189	0xbd67b0ae	-0.05656498
190	0xbc318f05	-0.010837321
191	0xbda374ae	-0.07981239
192	0x3d5adb82	0.053431995
193	0xbc558ab0	-0.013033554
194	0xbccff6d8	-0.025386259
195	0xbd315f45	-0.043303747
196	0xbbbe6c89	-0.0058112782
197	0xbccd5619	-0.025065469
198	0x3b253287	0.0025207119
199	0x3dae9999	0.0852539
200	0x3dad8e47	0.08474403
201	0xbcd20231	-0.02563581
202	0xbd9cc3c5	-0.076545276
203	0x39def45a	0.00042525196
204	0x3d996c78	0.07491392
205	0x3d23413c	0.039857134
206	0x3c501aaa	0.01270167
207	0xbd2c9ae7	-0.042139914
208	0x3daba923	0.0838187
209	0x3d3e1b5b	0.046412807
210	0xbdc20d5e	-0.09475206
211	0x3cfb0b17	0.030644936
212	0x3c17ac09	0.009257325
213	0xbc5a0826	-0.013307607
214	0x3d909f1c	0.07061598
215	0xbc413e66	-0.011794662
216	0xbdb941b7	-0.09045737
217	0x3d85fbd7	0.06542175
218	0x3dd06c65	0.101769246
219	0x3d3b9a78	0.04580161
220	0xbda2ba41	-0.07945681
221	0x3da1b0a7	0.07895022
222	0xbd03c078	-0.032165974
223	0xbd2adcca	-0.041714467
224	0xbb423ebf	-0.002963945
225	0xbd32b15e	-0.04362618
226	0xbd462fb2	-0.04838533
227	0xbd562da9	-0.05228964
228	0xbca74365	-0.020417878
229	0xbd4a244f	-0.049351033
230	0xbd8a1b32	-0.06743468
231	0xbc5d7ec6	-0.013518995
232	0xbda57174	-0.0807828
233	0xbd73a28a	-0.05948118
234	0xbdc53d49	-0.0963083
235	0xbdd678fb	-0.10472294
236	0x3bef4b87	0.0073027047
237	0xbcd80662	-0.026370231
238	0x3daa4880	0.083146095
239	0x3d653327	0.055956986
240	0x3d5ec511	0.054387156
241	0xbdae2ef9	-0.08505053
242	0xbd8af519	-0.0678503
243	0xbda4b7d5	-0.08042876
244	0x3cffff87	0.031249775
245	0x3daed8a3	0.08537414
246	0x3daf9a79	0.08574385
247	0x3d317113	0.043320727
248	0x3dab6cc4	0.08370355
249	0xbda4863f	-0.08033418
250	0xbdd019de	-0.10161184
251	0xbc9b7c5c	-0.018980198
252	0x3caceb6a	0.021108348
253	0x3dba5a98	0.09099311
254	0xbd45dbfd	-0.0483055
255	0x3d326e24	0.04356207

lstm.bias_ih_l1 f4 [400]
0	0x3d41a863	0.047279727
1	0xbd9f17bf	-0.07768201
2	0xbcf33cff	-0.029692171
3	0x3cef54f7	0.02921532
4	0x3d0f4f03	0.03498746
5	0x3d4cfd59	0.0500463
6	0xbc727558	-0.014798485
7	0xbd534ae8	-0.051585108
8	0xbd1dc233	-0.03851528
9	0xbcc0d429	-0.023538666
10	0xbd48bcb2	-0.04900808
11	0x3da74e61	0.081692465
12	0xbc830e97	-0.015998168
13	0x3c656167	0.014000273
14	0x3c8459fd	0.016156191
15	0x3d5a4a52	0.053293534
16	0x3daca102	0.08429147
17	0x3c3635f1	0.011121259
18	0x3d9bcad0	0.07607043
19	0xbdbda297	-0.09259527
20	0xbd7aebff	-0.06126022
21	0xbd837794	-0.06419292
22	0x3ca98d16	0.020697158
23	0xbd687a5c	-0.056757316
24	0xbd8f88b3	-0.07008495
25	0xbda22068	-0.07916337
26	0x3d7f354b	0.062306684
27	0xbd9a7a86	-0.07542901
28	0x3cfb0c03	0.030645376
29	0xbb064bc6	-0.0020491942
30	0xbdb26253	-0.0871016
31	0x3db12ca4	0.08651093
32	0x3d95897c	0.07301614
33	0x3d9c8b2d	0.07643733
34	0xbd77abbf	-0.060466524
35	0x3de02285	0.10944084
36	0x3cba7e32	0.022765253
37	0xbd835e6a	-0.064144924
38	0xbc3f3e49	-0.011672565
39	0xbcdadf40	-0.026717782
40	0x3c8ce073	0.01719687
41	0x3da0d953	0.07853951
42	0x3d912335	0.07086793
43	0xba2f9d76	-0.0006699184
44	0x3db4cccb	0.08828124
45	0x3be5d32e	0.0070137
46	0x3cb9db71	0.022687646
47	0xbd3b434d	-0.04571848
48	0x3c9c20e1	0.019058647
49	0x3d439714	0.0477515
50	0x3d458829	0.048225556
51	0x3dcc5eda	0.09979029
52	0xbd12675f	-0.035743114
53	0xbdb1f52a	-0.086893395
54	0xbc7e7e54	-0.015533049
55	0x3d229c0d	0.039699603
56	0xbc8acf18	-0.016944453
57	0xbd8f70c5	-0.07003931
58	0xbdb988c8	-0.09059292
59	0x3c246594	0.010033984
60	0xbb72c970	-0.0037046336
61	0xbd92dcc9	-0.07171018
62	0xbbf32a08	-0.007420782
63	0x3d7a1bc5	0.06106164
64	0x3d48b488	0.049000293
65	0x3d5b27ea	0.053504862
66	0x3d32ff11	0.04370028
67	0xbc28faea	-0.010313729
68	0xbc60e167	-0.013725615
69	0xbd81858c	-0.063243
70	0xbcc52e63	-0.02406997
71	0xbd4e535d	-0.05037247
72	0xbb226153	-0.0024777248
73	0xbdbd017d	-0.092287995
74	0x3d712e53	0.05888207
75	0xbd8e8812	-0.06959547
76	0x3d9f6118	0.07782191
77	0xbd3da014	-0.04629524
78	0x3d0424fa	0.032261826
79	0x3db88e6c	0.0901154
80	0x3d9dcb59	0.07704801
81	0xbc959213	-0.01825813
82	0xbcb7c6af	-0.022433607
83	0xbda67921	-0.08128572
84	0xbd820731	-0.06349028
85	0x3dd92ea8	0.10604602
86	0xbd05f7b8	-0.032706946
87	0x3d8f8bee	0.07009111
88	0x3da6adaa	0.081385925
89	0xbcc1a6b9	-0.02363907
90	0x3da4b6cc	0.08042678
91	0xbd0283f8	-0.031864136
92	0x3d8a0b8a	0.06740482
93	0xbd9f8166	-0.07788353
94	0xbd06bc4d	-0.03289442
95	0xbd43d3ae	-0.047809295
96	0xbcbc3952	-0.022976551
97	0xbd9a94be	-0.075479016
98	0x3d9dce10	0.07705319
99	0xbbc1ec85	-0.005918088
100	0xbdb6793b	-0.089098416
101	0xbce1f35d	-0.027581865
102	0x3d2c3c98	0.042049974
103	0x3dc83490	0.097756505
104	0xbd9cff58	-0.076658905
105	0x3c29c48b	0.010361801
106	0xbd39855d	-0.0452932
107	0xbd94c0f7	-0.072633676
108	0xbd849344	-0.06473401
109	0xbd5590ec	-0.05214016
110	0x3d9bed6a	0.076136425
111	0x3d83478d	0.064101316
112	0xbc5f917b	-0.013645525
113	0x3c9fcfaf	0.019508211
114	0xbccace70	-0.02475664
115	0x3d54f5df	0.051992293
116	0x3d180a8b	0.03711943
117	0x3c874428	0.016511992
118	0xbcd6c6eb	-0.026217898
119	0x3d40e2b4	0.0470912
120	0x3c9bdcb8	0.019026145
121	0xbb7377ad	-0.003715019
122	0xbd9a6f36	-0.07540743
123	0xbd9eb1b9	-0.07748742
124	0xbdd66418	-0.1046831
125	0x3dacfc98	0.08446616
126	0x3d86675f	0.06562685
127	0xbd010905	-0.031502742
128	0xbd5f91a5	-0.054582257
129	0xbdc1fa7f	-0.094716065
130	0xbd4949cd	-0.049142648
131	0xbd2f0f99	-0.042739484
132	0xbccda1ce	-0.025101569
133	0x3ddbfc3d	0.1074147
134	0x3d093854	0.033500984
135	0x3dad33d5	0.08457152
136	0xbd014d83	-0.03156806
137	0xbd9ebcd5	-0.077508606
138	0x3cd66908	0.02617313
139	0xbd3a70ef	-0.045517858
140	0x3cb5dd88	0.02220036
141	0x3d1cc3c2	0.038272627
142	0x3d095498	0.03352794
143	0x3d344c4d	0.04401808
144	0xbd8ecc95	-0.06972615
145	0xbd64c17a	-0.055848576
146	0xbb950039	-0.0045471457
147	0xbcfabfb2	-0.030608986
148	0xbc4309f1	-0.011904226
149	0xbd3adf09	-0.04562286
150	0xbcb9905c	-0.022651844
151	0x3d24101a	0.04005442
152	0x3ce20830	0.027591795
153	0x3db71998	0.089404285
154	0x3da92524	0.08259037
155	0x3da93641	0.08262301
156	0xbd16f14c	-0.036851212
157	0x3d905ebb	0.070493184
158	0x3cd4270f	0.02589753
159	0x3d6d00fd	0.05786227
160	0x3dbe6fc2	0.0929866
161	0xbd9a6a90	-0.075398564
162	0x3c38fb36	0.011290362
163	0x3c07c27f	0.008286118
164	0xbd64f7bc	-0.05590032
165	0x3d139064	0.036026374
166	0xbd24af18	-0.040206045
167	0xbb06d1e9	-0.0020571894
168	0xbd7da1a9	-0.06192175
169	0x3d9df929	0.07713539
170	0xbd76a208	-0.06021312
171	0x3d08606c	0.03329508
172	0x3b5b8474	0.0033495696
173	0xbda7fa73	-0.08202066
174	0x3db07ca2	0.08617522
175	0xbd968161	-0.07348896
176	0x3c9f87f9	0.019474017
177	0xbb53ad63	-0.0032299391
178	0x3d6b9741	0.057517294
179	0x3d6a155e	0.057149284
180	0xbdbb0ecd	-0.091336824
181	0xbd82a1ec	-0.063785404
182	0xbcb5b055	-0.022178808
183	0xbd9702cb	-0.073735796
184	0xbdc62808	-0.09675604
185	0x3c43c763	0.011949393
186	0x3c124f12	0.008929985
187	0x3a8ed653	0.0010897614
188	0xbc823687	-0.015895141
189	0xbd9b2ee7	-0.07577305
190	0xbc039b0d	-0.008032572
191	0xbd14a6cf	-0.036291894
192	0x3db87092	0.09005846
193	0x3d835865	0.06413344
194	0x3dbadcce	0.091241464
195	0x3c793506	0.015210396
196	0x3d8828b9	0.06648392
197	0xbd951a3b	-0.07280394
198	0xbd9b72c5	-0.0759025
199	0xbcba2252	-0.022721443
200	0xbcc165dd	-0.023608143
201	0x3b1427ef	0.002260681
202	0x3dcc3226	0.099705026
203	0x3d604d47	0.054761197
204	0x3c6a2f92	0.014293568
205	0x3d238b44	0.039927736
206	0xbd1cdffe	-0.038299553
207	0x3da098c2	0.07841636
208	0xbd9aebf7	-0.07564538
209	0xbd469485	-0.048481483
210	0x3d4fe9ed	0.0507602
211	0xbd797062	-0.060898192
212	0x3ce1d8b2	0.027569149
213	0x3d95db7f	0.07317256
214	0x3d012398	0.031528085
215	0x3d8da835	0.069168486
216	0x3d87ad8f	0.066249005
217	0x3d6d0cc7	0.057873514
218	0x3d86851b	0.065683566
219	0xbd721daf	-0.05911034
220	0xbdc6f07b	-0.09713837
221	0x3de2721d	0.11056922
222	0xbd29f25d	-0.0414909
223	0x3c697253	0.014248448
224	0xbc4acb99	-0.012377643
225	0x3d2376eb	0.03990833
226	0xbc2fec3b	-0.010737474
227	0x3d817580	0.063212395
228	0xbc5158fa	-0.012777561
229	0x3ba7b093	0.005117485
230	0x3d433555	0.047658283
231	0x3d48608b	0.048920196
232	0xbd391326	-0.045184277
233	0xbd5c43d8	-0.05377564
234	0xbd117652	-0.03551323
235	0xbd58800a	-0.052856483
236	0xbdaf519d	-0.085604884
237	0xbdaefd1a	-0.08544369
238	0xbc87015b	-0.016480139
239	0x3db1e2ea	0.086858585
240	0x3cd0bfc4	0.025482066
241	0x3d3d9ea5	0.046293873
242	0xbd6718de	-0.0564202
243	0x3dc72f90	0.09725869
244	0x3cace20c	0.021103881
245	0xbd2593cd	-0.040424157
246	0xbdbb7e14	-0.09154907
247	0xbd5216ab	-0.05129115
248	0x3d81bbce	0.06334649
249	0x3db50089	0.08837993
250	0xbd91a9b6	-0.07112448
251	0xbd18a4b4	-0.03726645
252	0xbcf8187e	-0.030285116
253	0x3dbdd201	0.09268571
254	0xbd53e44a	-0.051731385
255	0x3da069eb	0.07832702
