save_results/lstm_long_term_365d_run5.pt (torch, 312341 bytes, 10 tensors)

lstm.weight_ih_l0 f4 [256, 12]
0	0xbd2c6f84	-0.042098537
1	0x3d1c0345	0.038089056
2	0xbe006f1e	-0.12542388
3	0x3d6c5742	0.057700403
4	0xbd1b1fec	-0.03787224
5	0x3da320ea	0.07965262
6	0x3d8109ac	0.06300673
7	0xbcca6e0b	-0.024710676
8	0xbde1baca	-0.11021955
9	0xbd8bc0f0	-0.06823909
10	0xbce1501c	-0.02750402
11	0x3dd72362	0.105047956
12	0x3ce5e8e7	0.028065158
13	0xbde44f8b	-0.11147984
14	0x3d89eebf	0.0673499
15	0xbdde37c5	-0.10850481
16	0xbd871573	-0.06595888
17	0x3c73a66c	0.014871221
18	0x3bd27ca0	0.006423548
19	0xbda430ad	-0.08017097
20	0x3d7554d7	0.059895363
21	0x3d9c45c9	0.07630498
22	0x3cded2e8	0.027200177
23	0x3d1f71b2	0.038926788
24	0xbd6fd1d0	-0.058549702
25	0xbdc54445	-0.09632162
26	0xbd96aa8a	-0.073567465
27	0xbc84c652	-0.016207848
28	0x3d8810cf	0.06643831
29	0xbdf2ebd3	-0.11861386
30	0x3d16c0b6	0.036804877
31	0xbda22d09	-0.07918746
32	0xbd343d9e	-0.044004075
33	0x3d0b2e9b	0.033979993
34	0xbd8e177b	-0.06938072
35	0x3d4935f8	0.049123734
36	0xbd566e8b	-0.052351516
37	0x3e08d325	0.13361795
38	0xbd817d3c	-0.06322715
39	0xbd84389d	-0.064561106
40	0xbd650e99	-0.055922125
41	0x3d699d4d	0.05703478
42	0x3d6063f1	0.05478281
43	0x3dc45106	0.095857665
44	0xbdb8c23b	-0.090214215
45	0x3dda6d7b	0.10665413
46	0xbcd86153	-0.026413595
47	0x3dc2a8fc	0.095048875
48	0x3d21da7a	0.039514996
49	0xbdcdecbd	-0.1005492
50	0x3c1e4230	0.009659335
51	0x3d0557ac	0.032554314
52	0xbd5d68e6	-0.054055117
53	0xbd199654	-0.03749688
54	0xbd3a9aab	-0.04555766
55	0xbd88f22e	-0.06686817
56	0xbd957205	-0.07297138
57	0xbde1d2c6	-0.1102653
58	0x3dcd5739	0.10026402
59	0xbd3efca5	-0.04662766
60	0xbd1df6cd	-0.038565446
61	0x3cd62853	0.026142275
62	0xbdecc40a	-0.11560829
63	0x3da64c6d	0.08120046
64	0x3d80c9f5	0.0628852
65	0xbdc6a64c	-0.09699687
66	0x3a104535	0.0005503477
67	0xbd3671f6	-0.044542275
68	0xbde1e63d	-0.110302426
69	0xbad4a94c	-0.0016224771
70	0xbdcad9dc	-0.09904835
71	0x3d2286ff	0.039679524
72	0x3ddb57e7	0.107101254
73	0x3cf35887	0.029705299
74	0xbcdeb31f	-0.027185021
75	0xbc1bb0f5	-0.009502639
76	0xbd1c2eba	-0.0381305
77	0xbcc931c5	-0.024559865
78	0xbd8a10ff	-0.06741523
79	0x3da09431	0.07840765
80	0xb7dc11e4	-2.6234375e-05
81	0x3de6f676	0.112774774
82	0xbdcb35a8	-0.099223435
83	0x3d89fd61	0.06737781
84	0xbddbf9fe	-0.107410416
85	0x3de86fa0	0.11349416
86	0x3c98ac39	0.01863681
87	0xbd89f19d	-0.06735537
88	0x3bbd9538	0.0057856105
89	0xbcf06f0d	-0.029349828
90	0x3ba15d06	0.0049244193
91	0xbd923b3a	-0.07140203
92	0x3d4215fc	0.047384247
93	0x3ca76510	0.020433933
94	0xbd7ae4c0	-0.06125331
95	0xbca00e45	-0.019538054
96	0xbd9f4f5d	-0.07778809
97	0xbb8336d6	-0.0040043397
98	0xbd9ba065	-0.07598952
99	0x3dcba961	0.09944416
100	0xbd8f3c16	-0.06993882
101	0xbd115555	-0.03548177
102	0xbd2e3412	-0.042530127
103	0xbdcad3b1	-0.09903658
104	0xbd7741bd	-0.060365427
105	0xbd51c82a	-0.051216282
106	0x3d43e423	0.04782499
107	0x3df9f3e1	0.12204719
108	0xbda4df55	-0.0805041
109	0xbda98433	-0.08277168
110	0x3c8f320d	0.01747992
111	0xbd253a70	-0.040338933
112	0x3de4c10e	0.11169635
113	0x3d6c2a5d	0.05765759
114	0x3dc8ee7b	0.098111115
115	0x3d498878	0.049202412
116	0x3d05f960	0.032708526
117	0xbbe4fcf4	-0.006988162
118	0x3dbb826e	0.09155737
119	0xbd76b798	-0.060233682
120	0x3d99652a	0.07489999
121	0x3cb16010	0.021652251
122	0xbd7479bd	-0.05968641
123	0xbe00645f	-0.12538289
124	0xbda1b23d	-0.078953244
125	0x3dd31856	0.10307376
126	0x3d9752f2	0.073888674
127	0x3de6d2c8	0.11270672
128	0x3d8def60	0.06930423
129	0xbcb54983	-0.02212978
130	0x3d576ddb	0.052595
131	0xbdb7b282	-0.089695945
132	0x3cf67c74	0.03008864
133	0x3dab98a9	0.08378727
134	0xbc687af6	-0.014189472
135	0xbdc1ed6e	-0.09469114
136	0x3b784b4e	0.0037886682
137	0xbcc6b1c7	-0.024254693
138	0x3df82701	0.121168144
139	0x3cd6cc05	0.026220331
140	0x3d8d3a46	0.068958804
141	0x3c80bdc8	0.015715495
142	0x3c4f63ce	0.012658073
143	0x3d940eb6	0.072293684
144	0xbd819e16	-0.063289806
145	0x3d95583c	0.0729222
146	0x3b1762a6	0.002309957
147	0x3c6148d4	0.013750274
148	0xbd0e0a5d	-0.034677852
149	0xbc32e1d3	-0.0109180985
150	0xbd439011	-0.047744814
151	0x3d2737d1	0.040824715
152	0x3abe4314	0.001451584
153	0x3da73a48	0.08165413
154	0x3d87eafc	0.066366166
155	0x3d359d5a	0.044339515
156	0x3c7d8414	0.015473384
157	0x3d71a037	0.058990683
158	0xbca06dd0	-0.019583613
159	0xbd2b4899	-0.04181728
160	0x3d4cdd19	0.050015543
161	0x3dd8a30e	0.10577975
162	0x3d8ec472	0.06971063
163	0xbdcf48f4	-0.101213366
164	0x3df35bf4	0.11882773
165	0x3cab0cb2	0.020880077
166	0xbd8fcd67	-0.07021599
167	0xbd163170	-0.03666824
168	0x3c5ff368	0.013668872
169	0xbca72ed7	-0.020408077
170	0x3d188009	0.03723148
171	0xbcfac792	-0.03061274
172	0x3c4eda02	0.012625219
173	0x3d09982d	0.03359239
174	0xbd877ae0	-0.066152334
175	0x3dc3ff5a	0.09570189
176	0x3d285cbd	0.041104067
177	0xbc448076	-0.011993518
178	0xbd66f02f	-0.0563814
179	0xb9fbc9c7	-0.00048024787
180	0xbd857006	-0.065155074
181	0xbdfe820a	-0.12427147
182	0x3d98bf64	0.0745838
183	0xbdd3016f	-0.10303008
184	0xbdb67e15	-0.08910767
185	0x3afabe92	0.0019130281
186	0xbc3a7a1e	-0.011381654
187	0x3d96c926	0.07362585
188	0xbde32452	-0.11090912
189	0xbdd3b729	-0.103376694
190	0x3d893155	0.066988625
191	0x3d3573fd	0.04430007
192	0xbd4960b7	-0.0491645
193	0x3d9531d8	0.072848976
194	0xbc657d0f	-0.014006867
195	0x3c320712	0.0108659435
196	0x3d50ffe4	0.051025286
197	0xbba90abf	-0.0051587517
198	0x3de99e4e	0.11407147
199	0xbd257bc0	-0.04040122
200	0x3cef033d	0.029176349
201	0xbda17be6	-0.0788496
202	0x3d318ab8	0.043345183
203	0xbdc5e58f	-0.096629255
204	0xbc90cd55	-0.017676035
205	0x3d2786cc	0.040900037
206	0x3d3e682d	0.04648607
207	0x3d85548f	0.06510269
208	0xbd345b4e	-0.044032387
209	0xbd2fc902	-0.042916305
210	0x3dbbf8b5	0.091782965
211	0xbde1892b	-0.11012491
212	0xbd1c2d00	-0.038128853
213	0xbc7fa54b	-0.015603374
214	0xbd453cf3	-0.04815383
215	0x3dbee6bc	0.09321353
216	0xbcbd2127	-0.023087097
217	0xbd9c3c9f	-0.0762875
218	0xbdb353d0	-0.0875622
219	0xbd236dfb	-0.039899807
220	0x3dc8e34f	0.09808981
221	0xbddf9a6c	-0.109181255
222	0xbdcbc85c	-0.09950325
223	0xbc6d189b	-0.014471198
224	0x3d049956	0.032372795
225	0x3cf2a1ea	0.029618222
226	0x3c1a6c60	0.009425253
227	0x3dd11b2b	0.1021026
228	0xbd8f1ece	-0.069882974
229	0x3dd003c1	0.10156966
230	0x3d23c211	0.039979998
231	0xbe03358f	-0.128134
232	0xbdc6c61d	-0.09705756
233	0x3c641218	0.0139203295
234	0xbda6299e	-0.081134066
235	0x3d990426	0.074714944
236	0xbd7dc193	-0.061952185
237	0xbdd3b64b	-0.10337504
238	0x3ca4d493	0.020120895
239	0x3bb3a49e	0.0054822704
240	0x3df975de	0.121806845
241	0x3dc5a3d8	0.09650391
242	0xbd8f3ff0	-0.06994617
243	0xbdb39184	-0.08767989
244	0x3e05b70c	0.13058108
245	0x3db3c4f8	0.08777803
246	0xbd9c2501	-0.076242454
247	0xbd541e3a	-0.05178664
248	0xbd857f1c	-0.06518385
249	0xbd96e4ec	-0.07367882
250	0xbcace7e9	-0.021106677
251	0xbdbe8d9c	-0.093043536
252	0xbbff6616	-0.007794152
253	0x3df4f252	0.119602814
254	0x3d6f504c	0.058426186
255	0xbdde9b2b	-0.1086944

lstm.weight_hh_l0 f4 [256, 64]
0	0x3dee860f	0.116466634
1	0x3df80f99	0.1211235
2	0x3de85a8b	0.11345395
3	0x3d4403b6	0.0478551
4	0xbdba0d48	-0.090845644
5	0xbc0b4b62	-0.008501859
6	0xbdc2e37f	-0.09516048
7	0xbc143e05	-0.00904799
8	0x3d8a377a	0.067488626
9	0xbde27a49	-0.1105848
10	0x3dcde5c9	0.10053594
11	0xbdde3900	-0.10850716
12	0x3e0558b1	0.13022114
13	0xbd917ccf	-0.071038835
14	0x3d13f41b	0.03612147
15	0x3cd0d7ca	0.025493521
16	0xbca0a781	-0.019611122
17	0xbdd534b9	-0.10410447
18	0x3ceaed1a	0.028677512
19	0xbd1d63d1	-0.03842527
20	0xbdf1d9ce	-0.11809121
21	0xbd950284	-0.072758704
22	0x3d06d36d	0.032916475
23	0xbd09e1f8	-0.033662766
24	0xbda478d2	-0.08030857
25	0x3d8d108f	0.06887924
26	0x3df38bbc	0.118918866
27	0x3d6a160e	0.05714994
28	0x3de4b129	0.11166603
29	0xbc1872ef	-0.009304746
30	0xbe03ee30	-0.1288383
31	0xba79c817	-0.0009528412
32	0xbda9668c	-0.082715124
33	0x3df11171	0.11770905
34	0x3d096204	0.03354074
35	0xbcf7d629	-0.030253487
36	0x3c630959	0.013857209
37	0x3d15b8d4	0.03655322
38	0x3cfbb3b8	0.030725345
39	0xbdbb5115	-0.091463245
40	0xbde2e9d9	-0.11079759
41	0x3dbe61d8	0.09296006
42	0x3d3ab88f	0.045586165
43	0xbc872aaf	-0.016499845
44	0x3dcf3406	0.101173446
45	0xbd7d2769	-0.061805163
46	0x3d39e443	0.045383703
47	0x3dfb03a6	0.12256555
48	0xbd764f30	-0.060134113
49	0x3d362555	0.044469196
50	0x3d879f30	0.066221595
51	0xbd8983b1	-0.06714571
52	0xbdd36a10	-0.10322964
53	0x3d969290	0.07352173
54	0xbde84850	-0.113419175
55	0xbdaad5c4	-0.08341554
56	0xbdc31d4b	-0.095270716
57	0x3cdcf4d5	0.026972214
58	0x3d96884f	0.073502176
59	0xbcbb48b7	-0.022861822
60	0xbd2fb335	-0.042895515
61	0x3d8efdc6	0.06981997
62	0x3d6dc01b	0.058044534
63	0x3dba02ee	0.0908259
64	0xbc4f65ef	-0.01265858
65	0x3d771bf9	0.06032941
66	0xbda6ca09	-0.08144004
67	0x3dc4bab7	0.096059255
68	0x3da3e498	0.08002585
69	0xbcddae0e	-0.027060535
70	0xbd983e4f	-0.074337594
71	0xbdb6247b	-0.08893677
72	0x3b4deefa	0.0031422959
73	0xbdd5b9b8	-0.10435814
74	0x3d8193fb	0.06327053
75	0xbdc687f5	-0.096939005
76	0x3dac5b95	0.084159054
77	0xbdf7a9b3	-0.120929144
78	0x3d1d74d2	0.038441487
79	0xbdc823bd	-0.097724415
80	0xbd545c02	-0.051845558
81	0x3d94fc35	0.07274667
82	0xbd820e7f	-0.06350421
83	0xbd689a58	-0.05678782
84	0x3d6da27c	0.058016285
85	0xbdd39cc3	-0.10332634
86	0x3d0d6563	0.034520518
87	0xbceb26ec	-0.028705083
88	0xbd9c2d89	-0.07625873
89	0x3da7ceb9	0.08193726
90	0x3df48563	0.11939504
91	0x3d30abd4	0.043132618
92	0x3db39657	0.087689094
93	0xbd83add0	-0.064296365
94	0x3beb8ec0	0.007188648
95	0xbd6b15b3	-0.05739374
96	0x3dd043c0	0.10169172
97	0x3daad0d8	0.08340615
98	0xbd873ce6	-0.06603412
99	0xbd0396b5	-0.032126147
100	0xbdd6d73a	-0.1049027
101	0x3d56021b	0.0522481
102	0x3d3d9fba	0.046294905
103	0xbdbf1ea1	-0.09332014
104	0x3ce7fa55	0.02831761
105	0x3d54abea	0.051921763
106	0xbdaad2bf	-0.08340978
107	0x3bff5f98	0.007793378
108	0x3da446c8	0.08021313
109	0xbd35b4e4	-0.044361964
110	0x3e02d369	0.12775959
111	0xbd9b7844	-0.07591298
112	0x3d3634f4	0.044484094
113	0xbde99c24	-0.114067346
114	0xbda6c568	-0.08143121
115	0xbde1d016	-0.11026017
116	0x3de6086c	0.11232075
117	0xbdecefb5	-0.11569158
118	0xbdc4125a	-0.09573813
119	0xbdc8f54d	-0.098124124
120	0xbd999af7	-0.0750026
121	0xbdef6365	-0.1168888
122	0xbd9dac86	-0.07698922
123	0xbdaeedaf	-0.08541428
124	0x3df37e0e	0.118892774
125	0xbdce0a43	-0.10060551
126	0xbdf20fad	-0.11819396
127	0xbda254a8	-0.07926303
128	0xbd7ddea8	-0.06197992
129	0xbb548bb9	-0.0032431914
130	0x3e03590b	0.12826936
131	0x3d5ce221	0.05392659
132	0x3c0c9403	0.008580211
133	0x3ccaf0e7	0.024773074
134	0x3cddd929	0.02708109
135	0x3bab52f6	0.0052283956
136	0x3db68498	0.08912009
137	0xbd7f03da	-0.062259533
138	0xbdad445c	-0.08460304
139	0xb953320d	-0.00020141173
140	0x3d956daa	0.072963074
141	0xbd9d749b	-0.07688256
142	0xbd486dbc	-0.048932776
143	0x3dedbb80	0.116080284
144	0x3d641905	0.055687923
145	0xbbb8ad68	-0.005635906
146	0xbd9f257d	-0.07770822
147	0x3dd6c375	0.10486499
148	0x3c7d2abe	0.015452085
149	0x3dd6f635	0.10496179
150	0xbcc2c25c	-0.023774318
151	0x3da232e9	0.079198666
152	0x3de5abe0	0.11214423
153	0x3c916956	0.017750423
154	0xbdac1208	-0.08401877
155	0x3daef7a2	0.08543326
156	0xbd748fbb	-0.059707385
157	0x3daf3a27	0.085560136
158	0x3d8d8837	0.069107465
159	0x3dd8bfef	0.105834834
160	0xbd4e9a73	-0.050440263
161	0x3dfd7d59	0.12377424
162	0x3dac1bb2	0.0840372
163	0x3dd18d86	0.102320716
164	0xbda4b574	-0.08042422
165	0x3cc7f34d	0.024408007
166	0x3da968a8	0.08271915
167	0x3d5f036f	0.054446634
168	0xbd8c64d0	-0.06855166
169	0xbd3c1ba6	-0.045924805
170	0xbdf49032	-0.119415656
171	0x3ca5c0d7	0.020233555
172	0x3d0b6887	0.034035232
173	0x3d712488	0.05887273
174	0x3da6e329	0.08148796
175	0xbdae7cb7	-0.08519881
176	0x3d2f569a	0.0428072
177	0xbdf51ec9	-0.119687624
178	0xbd3786c5	-0.04480626
179	0xbd158814	-0.036506727
180	0x3a394577	0.0007067541
181	0x3c273c07	0.010207183
182	0xbdc70c5b	-0.097191535
183	0xbc93bfed	-0.018035853
184	0xbd542b28	-0.05179897
185	0xbdc383ea	-0.09546645
186	0xbca5962b	-0.020213207
187	0xbd696544	-0.05698134
188	0xbceb923d	-0.028756255
189	0xbd9c1aa8	-0.07622272
190	0x3d5af16d	0.053452898
191	0xbbb64036	-0.0055618538
192	0xbdf66433	-0.1203083
193	0x395d7864	0.00021121051
194	0xbdd6cc4c	-0.10488185
195	0xb98379db	-0.00025077056
196	0xbcd58242	-0.026063088
197	0xbc4644aa	-0.012101332
198	0xbdbfe996	-0.09370725
199	0x3cf73d71	0.030180665
200	0xbdcf3215	-0.10116974
201	0x3dec16cc	0.11527786
202	0x3dd96efb	0.10616871
203	0x3d9e5a56	0.07732074
204	0x3cf45792	0.029826913
205	0xbd643fc4	-0.055724874
206	0xbd82cac4	-0.06386331
207	0x3dbbb885	0.09166054
208	0xbd00c524	-0.031438008
209	0xbcf7f08e	-0.030266073
210	0x3d1b2500	0.037877083
211	0x3ce47220	0.02788645
212	0xbd3d1bce	-0.046169095
213	0x3ab266bf	0.0013610943
214	0xbde643ad	-0.11243377
215	0x3d7caf7c	0.061690792
216	0x3d349771	0.04408974
217	0x3d00bef8	0.031432122
218	0x3ddd8610	0.10816586
219	0xbcbaaab2	-0.022786472
220	0xbd8176b3	-0.06321468
221	0x3de0b7a3	0.10972526
222	0x3d331149	0.043717656
223	0xbd1ce965	-0.03830852
224	0x3caefcd9	0.021360802
225	0x3ddc0e05	0.107448615
226	0x3de980d2	0.11401524
227	0x3e042409	0.12904371
228	0xbde976cb	-0.11399611
229	0xbda7620f	-0.08173
230	0xbc5bf77a	-0.013425702
231	0xbdab97af	-0.08378541
232	0xbd9202ff	-0.07129478
233	0x3cda6ce8	0.026663259
234	0x3df406f3	0.11915388
235	0x3bdc3dea	0.006721248
236	0x3d02091e	0.031746976
237	0xbd263118	-0.040574163
238	0x3df498b9	0.11943192
239	0xbe03263d	-0.12807555
240	0x3e0b157a	0.13582411
241	0xbb74563e	-0.003728285
242	0x3c910eff	0.017707346
243	0xbdaba17c	-0.0838041
244	0x3de6a48d	0.11261854
245	0xbcd36e27	-0.02580936
246	0xbcac19f5	-0.021008471
247	0x3ddb5c08	0.10710913
248	0xbda50202	-0.080570236
249	0xbc9efb04	-0.019406803
250	0x3d9934ae	0.07480751
251	0xbc1cb0f4	-0.009563673
252	0xbda0075e	-0.07813905
253	0xbd9b8989	-0.07594592
254	0x3d7fa974	0.062417462
255	0x3d1072ca	0.03526572

lstm.bias_ih_l0 f4 [256]
0	0xbbda1afc	-0.006656049
1	0xbd923cd4	-0.07140508
2	0xbd024bfa	-0.03181074
3	0x3dac42ed	0.084112026
4	0xbd011281	-0.031511787
5	0x3d326efd	0.043562878
6	0x3dbc7280	0.09201527
7	0x3de14bd4	0.11000791
8	0xbbb57537	-0.0055376547
9	0x3cf73f75	0.030181626
10	0x3e01c2ed	0.12672015
11	0xbd9eab8b	-0.07747563
12	0xbd7c2849	-0.061561856
13	0x3d949a3d	0.07255981
14	0xbd9df36b	-0.07712444
15	0xbdfc2ae9	-0.12312872
16	0x3dddac00	0.10823822
17	0x3b8fea5b	0.004391951
18	0xbdafed40	-0.08590174
19	0xbdb08ab4	-0.086202055
20	0x3d3b7816	0.04576882
21	0x3dceaeb6	0.10091917
22	0x3d457e0e	0.04821592
23	0xbd9ea13f	-0.07745599
24	0xbd275777	-0.040854897
25	0x3cd56027	0.026046826
26	0xbd215767	-0.039389994
27	0x3ba5a091	0.0050545414
28	0x3ca2af7f	0.019859074
29	0x3d239d5e	0.039945
30	0xbb54f8b1	-0.0032496864
31	0x3d28b9f4	0.041192964
32	0xbc17e973	-0.009271967
33	0x3dbb7a3f	0.09154176
34	0x3af2dffb	0.0018529886
35	0xbd3308b9	-0.04370949
36	0x3d215fad	0.039397884
37	0x3bf72a82	0.007542909
38	0xbdb900b2	-0.09033336
39	0xbd039efc	-0.03213404
40	0xbdb570da	-0.08859415
41	0x3d91b135	0.07113878
42	0xbca6eca1	-0.020376505
43	0xbca2c622	-0.019869868
44	0xbdc780fb	-0.09741398
45	0x3de17851	0.11009277
46	0xbdafd085	-0.08584694
47	0x3def1b29	0.11675102
48	0xbc9921d6	-0.018692892
49	0x3dd08b6b	0.10182842
50	0x3cc40ef5	0.023932913
51	0xbdbdb6f2	-0.0926341
52	0xbd0acf15	-0.033888895
53	0xbc801500	-0.015635014
54	0xbdeb09fb	-0.11476513
55	0x3dbd78bb	0.09251543
56	0x3d34b9d8	0.044122547
57	0x3dd27529	0.10276253
58	0x3d99b8b8	0.075059354
59	0x3de68dec	0.11257538
60	0x3cdf5e8a	0.02726676
61	0x3c2673e4	0.010159466
62	0xbd25019d	-0.04028474
63	0x3d145d7e	0.036221974
64	0xbd056656	-0.0325683
65	0xbd210725	-0.039313454
66	0x3c791f34	0.015205193
67	0x3d138322	0.03601373
68	0x3c94ba3f	0.018155215
69	0xbb14b665	-0.0022691723
70	0xbcb1bb3c	-0.021695726
71	0xbc534a0e	-0.012896074
72	0xbd8ba697	-0.06818884
73	0x3d83577c	0.06413171
74	0xbda785e1	-0.08179832
75	0xbd3dfeb2	-0.046385475
76	0x3dd03729	0.10166771
77	0x3dbadbad	0.09123931
78	0xbce6769d	-0.028132731
79	0x3d7d64ad	0.06186359
80	0x3de08b77	0.10964101
81	0xbd970516	-0.07374017
82	0x3dadc262	0.08484341
83	0x3d06b078	0.032883137
84	0xbb3d8eb6	-0.0028924174
85	0xbdaa4110	-0.08313191
86	0x3d4d2bdf	0.050090667
87	0x3e00500f	0.1253054
88	0xbdd1f6d6	-0.10252158
89	0x3be6d09b	0.0070439107
90	0x3d57964c	0.05263357
91	0x3b1b90eb	0.00237375
92	0xbd1e7cd8	-0.03869328
93	0x387356f0	5.801668e-05
94	0xbdd2ef44	-0.102995425
95	0xbc9c7b75	-0.019101838
96	0xbd8dfa1e	-0.06932472
97	0xbcf0390a	-0.029324073
98	0x3df0a093	0.11749377
99	0xbb45928a	-0.0030147159
100	0x3d79ba4b	0.06096868
101	0xbd8fbcc7	-0.07018428
102	0x3cde156d	0.027109826
103	0xbb09cb33	-0.0021025657
104	0x3de5f0e7	0.11227589
105	0x3bc3bb0e	0.0059732264
106	0xbd46956b	-0.04848234
107	0xbcbb2d2b	-0.022848686
108	0x3df52b82	0.11971189
109	0xbdae9c98	-0.08525962
110	0xbdadf0e9	-0.084932156
111	0xbbf17dee	-0.0073697483
112	0xbdb8dc5b	-0.090264045
113	0x3db5a26e	0.08868872
114	0x3db94e63	0.09048154
115	0x3db2bafb	0.0872707
116	0xbbbeb3e1	-0.005819783
117	0xbc30ec66	-0.010798549
118	0x3d16c394	0.03680761
119	0x3df71805	0.12065128
120	0x3d9d8eff	0.0769329
121	0xbdfbe5c8	-0.12299687
122	0xbbca4fe6	-0.0061740754
123	0xbd9467cb	-0.072463594
124	0xbd0d9fef	-0.034576353
125	0x3c812ac8	0.01576747
126	0x3d5eed07	0.054425266
127	0x3afc6bde	0.0019258221
128	0xbda57926	-0.08079748
129	0x3e0ce67b	0.13759796
130	0xbc235010	-0.009967819
131	0x3e05f53e	0.13081834
132	0x3d01dc6d	0.031704355
133	0xbdfb61cf	-0.12274515
134	0xbd9b6c76	-0.07589047
135	0xbb8fd583	-0.0043894663
136	0x3d8e52f2	0.06949414
137	0x3d482e48	0.048872262
138	0x3d858180	0.06518841
139	0x3d9b1a36	0.07573359
140	0xbdbabd37	-0.09118121
141	0x3d8d3581	0.06894971
142	0xbe068f8e	-0.131407
143	0xbddd7747	-0.10813766
144	0x3d953d43	0.07287075
145	0x3d8085dc	0.06275532
146	0x3d82a68d	0.06379423
147	0x3dbd9ebf	0.09258794
148	0x3dcf2046	0.101135775
149	0xbd3d8624	-0.046270505
150	0x3c0eabb4	0.008707929
151	0x3dce3d12	0.10070242
152	0xbdf92d97	-0.12166899
153	0x3d28edd7	0.041242447
154	0x3d6578b8	0.05602333
155	0xbd6c3f35	-0.057677466
156	0x3d6c4e56	0.057691894
157	0xba2ecc06	-0.0006667975
158	0xbb64cd3b	-0.0034912366
159	0xbdabc1c1	-0.08386565
160	0x3dca8f7b	0.09890648
161	0xbe0a6780	-0.13516045
162	0xbcdf8e03	-0.027289396
163	0xbdecdfb6	-0.11566107
164	0xbc0667f3	-0.008203494
165	0xbc7a3da6	-0.015273487
166	0xbd3b5638	-0.04573652
167	0x3d095277	0.03352591
168	0xbdf05aea	-0.117360905
169	0xbca3c02d	-0.019989097
170	0x3d31dc3f	0.043422934
171	0x3cb33343	0.02187503
172	0x3d852838	0.06501812
173	0x3d03d3c1	0.032184366
174	0x3df6fb5c	0.12059662
175	0xbd619596	-0.055074297
176	0x3daec78d	0.08534155
177	0x3d281bf8	0.041042298
178	0x3d79e4ad	0.061009098
179	0x3da78a40	0.08180666
180	0x3dc0f3c8	0.094214976
181	0x3d57cc29	0.052684937
182	0xbdd0fc06	-0.1020432
183	0x3dc92243	0.09820988
184	0xbcaa17d4	-0.020763315
185	0xbc7b8880	-0.015352368
186	0x3d6b5d4a	0.057462014
187	0xbd4dabe4	-0.050212756
188	0x3da88766	0.0822895
189	0xbdcce6de	-0.10004972
190	0xbe015fd2	-0.12634209
191	0x3d8abb22	0.06773974
192	0x3d3b48b7	0.045723643
193	0xbdc27613	-0.09495177
194	0x3c9232f5	0.017846564
195	0x3d14cf55	0.03633054
196	0xbbc69a35	-0.0060608634
197	0xbce091db	-0.0274133
198	0xbbd61e04	-0.00653434
199	0xbda386a0	-0.07984662
200	0xbbf4ec56	-0.0074744625
201	0xbdae2b71	-0.085043795
202	0x3d7c5101	0.06160069
203	0x3c30e51d	0.010796812
204	0xbdb0e2e5	-0.08637027
205	0x3ddaa597	0.10676115
206	0x3caae917	0.020863099
207	0xbdd754af	-0.10514199
208	0x3d750491	0.059818808
209	0x3d08f6e3	0.033438575
210	0x3dc669a6	0.096881196
211	0xbdb1b1c2	-0.08676483
212	0x3ca83cc9	0.020536797
213	0x3d4ad9b5	0.049524028
214	0x3c0541fc	0.008133408
215	0xbd983c5b	-0.07433387
216	0x3dd3d555	0.10343424
217	0x3de50b06	0.11183743
218	0xbdab5edf	-0.083677046
219	0x3d055757	0.032553997
220	0x3e046aa0	0.12931299
221	0x3e06e48c	0.13173121
222	0x3c9a8757	0.018863363
223	0x3d2353cb	0.039874833
224	0x3da6c3e9	0.08142836
225	0xbd439e8a	-0.047758617
226	0x3d526318	0.051364034
227	0x3d4c7ad1	0.049921814
228	0x3ce37b61	0.027768793
229	0x3da50e20	0.08059335
230	0x3dc9d2d8	0.098546684
231	0xbd8543a5	-0.06507043
232	0xbd4963f1	-0.049167577
233	0x3d9f8fb5	0.07791082
234	0xbcecb9a1	-0.028897109
235	0xbd099e46	-0.033598207
236	0x3d4f6eef	0.050642904
237	0xbd921c7d	-0.0713434
238	0x3da1c709	0.07899291
239	0x3dfb8e53	0.122830056
240	0xbde326bf	-0.110913746
241	0x3dc2d61b	0.095134936
242	0xbd28008a	-0.04101614
243	0xbd34b044	-0.044113412
244	0xbd8758bb	-0.06608721
245	0x3d5ab57e	0.05339574
246	0xbd8a2d5a	-0.067469314
247	0x3d9233de	0.07138799
248	0x3d1b59c4	0.037927404
249	0x3cee2b24	0.029073305
250	0x3cbcd103	0.023048883
251	0xbd95842c	-0.073006004
252	0x3ddc5fd3	0.107604645
253	0xbd94764c	-0.07249126
254	0xbd5d1d0b	-0.053982776
255	0xbd724d7e	-0.059155934

lstm.bias_hh_l0 f4 [256]
0	0xbb22a39d	-0.002481676
1	0x3c733ab2	0.014845537
2	0x3de1f736	0.1103348
3	0xbdc098d3	-0.09404149
4	0xbdc04618	-0.09388369
5	0x3cfc6db6	0.030814033
6	0xbdd7f36e	-0.105444774
7	0xbb35bfe2	-0.002773278
8	0x3de2badf	0.11070799
9	0x3dfdbcf3	0.12389555
10	0x3ded0267	0.11572724
11	0xbd3f768f	-0.046743926
12	0x3b80fe0d	0.003936535
13	0xbc5038dc	-0.012708869
14	0x3e07b479	0.13252439
15	0xbde3907d	-0.11111543
16	0xbd6bec83	-0.057598602
17	0xbd2b1b2d	-0.041773964
18	0xbde720ae	-0.1128553
19	0x3d6c90d0	0.05775529
20	0x3d6bc5b8	0.057561606
21	0x3d108bc4	0.03528954
22	0x3c5c01a6	0.013428127
23	0x3de0d77d	0.10978601
24	0xbd44a89f	-0.048012372
25	0x3d6586d9	0.056036804
26	0x3e011e43	0.126092
27	0xbddfae52	-0.10921921
28	0x3ce8d1d0	0.028420359
29	0xbcd63437	-0.026147945
30	0xbd21981c	-0.039451703
31	0xbd21ede3	-0.039533507
32	0x3cc6fa84	0.024289377
33	0x3dd2a27b	0.10284897
34	0xbdc3f556	-0.095682785
35	0xbc3339b4	-0.0109390505
36	0x3d68ab13	0.056803774
37	0xbde07c22	-0.109611765
38	0x3ddc0ebe	0.10744999
39	0xbcd22505	-0.025652418
40	0xbb8132eb	-0.0039428375
41	0xbd52203b	-0.05130027
42	0x3cf5c365	0.030000398
43	0x3c83e275	0.016099194
44	0xbd0f203a	-0.034942843
45	0x3ddf7661	0.10911251
46	0x3d9901e5	0.074710645
47	0x3da60665	0.081066884
48	0x3d979128	0.07400733
49	0xbdc7bc21	-0.097526796
50	0x3a946d2b	0.0011324038
51	0x3cd0761b	0.025446942
52	0x3e1298e8	0.14316142
53	0x3dd23218	0.10263461
54	0xbda5692d	-0.08076701
55	0x3d2bb4ab	0.041920345
56	0xbdcb2219	-0.09918613
57	0x3d662acb	0.056193154
58	0x3db695eb	0.08915313
59	0xbb0d5ff1	-0.0021572078
60	0xbd50d969	-0.05098859
61	0x3d3c62ed	0.04599278
62	0xbd025145	-0.031815786
63	0x3cebaa8b	0.028767845
64	0x3df57700	0.11985588
65	0xbd93ccb8	-0.072167814
66	0x3d934aff	0.07192039
67	0xbd0fde17	-0.03512391
68	0x3cb8fece	0.022582438
69	0xbd3f08c8	-0.046639234
70	0x3d9f081a	0.07765217
71	0xbdcf79b2	-0.101306334
72	0xbdc96f6f	-0.098357074
73	0xbbaf138c	-0.0053429063
74	0xbd9a5abb	-0.07536837
75	0xbd90f9b2	-0.070788756
76	0x3d7a2f57	0.061080303
77	0xbd1cd53a	-0.038289286
78	0xbd6be5f7	-0.05759236
79	0xbdb02fa0	-0.08602834
80	0x3d968f86	0.07351594
81	0xbdadd72a	-0.08488305
82	0x3e00364b	0.12520711
83	0xbc85bb90	-0.016324788
84	0x3d72f9e6	0.059320353
85	0x3dd8d5f2	0.10587682
86	0x3d271ba7	0.040797856
87	0x3d8d0e5c	0.068875045
88	0x3d51f366	0.051257513
89	0xbb7b8828	-0.0038380716
90	0x3de74962	0.112932935
91	0xbc608c1e	-0.013705282
92	0x3dfb03f3	0.12256613
93	0x3dfdbefd	0.12389944
94	0xbd87dc26	-0.06633787
95	0xbb9bdd0f	-0.004756577
96	0x3ce2b2f4	0.027673222
97	0xbdc1fd04	-0.09472087
98	0xbd5b9918	-0.0536128
99	0xbdcd3493	-0.10019793
100	0xbdd6c41c	-0.10486624
101	0x3d6c8321	0.05774224
102	0xbd976b0a	-0.07393463
103	0xbca0acc4	-0.019613631
104	0x3dc7d985	0.097582854
105	0x3d92b8fe	0.07164191
106	0x3df0f944	0.11766294
107	0xbdd742d2	-0.10510792
108	0x3dbfe168	0.09369165
109	0xbccd2782	-0.025043253
110	0x3e0a5486	0.13508806
111	0xbde23fd0	-0.110473275
112	0x3c36d333	0.011158752
113	0xbbceea64	-0.0063145626
114	0x3df3d14d	0.11905155
115	0xbd379be7	-0.044826414
116	0x3da756df	0.08170866
117	0x3da3ccb4	0.079980284
118	0xbd93f61e	-0.072246775
119	0x3d074c1f	0.03303158
120	0xbdbe0ffe	-0.09280394
121	0x3ce2bc6d	0.027677739
122	0x3d3f2412	0.04666526
123	0x3e0509cb	0.12992017
124	0xbcd11754	-0.025523819
125	0xbc33f3a3	-0.0109833805
126	0xbcd03987	-0.025418056
127	0x3dbf485c	0.09339973
128	0xbdf02c14	-0.11727157
129	0x3d7d7329	0.061877403
130	0xbda07041	-0.07833911
131	0x3d7a1610	0.061056197
132	0x3c36cf9d	0.011157897
133	0x3daf94bf	0.08573293
134	0x3dce49ae	0.10072647
135	0x3ba0d90f	0.004908688
136	0x3d90dfa8	0.07073909
137	0xbdcdac1b	-0.10042592
138	0xbd67b451	-0.056568448
139	0x3de07898	0.109605014
140	0x3c68a271	0.014198885
141	0x3c00afa6	0.007854378
142	0xbddc290a	-0.10750015
143	0xbd92ea12	-0.071735516
144	0x3ce018e2	0.027355615
145	0xbbb41a71	-0.005496316
146	0x3cc3c207	0.02389623
147	0xbda33f03	-0.07971003
148	0x3db8040e	0.08985148
149	0x3d169788	0.036765605
150	0x3d97b6af	0.07407891
151	0x3db66106	0.089052245
152	0x3dbf41af	0.093387
153	0x3dcfe847	0.10151725
154	0x3dd9660a	0.106151655
155	0xbdb47cbb	-0.08812853
156	0x3da4a681	0.080395706
157	0x3deb4b0c	0.114889234
158	0x3d8b49a3	0.068011545
159	0x39d06396	0.0003974705
160	0x3de6cfd3	0.11270108
161	0xbd9b0d82	-0.07570936
162	0x3e0f7b7b	0.14011948
163	0x3dcf5dfa	0.101253465
164	0xbe01e74f	-0.12685893
165	0xbcffbd01	-0.031218054
166	0x3d2b2840	0.041786432
167	0xbdb3fb51	-0.08788169
168	0x3d57b00a	0.05265812
169	0xbd11a4da	-0.035557605
170	0x3d3f794b	0.046746533
171	0xbd1b804f	-0.03796416
172	0x3d8c2007	0.06842046
173	0x3d3ac3df	0.045596953
174	0x3ddd83ac	0.1081613
175	0xbd6e89f6	-0.05823704
176	0xbdb63641	-0.08897067
177	0x3da3b272	0.0799302
178	0x3d3e2528	0.046422154
179	0x3dafacb4	0.085778624
180	0xbd3f83a5	-0.046756405
181	0xbd87e36d	-0.06635175
182	0x3bbb5588	0.005716983
183	0xbdc84a93	-0.09779849
184	0xbd07bd10	-0.03313929
185	0xbd99213f	-0.07477044
186	0xbe037091	-0.1283591
187	0xbdb593a9	-0.088660546
188	0x3dd523e0	0.10407233
189	0x3b47dee9	0.0030497855
190	0x3d8cf118	0.068819225
191	0xbdd6b754	-0.10484186
192	0x3cd2cbfd	0.025732035
193	0x3df151d5	0.11783186
194	0x3d4b40ea	0.049622454
195	0xbddc2d06	-0.10750775
196	0xbc816254	-0.015793957
197	0xbd86f7af	-0.06590211
198	0x3c5114f6	0.012761345
199	0x3c1d4fd7	0.009601555
200	0x3c0446be	0.008073507
201	0x3d9d18bb	0.076707326
202	0xbc980d86	-0.018561136
203	0x3d7c8b7c	0.06165646
204	0xbdbcd04d	-0.09219418
205	0xbd8f2bfb	-0.069908105
206	0xbc62ebf0	-0.013850197
207	0xbdc43f03	-0.09582331
208	0xbd1d028b	-0.038332503
209	0x3d55b3dd	0.052173484
210	0x3d1d87dc	0.038459644
211	0x3c89094a	0.016728062
212	0x3dbcfb23	0.09227588
213	0xbd898dc0	-0.0671649
214	0x3df462dc	0.119329184
215	0x3d3fd658	0.046835274
216	0xbd5e3b30	-0.054255664
217	0xbd525d61	-0.051358584
218	0xbdcfc4e1	-0.101449735
219	0xbd3e2ba1	-0.046428327
220	0x3d8e6758	0.06953305
221	0xbd577797	-0.052604284
222	0xbcb6a8ad	-0.022297228
223	0xbd9fb316	-0.0779783
224	0x3d5e3005	0.054245014
225	0x3d7c687a	0.061623074
226	0x3d61b1a4	0.055101052
227	0x3d17ee15	0.037092287
228	0xbc282596	-0.010262867
229	0xbcc9a46c	-0.024614535
230	0xbdebcc48	-0.11513573
231	0xbaf34617	-0.0018560317
232	0x3dded6c7	0.10880809
233	0x3db5012b	0.088381134
234	0x3df2d479	0.11856932
235	0xbd8c1a09	-0.06840903
236	0xbd9f3d37	-0.07775348
237	0x3cbff921	0.023434224
238	0x3d5f4deb	0.054517668
239	0x3e046d88	0.12932408
240	0x3d2eba8e	0.04265838
241	0x3df18293	0.11792483
242	0x3d475c82	0.048672207
243	0x3d18bbbd	0.037288416
244	0xbb3e9eb4	-0.0029086294
245	0x3d817a4f	0.06322157
246	0xbde3e406	-0.111274764
247	0x3cc0eab2	0.023549411
248	0x3d5af28a	0.05345396
249	0xbd2b7e36	-0.04186841
250	0xbd0b3344	-0.033984438
251	0xbd2586c9	-0.040411744
252	0xbd9ba7f3	-0.07600393
253	0xbd861264	-0.065464765
254	0xbdac1050	-0.08401549
255	0x3db6e428	0.08930236

lstm.weight_ih_l1 f4 [256, 64]
0	0x3cf968c9	0.030445473
1	0xbdbad465	-0.09122542
2	0x3d96722f	0.073459975
3	0xbdf5e0ad	-0.12005744
4	0x3d8f1e0f	0.06988155
5	0x3d7e0142	0.06201292
6	0x3cae5b25	0.021283695
7	0xbd0b1fb9	-0.0339658
8	0x3bd6abee	0.0065512573
9	0xbdbc879d	-0.09205554
10	0xbd0521fb	-0.03250311
11	0xbdc35ff2	-0.095397845
12	0xbda731c4	-0.08163789
13	0xbc89cd43	-0.01682151
14	0x3d4e1de0	0.05032146
15	0xba9fa814	-0.0012180828
16	0xbd881291	-0.06644166
17	0x3d530f08	0.051528007
18	0x3da9b2ca	0.082860544
19	0xbcad1d14	-0.02113203
20	0xbd1883a6	-0.037234925
21	0xbdfb38f1	-0.1226672
22	0xbdf21ac0	-0.118215084
23	0x3cc434a2	0.023950879
24	0xbdffb1cc	-0.12485084
25	0x3d0e13b2	0.03468675
26	0xbdc380b0	-0.095460296
27	0x3be1853a	0.006882337
28	0x3c8d38ae	0.017238941
29	0xbd42e8e1	-0.047585372
30	0xbd2868f2	-0.04111571
31	0xbc5b4687	-0.013383514
32	0xbdf61095	-0.120148815
33	0xbd37ff77	-0.044921365
34	0xbb532b84	-0.0032221982
35	0x3c99a7b7	0.01875673
36	0x3ca630a8	0.020286873
37	0x3bb09587	0.005388919
38	0x3dfdb2f8	0.12387651
39	0x3d62df4e	0.05538874
40	0xbcdffb5e	-0.02734154
41	0x3d2b980a	0.041893043
42	0x3e05b9bd	0.13059135
43	0x3d9bf38c	0.07614812
44	0x3d4fc494	0.05072458
45	0xbde5d557	-0.11222332
46	0xbd7b1bba	-0.06130574
47	0x3d49252d	0.04910772
48	0xbd97779c	-0.073958606
49	0xbde48684	-0.11158469
50	0xbdb9d825	-0.090744294
51	0xbd920084	-0.071290046
52	0x3da354c1	0.0797515
53	0x3b0929b5	0.00209294
54	0x3b9d4241	0.004799158
55	0xbda59aed	-0.080861904
56	0x3d26baef	0.040705618
57	0x3dd3f5ac	0.103495926
58	0x3cff194f	0.031139998
59	0xbc2459e8	-0.010031201
60	0x3dc91517	0.09818476
61	0x3db78cf9	0.08962435
62	0xbdbe82bb	-0.093022786
63	0x3cc700a5	0.0242923
64	0xbdc3f5ff	-0.095684044
65	0xbd128d46	-0.03577926
66	0xbc17f3ce	-0.009274436
67	0x3cb298e1	0.021801414
68	0x3d26d437	0.040729728
69	0x3d965223	0.07339885
70	0x3df64ead	0.12026725
71	0x3df34e5a	0.11880179
72	0xbd6cf4f7	-0.057850804
73	0xbcba9cde	-0.022779878
74	0x3db5bb65	0.08873633
75	0x3d74e305	0.059786815
76	0x3cb726e9	0.022357421
77	0x3ca22bf9	0.019796358
78	0x3db11bc8	0.08647877
79	0x3df1cd8f	0.11806785
80	0xbd90e1e1	-0.07074333
81	0xba1b8318	-0.0005932315
82	0xbdcaaaf7	-0.0989589
83	0x3d0c4071	0.034241144
84	0x3d9dd2bd	0.07706211
85	0xb8f39baa	-0.000116161376
86	0x3dd30466	0.10303573
87	0x3d4c3ff6	0.049865685
88	0x3d9a2b96	0.075278446
89	0x3dbe7649	0.09299905
90	0xbcb1e65e	-0.021716293
91	0xbd8209a1	-0.06349493
92	0xbdceea83	-0.10103323
93	0xbd15bca8	-0.03655687
94	0xbd30c62a	-0.043157734
95	0x3d9e2fa7	0.07723933
96	0x3dc46abc	0.095906705
97	0xbcc2db8a	-0.023786325
98	0xbe0373a7	-0.12837087
99	0xbb5a914c	-0.0033350764
100	0x3ce63ee3	0.028106159
101	0x3d4bbe98	0.04974231
102	0x3d4a4cee	0.049389772
103	0xb948676f	-0.00019112018
104	0xbdc2d333	-0.09512939
105	0xbd5f6ebd	-0.054548968
106	0x3d6a0bb4	0.057140067
107	0x3df014eb	0.1172274
108	0x3c03f970	0.008055076
109	0x3dd34435	0.10315744
110	0xbde529ea	-0.11189635
111	0xbdb034ac	-0.08603796
112	0xbdf0d502	-0.11759378
113	0xbd9502df	-0.07275938
114	0x3d13c171	0.036073152
115	0x3d43eadd	0.047831405
116	0x3d97f3cd	0.07419548
117	0x3d7896c4	0.060690656
118	0xbdb1ca9c	-0.08681223
119	0xbc8d461a	-0.017245341
120	0x3e11bd0a	0.14232269
121	0x3d46a38b	0.04849581
122	0x3b75bf57	0.003749808
123	0xbda2bc34	-0.07946053
124	0xbdc46d07	-0.09591108
125	0x3cc6e737	0.024280174
126	0xbd83d029	-0.06436188
127	0x3dcd9053	0.10037293
128	0x3bcb7ded	0.00621008
129	0x3e17d4fa	0.14827338
130	0xbb2e43ca	-0.0026590698
131	0xbd07c891	-0.03315026
132	0x3cb5398a	0.022122163
133	0xbe024b52	-0.12724045
134	0xbc4b1c70	-0.012396917
135	0xbe170198	-0.14746702
136	0x3d197a1a	0.03746996
137	0x3ddc1a88	0.10747248
138	0xbd7e070c	-0.06201844
139	0x3e098c35	0.13432391
140	0x3dac1696	0.084027454
141	0x3dc4c682	0.09608175
142	0xbc5eadda	-0.013591254
143	0xbdbd66c5	-0.09248117
144	0x3d3dcef4	0.046339944
145	0xbdbed298	-0.09317511
146	0xbdd1ff30	-0.10253751
147	0x3db10626	0.08643751
148	0xbd4c0251	-0.049806897
149	0x3d8c3629	0.06846268
150	0xbde2faa4	-0.11082962
151	0xbdb04791	-0.086074
152	0xbca62de9	-0.020285564
153	0x3e07ec6e	0.13273785
154	0x3e079252	0.1323941
155	0xbe17f1ad	-0.14838286
156	0x3d6c0f44	0.057631746
157	0xbcca0c30	-0.024664015
158	0x3e07af79	0.13250531
159	0x3d875128	0.06607276
160	0x3dfdcc94	0.12392536
161	0x3d0defa4	0.034652367
162	0x3d057b95	0.03258856
163	0x3d3b2240	0.04568696
164	0xbd7600a9	-0.060059223
165	0xbc9c5c72	-0.01908705
166	0xbc458edb	-0.012057985
167	0xbdad3921	-0.08458162
168	0xbdddf100	-0.10836983
169	0xbdf03393	-0.11728587
170	0x3d8eb613	0.06968322
171	0xbd8d6c3f	-0.06905412
172	0x3e0bb6b3	0.13643913
173	0x3d8c8889	0.068619795
174	0x3cb0f204	0.021599777
175	0xbc8646dc	-0.01639121
176	0x3d71c8b0	0.05902928
177	0x3c95a6bc	0.018267982
178	0x3b2ed8a8	0.002667943
179	0x3ccca92a	0.024983007
180	0xbdda6279	-0.106633134
181	0xbdc0e52a	-0.094187096
182	0xbd903717	-0.070417576
183	0x3d16e17c	0.036836132
184	0xbc2c86ae	-0.010530157
185	0x3b141373	0.00225946
186	0x3dbee8e4	0.09321764
187	0x3abf7d9e	0.001460958
188	0xbd6e5db2	-0.058194824
189	0xbcce209c	-0.025162034
190	0xbe0a34f3	-0.13496761
191	0xbd948f28	-0.072538674
192	0xbc89592c	-0.016766153
193	0xbd773714	-0.06035526
194	0xbd5b2489	-0.05350164
195	0x3d0d8fc6	0.03456094
196	0xbd537c6a	-0.051632322
197	0xbdee2bd1	-0.11629451
198	0xbd778ea6	-0.060438775
199	0xbd3d7852	-0.046257325
200	0xbdeaf20d	-0.11471949
201	0xbdc68c46	-0.09694724
202	0x3dccb8e7	0.09996205
203	0x3dc0e306	0.09418301
204	0x3bc01790	0.005862184
205	0x3dbf1756	0.09330623
206	0xbdf04f45	-0.117338695
207	0xbc8e50ae	-0.017372455
208	0x3de03d86	0.10949235
209	0x3de084ae	0.10962807
210	0xbd3d61cb	-0.04623584
211	0x3dbd0032	0.09228553
212	0x3dbeb862	0.09312512
213	0x3a96f9c8	0.0011518532
214	0x3c803aaf	0.015652983
215	0xbc00614e	-0.007835699
216	0x3c386095	0.011253496
217	0xbce02db3	-0.027365541
218	0xbd29ce1b	-0.041456323
219	0x3cf31d3c	0.029677026
220	0x3da7612d	0.08172832
221	0xbdd7e977	-0.10542577
222	0xbb67ecc8	-0.0035388935
223	0x3dcd460a	0.100231245
224	0x3d726497	0.05917796
225	0xbde251fa	-0.11050792
226	0xbd62a757	-0.05533537
227	0x3d975838	0.07389873
228	0xbd329513	-0.0435992
229	0xbe014cce	-0.12626955
230	0xbd72341e	-0.059131734
231	0xbcf79495	-0.030222217
232	0x3d8311b1	0.06399859
233	0x3cd24255	0.025666395
234	0x3d649510	0.05580622
235	0xbdaeef4a	-0.085417345
236	0x3d42c886	0.047554515
237	0x3d91abe1	0.071128614
238	0xbcd0e34a	-0.025499005
239	0x3c3f5697	0.0116783595
240	0x3d50e794	0.0510021
241	0xbc9d30b9	-0.019188272
242	0x3d74d30c	0.059771582
243	0xbc7c73b9	-0.01540845
244	0x3d8e1e74	0.06939402
245	0xbdad5099	-0.084626384
246	0xbd343967	-0.044000056
247	0xbd495494	-0.049152926
248	0xbdb9198f	-0.09038078
249	0x3dae03d9	0.08496828
250	0x3dcd6887	0.10029703
251	0xbd1348c3	-0.035958063
252	0xbd277620	-0.040884137
253	0x3d8dea44	0.06929448
254	0xbcfefed1	-0.031127365
255	0xbd2414e6	-0.040058993

lstm.weight_hh_l1 f4 [256, 64]
0	0x3d19d7fb	0.03755949
1	0xbdb162d9	-0.08661432
2	0xbdbbcb14	-0.091695935
3	0xbda30472	-0.07959832
4	0x3da560cb	0.080751024
5	0x3dcf8058	0.101319015
6	0x3b999ffc	0.004688261
7	0xbdc12ff3	-0.09432974
8	0x3daf2238	0.085514486
9	0xbd90943d	-0.07059524
10	0x3cf9365f	0.030421434
11	0x3d857e58	0.06518239
12	0xbdb2f9b5	-0.08739034
13	0xbdc2ebaa	-0.095176056
14	0xbd9e8542	-0.07740261
15	0x3ceadb16	0.028668921
16	0x3d789eab	0.060698193
17	0xbc3c2ffc	-0.01148605
18	0xbd4ad0b2	-0.049515434
19	0x3d4af769	0.049552355
20	0xbdd1af1d	-0.10238478
21	0x3ddadffa	0.106872514
22	0xbded4bf6	-0.11586754
23	0xbb92c8ed	-0.0044795186
24	0x3d9c7cab	0.07640966
25	0xbcbc65d7	-0.02299778
26	0x3e05a50f	0.13051246
27	0xbd1505f1	-0.03638262
28	0x3d40c909	0.047066722
29	0xbd8e960a	-0.069622114
30	0xbd0e60bb	-0.034760218
31	0x3cfbae93	0.030722892
32	0xbd95e728	-0.0731948
33	0x3d9ef57c	0.07761666
34	0x3d1e3a7a	0.038629986
35	0x3d70d197	0.05879363
36	0x3dc98ff3	0.09841909
37	0xbd8d7257	-0.06906574
38	0x3c28af68	0.010295726
39	0xbd42b7cc	-0.047538564
40	0xbd1b482c	-0.037910625
41	0xbdcd5756	-0.10026424
42	0x3e0348ea	0.12820783
43	0xbd0a7680	-0.033804417
44	0xbdafbd53	-0.085810326
45	0xbc865651	-0.01639858
46	0xbdd39860	-0.103317976
47	0xbd6480a0	-0.05578673
48	0xbcc9ad72	-0.024618838
49	0x3cc16171	0.023606034
50	0x3d065a28	0.032800823
51	0x3dcb5545	0.09928373
52	0xbdd460fd	-0.103700615
53	0xbd3be106	-0.045868896
54	0x3df279db	0.11839648
55	0xbd47971d	-0.048728097
56	0xbd39d263	-0.045366656
57	0xbd6d2490	-0.057896197
58	0xbce8bb63	-0.028409665
59	0x3de3a013	0.11114516
60	0x3dd4d29d	0.10391734
61	0x3c91a5fb	0.017779341
62	0xbd4cdf48	-0.050017625
63	0xbdc94e4c	-0.09829387
64	0xbda8e5f5	-0.08246986
65	0x3d628906	0.055306457
66	0x3cb01577	0.02149461
67	0xbd5f3fed	-0.054504324
68	0x3c4bcbe1	0.012438745
69	0x3e04d08f	0.12970184
70	0x3ccbe00d	0.02488711
71	0x3da08642	0.07838108
72	0x3d8946b9	0.067029424
73	0x3cf03f9a	0.029327203
74	0x3d848ccd	0.06472168
75	0x3a88309d	0.0010390464
76	0x3d16b986	0.036798023
77	0xbdaa9813	-0.08329787
78	0xbd483a5c	-0.04888378
79	0x3d51029f	0.05102789
80	0x3dc2d219	0.09512729
81	0x3d9b7447	0.075905375
82	0xbdb3218f	-0.08746635
83	0x3c521ba0	0.012823969
84	0x3dd86ec6	0.10568003
85	0xbdae87be	-0.085219845
86	0x3da63a66	0.08116607
87	0xbc22735f	-0.009915202
88	0xbb6e2abc	-0.003634139
89	0xbd8256cf	-0.06364214
90	0xbb9dca23	-0.0048153563
91	0x3dc9b428	0.09848815
92	0xbda7fdc7	-0.08202701
93	0xbe04e563	-0.12978129
94	0xbda1109d	-0.07864497
95	0xbddb3424	-0.107033044
96	0x3d58e5a7	0.05295339
97	0x3d420082	0.047363766
98	0xbc65c694	-0.0140243955
99	0xbaf36fc8	-0.0018572742
100	0x3d7ec3ba	0.06219838
101	0x3d850552	0.064951554
102	0x3d7b9ecb	0.061430734
103	0x3e06debd	0.13170905
104	0x3d1f7299	0.03892765
105	0xbdca88c6	-0.09889369
106	0x3c4531d7	0.0120358085
107	0x3da49e9d	0.080380656
108	0xbdd04bcc	-0.10170707
109	0xbabd3c73	-0.0014437571
110	0xbaf43ef9	-0.001863449
111	0xbc648ed0	-0.013950065
112	0x3d5db579	0.054128144
113	0xbd862519	-0.065500446
114	0xbcc5447d	-0.02408051
115	0xbd0ef560	-0.034901977
116	0xbe0cd7ae	-0.1375415
117	0x3debadce	0.1150776
118	0xbbd30d94	-0.0064408276
119	0xbe02b003	-0.12762456
120	0x3cc9e265	0.024644086
121	0x3d83c05b	0.06433173
122	0x3d6cfae0	0.05785644
123	0xbdb7acd1	-0.08968509
124	0xbd7abc4d	-0.061214734
125	0x3dfbfba8	0.12303859
126	0x3cd909ad	0.026493872
127	0x3e002566	0.12514266
128	0x3d1d0c4e	0.038341813
129	0xbdf1df4a	-0.11810167
130	0xbddd2229	-0.10797531
131	0xbdbb1062	-0.09133984
132	0xbd25ba45	-0.040460844
133	0x3da14167	0.07873803
134	0xbe06486b	-0.13113563
135	0xbd35bfcc	-0.044372365
136	0xbc208b74	-0.009798873
137	0x3c1081af	0.0088199815
138	0x3cea71de	0.02861875
139	0x3d1854b9	0.037190173
140	0xbce48174	-0.02789376
141	0xbc41163e	-0.011785088
142	0xbc9eb560	-0.019373596
143	0x3d7e191d	0.06203567
144	0x3d3437ef	0.043998655
145	0xbe155a3f	-0.14585207
146	0xbdb44305	-0.088018455
147	0xbd7e3350	-0.062060654
148	0x3dca3af8	0.09874529
149	0x3c44a4c5	0.012002175
150	0xbdb38b4a	-0.08766802
151	0xbdf7548b	-0.12076672
152	0x3db4db7c	0.08830926
153	0xbd654400	-0.055973053
154	0xbc754304	-0.014969591
155	0xbcb10aae	-0.021611538
156	0xbce97a4a	-0.028500695
157	0xbc9fa3f8	-0.019487366
158	0x3c8476a7	0.01616986
159	0xbd9e8869	-0.07740862
160	0x3d76cb81	0.06025267
161	0x3cab770b	0.020930788
162	0xbc9f7edc	-0.019469671
163	0xbd9ff9bb	-0.07811304
164	0x3de6c180	0.11267376
165	0x3c9484ce	0.018129732
166	0x3db59568	0.088663876
167	0xbe05a377	-0.13050638
168	0xbd81f30a	-0.06345184
169	0xbceb34c0	-0.028711677
170	0x3d935882	0.07194616
171	0xbdfdce5a	-0.12392874
172	0xbd3d3afb	-0.046198826
173	0x3a2737f7	0.0006378884
174	0x3cdecaec	0.02719637
175	0x3c821ee6	0.015883874
176	0x3d17ed47	0.03709152
177	0x3df24d84	0.11831191
178	0x3d8734e8	0.06601888
179	0xbdae608a	-0.08514507
180	0xbc262d92	-0.010142701
181	0x3db17bc2	0.08666183
182	0xbdab55c0	-0.08365965
183	0x3ac65a9a	0.0015133203
184	0x3d484c37	0.04890081
185	0x3db31f72	0.08746232
186	0xbc6f6fdf	-0.0146140745
187	0x3c9bc271	0.019013615
188	0x3b12c5b6	0.0022395677
189	0xbdb974a0	-0.090554476
190	0xbda3cf98	-0.0799858
191	0x3c896047	0.016769541
192	0xbcd3ea02	-0.02586842
193	0x3d83f93b	0.06444021
194	0x3d8b959a	0.068156436
195	0xbca63bd9	-0.02029221
196	0x3d8dec01	0.0692978
197	0xbd69784c	-0.05699949
198	0xbd1a689c	-0.03769742
199	0x3bd27251	0.006422319
200	0xbdad42a7	-0.084599786
201	0x3d523b12	0.051325865
202	0xbdb5e402	-0.0888138
203	0xbdaabb4c	-0.08336505
204	0x3da80ef8	0.0820598
205	0xbd3312d1	-0.043719117
206	0x3c8021fe	0.015641209
207	0x3d9d83a6	0.076911256
208	0x3cefec68	0.029287532
209	0xbdbe6cf9	-0.09298129
210	0xbd071a8b	-0.032984298
211	0xbddf7fdf	-0.10913061
212	0xbd801174	-0.06253329
213	0xbd861d6d	-0.06548581
214	0x3d65741a	0.056018926
215	0xbcc8ce0f	-0.024512319
216	0xbdbdcca8	-0.09267551
217	0x3d82d337	0.06387942
218	0xbd02355c	-0.03178917
219	0xbdca6a39	-0.098835416
220	0xbd4e4098	-0.05035457
221	0x3e052ed1	0.1300614
222	0x3d9151a0	0.07095647
223	0x3dd200bc	0.10254046
224	0x3d977dfc	0.073970765
225	0x3e077f4a	0.1323215
226	0x3cf19c90	0.0294936
227	0xbd9437a5	-0.07237176
228	0x3d941be6	0.07231884
229	0x3d29e7ce	0.04148083
230	0x3d84301e	0.0645449
231	0xbcdc44ad	-0.026888216
232	0xbda72cc5	-0.08162836
233	0x3dda0b95	0.1064674
234	0x3da96234	0.08270684
235	0x3ce97dcd	0.02850237
236	0x3c621e90	0.013801232
237	0xbdf7a062	-0.120911375
238	0xbcf0e728	-0.029407099
239	0xbcbbb418	-0.022913024
240	0xbdca4faf	-0.0987848
241	0x3dc49e57	0.096005134
242	0xbe0a8bc9	-0.13529886
243	0xbd2dc768	-0.042426497
244	0x3d514bad	0.05109756
245	0xbdcb6c5d	-0.09932778
246	0x3db07182	0.086154
247	0xbc158715	-0.009126444
248	0xbdd8277b	-0.10554405
249	0xbdac6cac	-0.08419165
250	0xbde52de5	-0.11190394
251	0x3da803e0	0.08203864
252	0xbcf177a3	-0.029475993
253	0xbdfa1b7e	-0.12212275
254	0xbda214a6	-0.079140946
255	0xbd09768f	-0.033560332

lstm.bias_ih_l1 f4 [256]
0	0x3da639c3	0.08116486
1	0xbdc9134c	-0.09818134
2	0xbd7d4539	-0.061833594
3	0xbd9d5d22	-0.07683779
4	0x3d6c2c60	0.057659507
5	0x3db7ad60	0.089686155
6	0x3caf66ff	0.021411417
7	0xbdbb6da8	-0.09151775
8	0x3cf8483f	0.030307887
9	0xbc2862ac	-0.010277431
10	0x3d723096	0.059128366
11	0xba4aa29e	-0.00077299203
12	0x3d42d5ef	0.047567304
13	0xbca9b942	-0.02071822
14	0x3cd23069	0.02565785
15	0x3a0c3f75	0.0005350032
16	0x3d2bab5a	0.04191146
17	0xbd37d33b	-0.04487918
18	0xbdd48ce9	-0.10378439
19	0x3e0a6d82	0.13518336
20	0x3db9fdc0	0.09081602
21	0x3c2a2a0e	0.010386003
22	0x3dc6a9c5	0.0970035
23	0x3d9ffbac	0.078116745
24	0x3dbe698d	0.09297476
25	0x3d33b68c	0.043875262
26	0x3bd32498	0.0064435713
27	0x3d93fc59	0.07225866
28	0x3dc64cb4	0.09682599
29	0x3debf885	0.11522011
30	0x3db64508	0.088998854
31	0x3dc44b16	0.09584634
32	0x3d8340b2	0.06408824
33	0x3d41fdcb	0.047361176
34	0x3cc1688a	0.023609418
35	0x3d1fd72a	0.039023556
36	0xbdd7853c	-0.10523459
37	0xbd058900	-0.032601357
38	0x3e002a32	0.12516096
39	0x3d3aa43c	0.045566782
40	0xbd28ca41	-0.04120851
41	0xbda424e2	-0.08014847
42	0xbd47a070	-0.04873699
43	0x3db4db89	0.088309355
44	0x3de67a49	0.11253793
45	0x3e0eddd8	0.13951814
46	0xbda5879e	-0.080825076
47	0xbd30297a	-0.043008305
48	0xbca57848	-0.020198956
49	0x3dd8e193	0.105899
50	0x3df5af06	0.11996274
51	0x3da54dae	0.08071457
52	0x3d6fc68f	0.05853897
53	0x3c9862f8	0.01860188
54	0xbd14d986	-0.03634026
55	0xbd9585e4	-0.07300928
56	0xbdac6056	-0.08416812
57	0x3de34485	0.110970534
58	0xbdaaaa01	-0.08333207
59	0xbdc9e8e7	-0.09858876
60	0x3db97a3c	0.090565175
61	0x3d4753a6	0.048663758
62	0xbdbe0b74	-0.09279528
63	0x3d150704	0.036383644
64	0x3d0c2bda	0.034221508
65	0xbd95a203	-0.07306292
66	0xbb3f7f56	-0.0029220185
67	0xbd12946b	-0.035786074
68	0x3df8dbb7	0.12151282
69	0x3d593fa9	0.053039227
70	0xbae3a34d	-0.0017367393
71	0x3d984071	0.07434166
72	0x3d88a3d4	0.06671873
73	0xbd53bdcc	-0.051694676
74	0xbdd3c160	-0.10339618
75	0x3e06645b	0.1312422
76	0xbc1978a7	-0.009367145
77	0xbd9437bd	-0.07237194
78	0x3d6af7fc	0.057365403
79	0xbd4348cf	-0.047676858
80	0x3d2b87ee	0.04187768
81	0x3d4fb318	0.050707906
82	0xbdfbf8bf	-0.12303304
83	0x3d006c96	0.031353556
84	0x3d0cab82	0.03434325
85	0x3d9457fb	0.072433434
86	0xbd93a682	-0.07209493
87	0xbd261f95	-0.040557463
88	0xbd9fb2b5	-0.077977575
89	0xbd9b6d96	-0.07589261
90	0xbdd0af85	-0.10189728
91	0x3d31c1aa	0.043397583
92	0x3d178eef	0.037001546
93	0x3dc81cd4	0.097711235
94	0xbc842470	-0.016130656
95	0xbd28df1f	-0.04122841
96	0xbd6e0211	-0.05810744
97	0xbd897e9b	-0.06713601
98	0xbb8e383e	-0.0043402007
99	0xbc3b8afc	-0.011446711
100	0xbd1e6ea4	-0.038679734
101	0x3e01967f	0.12655066
102	0x3dc1861e	0.09449409
103	0xbcf87e59	-0.030333685
104	0xbc90ddfa	-0.017683972
105	0x3db4ed06	0.08834271
106	0xbd5ce680	-0.05393076
107	0x3e02daff	0.12778853
108	0xbde01e5e	-0.10943292
109	0xbc0589b9	-0.008150511
110	0xbd8e5dfb	-0.06951519
111	0x3e066b22	0.13126805
112	0x3daa92ce	0.08328782
113	0x3c5574e7	0.01302836
114	0xbd68521a	-0.056718923
115	0x3d34763d	0.044058073
116	0x3ca92561	0.020647706
117	0x3d44c926	0.048043393
118	0x3d7eb594	0.062184885
119	0x3dc9e653	0.09858384
120	0xbdb93b08	-0.090444624
121	0xbdee395c	-0.11632034
122	0x3d41a6c2	0.047278173
123	0x3d9011d9	0.07034654
124	0xbd9c11ad	-0.07620559
125	0xbdc5899c	-0.096453875
126	0x3dc8429d	0.097783305
127	0x3bca6428	0.0061764903
128	0xbccfaf7a	-0.025352228
129	0xbd07b12e	-0.033127956
130	0xbd089f8e	-0.03335529
131	0x3dc43f2f	0.09582364
132	0x3d13c74b	0.036078732
133	0xbe02751f	-0.1273999
134	0x3cf874e1	0.03032917
135	0x3db32928	0.08748084
136	0xbe074827	-0.13211118
137	0xbaba014b	-0.0014191059
138	0x3d28ca50	0.041208565
139	0xbde332ee	-0.110936984
140	0xbdf03339	-0.1172852
141	0xbd9dcd50	-0.07705176
142	0xbe0d1a0b	-0.13779466
143	0x3d936eb5	0.0719885
144	0xbd84beaf	-0.064816825
145	0xbdf03607	-0.11729055
146	0xbc578e2f	-0.013156458
147	0xbe082767	-0.13296281
148	0xbdfc32c4	-0.1231437
149	0xbdd8acad	-0.1057981
150	0xbc66284e	-0.014047695
151	0xbd8fe63e	-0.07026337
152	0xbd466107	-0.048432376
153	0xbc1b6868	-0.009485342
154	0xbd09a9f1	-0.033609334
155	0x3c9b8a41	0.018986823
156	0x3dd521b8	0.10406822
157	0x3e06954f	0.13142894
158	0x3d136d14	0.035992697
159	0xbdbc6c69	-0.09200365
160	0x3d662cef	0.056195196
161	0xbdcaa2c3	-0.098943256
162	0xbd6e85a2	-0.05823291
163	0x3de06e00	0.10958481
164	0x3b8be309	0.004269008
165	0xbdf95495	-0.12174336
166	0x3cb460e7	0.022018863
167	0xbe063392	-0.1310561
168	0xbdb03887	-0.08604532
169	0x3db030a1	0.08603025
170	0xbd91ac78	-0.07112974
171	0x3ca96c01	0.020681383
172	0x3d11b8f0	0.03557676
173	0xbdccbf36	-0.09997408
174	0x3cc46a52	0.023976479
175	0xbda1bf93	-0.07897868
176	0xbd84e56d	-0.06489072
177	0xbbebfe33	-0.007201934
178	0xbda852da	-0.08218928
179	0x3d905229	0.07046921
180	0x3e028f57	0.12749992
181	0xbda0aa53	-0.07844987
182	0xbce1e2d0	-0.027573973
183	0x3de2782c	0.11058077
184	0xbd0218a8	-0.031761795
185	0x3de9850f	0.11402332
186	0xbd406179	-0.046967957
187	0x3dd108fb	0.10206791
188	0xbb0f0a6c	-0.002182628
189	0xbdef3e54	-0.1168181
190	0xbe0125cf	-0.12612079
191	0x3ddd8422	0.10816218
192	0x3dd23245	0.102634944
193	0x3de8c0ac	0.11364874
194	0x3d4a8bca	0.04944972
195	0x3d5722e1	0.052523497
196	0x3da72789	0.081618376
197	0xbd1a1c37	-0.037624564
198	0xbd83d7f9	-0.06437678
199	0xbd078c1f	-0.033092614
200	0xbd18a877	-0.037270036
201	0xbd88f49b	-0.0668728
202	0x3c1c904b	0.0095558865
203	0x3d55d651	0.05220634
204	0x3ce06f37	0.027396781
205	0xbdcdea55	-0.10054461
206	0x3e002285	0.12513168
207	0x3b36153d	0.0027783655
208	0x3dde6607	0.10859304
209	0x3ddf2ea2	0.108975664
210	0xbd22d707	-0.039755847
211	0x3e05934f	0.13044475
212	0x3d6ff7c4	0.058585897
213	0xbd6bcdae	-0.0575692
214	0x3ca3a777	0.019977314
215	0xbc6db367	-0.014508105
216	0xbd99fe3b	-0.07519194
217	0xbd8c07da	-0.06837435
218	0x3de8a5c0	0.11359739
219	0xbc16a409	-0.0091943825
220	0x3de23766	0.11045723
221	0xbc22e161	-0.00994143
222	0xbdb576b3	-0.08860531
223	0x3d781afd	0.060572613
224	0x3d8b8db0	0.06814134
225	0x3dd84997	0.10560911
226	0xbd031e70	-0.03201145
227	0xbcf08361	-0.029359521
228	0xbd549839	-0.051902983
229	0xbd7b130f	-0.061297473
230	0xbdc51fbf	-0.09625196
231	0x3d5947a7	0.05304685
232	0xbdc20449	-0.094734736
233	0x3c8b8d7c	0.017035238
234	0xbc216a12	-0.009851949
235	0x3d5ef843	0.05443598
236	0x3dac6df6	0.08419411
237	0x3e070de8	0.13188899
238	0x3b1a29da	0.002352348
239	0x3df69744	0.120405704
240	0x3dc5dad3	0.09660878
241	0xbda58803	-0.08082583
242	0xbd073453	-0.033008885
243	0xbb73c4a6	-0.003719607
244	0x3cc70dee	0.024298634
245	0xbde799de	-0.11308645
246	0x3db881d4	0.09009138
247	0xbd2b34ee	-0.041798525
248	0x3dd68607	0.104747824
249	0xbd977d8b	-0.07396992
250	0xbd745643	-0.059652578
251	0xbd1f72e5	-0.03892793
252	0x3d27ece6	0.04099741
253	0xbdd95802	-0.10612489
254	0x3d334f11	0.043776575
255	0x3db2410d	0.08703814
