save_results/lstm_short_term_90d_run3.pt (torch, 546325 bytes, 10 tensors)

lstm.weight_ih_l0 f4 [400, 12]
0	0xbccbc69e	-0.024874981
1	0xbd82849e	-0.06372951
2	0x3da6e75a	0.081495956
3	0x3dcef64c	0.10105571
4	0x3bc3e95c	0.0059787463
5	0x3d762c16	0.060100637
6	0x3b790d14	0.003800218
7	0xbd5436ef	-0.0518102
8	0xbcdae3f3	-0.026720023
9	0x3da912c9	0.08255536
10	0x3d6ed866	0.058311842
11	0x3dbc995c	0.092089385
12	0x3dbb119e	0.091342196
13	0xbd6297c8	-0.05532053
14	0x3ddfe3cd	0.109321214
15	0xbd940fec	-0.07229599
16	0xbd813164	-0.06308249
17	0xbd80bfc0	-0.062865734
18	0x3d1100b6	0.03540107
19	0xbd25856a	-0.040410437
20	0xbd88dc7c	-0.06682679
21	0x3c7e4e76	0.015521636
22	0xbd3cd0a6	-0.04609742
23	0x3df8b06c	0.12143025
24	0xbd92accb	-0.07161864
25	0x3d920c6b	0.07131275
26	0x3d80d535	0.06290666
27	0xbd107461	-0.035267238
28	0xbda47d46	-0.080317065
29	0xbd38f94e	-0.04515963
30	0x3d952713	0.072828434
31	0x3d0056d3	0.031332802
32	0x3d071f01	0.032988552
33	0x3cfe0bbb	0.031011453
34	0xbda42cee	-0.08016382
35	0xbd89a183	-0.06720259
36	0xbd939ced	-0.072076656
37	0x3d16ad4b	0.03678636
38	0x3dacbc87	0.08434396
39	0xbd2835ad	-0.041066814
40	0x3dc04a3c	0.09389159
41	0x3cbdb909	0.02315952
42	0xbd4449dc	-0.047922
43	0xbdb2a8ed	-0.08723626
44	0x3b9c90d0	0.004778005
45	0x3dd06efa	0.10177417
46	0x3ce8aeb4	0.028403617
47	0x3d465a34	0.04842587
48	0xbcd595a1	-0.026072325
49	0x3cd6a986	0.026203882
50	0xbdd33de5	-0.1031454
51	0xbdbed106	-0.09317212
52	0x3c1f6f0c	0.0097310655
53	0xbd77971a	-0.060446836
54	0xbbbdfb16	-0.005797754
55	0xbcbc1c70	-0.022962779
56	0x3bbf853a	0.0058447393
57	0xbdb53c81	-0.08849431
58	0xbd3d0878	-0.046150655
59	0xbc38b97b	-0.011274691
60	0x3c0d6f89	0.008632549
61	0x3d16b94b	0.036797803
62	0xbdbf2a13	-0.09334197
63	0xbd6efa11	-0.05834395
64	0xbd870bcc	-0.06594047
65	0x3c023b83	0.007948759
66	0x3d9d3721	0.07676531
67	0x3d075a1e	0.033044927
68	0xbdca751e	-0.098856196
69	0x3d8a4411	0.06751264
70	0xbd11295e	-0.03543984
71	0xbdb9f9dd	-0.09080861
72	0xbdc0d2c4	-0.094152
73	0x3d5ce268	0.053926855
74	0x3d8064d3	0.06269231
75	0x3d5c9bba	0.05385945
76	0xbdc4d2bb	-0.09610506
77	0xbd850f94	-0.06497112
78	0xbd06a5e1	-0.03287304
79	0xbbe301fb	-0.0069277263
80	0x3db5dfe9	0.08880598
81	0x3d60311a	0.054734327
82	0x3cf884c6	0.030336749
83	0xbd931f24	-0.07183674
84	0x3d2d8618	0.04236421
85	0x3d000d9b	0.031262975
86	0xbd999de9	-0.07500822
87	0x3d80b245	0.06284002
88	0xbd855a83	-0.06511404
89	0x3dcd2876	0.10017483
90	0x3cf71939	0.030163394
91	0xbdadc39b	-0.084845744
92	0xbb5d6f79	-0.0033788367
93	0xbd5b336e	-0.053515844
94	0x3dd17b77	0.10228627
95	0x3c65beae	0.014022512
96	0x3dc553ef	0.0963515
97	0x3da63a2d	0.08116565
98	0x3ddda6af	0.10822808
99	0xbdb832e3	-0.08994081
100	0x3d80e03f	0.062927715
101	0x3de54347	0.11194473
102	0x3db1da8e	0.08684264
103	0xbd3d2c2b	-0.0461847
104	0x3d4adeba	0.049528815
105	0x39f831c5	0.00047339327
106	0x3b85f8ed	0.004088512
107	0xbc9e9c53	-0.01936165
108	0xbdd13943	-0.10216
109	0x3db1d189	0.08682544
110	0xbdc27894	-0.09495655
111	0x3ce3b745	0.02779735
112	0xbd43ec30	-0.047832668
113	0x3d05dcae	0.03268116
114	0x3d63c1af	0.055604633
115	0xbdc3aaff	-0.09554099
116	0xbd635c84	-0.05550815
117	0xbda0ff94	-0.07861248
118	0x3d1e90f5	0.03871246
119	0x3daaa7d8	0.08332795
120	0x3d5f379b	0.05449639
121	0x3cabeec5	0.020987878
122	0x3d166c54	0.036724404
123	0x3d51dc43	0.05123545
124	0xbd8d59f5	-0.069019236
125	0x3dd5e1d9	0.10443468
126	0xbda02167	-0.07818871
127	0x3d5406ec	0.051764414
128	0xbd11f2aa	-0.035631813
129	0x3ba65bb4	0.00507685
130	0xbdb8751f	-0.09006714
131	0x3bc96bb9	0.0061468747
132	0x3d0f90c0	0.035050154
133	0xbd2b9609	-0.04189113
134	0xbdd5bf67	-0.10436898
135	0xbd4adb9a	-0.049525835
136	0xbd95a25e	-0.0730636
137	0x3c09910e	0.0083964
138	0xbda44189	-0.08020312
139	0x3c60dc6c	0.013724428
140	0xbcc0992d	-0.02351054
141	0xbd71c49f	-0.059025403
142	0x3d24c1ca	0.040223874
143	0xbdd04eaa	-0.10171254
144	0xbbc7af32	-0.006093883
145	0x3c0c9a3b	0.008581693
146	0x3d5a1861	0.053245906
147	0x3a37a2d9	0.0007005162
148	0xbdb04457	-0.08606785
149	0xbd707d45	-0.058713216
150	0xbcd0bba0	-0.025480092
151	0x3d9a7f67	0.07543831
152	0x3b0ec95e	0.0021787505
153	0xbd518937	-0.05115625
154	0x39f0f298	0.00045957114
155	0x3d96ff2f	0.07372891
156	0xbd43eb4d	-0.047831822
157	0xbd5e13a6	-0.054217957
158	0xbc3c4638	-0.011491351
159	0x3cf317c9	0.029674428
160	0x3d65f1fd	0.05613898
161	0x3dced66b	0.10099491
162	0xbd54390c	-0.051812217
163	0x3da44af2	0.08022107
164	0x3b1ad431	0.002362501
165	0x3b8c44d4	0.004280666
166	0x3b6e9069	0.0036401993
167	0x3da38e6b	0.079861484
168	0x3daaf0c6	0.08346705
169	0xbd33f2c2	-0.043932684
170	0xbc62c253	-0.013840276
171	0x3d663fc1	0.056213144
172	0xbda87b32	-0.08226623
173	0x3c222d16	0.009898445
174	0xbd8e14e0	-0.06937575
175	0xbc7738fa	-0.015089268
176	0x3c88ae73	0.016684746
177	0xbb46aace	-0.003031421
178	0x3d7b1682	0.061300762
179	0x3d4f2766	0.050574683
180	0x3da1a8ad	0.078935005
181	0x3d54c848	0.051948816
182	0xbd9a0ada	-0.07521601
183	0xbd03180a	-0.032005347
184	0x3c3abc70	0.011397466
185	0xbd48ec25	-0.04905333
186	0x3da8bda2	0.082392946
187	0x3b958704	0.0045632143
188	0x3dab031e	0.08350204
189	0x3d4daeba	0.05021546
190	0xbd0f829b	-0.035036664
191	0x3d05ac00	0.032634735
192	0xbd4afd77	-0.04955813
193	0x3d182ede	0.03715407
194	0x3d5f857b	0.054570656
195	0xbdb08fa7	-0.086211495
196	0xbd4def53	-0.050277065
197	0x3d194ec4	0.037428632
198	0x3d826485	0.06366829
199	0x3c9fac0f	0.019491224
200	0xba860d42	-0.001022734
201	0xbdb96918	-0.09053248
202	0x3d9c771b	0.07639905
203	0x3dd757ac	0.10514769
204	0x3da815b6	0.08207266
205	0x3d8cb721	0.068708666
206	0x3d20ae18	0.03922853
207	0x3d2e7c44	0.042598978
208	0xbd53fd23	-0.05175508
209	0xbc8ac43f	-0.01693928
210	0x3dca3df4	0.09875098
211	0xbd47fec8	-0.048826963
212	0xbda8cb14	-0.08241859
213	0x3c98a617	0.018633885
214	0xbd91aa01	-0.07112504
215	0xbcd549f9	-0.02603625
216	0xbd0bf2b6	-0.034167014
217	0xbd1856f6	-0.037192307
218	0x3da6392a	0.08116372
219	0x3cb759da	0.022381712
220	0x3dca0f05	0.09866146
221	0x3dae62ce	0.08514939
222	0x3d2b7a9a	0.04186497
223	0x3ded997d	0.11601541
224	0xbd5f3ac5	-0.054499406
225	0xbcd17a26	-0.02557094
226	0x3dd2672c	0.10273585
227	0x3ccece7c	0.025244944
228	0xbd030b36	-0.031993113
229	0x3dd65109	0.10464675
230	0x3d9d9585	0.07694534
231	0xbd9f3080	-0.077729225
232	0xbd7488d3	-0.0597008
233	0x3dc19f54	0.094542176
234	0xbd94e4f7	-0.07270234
235	0xbcd738d5	-0.026272217
236	0x3d2f16c4	0.04274632
237	0x3dd04731	0.10169829
238	0x3cee1ca8	0.029066399
239	0xbd669754	-0.05629666
240	0xbc213611	-0.009839551
241	0x3d643891	0.05571801
242	0x3d87db6d	0.06633649
243	0xbd602cac	-0.054730102
244	0xbd8cf798	-0.06883162
245	0xbc49b5e7	-0.012311435
246	0xbd03faf0	-0.032221735
247	0x3dc37ec6	0.095456645
248	0xbda04cae	-0.078271255
249	0x3cb710cb	0.022346875
250	0x3dd28a69	0.10280306
251	0xbd6d0fff	-0.057876583
252	0xbcc8a3a9	-0.024492102
253	0xbd800cb0	-0.0625242
254	0x3d3ab281	0.04558039
255	0x3d6fae01	0.058515552

lstm.weight_hh_l0 f4 [400, 100]
0	0xbbbd7994	-0.0057823155
1	0xbd2cd23b	-0.04219268
2	0x3da680e3	0.08130052
3	0x3d43f61f	0.04784214
4	0x3d81cc2c	0.06337771
5	0x3d09ca97	0.03364047
6	0x3dbd57c6	0.09245257
7	0x3cd90904	0.026493557
8	0x3c69e966	0.014276838
9	0x3c76f0d3	0.015072065
10	0xbc2c610c	-0.010521185
11	0xbd74691d	-0.059670556
12	0xbd4ae047	-0.049530294
13	0x3d6d43bd	0.05792593
14	0x3d43d743	0.04781271
15	0xbd1cccd9	-0.038281295
16	0x3d066aef	0.032816824
17	0xb99f4073	-0.00030374862
18	0x3d6650e0	0.056229472
19	0xbdb0f125	-0.08639745
20	0x3b5397a3	0.0032286427
21	0xbdba8c9b	-0.091088496
22	0xbda4cb6a	-0.08046611
23	0x3c2ad17e	0.010425923
24	0xbc880410	-0.0166035
25	0x3d30470f	0.043036517
26	0x3d5eb414	0.054370955
27	0xbd11cf6f	-0.035598215
28	0x3d8f67f1	0.07002247
29	0x3d555302	0.052081116
30	0x3cb1b2f4	0.021691777
31	0xbc4ce37f	-0.012505411
32	0x3c9eaaa0	0.01936847
33	0x3d5e975c	0.054343566
34	0xbc583c56	-0.013197979
35	0xbc602e96	-0.013682982
36	0xbd052f29	-0.03251568
37	0xbdc0b596	-0.09409635
38	0x3db59a29	0.08867294
39	0x3db7592b	0.08952554
40	0x3dad94a7	0.08475619
41	0xbdb08baf	-0.086203925
42	0xbc8057c1	-0.015666844
43	0x3ca34604	0.019930847
44	0xbbac92ef	-0.0052665393
45	0x3d9a3480	0.07529545
46	0xbdd78461	-0.10523296
47	0x3d8dd06b	0.06924518
48	0x3dd6a842	0.104813114
49	0x3c3b8978	0.011446349
50	0x3d1d853a	0.038457133
51	0xbd5fe68a	-0.05466322
52	0x3cf7a1d1	0.030228527
53	0x3d9c291d	0.07625029
54	0xbd4405ed	-0.047857214
55	0x3d3e3118	0.04643354
56	0xbd7c642e	-0.061618976
57	0x3d53b1d0	0.051683247
58	0xbcddb351	-0.027063044
59	0x3d17ad74	0.037030652
60	0x3cda8964	0.026676841
61	0xbc04c507	-0.008103616
62	0xbdc768c7	-0.097367816
63	0x3cc28cc8	0.02374877
64	0xbc16d049	-0.0092049325
65	0x3a47f199	0.00076272484
66	0x3d4767e0	0.048683047
67	0xbc37f387	-0.011227495
68	0x3d9727c3	0.07380631
69	0x3c0f7aa4	0.008757267
70	0xb9ecf449	-0.00045195434
71	0xbd0a799b	-0.03380738
72	0x3cfba401	0.030717852
73	0xbdc1b013	-0.094574116
74	0x3d919cd9	0.071099944
75	0x3db9f7ae	0.09080444
76	0x3c3c7de1	0.011504621
77	0xbddb90a6	-0.10720949
78	0xbd1054c5	-0.035237093
79	0x3dbcb709	0.09214599
80	0x3d0ece2f	0.0348646
81	0x3cf16947	0.029469145
82	0xbd02d1d9	-0.031938408
83	0x3d1bb2a8	0.038012177
84	0xbd009505	-0.031392116
85	0xbd3cde55	-0.04611047
86	0x3caf4cfd	0.021399016
87	0x3da43b7b	0.080191575
88	0x3cb30295	0.021851817
89	0x3d02889b	0.03186856
90	0xbd88396f	-0.066515796
91	0xbd820c82	-0.06350042
92	0xbcea2039	-0.028579818
93	0xbdc52176	-0.09625523
94	0x3de1c8a1	0.11024595
95	0x3d8deaf7	0.069295816
96	0xbc854181	-0.016266586
97	0xbb8361ba	-0.0040094526
98	0xbd36f40d	-0.04466634
99	0xbd9a01a6	-0.07519846
100	0x3da1e5f6	0.0790519
101	0xbd9ee157	-0.07757824
102	0x3da4a22f	0.080387466
103	0xbd9c7958	-0.07640332
104	0x3daa5bfc	0.08318326
105	0x3ca6bf8d	0.02035501
106	0x3db2733c	0.087133855
107	0xbc4211c1	-0.011845053
108	0xbd7c673f	-0.0616219
109	0xbd246422	-0.040134557
110	0xbdd4a909	-0.103838034
111	0x3caaa0cb	0.020828625
112	0xbd966ab8	-0.07344574
113	0xbd8133b7	-0.06308692
114	0xbb1da1c1	-0.0024052712
115	0xbd9fb521	-0.077982195
116	0xbdb47994	-0.08812252
117	0xbc41937b	-0.011814947
118	0x3d5f121a	0.054460622
119	0xbd084e21	-0.033277635
120	0x3dacb251	0.08432449
121	0xbd0eeea4	-0.034895554
122	0xbdb98fac	-0.09060606
123	0x3d624dbd	0.05524992
124	0x3d941991	0.07231439
125	0xbd7e1d83	-0.062039863
126	0x3d4b79e7	0.049676802
127	0x3b8b7a15	0.0042564967
128	0x3d0587ad	0.032600094
129	0xbd532993	-0.05155332
130	0x3d5b7992	0.053582735
131	0x3d4a3a50	0.049372017
132	0x3dc990f2	0.09842099
133	0xbd8081f4	-0.062747866
134	0x3af60198	0.0018768786
135	0xbdb4eb40	-0.08833933
136	0x3d8f13e1	0.069862135
137	0x3c576509	0.013146647
138	0xbd4681c4	-0.048463598
139	0x3d60d0be	0.054886572
140	0x3d5f61f3	0.05453677
141	0xbd81d611	-0.06339658
142	0xbdbcd7e1	-0.09220863
143	0xbda5cd62	-0.08095814
144	0x3d95d6e0	0.07316375
145	0x3d618cc5	0.05506589
146	0x3d81cd72	0.06338014
147	0x3d8ba350	0.06818259
148	0x3dd36a23	0.10322978
149	0x3d8b726f	0.06808936
150	0xbd9303b3	-0.0717844
151	0xbdb762d2	-0.08954395
152	0xbc9a3313	-0.018823182
153	0x3c5a52c7	0.0133254
154	0xbd9cae92	-0.07650484
155	0x3d8cafd9	0.06869478
156	0x3c019ff5	0.007911672
157	0xbd79cc7b	-0.060986023
158	0xbc384a90	-0.011248246
159	0xbce3d60f	-0.027812032
160	0xbd9ff070	-0.07809532
161	0x3d358bd6	0.04432281
162	0xbd937032	-0.07199134
163	0x3d224528	0.039616734
164	0xbca3bc38	-0.01998721
165	0xbd82ed54	-0.06392923
166	0x3d27dfa6	0.040984772
167	0xbcafc7e7	-0.021457626
168	0x3db393fc	0.0876846
169	0xbd9df5b1	-0.077128775
170	0x3c3fdd2d	0.011710447
171	0xbd4a7ab3	-0.04943342
172	0x3cac15ee	0.02100655
173	0xbc8dfc9a	-0.017332364
174	0xbd2f9068	-0.042862326
175	0x3da005e5	0.07813624
176	0x3d87df72	0.06634416
177	0x3d1eca3e	0.038767092
178	0x3dae71f3	0.08517828
179	0xbdd1ec3b	-0.102501355
180	0x3ab48c47	0.0013774716
181	0x3d367a60	0.0445503
182	0x3d246aab	0.04014079
183	0xbc27eee7	-0.01024983
184	0x3d912549	0.0708719
185	0x3d3bdd62	0.045865424
186	0x3db4ab4d	0.088217355
187	0x3d08226b	0.03323595
188	0xbdcdd9bf	-0.100512974
189	0x3dae4dff	0.0851097
190	0x3dccbcdd	0.0999696
191	0xbca2ef18	-0.0198894
192	0xbd24f8d9	-0.040276382
193	0xbd514992	-0.051095553
194	0xbd3f38b6	-0.046684943
195	0x3dba93ef	0.09110247
196	0x3d919f4b	0.07110461
197	0xbd49e98a	-0.049294986
198	0xbcfc2401	-0.030778887
199	0x3c658fc5	0.014011328
200	0xbdd72723	-0.105055116
201	0xbdca1094	-0.09866443
202	0xbda108b4	-0.07862988
203	0x3d55ab49	0.052165303
204	0xbd3e5762	-0.046470053
205	0x3cdb3bef	0.026761977
206	0x3dc8fa5a	0.09813376
207	0x3c15406e	0.0091095995
208	0x3dacb1f4	0.08432379
209	0xbb83aeda	-0.0040186467
210	0xbbe23669	-0.006903459
211	0x3d26d84a	0.040733613
212	0xbcd36ba0	-0.025808156
213	0xbda340e3	-0.079713605
214	0x3dd1a66d	0.10236821
215	0x3cb12974	0.021626212
216	0xbd71a27e	-0.058992855
217	0xbd16b2d0	-0.036791623
218	0xbda320f2	-0.07965268
219	0x3d8b7fc6	0.0681148
220	0xbdd0c0ec	-0.10193047
221	0x3dc21087	0.094758086
222	0x3da3aad8	0.0799157
223	0xbdac6b04	-0.08418849
224	0x3d122c42	0.03568674
225	0xbd7e769d	-0.062124837
226	0xbd523e19	-0.051328752
227	0x3db6a00e	0.08917247
228	0x3d8c7b3f	0.06859445
229	0xbd86a698	-0.06574744
230	0x3d32dead	0.04366939
231	0xbda090c0	-0.07840109
232	0x3d915489	0.07096202
233	0xbdaced4c	-0.08443698
234	0x3d5bc51b	0.05365477
235	0xbd35afdd	-0.04435717
236	0x3d20ff69	0.039306078
237	0x3c1d69eb	0.009607772
238	0x3c07314c	0.008251499
239	0x3cfef4c3	0.03112257
240	0x3db73848	0.08946282
241	0x3d1e3596	0.038625322
242	0xbd6906e4	-0.056891337
243	0xbc92e93f	-0.017933486
244	0x3b6c6cea	0.003607566
245	0x3dcbe2d7	0.09955376
246	0x3d82bafb	0.0638332
247	0x3ca1b35e	0.01973885
248	0x3cb45aea	0.022016007
249	0x3ce6972f	0.028148262
250	0x3d9c67a5	0.07636956
251	0x3c4de774	0.01256739
252	0x3d1f3cd7	0.03887638
253	0x3da5e9a4	0.08101204
254	0xbd4ebbe9	-0.050472174
255	0x3d6f529d	0.058428396

lstm.bias_ih_l0 f4 [400]
0	0x3ddb91c3	0.10721161
1	0x3dd63629	0.10459549
2	0xbd41d88b	-0.047325652
3	0xbccf71a8	-0.02532275
4	0xbd533239	-0.051561568
5	0x3d04c52c	0.0324146
6	0xbdd362dd	-0.10321591
7	0xbd9ac4de	-0.07557081
8	0x3cf43747	0.029811515
9	0xbd9034c5	-0.07041315
10	0x3dcd023f	0.10010194
11	0xbd955c48	-0.07292992
12	0x3d82767e	0.06370257
13	0x3dcb4db9	0.09926934
14	0x3cdb13bb	0.026742807
15	0x3d708e7b	0.05872963
16	0x3dbf2f19	0.09335155
17	0xbd5740c4	-0.052552
18	0x3d0fccb7	0.03510734
19	0xbd819d1c	-0.06328794
20	0x3d601811	0.05471045
21	0x3d17225a	0.036897995
22	0xbbef27a2	-0.007298426
23	0x3db7cb1d	0.08974288
24	0x3daacbef	0.083396785
25	0xbcd34b27	-0.025792671
26	0xbd832b28	-0.06404716
27	0xbc3863f6	-0.011254301
28	0x3dbdc26e	0.092656
29	0xbd589724	-0.052878514
30	0xbd7a78a7	-0.06115022
31	0x3c7b4e9b	0.015338565
32	0xbdc930e7	-0.098237805
33	0x3db51e4c	0.08843669
34	0x3ca8563c	0.020548932
35	0x3d85385e	0.06504892
36	0x3dd86331	0.10565794
37	0x3dba7917	0.09105127
38	0x3c870516	0.016481917
39	0x3d98abdd	0.07454655
40	0xbc18dde3	-0.009330246
41	0x3dca4ea6	0.09878282
42	0xbbfea3a9	-0.0077709747
43	0xbd88453d	-0.06653831
44	0x3d05c89c	0.03266202
45	0x3d2911f7	0.0412769
46	0x3c010d04	0.007876638
47	0x3d614d87	0.055005576
48	0x3d50e677	0.05100104
49	0xbd61b0bf	-0.0551002
50	0xbcde6c00	-0.027151108
51	0xbda117c1	-0.07865859
52	0xbd5e3fef	-0.05426019
53	0xbd4d7900	-0.050164223
54	0xbce1ee55	-0.027579466
55	0x3d76367e	0.06011056
56	0xbd4aa81d	-0.04947673
57	0x3da36529	0.07978279
58	0x3d672e79	0.056440804
59	0xbdbda8de	-0.092607245
60	0x3dc4c151	0.09607185
61	0x3d69c353	0.05707104
62	0xbd933dc3	-0.071895145
63	0xbcc40d21	-0.023932042
64	0x3ddca451	0.10773528
65	0xbd66de87	-0.056364562
66	0xbd349593	-0.044087958
67	0x3d81fe21	0.06347299
68	0xbd6fdf8b	-0.058562797
69	0x3d0bb5cd	0.034108926
70	0xbd50ef27	-0.051009323
71	0x3dbd983a	0.092575505
72	0x3d92bac8	0.07164532
73	0xbdaa6226	-0.083195016
74	0xbc171c5e	-0.009223072
75	0xbda6a442	-0.081367984
76	0xbd9d9fd7	-0.07696503
77	0xbda95303	-0.08267786
78	0xbda2f684	-0.079571754
79	0xbd47d16d	-0.04878371
80	0x3cedc96b	0.029026708
81	0xbc6f6dff	-0.014613627
82	0xbdabb6fd	-0.083845116
83	0xbd5460a2	-0.05184997
84	0xbda544c7	-0.08069759
85	0xbc6cfe8b	-0.014464985
86	0x3dc94a00	0.098285675
87	0xbd5c7841	-0.05382562
88	0xbd3e28cf	-0.046425637
89	0xbd3af58b	-0.045644324
90	0x3d07b46d	0.03313105
91	0xbd8d11bb	-0.068881474
92	0x3d953c03	0.07286837
93	0xbd777365	-0.060412783
94	0x3d9033a6	0.07041101
95	0xbcb5e947	-0.022205962
96	0xbca64a07	-0.02029897
97	0xbda5084a	-0.08058222
98	0xbd0b37b7	-0.03398868
99	0xbd8ff203	-0.07028582
100	0xbcc0611e	-0.02348381
101	0xbd89373e	-0.0669999
102	0x3c54338d	0.012951744
103	0x3bccdf88	0.006252233
104	0x3d82179f	0.063521616
105	0x3d4870bb	0.048935633
106	0xbd169fad	-0.036773372
107	0x3dd699fd	0.1047859
108	0x3dac1444	0.08402303
109	0x3d1cb4b3	0.038258266
110	0xbcc4a443	-0.024004107
111	0xbd656743	-0.05600668
112	0xbcd13625	-0.025538513
113	0xbda18368	-0.07886392
114	0x3db0f47b	0.08640381
115	0xbd4040f6	-0.04693695
116	0xbc5d2f6b	-0.013500075
117	0xbcb1e3ae	-0.021715011
118	0x3d911716	0.070844814
119	0xbd02e2b3	-0.03195448
120	0x3dbec766	0.09315376
121	0xbd3bed00	-0.045880318
122	0xbb269fce	-0.002542484
123	0x3d703fb4	0.058654502
124	0xbc7a47c6	-0.015275901
125	0xbcfd338c	-0.030908369
126	0xbd070e46	-0.032972597
127	0x3d91e7fc	0.07124326
128	0xbc4fcbdc	-0.012682881
129	0x3ce8063b	0.028323283
130	0x3d9c027c	0.07617661
131	0x3d261d24	0.040555134
132	0x3ced0f18	0.028937861
133	0x3dc0cdcf	0.09414255
134	0xbd9dfa76	-0.07713787
135	0x3d08dec5	0.033415575
136	0xbda18b99	-0.07887954
137	0xbd2dbcd3	-0.042416405
138	0xbd82af95	-0.06381146
139	0xbdd2c9f7	-0.10292428
140	0x3d61109f	0.05494749
141	0xbd90eda3	-0.070765756
142	0x3c50e94a	0.012750933
143	0xbd6d0319	-0.057864282
144	0xbdb50189	-0.088381834
145	0xbda81ad3	-0.08208241
146	0x3a88057a	0.0010377609
147	0x3d62ea73	0.05539937
148	0xbd1c70b8	-0.038193434
149	0x3d572e9d	0.05253469
150	0x3d844229	0.064579315
151	0xbd718856	-0.05896791
152	0xbd06e3d5	-0.03293212
153	0xbc23604a	-0.009971688
154	0xbd9ee249	-0.07758004
155	0x3c97ec14	0.018545188
156	0xbd434727	-0.047675278
157	0x3c433a09	0.011915692
158	0x3dc3d05c	0.09561226
159	0x3da1716b	0.07882961
160	0x3d61b439	0.055103514
161	0xba7307f2	-0.00092708983
162	0xbd2f4c50	-0.042797387
163	0xbd3c3624	-0.04595007
164	0x3d7c2a33	0.06156368
165	0x3ce4866f	0.027896134
166	0x3d9c8e55	0.07644335
167	0xbd8c6d1e	-0.0685675
168	0x3db65fc7	0.08904987
169	0x3d734c11	0.059398714
170	0x3d6263a8	0.05527082
171	0xbd72443e	-0.059147112
172	0xbda64267	-0.08118134
173	0xbd4bb0dc	-0.049729213
174	0x3baee593	0.005337426
175	0x3cee6a85	0.029103527
176	0xbdae5857	-0.08512943
177	0x3d5accbd	0.05341791
178	0x3d34f32c	0.04417722
179	0xbda8001e	-0.08203147
180	0xbc92884f	-0.017887263
181	0xbcddf275	-0.027093152
182	0xbd972751	-0.07380546
183	0x3d4e5d8c	0.050382182
184	0xbda2f1d6	-0.07956283
185	0xbd49a64d	-0.049230862
186	0xbd9f28c9	-0.07771451
187	0x3bedc652	0.0072563076
188	0x3dae3cde	0.08507703
189	0xbda70e48	-0.08157021
190	0x3d5e13cc	0.0542181
191	0x383c030c	4.482553e-05
192	0x3d566e46	0.05235126
193	0x3d98eb9a	0.074668124
194	0xbcf60a6e	-0.03003427
195	0x3d24cf25	0.04023661
196	0xbdbff506	-0.093729064
197	0x3b56308e	0.003268275
198	0xbd5de5ea	-0.05417434
199	0xbd7bedeb	-0.061506193
200	0xbdd045fe	-0.101696
201	0x3da1902a	0.07888825
202	0x3ce22fed	0.027610743
203	0x3c9f2f73	0.019431805
204	0x3d3eb9eb	0.046564024
205	0x3d25b7b2	0.04045839
206	0x3d74dbd1	0.059779946
207	0xbd3fa314	-0.046786383
208	0xbd9b9367	-0.07596474
209	0xbd487d5e	-0.048947684
210	0xbc7433fa	-0.01490497
211	0x3cb84252	0.022492561
212	0xbcc4cb03	-0.024022585
213	0x3c87b87a	0.016567457
214	0x3d7e13a3	0.062030446
215	0x3ca17c13	0.019712484
216	0xbd48d201	-0.0490284
217	0xbd153dd9	-0.036435936
218	0xbc9f41fa	-0.01944064
219	0xbdbcc0eb	-0.09216484
220	0xbdc5dfd9	-0.09661836
221	0x3d9716cb	0.07377394
222	0xbdc5f500	-0.09665871
223	0x3d66f71d	0.05638801
224	0x3dc38f4d	0.09548817
225	0xbd864151	-0.06555427
226	0xbd8c03a0	-0.06836629
227	0xbd11a2f1	-0.035555784
228	0x3dd70a22	0.104999796
229	0x3d902031	0.0703739
230	0xbd924147	-0.07141357
231	0xbd8e6826	-0.069534585
232	0x3ce8842c	0.028383337
233	0x3b8580e1	0.0040742015
234	0x3daf320a	0.08554466
235	0x3d90ae26	0.07064466
236	0xbc64f70d	-0.013974917
237	0xbd828e48	-0.06374794
238	0xbd218b24	-0.039439335
239	0xbd41ee36	-0.047346316
240	0xbd928489	-0.07154185
241	0x3d14ae1c	0.036298856
242	0xbd7c11e6	-0.061540507
243	0xbd8379dc	-0.06419727
244	0x3da52066	0.0806282
245	0x3cb981ba	0.022644866
246	0x3bfd0f69	0.0077227843
247	0xbc8c3f15	-0.017119924
248	0x3d990ac4	0.074727565
249	0x3dbeb7cc	0.093124
250	0x3d1da6da	0.0384892
251	0xbbbd19c0	-0.005770892
252	0xba977e4c	-0.0011558025
253	0xbc895b31	-0.016767116
254	0xbd912b00	-0.0708828
255	0xbb960fe9	-0.0045795334

lstm.bias_hh_l0 f4 [400]
0	0x3cbdfefb	0.023192873
1	0x3dbbc9d3	0.09169354
2	0x3dda96a9	0.106732674
3	0x3d643792	0.05571706
4	0xbca4df54	-0.020126022
5	0x3bc5adb6	0.006032671
6	0x3d441d0d	0.047879267
7	0xbc6b76b3	-0.014371562
8	0xbd1f4ec6	-0.038893484
9	0xbd8cb595	-0.068705715
10	0xbd0f5cb1	-0.035000507
11	0x3ce1bfc9	0.02755727
12	0x3d11df57	0.035613384
13	0x3d645ab6	0.05575057
14	0x3ceaeabf	0.028676389
15	0x3d13d277	0.036089387
16	0x3d8ca40f	0.06867229
17	0x3daf00ac	0.0854505
18	0x3d79c60e	0.060979895
19	0xbd4dda3f	-0.050256964
20	0xbc92b28e	-0.017907407
21	0x3db7a953	0.08967843
22	0xbc35c7ff	-0.011095046
23	0x3d950249	0.072758265
24	0xbca7a459	-0.02046411
25	0x3cdddd1d	0.027082974
26	0xbd521af7	-0.051295247
27	0xbcb49b00	-0.022046566
28	0x3d62121d	0.055193055
29	0xbdac4eba	-0.084134534
30	0xbd8beef0	-0.06832683
31	0x3d9f167d	0.07767961
32	0xbdb9871c	-0.09058973
33	0x3dbe87ce	0.093032464
34	0x3dbafa2f	0.0912975
35	0xbbe820b6	-0.0070839776
36	0x3c20cdfe	0.009814737
37	0x39edf6a8	0.00045387936
38	0xbc3a7b14	-0.011381883
39	0x3bf9c0b4	0.007621849
40	0x3cbf170e	0.023326423
41	0xbd1afe50	-0.037840188
42	0xbda39ebb	-0.0798926
43	0x3d1b4047	0.037903097
44	0x3d41dae4	0.04732789
45	0x3d9dac8b	0.076989256
46	0xbcade6d7	-0.021228237
47	0xbc97e65e	-0.018542465
48	0x3dcf420c	0.10120019
49	0x3d7bd976	0.061486684
50	0xbdae60d8	-0.08514565
51	0x3c9c6e30	0.01909551
52	0xbd602fac	-0.054732963
53	0xbd9649e2	-0.07338311
54	0x3d59d0a6	0.0531775
55	0xbccc71ba	-0.024956573
56	0xbd2a5186	-0.041581653
57	0xbdb53b58	-0.088492095
58	0x3dc0c5ba	0.09412713
59	0xbdd990f4	-0.10623351
60	0x3cd2e1c5	0.02574242
61	0x3dc39807	0.09550481
62	0x3c0a9a44	0.008459631
63	0x3d35e428	0.04440704
64	0xbc42dee7	-0.011893964
65	0x3dd49a68	0.10381013
66	0x3dda9a20	0.10673928
67	0xbcbc6f98	-0.02300243
68	0xbc92b491	-0.017908366
69	0x3db01ec6	0.085996196
70	0xbdb65670	-0.089032054
71	0xbd95e207	-0.07318502
72	0x3d9297a2	0.07157828
73	0xbcfed51d	-0.03110748
74	0x3d017703	0.03160764
75	0xbd5678cc	-0.052361295
76	0xbd64f075	-0.05589338
77	0xbd63f8e0	-0.055657268
78	0xbd8400ca	-0.06445463
79	0xbd8f2bb5	-0.06990758
80	0xbd8db3e6	-0.069190785
81	0xbd0fdab3	-0.035120677
82	0x3db14ddf	0.08657431
83	0xbd0f460c	-0.03497891
84	0xbd0f5b34	-0.034999087
85	0xbd986340	-0.074408054
86	0xbc99ddd4	-0.018782534
87	0xbd67c0f2	-0.05658049
88	0xbd815b8d	-0.0631629
89	0xbd769a5d	-0.060205806
90	0x3dbb1dae	0.0913652
91	0x3d17409a	0.036926843
92	0x3d835240	0.06412172
93	0xbd0958e6	-0.033532046
94	0x3cd086b6	0.02545486
95	0x3d8389b8	0.06422752
96	0x3d36e8ab	0.044655483
97	0xbd8bc36c	-0.06824383
98	0xbdad859b	-0.08472749
99	0xbd8eb72d	-0.06968532
100	0x3d2bfbaf	0.04198807
101	0x3cb47de4	0.022032686
102	0xbd8d3be9	-0.068961926
103	0x3bfe7da9	0.0077664447
104	0xbb555337	-0.003255082
105	0x3d544037	0.051819053
106	0xbd65b140	-0.056077242
107	0x3d9033dd	0.07041142
108	0x3d3583d8	0.04431519
109	0xbd742887	-0.059608962
110	0x3dad51b6	0.08462851
111	0xbd87a90a	-0.066240385
112	0xbd06e285	-0.03293087
113	0xbdbfb829	-0.09361298
114	0xbce8b762	-0.028407756
115	0x3c2c41f6	0.010513773
116	0xbca3cc45	-0.019994864
117	0xbd56b25e	-0.052416198
118	0x3d7141ab	0.058900516
119	0x3c1cb605	0.009564881
120	0xbd0a4f74	-0.03376718
121	0xbd10df7a	-0.035369374
122	0xbd1a825a	-0.03772197
123	0xbd0ae2da	-0.03390775
124	0xbda5c580	-0.08094311
125	0x3c0438a4	0.008070145
126	0x3d082087	0.033234145
127	0x3c9c02b8	0.019044265
128	0x3d676832	0.056495853
129	0x3d2ebf4a	0.042662896
130	0xbce7e7a2	-0.028308693
131	0xbda061d4	-0.07831159
132	0xbdacdcef	-0.08440577
133	0xbce44815	-0.027866403
134	0xbc43b1f6	-0.011944285
135	0xbd7e76af	-0.062124904
136	0xbd7f86df	-0.062384482
137	0x3c95db1c	0.018292956
138	0x3c0bcd40	0.008532822
139	0x3d264b00	0.04059887
140	0x3dc6cfba	0.097075894
141	0xbd6f9eda	-0.058501102
142	0x3d8bd361	0.06827427
143	0xbdb8e86d	-0.09028707
144	0xbd0a3c6e	-0.033749036
145	0x3d40bc53	0.0470546
146	0x3d8dd701	0.06925774
147	0x3daa1180	0.08304119
148	0x3cd800d9	0.026367592
149	0xbd58b4b4	-0.052906707
150	0x3d897a15	0.067127384
151	0xbddbb770	-0.10728347
152	0xbd76ae63	-0.060224902
153	0xbb791483	-0.003800661
154	0x3d7e040c	0.06201558
155	0x3d7ce1c2	0.061738737
156	0xbdba524c	-0.09097728
157	0x3c1559a0	0.009115607
158	0x3d65c033	0.0560915
159	0xbd37738d	-0.044787932
160	0x3c021a95	0.007940908
161	0x3cf3b5f4	0.029749848
162	0x3db46ab6	0.08809416
163	0x3cbe08f3	0.023197627
164	0x3dd1db4f	0.10246908
165	0xbd1e557c	-0.038655743
166	0xbd9ae793	-0.075637005
167	0xbd0dcb62	-0.03461779
168	0xbd0324ec	-0.032017633
169	0x3d889be7	0.06670361
170	0xbd88feee	-0.06689249
171	0x3dc649b5	0.09682027
172	0x3da87e68	0.08227235
173	0xbd1b729d	-0.0379511
174	0x3de6a346	0.11261611
175	0x3db9973a	0.09062047
176	0x3bce43ac	0.006294688
177	0x3db14382	0.08655454
178	0x3d8d4dba	0.06899591
179	0xbd4726be	-0.04862093
180	0x3c96e369	0.018418984
181	0x3c8db43d	0.017297858
182	0x3da8bcef	0.08239161
183	0x3dab3d3d	0.0836129
184	0xbd102c2c	-0.035198376
185	0xbdb6ac3b	-0.08919569
186	0x3cc518bb	0.024059644
187	0x3de05747	0.10954147
188	0xbd9722e0	-0.07379699
189	0xbd2759e4	-0.04085721
190	0x3db70593	0.0893661
191	0x3d37c36d	0.044864107
192	0xbd77f999	-0.06054077
193	0x3d40e74c	0.047095582
194	0xbd96f390	-0.073706746
195	0xbda74e89	-0.08169276
196	0x3ba71beb	0.0050997636
197	0xbd85c735	-0.06532136
198	0xbd7b3cd1	-0.061337296
199	0x3d993694	0.07481113
200	0xbc848b74	-0.016179778
201	0xbdb69474	-0.08915034
202	0x3d9c07ae	0.07618652
203	0xbd7a66b7	-0.061133113
204	0x3bac6d2f	0.005262039
205	0x3cbd63ae	0.02311882
206	0x3d9e43e6	0.07727794
207	0x3d14acb0	0.0362975
208	0xbd9d735b	-0.07688018
209	0x3ce0051f	0.027346192
210	0xbd50db8f	-0.050990637
211	0xbd3278b4	-0.043572143
212	0xbcbcb543	-0.023035651
213	0x3d31bce0	0.043393016
214	0xbd96f062	-0.07370068
215	0x3d9ff944	0.078112155
216	0x3d2c7654	0.042105034
217	0xbdc1e552	-0.094675675
218	0x3d86eb7f	0.06587886
219	0x3da84b1b	0.0821745
220	0x3d0f07db	0.0349196
221	0x3b8c04c1	0.0042730276
222	0x3dad5656	0.08463733
223	0x3cc8f39a	0.02453022
224	0xbcacee5f	-0.021109758
225	0xbd27a3f8	-0.040927857
226	0xbca4a145	-0.02009643
227	0x3dbbe023	0.0917361
228	0x3d7aceb8	0.0612323
229	0x3caa3e23	0.020781582
230	0xbdc6caec	-0.09706673
231	0x3da69bc3	0.08135178
232	0x3da3ad95	0.079920925
233	0xbc07b541	-0.00828296
234	0x3d6ff94b	0.058587354
235	0xbd348766	-0.04407444
236	0xbc38e219	-0.011284375
237	0xbd8d4662	-0.0689819
238	0xbd9c5074	-0.07632533
239	0xbd90e3e4	-0.07074717
240	0x3cf65ac5	0.03007258
241	0x3dd97333	0.10617676
242	0xbd2a8d10	-0.041638434
243	0xbca7639a	-0.020433236
244	0x3bc02305	0.0058635497
245	0xbd5db615	-0.054128725
246	0xbd0a5439	-0.033771727
247	0xbd96f2a3	-0.07370498
248	0xbbc0c6d4	-0.005883077
249	0xbcff13f4	-0.031137444
250	0x3d191376	0.037372075
251	0x3c8e0bb0	0.017339557
252	0xbd55e76d	-0.052222658
253	0xbd7d0f07	-0.06178191
254	0x3b92cc51	0.004479923
255	0xbcd58351	-0.026063593

lstm.weight_ih_l1 f4 [400, 100]
0	0x3da43937	0.08018725
1	0x3d18d701	0.03731442
2	0xbcb3979d	-0.02192288
3	0xbdbabd2e	-0.091181144
4	0x3dca5be2	0.098808065
5	0xbc90eeb9	-0.017691957
6	0x3db1496c	0.08656582
7	0xbcb31b0a	-0.02186348
8	0xbcd3c9a3	-0.025852984
9	0xbda86aaa	-0.082234696
10	0xbdb913d9	-0.09036989
11	0x3d1b84c9	0.03796843
12	0xbdd2c277	-0.102909975
13	0x3dc71f13	0.09722724
14	0x3da2b64e	0.07944928
15	0x3bc0e502	0.005886675
16	0x3d7390e8	0.059464365
17	0xbd699e3f	-0.05703568
18	0x3d7bc6eb	0.061469
19	0x3d9c2514	0.076242596
20	0xbd567c40	-0.052364588
21	0xbd9ebad5	-0.07750479
22	0xbc332703	-0.010934594
23	0xbdc223f1	-0.094795115
24	0xbd2f7e59	-0.042845104
25	0xbdc2ec32	-0.09517707
26	0xbd886524	-0.06659916
27	0x3c20c005	0.009811406
28	0xbcb6835b	-0.022279432
29	0x3d14493d	0.036202658
30	0x3c79f812	0.0152568985
31	0xbceb4359	-0.028718637
32	0xbd4837a0	-0.048881173
33	0xbd941199	-0.07229919
34	0xbdb99315	-0.09061257
35	0xbd014586	-0.031560443
36	0x3d592e87	0.053022888
37	0xbd103b44	-0.03521277
38	0xbd845b5e	-0.064627394
39	0xbd9916b4	-0.074750334
40	0xbda0d530	-0.07853162
41	0xbd381693	-0.044943403
42	0xbda557bd	-0.080733754
43	0xbc1d1317	-0.009587071
44	0xbd4281a7	-0.047486927
45	0x3db534a7	0.08847933
46	0x3dccc07f	0.09997653
47	0xbd8657a1	-0.06559683
48	0x3d3a4ecb	0.0454853
49	0x3cefb729	0.029262142
50	0x3d8479ea	0.06468566
51	0x3d165c8c	0.036709353
52	0xbdbe6151	-0.092959054
53	0xbcea5877	-0.028606636
54	0x3ce4242b	0.027849277
55	0x3d8a55e0	0.067546606
56	0x3d5c3609	0.05376247
57	0x3c76d208	0.015064724
58	0x3da93a28	0.082630455
59	0x3d84b008	0.06478888
60	0xbcc9f3b3	-0.024652338
61	0xbda0d24e	-0.078526124
62	0xbd93d4aa	-0.07218297
63	0xbd8096d6	-0.0627877
64	0x3d55da99	0.052210424
65	0x3dacb864	0.08433607
66	0xbdd3e340	-0.10346079
67	0xbd8fb9b8	-0.07017845
68	0x3cd65403	0.026163107
69	0xbd941f20	-0.07232499
70	0xbdabeea6	-0.08395128
71	0x3caba710	0.020953685
72	0xbc8b067d	-0.016970867
73	0xbd6d34fa	-0.05791185
74	0x3d4effec	0.050537035
75	0x3d8f0734	0.06983796
76	0xbdbd8458	-0.09253758
77	0x3d5178b4	0.051140502
78	0x3d886f34	0.06661835
79	0x3d083532	0.033253856
80	0xbbc94cd8	-0.0061431937
81	0x3d6abef3	0.05731101
82	0xbabe7edb	-0.0014533655
83	0x3c77f1b8	0.015133314
84	0xbd4e52f9	-0.050372098
85	0x3db8ec5c	0.09029457
86	0x3b81f0e8	0.003965486
87	0x3d345df6	0.04403492
88	0x3c9584ce	0.018251803
89	0x3d34bba7	0.04412427
90	0x3dad61fe	0.08465956
91	0x3d1def2b	0.038558166
92	0x3daa8177	0.08325475
93	0xbd7fa805	-0.062416095
94	0xbd63c1f8	-0.055604905
95	0xba6dca76	-0.00090710016
96	0x3d73d509	0.059529338
97	0x3d64f422	0.055896886
98	0xbd908c9e	-0.070580706
99	0xbd9d7969	-0.07689173
100	0x3bfe9e8d	0.0077703656
101	0xbda88e27	-0.082302384
102	0x3dcd026c	0.100102276
103	0x3c1a8d8c	0.0094331615
104	0x3dd6ea26	0.10493879
105	0xbd6ce707	-0.057837512
106	0xbd659ee2	-0.056059726
107	0xbb9a6e05	-0.0047128224
108	0xbcacf378	-0.021112189
109	0xbd5c5c80	-0.053799152
110	0xbb6ca616	-0.0036109737
111	0x3d8357ac	0.064132065
112	0xbc863226	-0.016381335
113	0xbd93e9b1	-0.072223075
114	0xbab20e2e	-0.0013584548
115	0xbd8b4031	-0.06799353
116	0xbd2e3c45	-0.042537946
117	0xbc8b46a7	-0.017001463
118	0xbcfe8aa9	-0.031071978
119	0xbd256d00	-0.040387154
120	0xbd8f6e22	-0.07003428
121	0x3ba532e8	0.005041469
122	0xbd18fd8b	-0.037351172
123	0xbd8b4a9d	-0.06801341
124	0x3d8e3199	0.06943054
125	0xbda39e3c	-0.07989165
126	0xbd66cb16	-0.05634602
127	0x3d7c4ad2	0.06159479
128	0x3dbbc443	0.09168293
129	0x3db0917f	0.08621501
130	0xbc8e1a83	-0.017346626
131	0x3c21dcbd	0.009879288
132	0x3c10b9f9	0.008833402
133	0xbc8744b6	-0.016512256
134	0xbcc519e5	-0.024060199
135	0xbdbd5b95	-0.092459835
136	0xbd814777	-0.06312459
137	0x3db82dcc	0.0899311
138	0x3c9ea0ac	0.019363724
139	0xbda9f485	-0.082985915
140	0xbcc838b1	-0.024441095
141	0xbc0bedd9	-0.008540594
142	0xbdb7fe39	-0.08984036
143	0xbd0edb67	-0.034877207
144	0xbd7bdbdb	-0.061488967
145	0x3dcb30fc	0.099214524
146	0x3c3dbec9	0.011581131
147	0xbca7c5ec	-0.020480119
148	0xbd865ad6	-0.06560294
149	0x3db98da3	0.09060218
150	0xbd68d6bf	-0.056845423
151	0x3db1a184	0.08673385
152	0x3d578f6a	0.052627005
153	0x3d69dbfe	0.057094567
154	0xbd809014	-0.06277481
155	0xbcb80ebe	-0.022467967
156	0xbb529730	-0.0032133572
157	0xbd353e6c	-0.044248983
158	0xbd38fe48	-0.045164376
159	0x3c96bfcc	0.018402003
160	0xbcd79a74	-0.026318766
161	0xbd4d886d	-0.050178934
162	0x3d871d07	0.065973334
163	0x3d8f6b58	0.07002896
164	0x3d8bc06e	0.068238124
165	0x3cfd2c00	0.03090477
166	0xbd9274c2	-0.07151176
167	0xbd0bd237	-0.034136023
168	0xbd3ba3ad	-0.04581039
169	0x3ce625c0	0.028094172
170	0x3c954e7b	0.018225899
171	0x3d0f4bcc	0.034984395
172	0xbd28ab29	-0.041178856
173	0xbd8731e0	-0.0660131
174	0x3d9488fc	0.0725269
175	0xbdb2059b	-0.086924754
176	0xbd3e0655	-0.046392757
177	0x3ce25118	0.02762656
178	0xbdaf991a	-0.08574124
179	0xbca67ce8	-0.020323232
180	0xbd9a241d	-0.07526419
181	0xbd0fe9a9	-0.035134945
182	0xbc41df39	-0.011833006
183	0x3dd2443c	0.10266921
184	0x3db14858	0.086563766
185	0xbb89ae73	-0.004201704
186	0xbd4a2df8	-0.049360245
187	0xbd845962	-0.06462361
188	0x3cfed949	0.031109469
189	0x3d243dfc	0.040098175
190	0x3cd61649	0.026133673
191	0xbdd974fb	-0.106180154
192	0x3d7caeeb	0.061690252
193	0xbc8411e4	-0.016121812
194	0xbd5395bd	-0.051656473
195	0xbd130ca3	-0.035900723
196	0x3d80cd36	0.06289141
197	0xbc41fcee	-0.011840088
198	0x3caaccd5	0.020849625
199	0x3d9dd087	0.07705789
200	0x3d4591c8	0.04823473
201	0x3d4d565e	0.050131194
202	0x3d64c066	0.055847548
203	0x3d9540a9	0.072877236
204	0x3da76967	0.08174401
205	0xbd9f780d	-0.0778657
206	0x3dc56261	0.09637905
207	0xbd800d4c	-0.06252536
208	0x3bc36bca	0.005963777
209	0x3d96ecfa	0.073694184
210	0xbd51e912	-0.051247664
211	0xbddeba1d	-0.10875342
212	0xbdb356ee	-0.08756815
213	0x3db96ae0	0.09053588
214	0x3d9d5e34	0.076839834
215	0xbda826b5	-0.08210508
216	0xbdaa98a4	-0.08329895
217	0xbc6ce011	-0.0144577185
218	0x3d0ce00f	0.034393366
219	0x3dba68b3	0.09102001
220	0x3d7588df	0.059944984
221	0x3cb5ce5d	0.022193128
222	0xbb5a7812	-0.0033335728
223	0xbb0d6f59	-0.002158126
224	0x3cc2fc53	0.023801958
225	0x3dc0f8b2	0.09422435
226	0xbd08919e	-0.033341996
227	0xbdc58a18	-0.0964548
228	0xbd2c1818	-0.042015165
229	0xbd126e02	-0.035749443
230	0x3c8ea4a0	0.017412484
231	0x3dcae054	0.099060684
232	0x3dc4ac1b	0.09603139
233	0xbc607ef5	-0.013702144
234	0x3c4f8c47	0.012667722
235	0x3cd0abac	0.025472485
236	0xbdc58fc2	-0.0964656
237	0xbd85dff0	-0.06536853
238	0x3d0875a7	0.033315327
239	0x3d53aafb	0.05167673
240	0x3b89f811	0.00421048
241	0xbc9aca61	-0.01889533
242	0xbd0ddc79	-0.034634087
243	0xbdbb9124	-0.09158543
244	0x3d7c388b	0.06157736
245	0x3c615e48	0.013755389
246	0x3c2bddf2	0.010489928
247	0xbc80679a	-0.015674401
248	0x3c13aea9	0.00901381
249	0xbce313d4	-0.027719416
250	0xbdbf29c1	-0.09334136
251	0x3cc52642	0.024066094
252	0x3d7de253	0.061983418
253	0x3c0993d1	0.008397059
254	0x3d9f5b32	0.07781066
255	0xbd2a81d0	-0.041627705

lstm.weight_hh_l1 f4 [400, 100]
0	0xbdc884b1	-0.09790934
1	0x3d70f2b4	0.05882521
2	0xbd905b7d	-0.070487
3	0xbd4bc5d0	-0.049749196
4	0xbd85cd93	-0.06533351
5	0x3db38cb6	0.08767073
6	0x3cb6e99d	0.022328192
7	0x3c85c9df	0.016331611
8	0x3d8b7fae	0.06811462
9	0xbdaa0c4e	-0.08303128
10	0x3da206e1	0.07911468
11	0xbd05f2b6	-0.03270217
12	0xbd0d2b8b	-0.034465354
13	0x3d2cbe57	0.04217371
14	0x3da6f9e6	0.08153133
15	0xbb2e2e89	-0.002657803
16	0x3dab2164	0.08355978
17	0xbda6541a	-0.0812151
18	0x3da6a71e	0.08137344
19	0x3dce4715	0.100721516
20	0xbd87c733	-0.06629791
21	0xbd120be0	-0.035655856
22	0xbd813e03	-0.06310656
23	0xbd40e982	-0.04709769
24	0x3bc816b0	0.00610622
25	0x3d75448d	0.05987983
26	0xbc85215c	-0.016251259
27	0x3c4c27f2	0.012460696
28	0xbd3cf9a6	-0.04613652
29	0x3dabb14f	0.08383428
30	0x3b4c8ab3	0.00312106
31	0x3d640ae5	0.055674452
32	0x3d20e9b3	0.039285373
33	0xbdca7610	-0.098858
34	0xbdafa61b	-0.08576604
35	0x3b9b621e	0.004741921
36	0xbcbe5966	-0.023235988
37	0xbdd53a42	-0.104115024
38	0xbd037a45	-0.032099027
39	0x3ce88b78	0.028386816
40	0xbc98eed9	-0.018668579
41	0x3dc3c904	0.09559825
42	0xbd9ef863	-0.0776222
43	0x3d9077fc	0.07054135
44	0x3d9d64cc	0.07685241
45	0xbda24a24	-0.079242975
46	0xbd7df9c9	-0.06200579
47	0xbdaf3683	-0.08555319
48	0x3bc80973	0.006104642
49	0xbd347a05	-0.04406168
50	0xbd4ad02a	-0.049514927
51	0x3cc2567a	0.023722876
52	0x3d63eae2	0.055643924
53	0x3d132d2c	0.03593175
54	0xbdc28efd	-0.09499929
55	0xbd758a5b	-0.0599464
56	0x3c83ff4a	0.016112942
57	0xbdb82166	-0.08990745
58	0xbcd835b1	-0.02639279
59	0xbd3e7cf1	-0.046505872
60	0xbd3e7453	-0.046497654
61	0xbbc42c24	-0.0059867073
62	0x3c803c51	0.015653761
63	0x3d9c46ab	0.07630666
64	0x3d00edab	0.031476658
65	0xbda13a1a	-0.0787241
66	0xbd14e064	-0.036346808
67	0x3d07c481	0.033146385
68	0x3d9f7978	0.0778684
69	0x3d0098b2	0.03139562
70	0xbda11824	-0.078659326
71	0xbd5be04d	-0.053680707
72	0x3d4a1055	0.04933198
73	0xbd8cbb45	-0.06871656
74	0xbdc2f862	-0.095200315
75	0xbdc67d31	-0.09691847
76	0xbd162a29	-0.0366613
77	0xbd1fba68	-0.03899613
78	0x3d1aa331	0.037753288
79	0xbdc05112	-0.09390463
80	0x3db245a9	0.08704693
81	0xbd5169bb	-0.051126223
82	0xbd74116c	-0.059586927
83	0x3db68ece	0.089139566
84	0xbd7f798a	-0.062371768
85	0x3dc36415	0.095405735
86	0x3ccfcd83	0.02536655
87	0xbcf7eea8	-0.030265167
88	0x3d4068c3	0.04697491
89	0x3dc0c902	0.09413339
90	0x3b5bbda5	0.0033529785
91	0x3dbaf8bb	0.09129473
92	0x3d267a67	0.040644076
93	0xbd21c2f0	-0.039492548
94	0x3cacfb67	0.021115972
95	0x3d7a9b63	0.061183345
96	0xbd40f7c2	-0.04711128
97	0xbc8a7ca1	-0.01690513
98	0x3c849db1	0.016188474
99	0xbcbdabae	-0.023153152
100	0xbdc203d2	-0.09473385
101	0x3be21644	0.006899627
102	0x3db2c172	0.08728303
103	0x3d19ad9e	0.03751909
104	0x3ceb2dd0	0.028708369
105	0xbd72ffb9	-0.059325907
106	0xbd1d0206	-0.038332008
107	0xbcde74fd	-0.027155394
108	0xba9eb59a	-0.0012108565
109	0xbdd884a2	-0.10572173
110	0x3d103e0f	0.035215434
111	0xbd67bc83	-0.056576263
112	0x3db2e65a	0.08735342
113	0x3d3a14f1	0.045430128
114	0xbd2d5cba	-0.04232476
115	0xbd533c94	-0.051571444
116	0xbd0ef79d	-0.03490411
117	0xbd624875	-0.05524488
118	0x3d64beb9	0.05584595
119	0x3daab556	0.08335368
120	0xbdceef44	-0.1010423
121	0xbcfb3c1b	-0.030668309
122	0xbd965667	-0.07340699
123	0xbbb23352	-0.0054382468
124	0x3d5949aa	0.053048767
125	0x3d55e878	0.052223653
126	0xbd70632c	-0.058688328
127	0xbd85db99	-0.065360256
128	0x3c802498	0.01564245
129	0xbd226beb	-0.0396537
130	0xbd2944ef	-0.041325506
131	0x3d116985	0.035501022
132	0x3c58adae	0.013225002
133	0x3d8c786e	0.06858908
134	0xbd0a4c8c	-0.033764407
135	0xbd0ab1ff	-0.033861157
136	0xbda73a3e	-0.08165406
137	0x3db774e0	0.08957839
138	0xbd1b9df7	-0.037992444
139	0xbd4ccc79	-0.049999688
140	0x3dc96741	0.09834147
141	0xbcd697a0	-0.026195347
142	0x3c59ecd8	0.013301097
143	0x3dbea95b	0.09309646
144	0x3d893a15	0.067005314
145	0x3c276566	0.010217046
146	0xbb97df72	-0.004634791
147	0x3d8f34c0	0.06992483
148	0xbc00327b	-0.0078245355
149	0x3d46f0ad	0.04856937
150	0x3da0f741	0.0785966
151	0x3d92837c	0.07153985
152	0x3da34e35	0.07973901
153	0xbd9b281a	-0.07576008
154	0x3d227032	0.03965778
155	0x3d00a050	0.031402886
156	0x39d73f45	0.00041055135
157	0x3d8e7aa2	0.06956984
158	0xbd6c95c8	-0.05776003
159	0xbd1fc35e	-0.039004676
160	0xbdaf0d34	-0.0854744
161	0xbd8f3b66	-0.06993751
162	0xbc622db6	-0.013804844
163	0x3dc5b773	0.09654131
164	0xbc6a6f52	-0.014308767
165	0xbd12fef8	-0.03588769
166	0x3ab0aa8b	0.001347856
167	0x3a785fb2	0.0009474709
168	0xbdd44fba	-0.10366769
169	0x3d75eac0	0.06003833
170	0x3db4fa63	0.0883682
171	0x3d83fde9	0.06444914
172	0x3d5c1142	0.053727396
173	0x3c95eb2d	0.018300617
174	0x3bebff15	0.007202039
175	0x3d82770c	0.06370363
176	0x3c6ffe67	0.014648057
177	0x3d85b364	0.06528357
178	0x3cfb4e7e	0.030677076
179	0xbd789913	-0.060692858
180	0xbd06b5b4	-0.03288813
181	0xbdab10d0	-0.08352816
182	0x3daf3707	0.085554175
183	0xbca685d3	-0.020327484
184	0x3d953bd5	0.07286803
185	0x3ce5a4d6	0.028032701
186	0xbc0f717a	-0.008755082
187	0xbddbf6ce	-0.10740434
188	0xbdca69e7	-0.098834805
189	0x3d593f1f	0.053038713
190	0xbcc689c7	-0.02423562
191	0x3bf82fd3	0.0075740605
192	0xbdb95401	-0.090492256
193	0xbdb01bea	-0.08599074
194	0xbcb0ec54	-0.021597065
195	0xbd834dd8	-0.06411332
196	0xbd88c411	-0.06678022
197	0xbd9e26b9	-0.077222295
198	0xbd9dbf57	-0.07702511
199	0x3d318642	0.04334093
200	0xbd43006d	-0.047607828
201	0x3c2c26e1	0.010507316
202	0x3d527169	0.051377688
203	0x3b85b1ec	0.004080048
204	0x3d1c55c1	0.03816772
205	0xbcea7773	-0.028621411
206	0x3d1d4102	0.038392074
207	0x3d3d07ec	0.046150133
208	0xbd6b612f	-0.05746573
209	0x3d945f36	0.072447225
210	0xbdad955d	-0.084757544
211	0x3d6d57c9	0.057945047
212	0xbda5a892	-0.08088793
213	0x3c8cce6b	0.017188272
214	0x3d5693e8	0.05238715
215	0xbd3ce97f	-0.046121117
216	0x3d94f56e	0.072733745
217	0xbdc43bd1	-0.095817216
218	0xbdbf174c	-0.093306154
219	0xbda1296e	-0.0786923
220	0x3d16a68d	0.03677993
221	0x3a495f26	0.000768172
222	0x3dccf286	0.10007195
223	0x3d1c66e6	0.03818407
224	0x3d8c694a	0.0685602
225	0xbd3fdb43	-0.046839964
226	0x3c99da49	0.018780844
227	0x3aaadefc	0.0013036425
228	0xbdaa3b14	-0.083120495
229	0x3d99f5b1	0.07517565
230	0xbc7ec93c	-0.015550908
231	0xbc9eb9d9	-0.019375728
232	0xbda4684b	-0.08027705
233	0xbd9c69ba	-0.07637353
234	0xbd2f04df	-0.042729255
235	0xbdb48b45	-0.08815626
236	0x3b0fb322	0.002192684
237	0x3dad31cb	0.08456763
238	0x3bb90c89	0.0056472463
239	0xbd81c94c	-0.063372225
240	0xbdb5443e	-0.08850907
241	0x3da473e2	0.080299154
242	0x3dad3188	0.08456713
243	0x3db726b5	0.0894293
244	0xbd835223	-0.06412151
245	0x3d271b95	0.04079779
246	0x3d5a17f3	0.053245496
247	0xbd043cbc	-0.032284483
248	0x3d7a11e9	0.061052237
249	0xbc04d62e	-0.008107705
250	0x3d96ca15	0.07362763
251	0xbd6f0c8d	-0.05836158
252	0xbdccce57	-0.10000294
253	0xbd915202	-0.0709572
254	0xbd5a0289	-0.053225074
255	0xbd2f314b	-0.04277162

lstm.bias_ih_l1 f4 [400]
0	0xbda6a852	-0.08137573
1	0xbd361a30	-0.044458568
2	0x3daaa8e0	0.083329916
3	0xbd63b323	-0.05559076
4	0x3dcec257	0.10095661
5	0xbd490ae0	-0.049082637
6	0xbb263017	-0.0025358254
7	0xbce63394	-0.028100766
8	0x3d901477	0.07035153
9	0xbd28e0d8	-0.041230053
10	0x3d2bc0ff	0.041932102
11	0xbdbe43ef	-0.09290301
12	0xbd1df25e	-0.038561217
13	0x3dd022ac	0.10162863
14	0x3dd730ae	0.10507332
15	0xbdd3ac20	-0.103355646
16	0x3d1c4744	0.0381539
17	0xbcf927a9	-0.03041442
18	0xbbe3ef6e	-0.0069560325
19	0xbc993be8	-0.018705323
20	0xbc70f304	-0.014706377
21	0xbd02984e	-0.03188353
22	0x3c441afa	0.011969322
23	0xbcde54d9	-0.027140068
24	0xbb4c7427	-0.0031197162
25	0x3cc698ff	0.024242876
26	0x3d548310	0.051882803
27	0x3bc76234	0.006084705
28	0x3c1483b0	0.0090646
29	0xbd87a4b6	-0.06623213
30	0x3d2a2dc1	0.04154754
31	0x3d476135	0.04867669
32	0xbca3a79e	-0.019977387
33	0x3cfb5d72	0.030684207
34	0xbcbc6d03	-0.0230012
35	0xbb930e96	-0.0044878228
36	0x3db9622b	0.09051927
37	0xbd22f114	-0.03978069
38	0xbd66e19f	-0.056367513
39	0xbd1962f7	-0.037447896
40	0x3d4d7d78	0.050168484
41	0xbdc15c98	-0.09441489
42	0x3d5ef604	0.054433838
43	0x3c9f6677	0.019458039
44	0x3dd13523	0.10215213
45	0xbc4fefa1	-0.012691409
46	0x3d8dff08	0.06933409
47	0xbd8500bb	-0.0649428
48	0x3d1791c7	0.03700426
49	0x3dc3532c	0.09537348
50	0xbd53d4e8	-0.051716715
51	0xbb99f46f	-0.004698328
52	0x3d8b057e	0.06788157
53	0xbd9174e8	-0.07102376
54	0xbd788b7d	-0.0606799
55	0x3db7e433	0.089790724
56	0x3da4c17d	0.080447175
57	0xbd3dc931	-0.04633445
58	0x3dccfb4d	0.10008869
59	0x3c2c8cbe	0.010531602
60	0x3d6bbfe5	0.05755605
61	0x3da03359	0.07822294
62	0x3d9da10d	0.076967336
63	0xbdc68181	-0.0969267
64	0x3d62c9e6	0.055368327
65	0x3c1a7c9b	0.009429122
66	0xbbb2c643	-0.0054557635
67	0xbd81814f	-0.06323492
68	0xbc57b765	-0.013166283
69	0xbd9367d5	-0.07197539
70	0x3db0b980	0.08629131
71	0xbd7f4e71	-0.062330667
72	0x3d5c4ee8	0.05378619
73	0x3d9d0901	0.07667733
74	0x3cc2d8e9	0.023785071
75	0xbd53c7b2	-0.051704116
76	0xbccdd765	-0.025127122
77	0xbda15207	-0.078769736
78	0x3d6cf221	0.0578481
79	0xbcd4dd05	-0.025984297
80	0xbdcf49fe	-0.10121535
81	0xbd4b1fb7	-0.049590793
82	0x3d4f7fd5	0.05065902
83	0x3d353878	0.044243306
84	0x3dafa766	0.085768506
85	0x3d2a76c2	0.041617163
86	0x3cd7368f	0.026271133
87	0xbdadd45e	-0.084877715
88	0xbdabf59d	-0.083964564
89	0x3d3e4e2f	0.04646128
90	0xbb008dfb	-0.0019615877
91	0xbdae9a65	-0.08525542
92	0x3daadb14	0.08342567
93	0xbd27a18a	-0.04092554
94	0x3d5ffc51	0.054683987
95	0x3bd49754	0.0064877663
96	0xbdc43cc4	-0.095819026
97	0xbda84ce1	-0.082177885
98	0x3c8bcf50	0.017066628
99	0xbcdcc141	-0.02694762
100	0xbdba06d9	-0.09083337
101	0xbd6db909	-0.05803779
102	0xbdbc175f	-0.09184145
103	0xbdaab762	-0.08335759
104	0x3bcc7514	0.0062395427
105	0x3cdadce9	0.026716666
106	0x3d9132ae	0.070897445
107	0xbd857482	-0.06516363
108	0x3d66ca3e	0.056345217
109	0x3db8e4a7	0.09027987
110	0xbb331b40	-0.0027329475
111	0x3d8803eb	0.06641372
112	0xbcc3eb95	-0.023916045
113	0x3c8845dc	0.016634874
114	0xbd7d6830	-0.06186694
115	0x3cec3f8c	0.028838895
116	0xbb5e801d	-0.0033950873
117	0x3d9f9e3b	0.07793852
118	0x3dd71aa7	0.105031304
119	0xbdd25542	-0.10270168
120	0xbca2eaa3	-0.019887274
121	0xbd4f5a3b	-0.05062316
122	0xbd388092	-0.04504449
123	0xbc427be5	-0.011870359
124	0x3d6f9c78	0.05849883
125	0xbdc5109c	-0.096223086
126	0x3d0899cc	0.033349797
127	0xbcd44a9a	-0.025914479
128	0x3d29e9a1	0.04148257
129	0xbd77646c	-0.060398504
130	0xbd0befc3	-0.0341642
131	0xbdb61c64	-0.08892134
132	0xbd38944c	-0.045063302
133	0xbcb20279	-0.021729695
134	0xbcd05730	-0.0254322
135	0x3de35278	0.11099714
136	0xbcf9a801	-0.030475618
137	0x3d042cbc	0.032269225
138	0x3d159c7d	0.036526192
139	0x3dae81d9	0.0852086
140	0xbc65debe	-0.014030157
141	0x3d00967c	0.031393513
142	0xbd4e35f4	-0.050344422
143	0xbbda981b	-0.0066709644
144	0xbb23c1cb	-0.0024987336
145	0xbd901426	-0.07035093
146	0xbd98441d	-0.074348666
147	0xbcb81475	-0.022470692
148	0xbd188ca1	-0.03724349
149	0x3cfdb83d	0.03097164
150	0x3c9fcd96	0.01950721
151	0x3d305b45	0.04305579
152	0x3c03a7ca	0.0080356095
153	0xbdc915ac	-0.09818587
154	0xbd2f4266	-0.04278793
155	0xbd830297	-0.06396978
156	0xbd8e8484	-0.06958869
157	0xbd4a694e	-0.049416833
158	0xbc91729c	-0.017754845
159	0x3c8938f4	0.01675079
160	0x3da07136	0.07834093
161	0x3d841732	0.06449737
162	0xbdb1a20d	-0.08673487
163	0xbd57d6dc	-0.05269514
164	0xbd2f4b29	-0.042796288
165	0xbd9cb0dd	-0.076509215
166	0x3d138b4c	0.036021516
167	0x3c7ddf32	0.015495108
168	0xbd9c8d67	-0.07644158
169	0x3d42dfc6	0.04757669
170	0xbcc433c5	-0.023950467
171	0xbd763e39	-0.060117934
172	0x3c81abf3	0.015829062
173	0xbd187481	-0.03722048
174	0x3db05344	0.08609632
175	0xbdb9a069	-0.09063799
176	0x3d1bfa64	0.038080588
177	0x3d236e46	0.039900087
178	0xbc59d632	-0.013295697
179	0xbc58e07b	-0.013237114
180	0x3a18a553	0.0005822975
181	0xbd8f3886	-0.06993203
182	0x3d4b3ede	0.0496205
183	0x3c99f77f	0.018794773
184	0xbdc1b42b	-0.094581924
185	0x3c257ed5	0.01010104
186	0x3c9df6db	0.019282749
187	0x3dbe3d3a	0.09289022
188	0x3b23bed6	0.0024985573
189	0x3daa205f	0.083069555
190	0x3da67ef6	0.081296846
191	0x3d86649e	0.0656216
192	0x3c55a1b4	0.013039041
193	0x3d237153	0.039902996
194	0x3cd66e6c	0.0261757
195	0xbdb299b5	-0.087207235
196	0xbd785793	-0.060630392
197	0xbcc67982	-0.024227861
198	0xbcb96c6f	-0.022634713
199	0x3d65877d	0.056037415
200	0xbd9adc09	-0.075614996
201	0x3dc4cd34	0.09609452
202	0x3d31f3a8	0.04344526
203	0xbdad58b2	-0.08464183
204	0x3da8ca5f	0.08241724
205	0xbdc98d09	-0.098413534
206	0x3db00f68	0.085966885
207	0xbd641528	-0.05568424
208	0x3da7bddb	0.08190509
209	0xbc2db9d0	-0.010603383
210	0xbd7a0037	-0.06103536
211	0xbdc058b7	-0.09391921
212	0x3a07976a	0.0005172404
213	0x3c8f5615	0.017497102
214	0x3dcdac3f	0.10042619
215	0xbd63877c	-0.05554913
216	0x3dadb852	0.08482422
217	0xbd463d17	-0.048398104
218	0x3db8a8fb	0.090166055
219	0xbdab0b9b	-0.08351823
220	0xbd6f5e60	-0.058439612
221	0xbd5040bb	-0.05084298
222	0x3cebe4ee	0.028795686
223	0x3d8233f3	0.06357565
224	0xbd8f76cf	-0.07005083
225	0xbd901f50	-0.070372224
226	0xbd9347c4	-0.071914226
227	0xbdd3f7a3	-0.10349967
228	0xbdac0d24	-0.08400944
229	0xbdad58cf	-0.084642045
230	0x3dda6e9c	0.10665628
231	0x3d39a443	0.045322668
232	0xbd8f275a	-0.069899276
233	0x3c332b50	0.0109356195
234	0x3c7d7d85	0.015471821
235	0xbc7c82ad	-0.015412015
236	0x3da44d56	0.08022563
237	0xbd3e600c	-0.046478316
238	0xbcc0b5d6	-0.023524206
239	0x3cd6d594	0.026224889
240	0xbc7c8f17	-0.015414975
241	0x3c9d4c09	0.019201295
242	0xbd8527ea	-0.06501754
243	0xbd7e8a35	-0.062143523
244	0x3bbced85	0.005765619
245	0x3d0c9bfa	0.03432844
246	0xbd137e19	-0.036008928
247	0xbcb4f50d	-0.022089506
248	0xbdac0328	-0.083990395
249	0xbd4a7b4a	-0.049433984
250	0xbdbe9adf	-0.09306883
251	0x3d4c1e2e	0.04983347
252	0x3c95786a	0.018245894
253	0xbcc64ef0	-0.024207562
254	0x3dcf01b7	0.10107749
255	0x3c84bdbe	0.016203757
