save_results/lstm_short_term_90d_run5.pt (torch, 546325 bytes, 10 tensors)

lstm.weight_ih_l0 f4 [400, 12]
0	0x3dd77bf0	0.10521686
1	0xbd91fc4f	-0.07128202
2	0x3d871711	0.065961964
3	0x3d4e1c8f	0.050320204
4	0xbda2376e	-0.079207286
5	0x3cba0f93	0.022712504
6	0x3a8bd662	0.001066875
7	0xbcb6402e	-0.0222474
8	0x3d1309f2	0.035898156
9	0xbd660b32	-0.05616302
10	0xbdd7ff39	-0.10546727
11	0xbccb1331	-0.024789425
12	0x3d253163	0.040330302
13	0x3c900d78	0.017584547
14	0x3d68b7ac	0.05681579
15	0xbc40d59f	-0.011769681
16	0xbd946294	-0.07245365
17	0x3c8db15d	0.017296487
18	0x3d301a99	0.042994116
19	0x3d6ec7c0	0.058295965
20	0x3de33e7d	0.11095903
21	0x3c27389b	0.010206367
22	0x3c98a6f8	0.018634304
23	0xbcb7c4a6	-0.022432636
24	0xbd91a97f	-0.07112407
25	0x3cb98c2b	0.022649845
26	0x3dcaac18	0.098961055
27	0xbcf5b699	-0.029994296
28	0x3d3237a0	0.04351008
29	0x3d9b3919	0.0757925
30	0x3d7a3d41	0.061093573
31	0xbd4f802e	-0.05065935
32	0xbd7a7a5f	-0.06115186
33	0x3d69f1f9	0.05711553
34	0xbdac4d23	-0.0841315
35	0xbd25f295	-0.040514547
36	0xbd5bb792	-0.053641863
37	0xbcb75a91	-0.022382053
38	0x3b75c9c1	0.0037504288
39	0xbd721ca1	-0.059109334
40	0xbd233cb7	-0.039852824
41	0xbd219343	-0.03944708
42	0x3ca40d7a	0.020025957
43	0xbd93fb8f	-0.07225715
44	0x3d9479d4	0.07249799
45	0x3daa8cdb	0.08327647
46	0xbdce8cce	-0.1008545
47	0x3dd65e24	0.10467175
48	0xbc1575ae	-0.009122295
49	0xbcdeb765	-0.027187059
50	0xbdaee614	-0.08539978
51	0xbd2057b0	-0.039146125
52	0x3b1b762a	0.0023721554
53	0xbd166da8	-0.03672567
54	0xbd1d4bb1	-0.038402263
55	0x3d8883d5	0.0666577
56	0xbbf5e748	-0.0075043775
57	0xbd8e9eb1	-0.06963862
58	0xbdb8621e	-0.09003089
59	0xbbac6f92	-0.0052623237
60	0xbd9d1344	-0.0766969
61	0x3d5ab45f	0.05339467
62	0x3c58f95d	0.013243047
63	0x3cfc90ce	0.030830767
64	0x3c89660c	0.016772293
65	0x3d4ee3b8	0.05051014
66	0x3d9d5a5c	0.0768325
67	0xbc97ef27	-0.018546654
68	0x3ca75ef7	0.020431025
69	0x3d4f447e	0.05060243
70	0xbc7cf1e6	-0.015438532
71	0x3a8430e7	0.0010085375
72	0xbd39c471	-0.045353357
73	0x3bad6247	0.0052912566
74	0xbc39f1ca	-0.011349151
75	0x3c6967de	0.014245955
76	0x3cfd2112	0.030899558
77	0x3d67594b	0.05648164
78	0xbd896c73	-0.06710138
79	0x3d6e9d1a	0.058255292
80	0xbd16e3dc	-0.036838397
81	0x3d9ad9e4	0.075610906
82	0x3cb247aa	0.021762688
83	0x3dd637b2	0.10459842
84	0xbd781394	-0.060565546
85	0x3d973c49	0.07384545
86	0x3d72c052	0.059265442
87	0xbc64e41e	-0.013970403
88	0x390fdf0a	0.00013720631
89	0x3cf9510f	0.03043416
90	0x3da5fd0e	0.08104907
91	0x3dccb119	0.09994716
92	0xbd789ef9	-0.060698483
93	0x3dbff873	0.0937356
94	0x3c9ae472	0.01890776
95	0x3da38519	0.07984371
96	0x3cab7053	0.020927584
97	0xbc5bf644	-0.0134254135
98	0x3db75c0a	0.08953102
99	0xbda3c28f	-0.079960935
100	0xbd94e69d	-0.072705485
101	0x3d567f7e	0.05236768
102	0xbd9aac21	-0.07552362
103	0x3dd1d940	0.10246515
104	0xbc8bae47	-0.017050875
105	0xbcfb9ed1	-0.030715378
106	0xbccb9a3f	-0.024853824
107	0x39562e84	0.00020425959
108	0x3d854fb7	0.06509345
109	0xbd361b63	-0.04445971
110	0xbce28e21	-0.027655663
111	0xbda3b7e3	-0.07994058
112	0xbd9ef218	-0.077610195
113	0xbd4f11ce	-0.05055409
114	0xbc839aa9	-0.016064959
115	0x3de91c86	0.113823935
116	0xbd094684	-0.033514515
117	0x3da1fe8e	0.079098806
118	0xbdff98c1	-0.12480307
119	0xbd3fcfa2	-0.046828873
120	0xbd56e348	-0.052462846
121	0x3b997f30	0.0046843514
122	0x3dcc8570	0.09986389
123	0xbd34922e	-0.04408472
124	0x3d42f63d	0.047598112
125	0x3c052a14	0.008127708
126	0xbc929658	-0.017893955
127	0x3cb64033	0.02224741
128	0x3d854b8e	0.065085515
129	0x3b736d1c	0.0037143892
130	0xbc2e0798	-0.010621928
131	0xbcfab0a5	-0.030601809
132	0xbdba7fcf	-0.09106409
133	0x3ddcf741	0.107893474
134	0xbde4b68d	-0.11167631
135	0xbdfd0d8c	-0.123560995
136	0x3ce12c89	0.027487056
137	0xbd9cc19f	-0.07654118
138	0x3db462df	0.08807921
139	0xbbe6c931	-0.007043027
140	0xbd5f7179	-0.054551575
141	0x3dac1996	0.08403318
142	0xbd8093af	-0.062781684
143	0xbd330150	-0.043702424
144	0x3d4ef70b	0.050528567
145	0x3d3139d3	0.043268036
146	0x3c8d1d7e	0.017225977
147	0xbce41a7d	-0.027844662
148	0xbb222e92	-0.0024746996
149	0x3dd1b895	0.10240284
150	0x3dc202e9	0.09473211
151	0x3dd1670e	0.10224734
152	0x3d7aa268	0.06119004
153	0xbd9eb833	-0.07749977
154	0x3d7f79ee	0.06237214
155	0xbc5b3702	-0.013379814
156	0x3d01aa60	0.031656623
157	0xbd0424b0	-0.03226155
158	0x3d665b28	0.056239277
159	0xbd82cac2	-0.06386329
160	0x3c58f1af	0.013241216
161	0x3c82bdf6	0.015959721
162	0x3d2f83ca	0.042850293
163	0x3cc5896f	0.024113385
164	0x3de051fe	0.10953139
165	0xbdaa7bd7	-0.08324402
166	0xbd849e35	-0.06475488
167	0xbd6f23d6	-0.058383785
168	0x3dbafc5e	0.091301665
169	0xbd27aacd	-0.040934373
170	0xbc590550	-0.0132458955
171	0xbd099b04	-0.0335951
172	0xba6b27f2	-0.0008970491
173	0xbd77288e	-0.06034141
174	0x3c900e73	0.017585015
175	0xbd2da34f	-0.04239207
176	0x3cfd44ea	0.03091665
177	0xbdb0f51a	-0.086404994
178	0xbdb57676	-0.08860485
179	0x3d930c62	0.07180096
180	0xbc7f1c04	-0.015570644
181	0x3c929b3a	0.017896283
182	0xbd6ed96b	-0.058312815
183	0xbdd8a324	-0.105779916
184	0x3d476ba0	0.048686624
185	0x3cec6290	0.028855592
186	0x3d29ca75	0.041452844
187	0x3d602b0c	0.054728553
188	0x3b0f58d2	0.002187301
189	0x3cdfa3ab	0.027299723
190	0x3e0a7183	0.13519864
191	0x3e1414e4	0.14461094
192	0xbb2f1f80	-0.0026721656
193	0x3d644041	0.05572534
194	0xbd017db9	-0.03161404
195	0xbca3a001	-0.019973757
196	0x3b24e1fb	0.002515911
197	0x3dc95afe	0.098318085
198	0xbcc1f968	-0.023678496
199	0xbda79be6	-0.08184032
200	0x3d2cbd9f	0.042173024
201	0x3d2cc011	0.042175356
202	0xbde10a87	-0.10988336
203	0xbd1443b9	-0.036197398
204	0xbd54cb35	-0.051951606
205	0x3c76aa92	0.015055316
206	0x3d2776e7	0.04088488
207	0xbc4f5924	-0.01265553
208	0xbcfd1087	-0.03089167
209	0xbd8cd868	-0.06877214
210	0xbd45772d	-0.048209358
211	0xbd96b0c7	-0.07357936
212	0x3dc47f8d	0.09594641
213	0x3d8e52b8	0.06949371
214	0x3c1750ba	0.009235555
215	0xbd1b6abd	-0.03794359
216	0xbd616b99	-0.055034254
217	0xbd4c61e0	-0.04989803
218	0x3c71b7b8	0.014753275
219	0x3d564a59	0.052316997
220	0x3ddf9077	0.10916226
221	0x3da0cfd8	0.07852143
222	0x3d5f5f7b	0.054534417
223	0x3dbe3239	0.09286923
224	0xbd9bcc65	-0.076073445
225	0x3dbdf241	0.09274722
226	0x3d87ddd3	0.066341065
227	0xbd7253a4	-0.059161797
228	0x3c4c2b14	0.0124614425
229	0x3c46a36f	0.012123927
230	0x3d98cd8d	0.07461081
231	0xbaf73cbf	-0.0018862708
232	0x3dd7d2b0	0.10538232
233	0x3dc6442c	0.096809715
234	0xbd4c9658	-0.049948066
235	0x3d289db0	0.041166008
236	0x3d4fdf0e	0.05074983
237	0x3d878f37	0.06619113
238	0x3d12ee9a	0.03587208
239	0xbd98b110	-0.07455647
240	0x3d22bfd4	0.039733723
241	0x3ce62048	0.028091565
242	0x3dc96475	0.09833614
243	0x3c2057bd	0.009786543
244	0x3cf219da	0.029553343
245	0x3b0f0b98	0.0021826979
246	0xbd5d3f6b	-0.05401556
247	0xbd5c0daf	-0.053723987
248	0xbd8a86df	-0.06764006
249	0xbd9bcfa9	-0.076079674
250	0x3d3f4535	0.04669686
251	0x3cec010d	0.028809095
252	0x3ca2c089	0.019867199
253	0x3dea0129	0.114260025
254	0xbd90ebe4	-0.070762426
255	0xb916f6ca	-0.00014397051

lstm.weight_hh_l0 f4 [400, 100]
0	0xbd042c93	-0.03226907
1	0x3db74dad	0.08950362
2	0xbda61364	-0.08109167
3	0x3d82a2dd	0.0637872
4	0x3ca130ea	0.019676644
5	0xbcf379e1	-0.029721202
6	0xbd0a76c1	-0.03380466
7	0xbcdccb6c	-0.026952468
8	0xbce8446d	-0.02835294
9	0xbd86d03f	-0.065826885
10	0xbd872d74	-0.06600466
11	0xbd851328	-0.064977944
12	0xbd6e02e2	-0.058108218
13	0x3daf5013	0.08560195
14	0xbd2b19e6	-0.041772746
15	0xbb87c818	-0.004143726
16	0xbc497ae8	-0.01229737
17	0xbdc3a341	-0.095526226
18	0x3d8c48ab	0.06849798
19	0xbd196143	-0.03744627
20	0x3c5b5b61	0.013388486
21	0x3d0e1e41	0.03469682
22	0x3d76adda	0.06022439
23	0xbd5a9582	-0.053365238
24	0x3dbc75f9	0.09202189
25	0xbc9939aa	-0.018704254
26	0xbdace363	-0.08441808
27	0xbd9e185f	-0.07719492
28	0xbda8ed7d	-0.08248422
29	0x3dccb263	0.09994962
30	0x3dc146c4	0.094373256
31	0xbc5a0d57	-0.0133088445
32	0x3c74b19a	0.014934922
33	0xbd915054	-0.070953995
34	0xbd98a1a0	-0.074527025
35	0x3c1ecb41	0.009692014
36	0xbc9c3086	-0.019066107
37	0xbd25bb83	-0.04046203
38	0x3d959e32	0.07305564
39	0x3ca90cd1	0.020635994
40	0xbca1c821	-0.01974875
41	0xbd33cf1d	-0.04389869
42	0x3c904f61	0.017615976
43	0xbd9be0e7	-0.07611256
44	0xbc135e6e	-0.008994682
45	0xbc3cd14d	-0.011524511
46	0x3da0242b	0.078193985
47	0x3d513c5b	0.05108295
48	0xbdbf26f8	-0.093336046
49	0x3da9ef2e	0.08297573
50	0x3d655533	0.055989455
51	0x3db5d9ec	0.08879456
52	0x3d5b377c	0.05351971
53	0x3c978db5	0.018500188
54	0xbcf85ded	-0.030318225
55	0xbcfdc0ff	-0.030975817
56	0xbd1de3cd	-0.038547326
57	0xbdaf055a	-0.085459426
58	0x3db58d12	0.08864798
59	0x3d7b56ac	0.061361954
60	0xbd81142b	-0.06302675
61	0xbccc0f6f	-0.024909703
62	0x3c017c3c	0.007903155
63	0x3d84b6bd	0.06480167
64	0xbd89a62f	-0.0672115
65	0xbd817cfe	-0.063226685
66	0x3dbdf4ea	0.09275229
67	0xbc173aac	-0.009230297
68	0x3d2cbd7d	0.042172898
69	0xbcea9c7d	-0.028639073
70	0x3cc255d3	0.023722565
71	0xbdb1a9a5	-0.08674935
72	0x3cb4e5fb	0.02208232
73	0x3da7bf29	0.08190758
74	0xbd252ee2	-0.040327914
75	0x38cf7f16	9.894201e-05
76	0xbd75a863	-0.05997504
77	0xbd9d263a	-0.07673307
78	0x3dbe69a8	0.09297496
79	0xbd92dc5c	-0.071709365
80	0xbda0b137	-0.07846301
81	0xbd855499	-0.06510276
82	0x3d80d39a	0.0629036
83	0x3d5df5eb	0.054189604
84	0x3c071921	0.008245737
85	0xbd668077	-0.056274857
86	0xbdbb90bd	-0.09158466
87	0x3d39732c	0.045275852
88	0x3d208d98	0.039197534
89	0xbd80ed2e	-0.062952384
90	0xbd7f91bc	-0.062394843
91	0x3da786e8	0.08180028
92	0x3d81bf62	0.063353315
93	0x3cf50f39	0.029914485
94	0x3da39606	0.07987599
95	0x3d648706	0.05579283
96	0xbca7a204	-0.020462997
97	0x3d0bb372	0.03410668
98	0xbd10cadf	-0.035349723
99	0xbba63a22	-0.005072848
100	0x3b0ac147	0.0021172331
101	0xbdc75734	-0.097334296
102	0x3de050d4	0.10952917
103	0x3d8eca5e	0.06972192
104	0xbdaf7659	-0.08567495
105	0x3d05d936	0.03267785
106	0x3d97eb0f	0.07417881
107	0x3db8758d	0.09006796
108	0xbc41afa6	-0.011821663
109	0x3cc9cae7	0.024632884
110	0xbd59621a	-0.053072073
111	0x3d172e83	0.03690959
112	0xbd148f57	-0.036269512
113	0x3d7c52bb	0.061602335
114	0x3d2305a4	0.0398003
115	0xbdb82161	-0.089907415
116	0xbd5b212c	-0.053498432
117	0x3da10ff8	0.07864374
118	0xbb42750b	-0.0029671814
119	0x3d4475dd	0.047963966
120	0xbcb4916f	-0.022042004
121	0xbc66b656	-0.014081558
122	0x3d8f791e	0.07005523
123	0xbdd40fc2	-0.10354568
124	0x3dec87de	0.11549352
125	0xbcd391de	-0.02582639
126	0xbc4a7968	-0.012358047
127	0xbdbcf7ce	-0.092269525
128	0x3db484d1	0.08814395
129	0x3c8ab16b	0.016930303
130	0x3cbbac04	0.022909172
131	0x3da6286c	0.081131786
132	0xbc8f1401	-0.017465593
133	0x3d364637	0.044500556
134	0xbd766f28	-0.0601646
135	0x3cacd4b2	0.021097515
136	0x3db273c9	0.087134905
137	0x3daec422	0.08533503
138	0xba26cfe1	-0.0006363374
139	0xbd7c947f	-0.061665054
140	0x3d0b68be	0.034035437
141	0x3d76780f	0.06017309
142	0xbc67eb61	-0.01415524
143	0xbd727089	-0.059189353
144	0x3d20cb7b	0.039256554
145	0x3cee6884	0.029102571
146	0x3d12623c	0.035738215
147	0x3da96a48	0.08272225
148	0x3d5c3ee8	0.05377093
149	0x3b56542a	0.0032703974
150	0x3d8b6d33	0.068079375
151	0x3bd8362a	0.0065982537
152	0x3daadca0	0.08342862
153	0x3d8466ae	0.06464897
154	0xbdc75427	-0.09732848
155	0xbd1640a5	-0.036682744
156	0x3d47dd16	0.04879483
157	0xbd6c493f	-0.05768704
158	0x3bf8b906	0.007590416
159	0xbdab73e5	-0.083717145
160	0x3d690984	0.05689384
161	0xbd381cbc	-0.04494928
162	0x3ba304d9	0.004974943
163	0x3da31487	0.079629
164	0x3d896da9	0.06710369
165	0xbda79c47	-0.081841044
166	0x3d7d59e6	0.061853312
167	0xbcd404f0	-0.02588126
168	0x3d290e93	0.041273665
169	0x3d90d4d6	0.07071845
170	0xbd9d95fc	-0.07694623
171	0x3bc8bb0a	0.0061258124
172	0x3d6aed4c	0.05735521
173	0x3d9d0057	0.076660804
174	0x3d21c221	0.039491776
175	0x3d620145	0.055176992
176	0x3d9ee5ae	0.07758652
177	0x3cb171b0	0.021660656
178	0x3c316526	0.010827338
179	0x3d12a746	0.035804056
180	0x3d9e1345	0.07718519
181	0xbbc757fe	-0.0060834875
182	0xbdefbe3b	-0.117062055
183	0x3cef4221	0.029206337
184	0xbc219d96	-0.009864232
185	0xbd9a724f	-0.07541334
186	0xbd6ad352	-0.057330437
187	0xbc082982	-0.0083106775
188	0xbc91aa46	-0.017781388
189	0x3d1527a8	0.036414772
190	0xbc3671be	-0.011135517
191	0x3da80e9c	0.082059115
192	0xbd4073a0	-0.04698527
193	0xbd30ab98	-0.043132395
194	0x3d69e9ff	0.05710792
195	0x3b6212a2	0.003449597
196	0x3d44561c	0.047933683
197	0xbd689179	-0.05677936
198	0x3d0b5aa9	0.034022007
199	0xbdbeb9dd	-0.09312794
200	0x3d771484	0.0603223
201	0xbdcaea6b	-0.09907993
202	0xbd2094ec	-0.039204523
203	0xbc967961	-0.018368425
204	0xbd0a172a	-0.033713497
205	0xbd613b2c	-0.05498807
206	0x3c0979d3	0.008390862
207	0x3d6b366b	0.057424944
208	0x3d14bfef	0.036315855
209	0xbc8151f6	-0.015786152
210	0xba8d7f82	-0.0010795447
211	0x3c9f7a82	0.019467596
212	0x3dd5f716	0.104475185
213	0x3daab862	0.083359495
214	0x3d98fcfe	0.074701294
215	0xbde56a88	-0.1120196
216	0xbdc63fd9	-0.09680147
217	0x3daefe6c	0.08544621
218	0xbdaa8bfc	-0.08327481
219	0x3d9e1cff	0.07720374
220	0x3c663160	0.014049858
221	0xbdca762b	-0.0988582
222	0xbd820b26	-0.06349783
223	0x3cc239a5	0.023709128
224	0xbca175a2	-0.019709412
225	0x3d4c589c	0.049889192
226	0xbda78213	-0.081791066
227	0x3d975213	0.07388701
228	0xbafd065f	-0.0019304267
229	0x3d806117	0.062685184
230	0x3ac09608	0.001469315
231	0x3bd0b599	0.0063693044
232	0x3b37b980	0.002803415
233	0x3e056091	0.13025118
234	0xbd6627e1	-0.056190375
235	0x3d06a629	0.032873306
236	0xbd047ebe	-0.032347433
237	0xbcf124a5	-0.029436419
238	0x3cabd952	0.02097765
239	0xbe1f0b2c	-0.15531605
240	0x3c6a4f8f	0.014301195
241	0x3deb8b56	0.115011856
242	0xbde2bfbd	-0.110717274
243	0x3c97cf47	0.018531455
244	0xbd524b37	-0.05134126
245	0xbc113fe1	-0.008865328
246	0xbd588e0c	-0.05286984
247	0x3d7676b3	0.060171794
248	0xbda6621b	-0.08124181
249	0xbcd4450a	-0.025911827
250	0x3cfc33ce	0.030786421
251	0xbd46dacf	-0.048548516
252	0x3d820d24	0.063501626
253	0xbdb62b9a	-0.08895035
254	0x3d8f1782	0.06986906
255	0x3d2f630e	0.042819075

lstm.bias_ih_l0 f4 [400]
0	0xbd4ab342	-0.04948736
1	0x3d26b521	0.04070008
2	0x3d1d5f3b	0.038420897
3	0xbd23afa1	-0.039962415
4	0xbd96c4c8	-0.07361752
5	0xbcc171f5	-0.02361391
6	0xbdab7ce1	-0.08373428
7	0x3d8c1bf2	0.06841268
8	0xbdb2b381	-0.08725644
9	0x3c23fb6d	0.010008675
10	0xbcf64442	-0.030061845
11	0xbbf50783	-0.007477702
12	0x3c168b82	0.009188535
13	0xbdc4084b	-0.09571894
14	0x3d0cdd8f	0.034390982
15	0xbd981934	-0.07426682
16	0x3deac015	0.11462418
17	0xbc5fdb62	-0.013663145
18	0x3ca2f39f	0.019891558
19	0xbbabd4b9	-0.0052438644
20	0x3c97a095	0.018509189
21	0x3b0225bc	0.0019858917
22	0x3cd9e045	0.026596198
23	0x3d9900ef	0.07470881
24	0x3d1147d1	0.03546888
25	0xbda87b91	-0.082266934
26	0x3d39dce0	0.04537666
27	0x3c6d8523	0.014497074
28	0x3dcccd8a	0.10000141
29	0x3dbcd80f	0.092208974
30	0x3dd214c9	0.10257871
31	0xbcabcd69	-0.02097197
32	0x3dde1036	0.10842936
33	0xbc68ee72	-0.014217006
34	0xbda9cbc4	-0.08290818
35	0x3cb7d292	0.022439275
36	0x3d8cefda	0.068816856
37	0xbd976541	-0.073923595
38	0x3d9b2e4f	0.07577192
39	0x3dbbd49f	0.09171414
40	0x3d5d2a42	0.05399538
41	0x3cca44b3	0.024690961
42	0x3cfdf9a1	0.031002821
43	0x3dbe0ae5	0.09279422
44	0xbd70b9b8	-0.058770865
45	0xbd31b47b	-0.04338501
46	0xbd752a14	-0.059854582
47	0x3d940e7a	0.07229324
48	0x3d4b7488	0.04967168
49	0x3dafa7ec	0.085769504
50	0xbc4e2859	-0.012582862
51	0xbd8d3b58	-0.068960845
52	0x3d9ff811	0.07810987
53	0x3d954c4e	0.072899446
54	0xbb12ba7a	-0.002238898
55	0xbd4ca5e3	-0.04996289
56	0xbc49028f	-0.012268676
57	0xbdd40c98	-0.103539646
58	0xbd568f33	-0.05238266
59	0x3d0cd547	0.034383085
60	0xbd9b445b	-0.07581397
61	0x3d610595	0.054936964
62	0x3da509e2	0.080585256
63	0xbaf67bbe	-0.0018805189
64	0x3b5a5d59	0.00333198
65	0xbd16222f	-0.036653694
66	0xbd568532	-0.05237312
67	0xbd02bab3	-0.03191633
68	0x3d9baf5d	0.07601807
69	0xbd749bfb	-0.059719067
70	0xbd916d30	-0.07100904
71	0xbd1fda2f	-0.039026435
72	0x3ce5dcb2	0.028059337
73	0xbcd1fbac	-0.025632702
74	0x3d925d5d	0.07146714
75	0x3ddbc552	0.10730995
76	0x3d921329	0.07132561
77	0x3da9d053	0.08291688
78	0xbd021f5d	-0.03176819
79	0x3c626d8b	0.013820062
80	0x3d9f6cd6	0.07784431
81	0x3dd91329	0.10599358
82	0x3d8283a3	0.06372764
83	0x3d73021f	0.059328195
84	0xbbeb347e	-0.0071778884
85	0x3ba36493	0.0049863546
86	0xbd77819c	-0.06042634
87	0xbd61f89e	-0.05516874
88	0x3d5483fa	0.051883675
89	0xbc4de59a	-0.012566948
90	0x3d9ff7f8	0.07810968
91	0xbcc8d4a2	-0.024515454
92	0xbd4673fc	-0.048450455
93	0x3c859269	0.016305165
94	0x3d534293	0.051577162
95	0xbd92ffcf	-0.07177698
96	0x3d949bd9	0.07256288
97	0xbdb7065e	-0.08936761
98	0x3db368a5	0.08760194
99	0x3c5ce2fc	0.013481852
100	0xbd7b1474	-0.061298802
101	0x3c000f4e	0.007816149
102	0xbd746a30	-0.05967158
103	0xbd11191c	-0.035424337
104	0x3cd055e1	0.025431575
105	0x3cfdbbc2	0.030973319
106	0x3ddecc92	0.108788624
107	0x3dba2519	0.09089107
108	0x3cfc637b	0.030809155
109	0x3b917f2b	0.0044402084
110	0xbc824a02	-0.01590443
111	0xbcb140f4	-0.021637417
112	0x3d2bfb81	0.0419879
113	0x3d2c72d9	0.042101715
114	0xbc91921c	-0.017769866
115	0x3dd1eb2b	0.10249933
116	0x3dc745c6	0.09730105
117	0x3d93addb	0.07210895
118	0x3d16de06	0.03683283
119	0xbcb73927	-0.02236612
120	0x3a96a67e	0.001149371
121	0x3dafd690	0.085858464
122	0xbd3489b9	-0.044076655
123	0xbd2ddda3	-0.042447697
124	0xbd954132	-0.07287826
125	0xbd9fc635	-0.07801477
126	0x3db6ce32	0.089260474
127	0x3c03d66b	0.008046727
128	0xbd972f63	-0.07382085
129	0x3d0bd5fd	0.034139622
130	0x3c4b9b9b	0.012427236
131	0x3d435e5b	0.047697406
132	0x3c20ccdb	0.009814466
133	0xbd8457d7	-0.064620666
134	0x3cb84aff	0.022496698
135	0xbd6792c3	-0.056536447
136	0x3d6279ec	0.055292055
137	0x3d895576	0.067057535
138	0x3d82cb1f	0.063863985
139	0x3cafdfaf	0.021468965
140	0xbdb9394a	-0.0904413
141	0xbcbad2cf	-0.0228056
142	0x3c9ff059	0.019523786
143	0xbd845554	-0.064615875
144	0xbdb3b266	-0.08774261
145	0xbc2059eb	-0.009787063
146	0xbdc12870	-0.09431541
147	0xbd471285	-0.048601646
148	0xbd8371ef	-0.064182155
149	0x3acc5cb6	0.0015591595
150	0x3d9768b0	0.073930144
151	0x3cc1704a	0.023613114
152	0xbdbd23fd	-0.0923538
153	0xbd6e7636	-0.058218203
154	0x3d8d2f49	0.068937846
155	0x3cf12c64	0.029440112
156	0xbd3a32ac	-0.04545848
157	0xbd0382a2	-0.032107003
158	0x3d3fde26	0.046842717
159	0xbd2572f6	-0.04039284
160	0x3d5c5102	0.053788193
161	0x3dc24927	0.09486609
162	0x3da661f2	0.0812415
163	0x3d24a31b	0.040194612
164	0x3dd18f3f	0.102324
165	0x3d808221	0.0627482
166	0x3daa11a8	0.08304149
167	0xbda15af6	-0.078786775
168	0x3cdfd100	0.027321339
169	0xbbd1f9d8	-0.0064079575
170	0xbda8a818	-0.08235186
171	0x3dd80e49	0.105496
172	0x3bd58ff7	0.006517406
173	0x3c562fe8	0.013072945
174	0xbd036ad5	-0.032084305
175	0x3d3395aa	0.043843903
176	0x3d3ca523	0.046055924
177	0xbd872501	-0.06598855
178	0xbd39d952	-0.04537327
179	0x3d9de2eb	0.07709297
180	0xbd0cbec5	-0.03436162
181	0x3d45355a	0.048146583
182	0xbd1d1e25	-0.038358826
183	0xbd69d184	-0.057084575
184	0x3d184bfe	0.037181847
185	0xbd47e511	-0.04880244
186	0x3dabd123	0.08389499
187	0x3dc7d63e	0.0975766
188	0x3db27161	0.087130316
189	0xbd99f97d	-0.07518289
190	0xbc056014	-0.008140583
191	0xbd23d355	-0.039996464
192	0x3d429c21	0.047512177
193	0xbd4ffe03	-0.050779354
194	0xbd3de703	-0.046362888
195	0x3daeab05	0.08528713
196	0x3c4aa619	0.012368702
197	0x3dd0491a	0.10170193
198	0x3d79426e	0.060854368
199	0x3d716e82	0.05894328
200	0x3dc2ae77	0.09505933
201	0xbd6c085b	-0.057625156
202	0xbcbb1ce2	-0.02284092
203	0xbde051ef	-0.109531276
204	0xbd930aa3	-0.07179763
205	0x3cf8b223	0.03035838
206	0x3dad2257	0.084538154
207	0xbdc4bf54	-0.096068054
208	0xbd55dbdf	-0.05221164
209	0xba1d2b07	-0.0005995486
210	0x3b70a489	0.0036719164
211	0xbd721024	-0.059097424
212	0x3dd33193	0.1031219
213	0x3c055ed3	0.008140284
214	0xbd375abd	-0.04476427
215	0xbd947f27	-0.07250815
216	0x3d990b6f	0.07472884
217	0x3c6e343a	0.014538819
218	0x3dde6a96	0.108601734
219	0x3d6428f3	0.055703115
220	0xbd776db5	-0.06040736
221	0xbd8fa8dc	-0.07014629
222	0xbd51e0ec	-0.051239893
223	0x3d874e48	0.06606728
224	0x3cbaa43a	0.022783387
225	0xbcbd3a11	-0.023098977
226	0x3dc9bab6	0.098500654
227	0x3cf5835c	0.029969864
228	0x3d8bd5dc	0.068279
229	0xbd6ddb65	-0.05807056
230	0x3cb01252	0.02149311
231	0xbc00c3eb	-0.0078592105
232	0x3dba1d28	0.09087592
233	0xbcf645a9	-0.030062513
234	0xbd81113c	-0.06302115
235	0x3cb6b040	0.02230084
236	0xbd452625	-0.04813208
237	0xbdabdae3	-0.08391359
238	0xbc8889e0	-0.016667306
239	0x3bcfd5f4	0.006342644
240	0xbcab5a9a	-0.020917226
241	0x3d527ff6	0.051391564
242	0xbccc8231	-0.024964424
243	0xbdcd5485	-0.100258864
244	0xbdaf9321	-0.085729845
245	0xbcbe3fd2	-0.023223791
246	0x3db97f1d	0.09057448
247	0xbdb01d0a	-0.08599289
248	0x3d2177be	0.039420836
249	0xbda36358	-0.07977933
250	0x3dd6adf5	0.104823984
251	0xbd722bb7	-0.05912372
252	0x3d2292f9	0.039690945
253	0xbd531f1f	-0.05154335
254	0xbdd36646	-0.103222415
255	0xbca9be03	-0.020720487

lstm.bias_hh_l0 f4 [400]
0	0xbd8f4b0b	-0.06996735
1	0xbab41d83	-0.0013741705
2	0xbc3578f5	-0.011076202
3	0x3dc2ba65	0.09508208
4	0x3daad496	0.08341329
5	0x3c9f4ac7	0.019444836
6	0x3cd339aa	0.025784332
7	0xbb91785e	-0.0044393977
8	0xbd95d105	-0.07315258
9	0x3d880bb4	0.06642857
10	0xbd80e379	-0.06293387
11	0xbd29ec8c	-0.041485354
12	0x3d91ea9c	0.07124826
13	0xbd71137d	-0.058856476
14	0xbd3e56d5	-0.04646953
15	0x3d1c33f7	0.038135495
16	0xbb87d0e6	-0.0041447757
17	0x3d41f83b	0.04735587
18	0x3de52735	0.11189119
19	0x3dd3299f	0.10310673
20	0xbda46e56	-0.080288574
21	0xbd8094bc	-0.06278369
22	0x3caf224b	0.021378657
23	0x3c59cf37	0.013294033
24	0x3d2c4861	0.042061213
25	0xbc2f72cd	-0.010708523
26	0x3dae4321	0.085088976
27	0x3c34fd7d	0.011046764
28	0xbd869529	-0.06571419
29	0x3d179ab7	0.037012782
30	0xbc18fafc	-0.009337183
31	0x3d479194	0.04872282
32	0x3d177cac	0.03698413
33	0xbd4c02ad	-0.04980724
34	0x3d4127d4	0.047157124
35	0x3d39cef6	0.04536339
36	0xbd06dd8d	-0.03292613
37	0xbc61ec54	-0.013789255
38	0xbd08e546	-0.033421777
39	0x3cec2557	0.028826399
40	0xbd884942	-0.06654598
41	0xbdacd203	-0.08438494
42	0xbbe8f085	-0.0071087503
43	0xbda9b160	-0.08285785
44	0x3ca9cfaa	0.020728905
45	0xbdba9db8	-0.09112114
46	0x3d960fce	0.07327233
47	0x3de4258e	0.111399755
48	0xbda08f41	-0.078398235
49	0x3cc2e116	0.02378897
50	0xbd378fa4	-0.04481472
51	0xbdb704c8	-0.08936459
52	0x3db3fd47	0.08788543
53	0x3da51372	0.080603495
54	0x3dd7d096	0.105378315
55	0x3d2f51fb	0.042802792
56	0x3c9d2192	0.019181047
57	0x3d054cff	0.032544132
58	0xbc94d102	-0.018166069
59	0x3d5ad87f	0.053429123
60	0xbdb3848a	-0.08765514
61	0xbdb4f5f5	-0.08835975
62	0xbdbb9264	-0.09158781
63	0xbdab03fc	-0.08350369
64	0x3e073ef4	0.13207608
65	0xbd598bb5	-0.05311175
66	0xbd0d88a4	-0.03455414
67	0xbd6bf567	-0.05760708
68	0xbd6d7fc2	-0.057983167
69	0x3d38363b	0.044973593
70	0xbd875dee	-0.066097125
71	0xbc8aefcf	-0.016960053
72	0xbdb0eb5b	-0.086386405
73	0x3d88d862	0.06681897
74	0xbda50617	-0.08057802
75	0x3d44608b	0.047943633
76	0x3cb84d23	0.02249772
77	0xbc5b4746	-0.013383692
78	0xbd645c4b	-0.05575208
79	0x3db6a6ad	0.0891851
80	0xbcbc2ae0	-0.022969663
81	0xbbd0a859	-0.006367725
82	0xbd4977f9	-0.04918668
83	0xbd714332	-0.058901973
84	0xbda43ff2	-0.08020009
85	0x3d784db9	0.060620997
86	0x3bf70f34	0.007539654
87	0x3d987f03	0.074461006
88	0xbda3fabf	-0.080068104
89	0x3c032e57	0.008006654
90	0xbccc4512	-0.024935279
91	0x3d85b408	0.06528479
92	0xbcd25d6b	-0.02567931
93	0x3d42adec	0.047529146
94	0xbd914e9d	-0.070950724
95	0x3d08eb41	0.03342748
96	0xbc9e86f8	-0.019351467
97	0x3cbfce3b	0.023413768
98	0x3d016f84	0.03160049
99	0x3d6eb6f7	0.058279958
100	0x3d616bb6	0.05503436
101	0xbda63d16	-0.0811712
102	0xbc8efac2	-0.017453555
103	0x3cefc4e7	0.029268695
104	0xba712afe	-0.0009199827
105	0x3d6a1133	0.05714531
106	0xbd713a07	-0.05889323
107	0xbcb46948	-0.022022858
108	0x3dc94134	0.0982689
109	0x3d15777e	0.03649091
110	0xbdb902db	-0.09033748
111	0xbd988186	-0.0744658
112	0xbd5749a7	-0.052560475
113	0x3de83df6	0.11339943
114	0xbd88a440	-0.06671953
115	0x3dcc46bb	0.09974428
116	0xbd82a8ee	-0.06379877
117	0x3c4d5e80	0.012534738
118	0x3d8e3d23	0.06945255
119	0xbc134174	-0.008987773
120	0x3c9e481e	0.019321498
121	0x3d469a5b	0.04848705
122	0x3dc97c37	0.09838145
123	0x3b73e3af	0.0037214567
124	0x3d4986b0	0.049200714
125	0x3dd6fff6	0.104980394
126	0x39a56328	0.0003154513
127	0xbca4f8ce	-0.02013817
128	0xbd52cc52	-0.051464386
129	0xbc5e9342	-0.013584914
130	0x3cf5fc70	0.030027598
131	0x3d53d53f	0.05171704
132	0x3d693248	0.056932718
133	0xbca11faa	-0.019668419
134	0x3db58b12	0.08864416
135	0x3d84c479	0.06482787
136	0x3da7c6dd	0.08192227
137	0x3b0692d9	0.0020534305
138	0xbd78290f	-0.06058603
139	0x3db06905	0.08613781
140	0x3db0b52c	0.08628306
141	0x3d29892c	0.041390583
142	0xbd938864	-0.07203749
143	0xbdb3699f	-0.0876038
144	0x3d933266	0.07187347
145	0xbd6a7a23	-0.057245385
146	0xbcd53f0e	-0.026031043
147	0xbca51dbc	-0.02015578
148	0x3de22baa	0.110434845
149	0x3dd7a604	0.10529712
150	0x3d0f4ef0	0.03498739
151	0xbd3a864c	-0.04553823
152	0xbda816bb	-0.082074605
153	0x3b5ce0d1	0.0033703337
154	0x3d759292	0.059954233
155	0xbc469b18	-0.012121938
156	0xbb9b826e	-0.004745773
157	0xbd5baa23	-0.053629052
158	0xbd0614d9	-0.032734726
159	0xbd9b50bd	-0.07583759
160	0xbc5e46ae	-0.013566656
161	0xbcf6526f	-0.030068604
162	0x3b8e6d31	0.0043465127
163	0xbd8e17f6	-0.06938164
164	0x3e0fbc56	0.14036688
165	0xbdb12648	-0.0864988
166	0x3d86cb9e	0.06581806
167	0xbdbd14f6	-0.092325136
168	0x3d1f7528	0.03893009
169	0x3dd0b6a5	0.10191087
170	0xbd0aa904	-0.033852592
171	0xbd988034	-0.07446328
172	0x3c9618f6	0.01832245
173	0xbdce8f05	-0.100858726
174	0x3d3cdd43	0.04610945
175	0x3e09339b	0.13398592
176	0x3bf87c2f	0.007583163
177	0x3d74deae	0.059782676
178	0x3dfbf5ac	0.123027176
179	0x3c473fba	0.01216119
180	0x3da49517	0.08036249
181	0x3de462de	0.1115167
182	0x3d23e5c2	0.040014036
183	0xbd84c9f3	-0.06483831
184	0xbcbefe51	-0.023314627
185	0x3d792bb8	0.06083271
186	0xbcfcae76	-0.030844908
187	0xbbda413e	-0.0066606095
188	0x3da752ff	0.08170127
189	0x3c88e0c7	0.016708745
190	0x3dbc7884	0.09202674
191	0x3dc1d9e5	0.09465388
192	0xbd5d6dff	-0.05405998
193	0xbd40d881	-0.047081474
194	0x3ce7c542	0.028292302
195	0xbcd398da	-0.025829721
196	0xbd281dfa	-0.041044213
197	0xbc7b955c	-0.015355434
198	0x3ce17d27	0.027525498
199	0xbdacab1a	-0.084310725
200	0x3d5e6f91	0.054305617
201	0x3bc8498c	0.006112283
202	0x3baa916b	0.0052053235
203	0xbd1a94e8	-0.037739664
204	0xbd3365ce	-0.04379826
205	0xbd654dcb	-0.055982392
206	0xbd8f1a2a	-0.06987412
207	0xbd8f8287	-0.07007318
208	0x3daf344c	0.08554897
209	0xbcbbd4db	-0.022928646
210	0x3d450ef9	0.048109982
211	0x3d042faf	0.032272037
212	0x3c8d9317	0.017282052
213	0x3d5f5480	0.054523945
214	0xbd8cfe0e	-0.068843946
215	0x3c4b9e04	0.012427811
216	0xbd4e8e30	-0.05042857
217	0xbd9ea8bb	-0.077470265
218	0xbd4df354	-0.050280884
219	0x3d6dd63b	0.058065634
220	0xbca1c76d	-0.019748414
221	0xbd6d643a	-0.05795691
222	0xbc614fc1	-0.013751925
223	0xbd960094	-0.07324329
224	0x3d638499	0.055546377
225	0xbd926902	-0.07148935
226	0x3dc9a1b4	0.098452955
227	0x3ccc0dfc	0.024909012
228	0x3ba8ec71	0.005155139
229	0xbdbaf656	-0.09129016
230	0x3d3045e3	0.0430354
231	0xbd0472b3	-0.03233595
232	0x3d8b57fc	0.06803891
233	0x3cea70e2	0.02861828
234	0xbbb2e702	-0.005459667
235	0xbd311509	-0.04323295
236	0xbd137e3f	-0.03600907
237	0xbd825a05	-0.06364826
238	0xbd599dea	-0.053129114
239	0x3dc18d42	0.09450771
240	0xbc71d249	-0.014759609
241	0x3d4fd556	0.050740562
242	0x3d7be757	0.06149992
243	0xbd63c866	-0.055611037
244	0x3d907d7d	0.07055185
245	0xbd30b4d1	-0.04314119
246	0x3d9a63f5	0.075385965
247	0xbd0ed6b9	-0.034872744
248	0xbc0512eb	-0.008122186
249	0x3b823db9	0.003974643
250	0x3dda99df	0.1067388
251	0x3ca970e9	0.020683723
252	0x3d3440f5	0.04400726
253	0x3cc7059c	0.024294667
254	0x3da15038	0.07876629
255	0x3c9be901	0.019032003

lstm.weight_ih_l1 f4 [400, 100]
0	0x3db8b4bd	0.09018848
1	0x3da02cfa	0.078210786
2	0x3cb13f75	0.021636704
3	0x3dc270a1	0.094941385
4	0xbdbc3cd8	-0.091912925
5	0x3d3b24b1	0.04568929
6	0x3d1d2562	0.03836573
7	0x3bf4ca2b	0.0074703894
8	0x3d88c9a6	0.066790864
9	0xbce5fb6e	-0.028073993
10	0xbd6ee784	-0.05832626
11	0xbcb5d9d7	-0.0221986
12	0xbd5f8058	-0.054565758
13	0x3a930e4e	0.0011219473
14	0x3cecb4e8	0.028894857
15	0xbbf05566	-0.007334399
16	0x3d4e5204	0.050371185
17	0x3c10ce0e	0.00883819
18	0x3d372425	0.044712204
19	0xbd53b805	-0.051689167
20	0x3ce1b35d	0.027551347
21	0xbdbdd1be	-0.09268521
22	0xbd6ed513	-0.058308672
23	0x3caef636	0.021357637
24	0xbd659217	-0.056047525
25	0xbda85725	-0.082197465
26	0xbd927287	-0.071507506
27	0xbc8d1de0	-0.01722616
28	0xbce4e16c	-0.02793952
29	0x3d8d0a12	0.068866864
30	0x3db6313a	0.08896108
31	0xbbe86a82	-0.007092775
32	0xbd80f510	-0.06296742
33	0xbcb348d3	-0.021885311
34	0x3dac2196	0.084048435
35	0x3dbf49bf	0.09340238
36	0xbdbc1b3d	-0.09184883
37	0x3dc84105	0.097780265
38	0xbd4b082b	-0.049568336
39	0x3d0c348c	0.0342298
40	0x3d59bc7f	0.05315828
41	0x3d7ca5f4	0.061681703
42	0xbd1340aa	-0.03595034
43	0xbcdc5aca	-0.02689876
44	0x3db2ce85	0.08730797
45	0xbc717e4f	-0.014739587
46	0xbc8ed684	-0.017436273
47	0xbd80fefe	-0.06298636
48	0x3c4399cd	0.011938524
49	0x3cba79ee	0.022763219
50	0x3cb8b5a4	0.02254755
51	0x3b7883db	0.003792039
52	0x3d74dbd9	0.059779976
53	0xbdc288f8	-0.09498781
54	0xbc014eba	-0.007892305
55	0xbda7c444	-0.081917316
56	0xbdb9d514	-0.090738446
57	0xbd60dbbd	-0.05489706
58	0x3d99ab90	0.07503426
59	0xbd8d66fa	-0.06904407
60	0x3db077c6	0.08616595
61	0xbdcc7377	-0.09982961
62	0x3d6d76db	0.057974678
63	0x3c7b4639	0.015336567
64	0x3d2cca80	0.042185307
65	0xbdd00f0d	-0.10159121
66	0xbbc63195	-0.006048391
67	0x3d15d242	0.03657747
68	0xbcdcd26e	-0.02695581
69	0xbd26d3c0	-0.040729284
70	0xbd2b4887	-0.041817214
71	0xbdb418c9	-0.0879379
72	0xbd7e1d3b	-0.062039595
73	0x3c88ae26	0.016684603
74	0x3d34865f	0.04407346
75	0x3d95489c	0.0728924
76	0xbd7628bf	-0.060097452
77	0x3db126e2	0.086499944
78	0xbc70f3e8	-0.014706589
79	0x3c2db691	0.010602609
80	0x3cbe7bca	0.023252387
81	0x3dccb83e	0.09996079
82	0x3d81d83a	0.0634007
83	0x3d2e23a1	0.042514447
84	0x3c2d9e84	0.010596875
85	0x3d84d4ad	0.06485877
86	0xbda3a0da	-0.079896644
87	0xbc0eda0b	-0.008718978
88	0x3d344d61	0.044019107
89	0xbc7969c4	-0.01522297
90	0xbcba535a	-0.022744823
91	0xbd82e585	-0.063914336
92	0xbd05d812	-0.032676764
93	0xbd3b7c25	-0.04577269
94	0xbb258325	-0.002525517
95	0xbc85ab0f	-0.016316919
96	0xbdb690ce	-0.08914338
97	0x3d9fc52a	0.07801278
98	0xbcc200b7	-0.023681981
99	0xbcc978d7	-0.024593754
100	0x3d618413	0.055057596
101	0xbd87ebcc	-0.066367716
102	0x3d639988	0.05556634
103	0x3d625c86	0.05526402
104	0x3baff5ae	0.0053698635
105	0xbd3a3210	-0.0454579
106	0x3d7432c6	0.059618734
107	0xbd9a1f5e	-0.07525514
108	0xbd7cd10b	-0.061722796
109	0xbd040f7c	-0.03224133
110	0x3d654837	0.055977073
111	0xbd59f6bd	-0.053213824
112	0xbd8e6bc6	-0.0695415
113	0x3c60de5a	0.013724888
114	0xbd9b3f36	-0.07580416
115	0xbd8d76a0	-0.069073915
116	0xbbfe0eaa	-0.007753213
117	0x3d1e81a1	0.038697843
118	0x3d9aaf36	0.0755295
119	0x3d980d46	0.07424407
120	0x3dbaec4a	0.091271
121	0x3d31e628	0.043432385
122	0x3dbf2bc5	0.0933452
123	0x3d009005	0.031387348
124	0xbdb2f8d1	-0.08738864
125	0x3c456068	0.012046911
126	0x3c4e4c7d	0.012591478
127	0x3de39ae7	0.1111353
128	0x3cca0fe6	0.024665784
129	0x3cbc00a1	0.022949519
130	0x3d6e3963	0.058160197
131	0xbda9845d	-0.082771994
132	0xbc3110af	-0.0108072
133	0xbd4fc3d2	-0.05072386
134	0x3db4fe84	0.088376075
135	0x3db21cd8	0.08696908
136	0xba9141a1	-0.0011082181
137	0xbce7892e	-0.028263655
138	0x3d6c8098	0.057739824
139	0xbd3af3f8	-0.045642823
140	0xbd7acba6	-0.06122937
141	0x3d6421d6	0.05569633
142	0x3d89f617	0.06736391
143	0xbd676410	-0.05649191
144	0xbdb76a88	-0.08955866
145	0xbd4bf24e	-0.049791627
146	0x3d999202	0.07498552
147	0xbd80a984	-0.062823325
148	0xbd94b55f	-0.07261156
149	0x3d28829a	0.041140176
150	0x3d7d9fcb	0.06191997
151	0xbc72d21a	-0.0148206
152	0xbdd19248	-0.10232979
153	0xbd85b5c6	-0.06528811
154	0xbd6eaa66	-0.058267973
155	0xbdb7904d	-0.0896307
156	0xbdc8e427	-0.098091416
157	0x3dac8fea	0.08425887
158	0x3d186265	0.03720321
159	0xbdbf45c6	-0.0933948
160	0x3ba379f4	0.004988903
161	0x3d692199	0.056916807
162	0xbd53d438	-0.05171606
163	0xbdb6d451	-0.08927215
164	0xbd0ae962	-0.033913977
165	0x3d0c3170	0.034226835
166	0xbc348628	-0.0110183135
167	0x3d8376cd	0.06419144
168	0x3d35b1a9	0.044358883
169	0xbb47619b	-0.0030423168
170	0x3d2e3989	0.04253534
171	0x3cb213d9	0.02173798
172	0x3d5132e2	0.051073916
173	0x3d6d3e7e	0.057920925
174	0x3d9442a6	0.07239275
175	0x3cabb065	0.020958135
176	0x3c82b2e7	0.015954448
177	0x3dad254d	0.0845438
178	0x3dcfbc59	0.10143346
179	0x3d886a4c	0.066608995
180	0x3dc8e7c1	0.098098285
181	0xbdb98c50	-0.090599656
182	0xbcae9cc0	-0.021314979
183	0x3d9589d5	0.0730168
184	0xbdd143ef	-0.102180354
185	0xbca064d3	-0.019579327
186	0xbdc8cc2b	-0.09804567
187	0x3d058711	0.032599512
188	0xbdaf208d	-0.085511304
189	0xbd34c064	-0.04412879
190	0xbc08496f	-0.008318289
191	0x3da5890a	0.08082779
192	0xbdad26b5	-0.084546484
193	0x3d57c07b	0.052673798
194	0xbba79dde	-0.005115255
195	0xbd3d9984	-0.046288982
196	0x3cf57676	0.029963713
197	0xbc114980	-0.008867621
198	0x3ba9de18	0.0051839463
199	0x3dbc4c8b	0.09194287
200	0xbc882a7a	-0.016621817
201	0x3cb57761	0.02215165
202	0xbd003530	-0.031300724
203	0x3d53093a	0.05152247
204	0xbcbac819	-0.022800492
205	0xbd3ec29f	-0.046572324
206	0x3d9267ca	0.071487024
207	0x3ca2dac6	0.01987971
208	0x3db151b9	0.086581655
209	0x3b6fc577	0.0036586204
210	0x3c93d0ba	0.018043865
211	0x3db39d0c	0.08770189
212	0xbd83eb34	-0.06441346
213	0x3cbc6857	0.022998972
214	0x3d284af7	0.041087117
215	0xbda9dca4	-0.08294037
216	0xbc3ef699	-0.011655473
217	0x3d9360fe	0.07196234
218	0xbd833f72	-0.064085856
219	0x3c346204	0.011009697
220	0xbd4dd962	-0.05025614
221	0x3dc07eab	0.0939916
222	0xbdb7cd1a	-0.08974667
223	0x3b4abe61	0.0030936229
224	0xbd5e7de4	-0.054319277
225	0xbd4c901b	-0.049942117
226	0xbca43927	-0.020046784
227	0x3d1db644	0.0385039
228	0xbca1f406	-0.01976968
229	0x3b147758	0.0022654142
230	0xbdd22cf0	-0.102624774
231	0xbd53a3ed	-0.051670004
232	0x3d201d36	0.039090358
233	0x3dd23ae7	0.10265141
234	0x3dcfcb20	0.10146165
235	0x3d9ad248	0.07559639
236	0xbb28285a	-0.0025658817
237	0xbd7cbd36	-0.061703883
238	0xbd723ae5	-0.059138197
239	0xbc5cf4db	-0.0134861125
240	0xbd315528	-0.043294102
241	0xbc764f4f	-0.015033557
242	0x3c5d1298	0.013493203
243	0xbdae0027	-0.08496123
244	0xbdcf0301	-0.10107995
245	0x3d8fc5e0	0.070201635
246	0xbcbdf068	-0.023185924
247	0x3dc675d2	0.09690441
248	0x3bf909d6	0.0076000495
249	0x3dab72c5	0.083715
250	0x3dafad6d	0.08578
251	0xbd094552	-0.033513375
252	0x3d6d8726	0.057990216
253	0xbced0fd4	-0.028938212
254	0x3cb134ce	0.021631625
255	0x3da0ba43	0.078480266

lstm.weight_hh_l1 f4 [400, 100]
0	0x3cf731fc	0.030175202
1	0x3d4f4ba9	0.050609265
2	0xbdbdc8b2	-0.09266795
3	0x3c59f4f3	0.013303029
4	0xbd1dddea	-0.038541712
5	0x3b482165	0.0030537483
6	0x3d1848c8	0.037178785
7	0x3c610e3a	0.013736302
8	0x3d913981	0.07091046
9	0x3c945e68	0.018111423
10	0xbdbbe1a7	-0.09173899
11	0x3d95cf54	0.07314935
12	0x3d4f6be3	0.05064
13	0xbba018f1	-0.0048857857
14	0x3da3b3de	0.07993291
15	0x3baa7667	0.005202103
16	0x3d5c27d6	0.053748928
17	0x3d93995b	0.072069846
18	0x3d946ae8	0.07246953
19	0xbc2ec8a9	-0.010667958
20	0xbd5db747	-0.054129865
21	0x3daccb9a	0.084372714
22	0x3ce01c1b	0.027357152
23	0xbd7df627	-0.062002327
24	0x3ce617c8	0.028087512
25	0x3d595031	0.053054992
26	0x3d4429c2	0.047891386
27	0xbdb3caf7	-0.08778947
28	0x3c78334a	0.015148947
29	0xbca6e55b	-0.020373037
30	0x3dc9b38a	0.098486975
31	0x3da4a886	0.08039956
32	0xbc8a408a	-0.016876478
33	0xbbba2a58	-0.0056813173
34	0xbbc48b18	-0.0059980266
35	0x3c1a2c87	0.00941003
36	0x3ce69bfb	0.02815055
37	0x3dafaa41	0.08577395
38	0xbcc2da81	-0.023785831
39	0x3d9d878b	0.076918684
40	0xbc436dbd	-0.011928019
41	0x3dbbb854	0.09166017
42	0x3db54bf7	0.0885238
43	0xbd0e438b	-0.034732383
44	0xbd2c2bfd	-0.042034138
45	0xbd9d62d8	-0.076848686
46	0xbd9d96ec	-0.07694802
47	0xbd95cc22	-0.07314326
48	0x3d81782b	0.06321748
49	0xbdb7e969	-0.08980066
50	0x3d8197e4	0.06327799
51	0xbda0e22b	-0.07855638
52	0xbb28a92e	-0.0025735605
53	0xbddf8727	-0.1091445
54	0x3dab5d82	0.083674446
55	0x3d380013	0.044921946
56	0xbd250ccb	-0.040295403
57	0x3d59e3e1	0.053195838
58	0xbdb4a005	-0.08819584
59	0x3dbeef44	0.0932298
60	0x3ce07dd7	0.027403755
61	0x3d7e93d9	0.062152717
62	0xbda41c6a	-0.08013232
63	0xbd938f2d	-0.07205043
64	0xbd1c32d6	-0.03813442
65	0xbd32e0db	-0.04367147
66	0xbdb80b8e	-0.08986579
67	0xbd56086d	-0.05225413
68	0x3d85e8ce	0.065385446
69	0xbcafa138	-0.02143918
70	0x3d1b44ff	0.037907597
71	0xbcb47b21	-0.022031369
72	0xbd49853d	-0.04919933
73	0x3d893e62	0.06701352
74	0xbd92a503	-0.0716038
75	0xbc6db51b	-0.014508511
76	0x3dbd3cf3	0.09240141
77	0xbd66d325	-0.056353707
78	0x3cc9b785	0.024623642
79	0xbdb5d110	-0.08877766
80	0xbdb3474d	-0.08753834
81	0xbcee971c	-0.029124789
82	0xbd34943f	-0.04408669
83	0xbdcbeb79	-0.09957022
84	0x3ca99071	0.020698758
85	0x3d85ebd4	0.06539121
86	0x3d102502	0.035191543
87	0xbdc00b58	-0.09377164
88	0x3db4e1fd	0.08832166
89	0xbdca9858	-0.098923385
90	0xbcfa06be	-0.030520793
91	0xbd3d6dfd	-0.04624747
92	0xbd195130	-0.037430942
93	0xbd4a7054	-0.04942353
94	0xbd1b0782	-0.037848957
95	0xbd433140	-0.04765439
96	0xbd7d0b20	-0.061778188
97	0xbdc00729	-0.09376366
98	0xbd883f23	-0.066526674
99	0xbd5f712f	-0.0545513
100	0x3cc36501	0.023851873
101	0xbd83cb86	-0.064353034
102	0x3d35ac21	0.044353608
103	0xbd5e3edf	-0.054259177
104	0xbc940f25	-0.018073628
105	0xbc9b9ed4	-0.018996634
106	0x3dc92c96	0.09822957
107	0x3cf04c87	0.029333366
108	0xbd56426f	-0.05230945
109	0x3da95e12	0.082698956
110	0xbcbbdb49	-0.022931712
111	0x3daf34b1	0.08554972
112	0x3d8ececa	0.06973036
113	0x3d411940	0.04714322
114	0xbd41ffbb	-0.047363024
115	0x3d758665	0.05994262
116	0xbc346079	-0.011009329
117	0x3d3c5fff	0.045989987
118	0x3db46d5a	0.0880992
119	0xbcd37a4f	-0.025815157
120	0x3db400f4	0.08789244
121	0x3c951474	0.01819823
122	0x3d487406	0.048938774
123	0xb8a42b60	-7.8282086e-05
124	0xbd945aa7	-0.07243853
125	0xbd63f0d1	-0.055649582
126	0xbbaade1f	-0.005214467
127	0x3d202aaf	0.039103206
128	0x3d1def2a	0.038558163
129	0xbd076d35	-0.033063132
130	0xbba9e71e	-0.005185022
131	0x3d0f2a5e	0.034952514
132	0xbd60d7f2	-0.05489344
133	0x3d20fe1e	0.039304845
134	0x3bddfed9	0.006774765
135	0xbd8a4dd5	-0.067531265
136	0xbdc74095	-0.09729115
137	0xbd689236	-0.056780063
138	0xbd79be2c	-0.060972378
139	0xbd8595f7	-0.06522744
140	0x3d6438f5	0.05571838
141	0xbd4ec65d	-0.050482143
142	0xbdd54caf	-0.10415017
143	0xbda60bd7	-0.08107727
144	0x3aacd81c	0.0013186964
145	0xbd9a7adc	-0.07542965
146	0xbd0b0df9	-0.033948872
147	0x3cc60e8a	0.024176855
148	0xbda6a3e0	-0.081367254
149	0x3d3104d5	0.0432175
150	0x3daca5b8	0.08430046
151	0x3c986198	0.018601224
152	0x3da7982d	0.08183322
153	0x3cda545e	0.026651558
154	0x3c83224c	0.016007565
155	0x3dc5f5cd	0.096660234
156	0xbd932c1f	-0.0718615
157	0xbd85e1ce	-0.065372095
158	0x3db84f5b	0.08999511
159	0x3c6d5fd7	0.014488182
160	0x3bb7ca05	0.0056087994
161	0xbcd9b823	-0.026577061
162	0x3cb4efaa	0.022086937
163	0x3cf5ca12	0.030003581
164	0x3c7c2d07	0.015391595
165	0xbbe6bbdb	-0.007041437
166	0xbd043cf7	-0.032284703
167	0x3d981743	0.07426312
168	0xbd2c0138	-0.04199335
169	0xbc8fcfa6	-0.01755507
170	0xbd2ee716	-0.04270085
171	0x3d782fde	0.060592525
172	0x3cc1d229	0.023659782
173	0xbd7ed4eb	-0.062214773
174	0x3dc656af	0.09684502
175	0x3d8ba12c	0.068178505
176	0x3dc10421	0.09424616
177	0xbcf3ae09	-0.029746072
178	0x3c2be6ae	0.01049201
179	0x3dab3361	0.08359409
180	0x3d8da704	0.06916621
181	0x3db6b58f	0.08921348
182	0xbd580352	-0.05273754
183	0xbd87e470	-0.06635368
184	0x3da26a66	0.0793045
185	0x3a9683f6	0.0011483419
186	0x3d29505f	0.041336413
187	0xbd14d6c9	-0.036337648
188	0xbd49fb9b	-0.049312215
189	0x3bb1d55e	0.0054270467
190	0x3d588e83	0.052870285
191	0x3dcd238d	0.100165464
192	0x39699d7c	0.00022279279
193	0xbd2864e1	-0.04111183
194	0x3d270583	0.04077674
195	0xbd9f93c9	-0.0779186
196	0xbd7567c7	-0.059913423
197	0x3dab0f44	0.08352521
198	0xbdcec366	-0.10095863
199	0xbcb4b131	-0.022057148
200	0xbd00cc6c	-0.031444952
201	0x3d4da0d2	0.0502022
202	0x3ce664d6	0.028124254
203	0x3ca4f271	0.020135136
204	0xbd19a316	-0.037509046
205	0x3d6d1405	0.05788042
206	0x3d4a1708	0.04933837
207	0xbd334c6c	-0.043774053
208	0xbd8956d3	-0.067060135
209	0x3dc5c34e	0.09656392
210	0xbd05fc17	-0.032711115
211	0xbc52e243	-0.012871328
212	0x3c20b216	0.009808084
213	0x3caeec09	0.021352785
214	0x3daa42ff	0.0831356
215	0xbd87c1df	-0.06628775
216	0xbbece174	-0.0072290245
217	0xbd3bd6f3	-0.04585929
218	0x3d9793ec	0.07401261
219	0xbd2dcd54	-0.042432144
220	0x3d88f63c	0.066875905
221	0x3db5e858	0.08882207
222	0x3d16ea9f	0.036844846
223	0x3d83a6f1	0.06428326
224	0xbd2d83d8	-0.042362064
225	0xbd8db82c	-0.069198936
226	0x3d55de31	0.05221385
227	0xbd84cf53	-0.064848565
228	0x3c3bceb8	0.01146286
229	0xbd39de5d	-0.045378078
230	0xbd147291	-0.03624207
231	0x3d988949	0.0744806
232	0xbdaa3403	-0.08310702
233	0x3d4defae	0.050277404
234	0xbc2682ac	-0.010162991
235	0x3b2c1247	0.0026256011
236	0x3d8dcfb3	0.06924381
237	0x3da58f63	0.080839895
238	0xbd1198ea	-0.03554622
239	0xbd44d2d5	-0.048052628
240	0x3db0320f	0.08603298
241	0x3ce397a2	0.027782265
242	0x3dbd7bb3	0.092521094
243	0x3a59de92	0.00083110586
244	0xbd853afa	-0.065053895
245	0x3d9462d0	0.072454095
246	0xbd1bbd1f	-0.038022157
247	0x3d496ac4	0.049174085
248	0x3d7ae51b	0.06125365
249	0xbd8ed149	-0.06973512
250	0x3c898890	0.01678875
251	0xbc5984f3	-0.0132763265
252	0xbc5bf23a	-0.0134244505
253	0xbcf17992	-0.029476915
254	0xbccc0430	-0.02490434
255	0x3cb3696e	0.021900859

lstm.bias_ih_l1 f4 [400]
0	0x3d062d7b	0.032758217
1	0x3c13fa31	0.009031818
2	0xbd26e37b	-0.040744286
3	0xbd5850b1	-0.05281133
4	0x3d83ed7f	0.06441783
5	0x3cdf4ace	0.02725735
6	0x3aca8a45	0.0015452584
7	0x3d332eb4	0.04374571
8	0x3cab31d5	0.020897785
9	0xbcbb0c5e	-0.022833046
10	0xbda7a0e7	-0.081849866
11	0xbca43b88	-0.020047918
12	0xbd6626e4	-0.056189433
13	0x3d5f023e	0.054445498
14	0xbd0e0b77	-0.034678902
15	0xbc908c6d	-0.017645085
16	0xbb20f9eb	-0.0024563025
17	0xb838cc68	-4.4059387e-05
18	0xbced342a	-0.028955538
19	0x3da9f54b	0.08298739
20	0x3d37816b	0.044801157
21	0x3ce63cf7	0.028105242
22	0x3c915cef	0.01774451
23	0xbda9befa	-0.08288379
24	0xbd1a78f9	-0.037713025
25	0x3d0e70c1	0.0347755
26	0x3cba8c96	0.022772115
27	0x3d790c32	0.060802646
28	0xbdb6258c	-0.0889388
29	0xbd855445	-0.06510214
30	0x3d0fe8c0	0.035134077
31	0xbd95655d	-0.07294724
32	0x3d8dccae	0.06923805
33	0x3dbc3202	0.09189226
34	0xbd745536	-0.059651576
35	0xbdb2f7a5	-0.08738641
36	0x3d956d23	0.07296207
37	0xbd08e907	-0.033425357
38	0xbd9229a8	-0.071368515
39	0xbd7d4272	-0.061830945
40	0x3c936f76	0.017997485
41	0x3cfdb3cb	0.030969521
42	0xbd81377e	-0.063094124
43	0x3dcdadd1	0.100429185
44	0x3d97cf56	0.07412593
45	0xbd1031cb	-0.035203736
46	0xbda06875	-0.078324236
47	0x3d5f47fe	0.054512016
48	0x3cceae5e	0.02522963
49	0xbd924e2c	-0.07143816
50	0xbda2cd4d	-0.07949314
51	0x3d2ead76	0.042645894
52	0x3d14b06b	0.036301058
53	0xbdb75300	-0.08951378
54	0x3befd7fb	0.007319448
55	0x3d2d1b41	0.04226232
56	0x3cc59e3c	0.024123304
57	0xbcfd72f4	-0.030938603
58	0xbd53048f	-0.05151802
59	0x3c9f609f	0.019455252
60	0xbd7919b4	-0.060815528
61	0xbd8f7693	-0.07005038
62	0x3c1d307f	0.009594082
63	0x3d937b3c	0.072012395
64	0xbdafa8a2	-0.08577086
65	0x3c81c07a	0.01583885
66	0xbd81bb5d	-0.06334565
67	0xbd753894	-0.05986841
68	0xbd82a173	-0.0637845
69	0xbab156cc	-0.0013529896
70	0x3c9a4b96	0.01883487
71	0x3dbb65f7	0.091503076
72	0x3dcef354	0.10105005
73	0xbd933452	-0.07187714
74	0xbb356aff	-0.0027682183
75	0x3bd61f99	0.0065345285
76	0xbd7d400e	-0.061828665
77	0xbbee9d81	-0.0072819595
78	0x39aa5432	0.00032487657
79	0x3c716cef	0.014735444
80	0xbd8896e3	-0.06669404
81	0x3d8352da	0.06412287
82	0x3c28838e	0.010285271
83	0xbd22a766	-0.039710425
84	0x3d5f15fe	0.054464333
85	0x3d4d055f	0.05005395
86	0x3dc4fdc4	0.096187145
87	0x3d98e9ac	0.074664444
88	0x3d706c27	0.058696892
89	0x3d952e70	0.07284248
90	0x3d762b3a	0.060099818
91	0x3d1d14d6	0.03834995
92	0x3d6ad619	0.057333086
93	0x3c9d296e	0.019184794
94	0x3c52e7bf	0.012872635
95	0xbdd92c83	-0.10604193
96	0x3d2aa255	0.04165872
97	0xbcaefe62	-0.021361534
98	0xbd432193	-0.04763944
99	0xbd006177	-0.03134295
100	0xbd9fa5c5	-0.0779529
101	0xbc185793	-0.009298223
102	0xbd7e74d0	-0.06212312
103	0x3d61d03d	0.055130232
104	0xbc2fe398	-0.010735415
105	0x3bbff3bd	0.0058579133
106	0xbdb85508	-0.090005934
107	0xbd21d2c4	-0.039507642
108	0xbdc3d4b4	-0.09562054
109	0x3c4f64a2	0.01265827
110	0xbda219ff	-0.079151146
111	0x3dca4702	0.09876825
112	0xbcbab4b3	-0.022791242
113	0x3db11ece	0.08648454
114	0x3c5743c5	0.013138716
115	0xbcd14603	-0.02554608
116	0x3d053f59	0.032531116
117	0x3d39032e	0.045169048
118	0x3b3138db	0.0027041945
119	0xbd78ba06	-0.06072428
120	0xbd013766	-0.031546973
121	0xbd922bf0	-0.07137287
122	0xbda74e1b	-0.08169194
123	0x3d41b804	0.04729463
124	0x3d52aa49	0.051431928
125	0xbcad63b1	-0.0211657
126	0xbd3232f5	-0.043505628
127	0x3d95573f	0.072920315
128	0x3cba4a2c	0.022740446
129	0xbd8607a1	-0.06544424
130	0xbd0c4d16	-0.034253202
131	0x3d861803	0.065475486
132	0x3d9282da	0.07153864
133	0x3dad1797	0.08451765
134	0x3dc24c46	0.09487204
135	0xbdcb2ba0	-0.0992043
136	0xbcb90f8b	-0.02259042
137	0x3ddf2951	0.10896552
138	0x3c86e7ba	0.016467918
139	0xbaa07c35	-0.0012244048
140	0xbba6b899	-0.0050879237
141	0xbd534573	-0.051579904
142	0x3d28220b	0.04104809
143	0xbd805ddb	-0.062679015
144	0x3dbd7810	0.09251416
145	0x3d5aa45a	0.053379394
146	0x3d4ee802	0.05051423
147	0xbdb21517	-0.08695429
148	0xbcf4391e	-0.029812392
149	0x3c3e3c50	0.011611059
150	0x3d47646f	0.048679765
151	0xbd0c3dd5	-0.034238655
152	0xbcc01099	-0.023445414
153	0xbd21e390	-0.03952366
154	0x3b33293c	0.002733781
155	0xbda65033	-0.081207655
156	0x3d7356c8	0.059408933
157	0xbdae6f8e	-0.08517371
158	0xbd9bb758	-0.076033294
159	0x3dd288df	0.10280012
160	0x3e0497f3	0.12948589
161	0x3c5f0c63	0.013613793
162	0x3cb7fb19	0.0224586
163	0x3d3f22c3	0.04666401
164	0xbd389346	-0.045062326
165	0x3d1f7013	0.03892524
166	0xbd6043cc	-0.054752156
167	0xbc91b8ce	-0.017788317
168	0xbb874db7	-0.0041291374
169	0xbcf89700	-0.03034544
170	0x3d2b307a	0.041794278
171	0x3d29d453	0.041462254
172	0x3c3a8bfa	0.011385912
173	0x3b1b1931	0.0023666138
174	0xbd7b1eb4	-0.061308578
175	0xbc998538	-0.018740281
176	0x3db95dec	0.09051117
177	0x3cb52cc8	0.02211608
178	0xbdad1449	-0.08451135
179	0xbc360296	-0.011109015
180	0x3d9d94be	0.07694386
181	0x3d277a31	0.040888015
182	0x3dc595c6	0.09647708
183	0x3d08d34f	0.033404645
184	0xbd25f12b	-0.0405132
185	0x3dc369fc	0.09541699
186	0x3ccfae98	0.025351807
187	0xbcb0b9be	-0.021572944
188	0x3d709d6e	0.058743887
189	0x3d3e3f97	0.046447363
190	0xbd95870c	-0.07301149
191	0x3da0948e	0.078408346
192	0xbcbdb504	-0.023157604
193	0x3da1f3da	0.07907839
194	0x3d471239	0.048601363
195	0xbdcbf926	-0.09959631
196	0x3d064977	0.032784905
197	0x3ced35f8	0.028956398
198	0xbbd34155	-0.006446997
199	0x3cac80c6	0.021057498
200	0x3d96a28e	0.073552236
201	0xbda04697	-0.07825964
202	0x3dc400a4	0.09570435
203	0xbd690b5f	-0.05689561
204	0xbbc20c07	-0.005921844
205	0x3c3a9886	0.0113889035
206	0xbd4714a2	-0.04860366
207	0x3da07394	0.07834545
208	0xbd29a2e1	-0.0414151
209	0xbd199ff2	-0.03750605
210	0xbdcf066b	-0.10108646
211	0xbd3536bd	-0.044241656
212	0x3cf1336c	0.029443465
213	0x3d11272c	0.035437748
214	0x3db5ff78	0.088866174
215	0x3dcfbec8	0.101438105
216	0x3d702ffe	0.05863952
217	0x3d6d7469	0.057972346
218	0x3d8d53a0	0.06900716
219	0xbcd5054c	-0.026003502
220	0x3db0f452	0.086403504
221	0x3d22f331	0.039782707
222	0xbd263562	-0.040578254
223	0xbd6e22e5	-0.058138747
224	0x3d556c21	0.052105073
225	0x3da133cc	0.078712076
226	0x3b3c3a3b	0.0028721232
227	0x3d97038b	0.07373723
228	0xbda63a47	-0.08116584
229	0xbb9e957d	-0.0048395977
230	0xbd6035ed	-0.054738928
231	0xbd4d4cf8	-0.05012223
232	0xbd22a952	-0.039712258
233	0x3d8ade62	0.067806974
234	0x3c4528da	0.012033666
235	0x3d66b59c	0.05632554
236	0x3dd3a761	0.10334659
237	0x3dbb134b	0.09134539
238	0x3d1c731a	0.038195707
239	0xbd5e8656	-0.05432733
240	0x3a9f8c52	0.0012172556
241	0xbd013dd9	-0.031553123
242	0x3db35f85	0.08758453
243	0xbdd16838	-0.10224956
244	0x3da5f81b	0.08103963
245	0x3c06060f	0.008180155
246	0xbdd00656	-0.101574585
247	0x3dcddb92	0.10051645
248	0xbd91e83a	-0.07124372
249	0xbdc9b512	-0.098489895
250	0x3d8bb78a	0.06822117
251	0x3dc9a32f	0.09845578
252	0xbddcf411	-0.107887395
253	0xbd9cc5c9	-0.07654912
254	0x3db956b2	0.09049739
255	0x3d90bb18	0.07066935
