save_results/lstm_long_term_365d_run4.pt (torch, 312341 bytes, 10 tensors)

lstm.weight_ih_l0 f4 [256, 12]
00000000: 0ffc 80bc e385 c6bc 52dd cc3c 58df 6b3d
00000010: cf77 353d d05c b53d 8d00 3cbd 22c5 423d
00000020: 3e92 18bd 186a e8bb 115b 863c ff1c 33bd
00000030: 5595 b93d 2e7e f3bd 30d6 b9bb f50b 6ebd
00000040: 2254 c8bd 255e c6bd 6e14 cb3d f5b8 9e3d
00000050: 91fa cc36 4615 d73b c0e1 b2bd e61b 98bd
00000060: b701 23bc 218f 39bd 7ccd 513c 1b10 8ebd
00000070: ce02 943d c5ba b9bc c727 29bc d6e2 77bd
00000080: 6364 a53d 8f0a c3bd fb1c 01bd 9c22 043d
00000090: e0be dbbd 93dc 9bbd 72b6 f23d 4237 9abd
000000a0: 31cf 8b3d 87bc 553c 6fb4 e0bd 86ab 70bd
000000b0: 091c 923d 78f8 d13d c1a1 aebd a277 cabd
000000c0: bd5d 4d3d ca63 853d 2640 0dbd 54d9 d43d
000000d0: c213 9ebd 6730 083d b695 9f3b f802 c6bc
000000e0: da66 393d 4989 203d edd4 be3d 4dab f6bd
000000f0: 5c05 753d a7ab aa3d 7831 953d a668 48bd
00000100: cdfc e1bc a3fa b0bd 6312 d83c 73bb e43d
00000110: 205c 96bd ddf2 cd3d e258 a8bc 1bf8 15b9
00000120: e5c0 75bb f14e 1f3d 06c4 c2bd 7ea0 77bc
00000130: c85b aebc d941 97bc d53b 613c 5543 a0bd
00000140: d9d2 893c a504 d43d d6a6 fbbc 664a f3bd
00000150: e549 ba3d 9760 b53d 1db1 ff3c d6d7 893c
00000160: 55af 1e3d 8cd9 6abc d893 b73d 9b24 f33d
00000170: fabb da3d e1e0 8abd 3724 9fbc 3a1f c13d
00000180: 59f3 7ebd 7a0b b7bc 0d09 eabd d4e5 0b3d
00000190: 866c cfbd 29a0 0a3d 5cd8 d8bd 282d 94bd
000001a0: 675a d03d 0434 93bd 2299 783d b279 5d3d
000001b0: 6949 f73d abdc 973d 453d dc3c 3667 0dbd
000001c0: e136 7ebd d119 bfbc ba61 d13c 2443 f0bd
000001d0: 9929 433c c088 a53b 405a 6a3d 28f8 133d
000001e0: 9ecd b03d 8002 22bd 0898 a6bc e380 973b
000001f0: 84ff 723d b8e0 543d b4ca 74bd 05ce b5bd
00000200: 29f0 9f3d 5541 b03d 2754 f73d c24a b33d
00000210: 404b 0bbd ca10 babd ffae 82bd d56f ccbd
00000220: ae27 44bd 7c4c fe3d a8a9 a23d 0791 d0bd
00000230: 7576 a3bd 23f7 edbc 49de 013c 4608 663d
00000240: b2f8 1b3d c2c7 9d3d c003 053d 50ac 9f3d
00000250: 7a50 b3bd 7e97 d93d b9c1 d03d 5a40 063e
00000260: a3a2 20bd 1863 d33d 735f 13bc 2055 e23d
00000270: c1b0 073d e238 4dbd 0ddc cdbd 6ed2 4bbd
00000280: 760e b33d d93f ddbd 8e1c 9fbc 7aa0 5fbb
00000290: a5d3 b7bd 7bde cc3c db02 d1bd 4d9f 8fbd
000002a0: 7ea8 09bd 88f9 a9bd f15d b13d 15af a93d
000002b0: aa1c d7bd 13e9 413d d938 723d eef3 843a
000002c0: 0a76 673d d76b 5c3d ec13 9cbc b48b ae3c
000002d0: e27e 653d d0f3 75bd 9332 0abb 3587 9bbc
000002e0: 9c65 7b3d 8d8f a03d 69d1 e33c 79c1 4dbc
000002f0: c3c5 cabd 3c66 4fbd da2e d43d 9629 02bd
00000300: 9709 ae3d 039c a73d e5b4 f5bd f4db d73d
00000310: 2137 ff3d f089 eebd a9d8 debc 49d9 173d
00000320: 9f4d 12bd 16aa d6bd b321 4fbd c3a5 04bd
00000330: d0c9 8cbc e495 0b3d bf7a 89bd b310 9c3d
00000340: 0420 d0bc e1a0 193d bb3b 15bd 5c4a dbbd
00000350: ceb7 013e 060e b53d 99e7 ce3d 0c08 87bd
00000360: 6d62 f13d 889d b0bc da2e 603d 4dc9 0c3d
00000370: 919b de3d 0444 6abd ff30 c33b 6e9f a53d
00000380: 8ba5 aa3d 3a62 d23c b174 ec3c 8cf7 6d3d
00000390: 903e 483d 4e85 e83c 63bc d43d 8562 e53d
000003a0: a22a 923c 8ff9 99bd 761f f5bd 0f2b 29bc
000003b0: 45ea cabc 358d e5bd 17f0 e03d 8125 8bb9
000003c0: c64a 783d b1bc 783d ad85 b0bd 68e4 c7bc
000003d0: 3b6d 1dba 0089 04bd b823 02bd 5617 b9bc
000003e0: 0de4 8fba f0f2 a9bd b597 983d 61a2 17bb
000003f0: 6330 d0bd 076d c2bd 1e9f e43d 5d05 0a3d
-0.01574519 -0.024233764 0.025007877 0.057586044 0.04430371 0.08855593 -0.045898963 0.04755128
-0.037248842 -0.0070927255 0.016400846 -0.043728825 0.09061686 -0.11889301 -0.005671285 -0.058116872
-0.09781672 -0.096859254 0.09916006 0.077501215 6.1088435e-06 0.0065638153 -0.08734465 -0.07427196
-0.009949139 -0.045302514 0.012805339 -0.069366656 0.072270975 -0.022672066 -0.010324425 -0.060519062
0.08075788 -0.09523498 -0.03152178 0.03225957 -0.10729766 -0.076104306 0.11851205 -0.07530071
0.06826628 0.013045437 -0.10971915 -0.058757327 0.071342535 0.1025247 -0.08526946 -0.098860994
0.050138224 0.06513174 -0.034485005 0.103930146 -0.07718612 0.033249285 0.004870142 -0.024171337
0.045264103 0.039193425 0.09317956 -0.12044392 0.059819564 0.08333521 0.07284826 -0.048927926
-0.027586365 -0.08641555 0.026375955 0.111685656 -0.0734179 0.10056088 -0.020550195 -0.00014302174
-0.0037499007 0.038893644 -0.09510045 -0.015113948 -0.021284 -0.018464016 0.013747175 -0.078253426
0.016824173 0.103524484 -0.030719202 -0.11879425 0.090961255 0.08856314 0.031212384 0.016826551
0.03874143 -0.014334094 0.08963746 0.11872216 0.10680385 -0.067811735 -0.019426448 0.09429784
-0.062243793 -0.02234434 -0.114275075 0.034154728 -0.10128121 0.033844147 -0.10588142 -0.07235175
0.10173493 -0.071876556 0.060692914 0.054071136 0.12074549 0.07415136 0.026884684 -0.034522258
-0.062064055 -0.02332774 0.025559295 -0.11731556 0.011911773 0.0050517023 0.057214975 0.036125332
0.08632968 -0.039553165 -0.020336166 0.004623519 0.05932571 0.05197212 -0.059763625 -0.08877186
0.07809479 0.08606211 0.12076598 0.08754493 -0.03400731 -0.090852335 -0.06381034 -0.09982268
-0.047889404 0.12416932 0.079425156 -0.10183912 -0.07981578 -0.029048508 0.007926532 0.056160234
0.03807897 0.077041164 0.03247428 0.07796538 -0.08755584 0.10624598 0.101932 0.13110486
-0.039217602 0.10321635 -0.008994925 0.110513926 0.03312755 -0.050103076 -0.10051737 -0.04976123
0.087429926 -0.108031936 -0.019422796 -0.003412275 -0.08975915 0.02500843 -0.10205623 -0.07012806
-0.033607952 -0.082995474 0.08660496 0.08285347 -0.10503514 0.047341418 0.059136245 0.0010143497
0.056509055 0.05381378 -0.019052468 0.02130685 0.056029208 -0.06004697 -0.0021087273 -0.01898537
0.0613762 0.0783988 0.027809815 -0.0125583345 -0.09901001 -0.050634608 0.10360499 -0.03177794
0.08497923 0.08184054 -0.119973935 0.105399996 0.12461687 -0.11647403 -0.027202921 0.037072454
-0.035718556 -0.1048166 -0.050569247 -0.032384645 -0.017186075 0.034078494 -0.06712865 0.076203726
-0.025405891 0.03750694 -0.036433917 -0.10707542 0.12667772 0.088405654 0.101027675 -0.06593332
0.11786351 -0.021559492 0.05473218 0.034371663 0.10869516 -0.05719377 0.0059567685 0.080870494
0.08332356 0.025681604 0.028864237 0.058097407 0.04888779 0.028383877 0.103874944 0.11200432
0.017842595 -0.07518303 -0.11968891 -0.010325207 -0.024769912 -0.11208574 0.109832935 -0.0002654009
0.060618185 0.060726825 -0.08619247 -0.024400905 -0.00060053513 -0.032357216 -0.031772345 -0.022594135
-0.0010977999 -0.0829829 0.07450811 -0.0023137557 -0.10165479 -0.094934516 0.11163162 0.03369652

lstm.weight_hh_l0 f4 [256, 64]
00000000: 445f f13d f1ae be3b d37c 953d 979f f1bd
00000010: f240 c03d f0c5 b2bd 3ee2 fd3c 263b 033d
00000020: 11c5 cf3d 6820 e33b cffc 1a3d c54b ccbd
00000030: 8506 e0bd 8b64 043d 422b 973c 1879 a03d
00000040: 36bb 633c d8f7 a93d e1e4 3b3c 86b5 a4bd
00000050: 1f62 a53d 7276 c93d 4a0b ecbd 7996 af3d
00000060: 732a a63d 452c 6fbd 954d e73d 6d7d 973d
00000070: 72ab 48bc c77b 51bd 3528 3f3c c49b f3bc
00000080: e888 f63d 6a39 c63d 2291 f7bd c596 24bd
00000090: 82ac 963c a928 3c3b 3ec9 82bd ca83 de3d
000000a0: 5151 963d cf0d e2bd 80a1 cb3d 27f9 babd
000000b0: 58b5 a03d 63dc ffbd 49c6 f1bd 427a 4fbb
000000c0: 8954 20bc a62d efbd b353 863d 7193 97bd
000000d0: 6549 86bd a043 bc3d 98cb d4bd e207 fbbd
000000e0: 6eb9 e0b9 eb3f 9c3d 0c38 c03d 5e6f acbc
000000f0: bae1 f43d 9d36 5cbd 4593 32bd a0bc 143d
00000100: 5599 c8bd 6fc6 b73d 1b35 373d c00f 16bd
00000110: 0d2b fc3d e93e f53d 9400 993c dc76 083d
00000120: 4547 41bd bd0a 7c3c c1e3 9abd 16a5 a63c
00000130: 3ba7 89bd a39b 113d 59ac 7abc 8214 acbd
00000140: ec3f c93d ff58 653d 22d0 febc d54e 603d
00000150: bb1a 35bd 7586 8f3d 10d5 bd39 1da8 ba3c
00000160: 7d1f 45bd 7846 313c 323d c93d 82be f03d
00000170: 5ee3 a3bd 2f1d e33d 96f6 b33d 09a4 8e3d
00000180: 4557 6f3d 192a 2fbc ca27 683d bbbb 0fbc
00000190: 4296 963c d008 e2bd dbc6 53bd 4f6f c6bd
000001a0: c637 e0bd 2804 a0bd ed42 debd 1d7b 903d
000001b0: b750 5dbd 2548 dd3d 7326 b0bb a46d edbd
000001c0: 3bc5 833d 1c10 0f3d 994b debd 2dd6 003e
000001d0: dc89 50bc 7cba ea3c 587d 883d 946e d2bd
000001e0: e4e9 ec3d 415f fc3d c8ba a43c ece7 c6bd
000001f0: 748c dfbb ded6 a4bd cdfd 32bd f010 ccbd
00000200: 2145 5bbd a64d 853c 4ea5 0c3c 8011 75bd
00000210: 2f12 633d 30b8 883d 932b ec3d 581b 573d
00000220: 1974 b73d 179c 4cbd 1b41 f73d 3642 233c
00000230: 0140 b43d aa89 62bc 9e93 823d d2c3 9fbc
00000240: 87fb dbbc 9de7 a1bd 54a2 73bd 9e70 b0bd
00000250: 2acb 06be d0ab a1bd 98ee 183d 3d55 b7bd
00000260: a3db 03bd 2fd2 2fbd ba69 5cbd 9f59 3d3d
00000270: 9b5f 693d ebc0 693d 24fc 873d 40b6 5dbd
00000280: 5d93 cd3d 2a5f efbc 3a9a 023e f71e cd3d
00000290: acf5 b6bd 582f 26bd b035 8a3d 7200 a4bd
000002a0: 593c 9ebc 51cf acbd 6390 953d 1703 d0bd
000002b0: aae7 d4bd 8b3b a0bc 243f 1f3b fdbd f13c
000002c0: 2b35 59bd 8066 dabc 5688 a03d fcc2 a4bc
000002d0: 3188 c4bc 24ac e939 25e6 4a3c a0c9 13bd
000002e0: d18d febc e76f abbd 6e42 213d 813f e53d
000002f0: eea5 0dbb 3320 183e 436f eb3c 1e52 07be
00000300: 2dfc cfbd 963f 27bd 63bd 843d 7d21 4f3d
00000310: 93a4 ecbd cc20 783d ad5e 843d f5e1 8d3d
00000320: 6b65 8a3d 7854 5e3c ce5b 92bd 9feb ab3b
00000330: be19 89bc c269 85bd ce71 b53c b779 7bbd
00000340: 8bbd 203d f2bf 52bd be3f eabd 7433 d33d
00000350: 114b f1bd 941a 1a3d d4c5 923d a997 803c
00000360: 5dd0 2e3d acf9 a6bd 679a 813c 41ff 12bd
00000370: 640f 8c3d e016 02be a684 f8bc e0bb 123d
00000380: 888b df3d 3b10 85bc be1a 8a3c 6e1f ddbd
00000390: 1e8e 083e 5989 843d ba74 edbd f5c6 1e3d
000003a0: 81b9 afbd 47ca 833d 525c fe3c 4ea5 1fbd
000003b0: 1d62 64bd 895c 9b3d 8fea a0bb ad41 d7bd
000003c0: 7aee bebd 8f57 ea3c 7fe5 8ebc 8f71 dfbd
000003d0: 9d5c 923d 4f5b dd3d 353f a1bd b8d5 863c
000003e0: 4661 d83b 57f9 043e ffb5 d33c 4c4b c3bc
000003f0: b56f aa3d d120 343d 0526 123d 7881 883d
0.117857486 0.0058191945 0.07299199 -0.117980175 0.09387387 -0.0872916 0.03099167 0.03203883
0.10145009 0.0069313534 0.037838753 -0.099753894 -0.109387435 0.032322448 0.018453244 0.07835597
0.013899615 0.082992256 0.011468143 -0.08042435 0.08075356 0.09837045 -0.11525591 0.08573622
0.08113565 -0.058391828 0.112940945 0.0739697 -0.012247907 -0.051143434 0.011667301 -0.02973736
0.120378315 0.096789196 -0.12088229 -0.040182848 0.018392805 0.0028710759 -0.0638604 0.108649805
0.073397286 -0.1103779 0.09942913 -0.09129553 0.078470886 -0.12493207 -0.11805398 -0.0031658565
-0.00978578 -0.116786286 0.06558933 -0.07401169 -0.06556968 0.09192586 -0.10390395 -0.12257363
-0.00042862765 0.07629379 0.0938569 -0.021049198 0.119571164 -0.05376302 -0.04359748 0.0363127
-0.09794871 0.08973395 0.04472838 -0.036636114 0.12312899 0.1197489 0.018677033 0.033316478
-0.04718711 0.01538342 -0.07562972 0.020342391 -0.0672135 0.035548817 -0.01529988 -0.08402349
0.09826645 0.055993076 -0.031105105 0.05476268 -0.044214945 0.070080675 0.00036207633 0.02278524
-0.048125733 0.010820024 0.09826125 0.117550865 -0.08002351 0.11089551 0.08787267 0.06964881
0.058432836 -0.010691189 0.05667857 -0.008772786 0.018382195 -0.11036837 -0.051703315 -0.09689199
-0.10948138 -0.07813293 -0.10852609 0.07054732 -0.054032054 0.10804776 -0.0053756773 -0.11593178
0.06434103 0.034927472 -0.10854263 0.12581702 -0.012728181 0.028653376 0.066645324 -0.10274997
0.115680486 0.12322856 0.020108595 -0.09712204 -0.0068221632 -0.08048795 -0.043699075 -0.09964168
-0.053532723 0.016272377 0.008584334 -0.059831142 0.055437263 0.06675756 0.115317486 0.05251631
0.08957691 -0.049953546 0.12072965 0.009964516 0.0880127 -0.013826767 0.06375812 -0.019502554
-0.026853336 -0.07905505 -0.05948098 -0.0861523 -0.13163438 -0.07894099 0.037336916 -0.08951805
-0.032191884 -0.042925056 -0.053811766 0.046228047 0.056975942 0.057068747 0.06639889 -0.054128885
0.10037873 -0.029220182 0.12754145 0.10015672 -0.08933577 -0.040572494 0.06748521 -0.080078974
-0.019315885 -0.0843798 0.0730293 -0.10156839 -0.10395749 -0.019559642 0.002429911 0.029509539
-0.05302922 -0.026660204 0.07838504 -0.020112507 -0.023990722 0.00044569478 0.012383972 -0.036080956
-0.031073483 -0.08370953 0.039369993 0.11193753 -0.0021613794 0.14856033 0.028739577 -0.13214919
-0.101555206 -0.040832125 0.06481435 0.050569046 -0.115548275 0.060578153 0.064633705 0.069278635
0.06757625 0.013569944 -0.071464166 0.005246594 -0.016735908 -0.06514312 0.022148993 -0.061395373
0.039243262 -0.051452585 -0.11437939 0.10312548 -0.11781896 0.037623003 0.07166639 0.015697317
0.04267918 -0.0815309 0.015820695 -0.03588796 0.06838873 -0.12704039 -0.03033669 0.035823703
0.10915285 -0.01624309 0.016858455 -0.1079701 0.13335463 0.064715095 -0.115945294 0.03876396
-0.08580304 0.06435066 0.031049881 -0.038976006 -0.05575763 0.07586009 -0.004910774 -0.105105735
-0.093228295 0.028606204 -0.017443417 -0.109103315 0.07146571 0.10808431 -0.07873384 0.01645933
0.006603393 0.1298574 0.025843618 -0.023839615 0.08322088 0.04397661 0.03568079 0.06665319

lstm.bias_ih_l0 f4 [256]
00000000: fa2f 8fba a4e8 8a3d a3e5 103d 30f1 01bd
00000010: f9d3 d4bc 4bf8 9a3d 3bdc e6bc f0a1 a63b
00000020: c41e b13d 2964 ab3d 886d 27bd bcdf c4bc
00000030: f319 31bc 03e4 9c3d 179b 753b 00ff 04bd
00000040: 1c31 a93d d495 05ba 2052 08bb 4d03 223d
00000050: 8127 f33d 22a0 033e 5c1b 6bbd a7ae 413d
00000060: 7034 023e 1b14 7d3d a327 d5bd fa56 32bd
00000070: 4f46 a13d 382c 99bd 6f1e ce3c ff06 01bd
00000080: 9c59 6c3c 75d7 b83d 0164 df3c f82c b73d
00000090: 7a28 893d a061 c5bd 1bc3 b2bc 9a41 f6bc
000000a0: 8db6 6cbd 0c3d ab3b aeee 843d be7d c73d
000000b0: e982 fabb baa8 9b3d 3143 1fbd fd2f ef3d
000000c0: ecdf d33d 898e 193d 1aea 0dbd 87a9 463d
000000d0: c06a ca3d 9030 d1bd ccfd 79bd 4eba c43d
000000e0: 32ef c93d 063b 8c3d bff9 193d e3cb bcbd
000000f0: 7263 34bd df89 f13d 38c6 e53d 40a8 c5bd
00000100: 48cf 603d d79a eb3d b9d7 4b3c 9669 aabd
00000110: 11b7 6fbc bff5 913c 3a28 7cbc d687 de3d
00000120: 16d4 e6bd f64a 073e f841 a0bd 18fb 993d
00000130: 6959 073e f584 93bd b951 cb3d 05fe c93d
00000140: 2f42 d13d ec3f ccbd d111 bcbd 3025 633b
00000150: 7fe8 f13d e7da b6bc d8a4 4dbd 21b3 6ebd
00000160: 2ffa 093e f7a9 b5bd c429 ccbd bc69 03bd
00000170: b463 083e 40df 643d be21 723d 3b73 b53d
00000180: 7b16 b2bc d8c7 993d 3a8d 203c 2403 b0bc
00000190: 1cbf 083d 2770 89bc d6e8 e1bd fbd6 55ba
000001a0: 07ce bbbd 7825 1fbd b5ae f13b 8991 b3bb
000001b0: c5c2 97bd 421d 883a f5f0 dd3d de6a 9ebc
000001c0: 22f1 6a3d da7e 3cbd e693 4cbd e1af cd3d
000001d0: c822 cbbd cd41 f7bc 8ccf fe3d f0d3 b0bc
000001e0: f68e c83d 280a 513d 8d75 cdbd d7c5 f2bd
000001f0: d944 c33c 84b2 dd3a 2963 463c 61b4 40bd
00000200: d0bb 3a3c bfa2 e7bd 3255 0bbe 6bd4 ac3c
00000210: 55f4 74bc 2e7a c4bd 41b4 bd3d ae16 e4bd
00000220: 9a5b 63bd 7c74 04be 1bbe 06be 8de9 dc3c
00000230: afa2 0b3d 6df5 f63b 01cf 4e3d ec3b b43d
00000240: 4833 703d 5a99 693c 6672 aabd 4eeb e23d
00000250: 32b6 05be b110 c93d 1a53 d6bd ddb4 8e3d
00000260: cfe0 bdbd 91e0 a5bd ff44 973c 732c ce3d
00000270: 5efb e13d 8500 9fbd 3011 943c afb1 ef3d
00000280: fd00 403b 0435 cf3b fa77 1f3d a3f3 8f3d
00000290: 42a1 873d d0b3 44bd c101 9d3d 102e 9cbd
000002a0: 4df4 4c3d 4894 0b3e 913d 01be 9a6e ea3d
000002b0: 2b65 873c 24a3 e2bd 2009 b7bd 1991 bbbd
000002c0: d353 dc3d f6bf 82bd c29f f93d 9769 a23d
000002d0: fe1f c03c b2f7 ad3d ad64 e03d c04b 963d
000002e0: 83a3 923d 6410 c23d 096f d7bd d0df 69bd
000002f0: bfa2 f8bc fd54 093e ec0a 03be e189 48bd
00000300: 2a39 3f3d b569 cd3c 9a45 d23d e4b3 453d
00000310: 6c0c d4bb a49d 573d b216 99bd 2d39 063e
00000320: 453c a83d 1be5 923d 8673 37bd b80e adbd
00000330: b484 cf3b ce5e f53d 8b9d 663d 07b3 073e
00000340: f0c2 153d c43e c5bd 43e3 92bd 8c5a 1fbd
00000350: ba9d b63d 705d f23d 0449 563c bbfa df3d
00000360: 8fef e0bc ed7b 933d e01c 94bd 2a9b 87bd
00000370: 0cff 23bd a3c9 d4bd 127a a5ba 23b2 a53c
00000380: bb9c ef3d 2517 9d3b dd97 8ebc cd03 f33d
00000390: 7792 163d 663f d83d a10f a9bd 1ad7 bcbd
000003a0: 6b9b 2bbd d7d6 ff3d 8afe 9c3d 8505 7abd
000003b0: 6bdf b43c 004e a7bd 4dbf b3bd 3be4 d53b
000003c0: 979a cfbd 9407 8abd 33ab b03d 940c 993d
000003d0: fbbb d53d c82c ac3d 2625 53bc e1cb 61bd
000003e0: a8c2 bdba dafa b0bd ca15 a8bd 21dd 4ebd
000003f0: a309 043e 3e5d 183e 47ad aebd 58a5 633d
-0.0010924332 0.06782654 0.03537525 -0.031724155 -0.025979983 0.075668894 -0.028181186 0.0050852224
0.08648446 0.083687134 -0.04087594 -0.024032466 -0.010809409 0.07660677 0.0037476474 -0.03246975
0.0826132 -0.00050958735 -0.0020800903 0.03955393 0.11872769 0.12854055 -0.05739914 0.047285702
0.12715316 0.061786752 -0.10407951 -0.04353998 0.078747384 -0.07479137 0.025160996 -0.031500813
0.014425661 0.0902547 0.027269365 0.08944124 0.066971734 -0.09637761 -0.02182155 -0.030060578
-0.05779128 0.005225783 0.06490837 0.0974078 -0.0076450002 0.076005414 -0.038882438 0.11679075
0.10345444 0.037489448 -0.034647085 0.048501518 0.09883642 -0.10214341 -0.061033055 0.09605847
0.09860076 0.06847195 0.037591692 -0.09218576 -0.04404015 0.11793875 0.11219448 -0.09651232
0.05488518 0.11504143 0.012441569 -0.0832092 -0.014631049 0.017817376 -0.01539045 0.108657524
-0.11270921 0.13212189 -0.078250825 0.075185955 0.13217701 -0.07203094 0.09927697 0.098629035
0.10217702 -0.0997313 -0.09183086 0.0034659617 0.11811923 -0.022321178 -0.050206035 -0.0582763
0.13474344 -0.08870309 -0.09968904 -0.032083258 0.13319284 0.05587697 0.05911421 0.08859869
-0.021739235 0.0750882 0.009799296 -0.021485873 0.03338538 -0.016777111 -0.11030738 -0.000815734
-0.09170156 -0.038854092 0.007375563 -0.0054799956 -0.07410196 0.0010384696 0.108369745 -0.019338068
0.05735887 -0.046019413 -0.049945734 0.10043312 -0.09918743 -0.030182743 0.1244193 -0.021585435
0.09792893 0.051035076 -0.10032187 -0.11854141 0.02383654 0.0016914164 0.012108603 -0.047047023
0.011397317 -0.11310338 -0.13606718 0.021097383 -0.014950831 -0.095936164 0.09262896 -0.11137138
-0.05550728 -0.1293506 -0.13158457 0.026966834 0.034090694 0.0075365813 0.050490383 0.08800492
0.058642656 0.014257753 -0.08322601 0.11080037 -0.13057783 0.09817637 -0.10465069 0.06968091
-0.092713945 -0.08099473 0.018465517 0.10067072 0.110342726 -0.07763771 0.018074602 0.11703812
0.0029297464 0.0063234586 0.038932778 0.07028892 0.06622554 -0.048023045 0.0766635 -0.07625973
0.05003767 0.13630784 -0.12621142 0.11446877 0.016527733 -0.11066273 -0.08937287 -0.091585346
0.10758176 -0.0638427 0.121886745 0.07930296 0.023452755 0.0849451 0.109567024 0.07338667
0.07160094 0.094757825 -0.10519225 -0.05709821 -0.03035104 0.13411327 -0.12797135 -0.048959617
0.046685375 0.02507482 0.10267182 0.04826726 -0.0064712074 0.052640572 -0.07475032 0.13107748
0.082146205 0.07172605 -0.044787906 -0.08450073 0.006332958 0.11980973 0.05630259 0.13251887
0.03656286 -0.09631112 -0.07172253 -0.03890471 0.08916803 0.11834228 0.013078932 0.10936495
-0.02745798 0.07201371 -0.0723207 -0.06621392 -0.040038154 -0.10390022 -0.0012624881 0.020226544
0.11699816 0.004794019 -0.017406398 0.11865959 0.036760774 0.10558967 -0.08254934 -0.09220715
-0.041896265 0.12492149 0.07665737 -0.06104042 0.02207919 -0.08169174 -0.08776722 0.0065274513
-0.101369075 -0.06739727 0.08626404 0.07473102 0.10436245 0.08406979 -0.012887275 -0.055126075
-0.0014477568 -0.08641596 -0.08207281 -0.050503854 0.12894301 0.14879319 -0.08529144 0.055577606

lstm.bias_hh_l0 f4 [256]
00000000: 3560 3fbd 3b3f 0c3c afdf af3d b639 c6bd
00000010: 3a19 acbd c3c3 d23d 8cef 733c 3701 2ebb
00000020: 27bc 89bc 6a49 aabb e8f3 d8bd c06d 603d
00000030: 1363 9e3d e773 dd3d d980 a9bd 400b f63c
00000040: 1c1d a33d 9ca7 cdbd c00f 603d 37a1 9cbd
00000050: e237 6e3c bb75 d9bd 23d6 c73d d213 6e3b
00000060: f090 6abc 0686 d6bd d6e4 833d 8b51 9ebc
00000070: 6b31 093e a612 a73d fae7 863d e4b0 173e
00000080: daf5 22bd d65f a43c 2de0 ce3c d00e d5bd
00000090: f828 69bd be99 98bd 4256 f93d 81eb cdbc
000000a0: cea4 0b3e 7d5e c8bd e094 d9bd 722f 9dbd
000000b0: 9166 033e bd46 7fbd 0f25 6ebd e78e 1e3d
000000c0: 74d2 b23d c014 0d3e fa57 7c3d 9370 f13c
000000d0: c60a 9c3d ecf2 d8bd e279 95bd 9dc4 323c
000000e0: 7cb4 913c 1523 4dbd ee88 003e c3bc 1fbd
000000f0: edc0 993d 3e3a 113e 44d8 cdbd 3862 c4bd
00000100: 4120 e1bd fbbd f4b9 2fef d9bd 93a3 babc
00000110: b80c 4d3d 4f25 033e 27cf e9bc b18c 903d
00000120: fcbe bb3d 6ac6 11bd c69a ce3d 3de7 4fbd
00000130: b987 e33c 993d 98bd e9e3 5b3d 9fdf 7abd
00000140: 9861 b63c 17b1 2cbd 7a6d 2f3d 8f16 a7bc
00000150: cfe8 213d 4c85 85bd 6c4c 2fbd dd5a d6bd
00000160: 997b 33bd 25b6 cfbc 1831 b63d 08d7 973c
00000170: a9d4 c3bd 4257 f33d 6fd3 88bd 48f1 99bd
00000180: 0317 26bd 211b 4a3c 235a 723c f0a8 bdbd
00000190: 94ee b23b c10e b13c cae3 e13c 3d5c e33d
000001a0: bb06 7a3d 807d aabd b63a 8a3d 83f7 2d3d
000001b0: 1944 0e3c 2a8c ae3d abf0 c7bd ddde cbbd
000001c0: 17fc d7bd 197d 9dbd 070e a2bd b978 f3bc
000001d0: 3e39 d03d 15bb f13c e0cf 77bd 566d 163d
000001e0: d3a7 f2bd d793 fbbd 512d ce3d 5318 d33d
000001f0: 55e7 cdbd dc5b 54ba 89bd 023d d9ed bcbd
00000200: 03d4 ae3d b155 91bc f74c bebd f67c cf3d
00000210: 6f6a 393d b6f8 1d3d 6708 4cbd c0e6 8c3d
00000220: 8511 f4bb 020f adbd bf56 903d 6b53 07bc
00000230: e56a 8ebd c81f 92bd fb4e f0bd d833 e43d
00000240: f0a6 1dbd bf8e adbd 2ddc a8bc 3715 5c3d
00000250: 2f86 02be bcb7 88bc e0f2 513d f0fb d73d
00000260: 04fa 28bd a3ae abbd 905a 503d dda0 393c
00000270: d560 11bd 7bc8 05bd 0e48 89bd 0166 413d
00000280: 02a6 b63b ef12 b0bd fe8e 22bd b2fc 883c
00000290: 7ab9 6e3d 446b 4c3d c0f0 dcbd 96f5 853d
000002a0: 85f8 933d d936 2c3b 0d71 d6bd b0e3 4d3c
000002b0: e4a3 4a3b fc53 f9bd 3640 95bd 93d9 c4bd
000002c0: 1d0f 9fbd 1bf5 a53c d60d b53d 5e0e 073d
000002d0: 8b72 05be 784c 8abd 2a72 7b3d 444b 963d
000002e0: 0127 5d3d b4d6 ef3d 5f66 90bd 276a efbc
000002f0: b3c0 d73d d52e 803c cfa8 2f3d 1b2d 91bd
00000300: 0fd7 bbbd a7ed d73d 39c3 953d 4a7d c4bc
00000310: 1d51 873d 6a31 073e a836 89bd 4952 ce3d
00000320: f252 483d 3c04 67bb 64bc 7fbd 7468 b63d
00000330: be7b de3d ccea 14bd 1fe2 13bd 0975 b6ba
00000340: 8070 a2bc 61ea 89bc 9693 50bd d9f9 d43d
00000350: 06ec 82bd be6e 993d 3174 34bb 26e4 653d
00000360: 31c9 a2bd 0722 cbbd bb6d 68bc ad54 863c
00000370: b878 9ebd f115 8a3d 8258 d5bd fddd b1bd
00000380: 857f c1bd 9fd7 e3bd a2c4 2d3d 8508 61bd
00000390: 6920 e03b 7b11 143d 5ffa 07bd eef9 c03d
000003a0: 8fb8 2cbd b9e8 2fb9 0013 a33d 9a4e 16bb
000003b0: 94ac cfbc d9e3 b8bc 8879 57bd da3a 8a3c
000003c0: 499c aa3b 4ea2 9bbb 3585 bc3d 5d3a 023e
000003d0: 1844 903d 26d3 ad3d f171 a43d 5315 d9bd
000003e0: 6fc5 9dbc ea1a 883d ad34 efbd 12e9 d83d
000003f0: 2979 b13c f24c 8f3d eba8 a43d 3112 943d
-0.04672261 0.008559997 0.08587586 -0.09678976 -0.08403249 0.10291245 0.014888655 -0.0026551017
-0.01681335 -0.00519674 -0.105933964 0.054792166 0.07733741 0.10813122 -0.08276529 0.030034661
0.079645365 -0.100417346 0.05470252 -0.07647937 0.014539691 -0.106181584 0.0975764 0.0036327732
-0.014316782 -0.10474782 0.06440131 -0.019325992 0.13397758 0.08157854 0.06587215 0.14813572
-0.039785244 0.02006523 0.02525338 -0.10403216 -0.056923836 -0.07451199 0.121746555 -0.025136711
0.13637087 -0.09783647 -0.10624099 -0.07675065 0.12832095 -0.06232332 -0.05814081 0.0387105
0.08731547 0.13777447 0.06160734 0.029472625 0.07619242 -0.10593209 -0.07298638 0.010911134
0.017786257 -0.050082285 0.12552235 -0.038998377 0.07507501 0.14182374 -0.10051015 -0.09589046
-0.1099248 -0.00046680853 -0.10641324 -0.022783076 0.050060958 0.12807201 -0.02854116 0.07058085
0.09167287 -0.035589613 0.100881144 -0.050757635 0.027774679 -0.07433624 0.05368415 -0.061248418
0.022263333 -0.042161074 0.042829014 -0.020396499 0.039528664 -0.06519565 -0.04279749 -0.104665495
-0.043819044 -0.025355408 0.08896083 0.018535152 -0.09562046 0.118818775 -0.06680953 -0.07516724
-0.04054929 0.01233557 0.014791998 -0.09260738 0.0054605696 0.02161348 0.027574439 0.111015774
0.061041575 -0.083247185 0.067494795 0.042472374 0.008683228 0.08522828 -0.09762701 -0.09954617
-0.10546129 -0.07689876 -0.07912832 -0.029720651 0.10167168 0.029508153 -0.06050098 0.036725365
-0.11848416 -0.122840576 0.10067237 0.10307374 -0.10053889 -0.00081008463 0.031919036 -0.09225053
0.08536532 -0.017741056 -0.09292024 0.10131256 0.04526752 0.038567267 -0.0498127 0.068799496
-0.0074483776 -0.08450128 0.070477955 -0.0082596345 -0.06953982 -0.07134968 -0.11733814 0.11142701
-0.038489282 -0.08474492 -0.0206128 0.05373117 -0.127465 -0.016689174 0.051257014 0.105461
-0.04125406 -0.08382919 0.050867617 0.011329857 -0.035492737 -0.032661896 -0.067031965 0.04721642
0.005573989 -0.08597361 -0.03968715 0.016722057 0.058282353 0.049906984 -0.10788107 0.065409824
0.07225136 0.002627781 -0.104707815 0.012566492 0.003092044 -0.12174222 -0.07287638 -0.096118115
-0.077665545 0.020258477 0.088405296 0.032972686 -0.13031976 -0.067528665 0.061388172 0.073385745
0.053992275 0.11710873 -0.07050776 -0.029225422 0.10534801 0.015647331 0.042885598 -0.07088681
-0.091718785 0.105433755 0.073126264 -0.023985524 0.06607268 0.13202444 -0.06699878 0.100742884
0.048907228 -0.0035250327 -0.062435523 0.089066416 0.10863446 -0.036356732 -0.036104318 -0.0013920377
-0.019829035 -0.016835393 -0.050922 0.10399217 -0.06392674 0.074918255 -0.0027535076 0.056125782
-0.079485305 -0.099185996 -0.014186318 0.016397798 -0.07737869 0.06742466 -0.10417272 -0.08684919
-0.094481505 -0.11125111 0.04242385 -0.054939765 0.006839801 0.036149483 -0.033197757 0.0942267
-0.042168196 -0.00016775996 0.07962608 -0.0022935034 -0.025350846 -0.022569584 -0.052606136 0.016873766
0.005206619 -0.004749573 0.09205095 0.12717576 0.07044238 0.08487539 0.08029545 -0.105997704
-0.019259183 0.066457585 -0.11679969 0.1059133 0.021664219 0.06997098 0.08040031 0.07230032

lstm.weight_ih_l1 f4 [256, 64]
00000000: adeb a23c e545 ac3c cb53 fa3b cdc6 7b3d
00000010: fa78 a13d d4b2 d13d dda4 99bd 0338 d0bb
00000020: 99b3 fbbd b81f 5d3d 564b 82bd a2e7 b9bd
00000030: 1afb 403d 667f 833d bbff 01bd 9c76 8e3d
00000040: 64af 69bd 260d 46bd cb03 e2bd a3dc b1bd
00000050: 4bf7 9a3d d413 a3bc 6811 78bd 64de 4ebd
00000060: 89a6 0fbe 3c71 2cbd c661 413d ac26 8e3d
00000070: 6b08 843d 13d8 183d 72d4 6cbd 21a3 d13d
00000080: 2205 b4bc ee0d 0bbd df9a ff3b 4220 3dbc
00000090: 0205 8cbd 0765 c1bd 69ab 003d e1bc d2bb
000000a0: 37c0 89bd 83db 78bd a29a c83d 4d22 96bd
000000b0: f63e 253c e847 f6bd 223f da3d ff09 64bd
000000c0: 0705 6abd ac31 bf3d f9c8 7a3d eb8e 213d
000000d0: b811 853c df22 ce3d 69dd aabd 85d6 373d
000000e0: a338 0e3d 4dd7 56bd 99ee 603d f63a 2a3c
000000f0: dbe1 debd c48d 893d 9db0 76bc 5f38 9f3d
00000100: c81d f33d e1e4 97bc ab60 88bd ff8a 47bd
00000110: 7e8d 793d c90d 60bd 3c45 883d a71d 95bd
00000120: abdb 5abd 24f6 9bbc 7463 283c 86b1 8ebd
00000130: ed66 a2bd 6805 f4bd 2bdc eabd 784b 3abc
00000140: faa5 c03d fdbd b83c 6003 02be 2502 7a3d
00000150: 0ab6 b43c 0a1d ebbd 7618 09be 40c9 893d
00000160: 1057 fabd 70a5 bb3c 09e5 a3bd dd65 44bd
00000170: 49a6 2f3d b3e9 f8bd 6f64 0c3d c264 aebd
00000180: d896 82bd 3566 9bbc ea61 78bd dbd5 f63c
00000190: dafa f73d 41c4 a2bb c6be 033d 29f1 d4bd
000001a0: 3155 d4bb 83da f6bc 5bcd 22bd f49f aa3d
000001b0: a80f 8f3c a175 60bc bbd0 9bbd f2df 8ebd
000001c0: d42e 4fbd ed23 213c b9d6 88bd 0e13 71bc
000001d0: 5436 93bd 40dd a6bd 562f b9bd f637 c4bd
000001e0: dc6e 8cbc 79a4 4ebd b142 963d de7e e83d
000001f0: fabd 3f3c 33a8 ae3d d8dc 8ebd 55de 3e3d
00000200: 26fe f03d 7f07 c9bd cf42 d2bd 4ee5 49bd
00000210: ef5e 90bd 0e40 e1bd 0e25 043e e87b bc3d
00000220: 6ac1 14bd 0ce2 2b3d 2a0d 863d 8f4b e7bd
00000230: 5b6f e7bd 6861 5d3d cba2 bc3d b036 d7bd
00000240: be01 fc3b bf0e ebbd 629c 8bbd e003 e1bd
00000250: be36 ab3d 03ab eebc 14e4 353d 954b a73d
00000260: cc6e 32bd 9282 133b 9032 a83d efd2 90bc
00000270: c4c0 8cbd 760c c33d c09d 90bd a5aa adbd
00000280: 00fa 7bbd 3b6c 69bd 6df0 09be 058e 11bd
00000290: 1da3 d0bd 240b 21bd e658 143c 4db1 5a3b
000002a0: 2265 14bd 5eef edbd 1006 dbbd 2cd4 233c
000002b0: 938a c4bd 179d d23d 4070 a63d 9c80 b23c
000002c0: d357 073e 4c26 b5bd 43e2 fe3d 6f50 8cbd
000002d0: 367a 09be 2ce0 893b 4d05 b23d c54c 613d
000002e0: 162e 7cbd 653c 9b3d 78c1 44bd ba95 eb3d
000002f0: acf0 983d e737 dcbc f2dd 003d ca1d 0f3d
00000300: d088 f63d c41e f3bd c5df 82bd 0d41 f83d
00000310: e67c 753d 18b1 fb3d 0fe8 0d3d 9370 303d
00000320: d719 6e3c cae9 f4bc 91f4 e2bd 8a9d 99bd
00000330: f7f4 ae3d f693 b83d 3c99 e2bd 82c0 9b3d
00000340: 38c5 0dbd 2f86 91bd a7bf cfbd 6dc9 88bd
00000350: 1b36 a43b 735c deb8 c58f 71bc 7470 d5bc
00000360: 40b8 85bc 00b1 91bd 2729 933d 283a 493d
00000370: eb07 cfbd 889d a3bb 7387 873b a9a8 0b3e
00000380: 7385 51bc 2b1d 0abe 4691 f43d 5cd6 283d
00000390: 70c5 b8bd 00f8 60bd fb1a 013e 57b0 e33c
000003a0: ecf9 3f3d 6883 5d3d 8942 2f3d 5c2d 633d
000003b0: b531 1c3c 7bd0 4b3d bf03 cdbd 9179 10be
000003c0: e2a6 8e3d d1b9 b0bd 97a4 98bd 2032 abbd
000003d0: 5793 07bd ff2d 74bd 8d15 9dba f143 113c
000003e0: cd24 c73c e1bd c03c 023f 90bd 505b 773c
000003f0: ea7e 92bd a106 313d 9128 353b 511d debd
0.01988777 0.021029422 0.0076393834 0.061468888 0.078844026 0.10239187 -0.07502148 -0.0063543334
-0.12290115 0.053985327 -0.063620254 -0.090773836 0.04711447 0.06420784 -0.031738024 0.06956217
-0.05705203 -0.048352383 -0.1103588 -0.08684661 0.07566699 -0.019906916 -0.060563475 -0.050505057
-0.14028372 -0.042100176 0.047212385 0.0694097 0.06446918 0.03731544 -0.05781979 0.102361925
-0.021975104 -0.03394883 0.0078004445 -0.011543335 -0.06836893 -0.094430976 0.03141347 -0.0064312075
-0.06726115 -0.060756218 0.09795119 -0.07330761 0.010085812 -0.12025434 0.10656573 -0.055673596
-0.0571337 0.09335646 0.06122682 0.039442938 0.0162438 0.10065245 -0.08343012 0.044882316
0.03472198 -0.05245142 0.054915044 0.010390034 -0.10882922 0.06716493 -0.015056756 0.07774424
0.11870915 -0.018541755 -0.06659063 -0.04871654 0.060925953 -0.054700647 0.066538304 -0.07281046
-0.053432148 -0.019038267 0.010277618 -0.06967454 -0.07929788 -0.11915094 -0.11467775 -0.011370532
0.094066575 0.022551531 -0.126966 0.0610372 0.02205946 -0.11480148 -0.13388237 0.067278385
-0.12223637 0.022906035 -0.08002669 -0.047948707 0.04288319 -0.121539496 0.03427547 -0.08515312
-0.063764274 -0.018969635 -0.060640253 0.030131271 0.12108393 -0.004967243 0.032164358 -0.1039756
-0.006479882 -0.030133491 -0.039746623 0.0833129 0.01746352 -0.01369992 -0.076081716 -0.06976308
-0.05058177 0.0098352255 -0.0668158 -0.014714016 -0.07188097 -0.08147669 -0.09042232 -0.09580986
-0.017142706 -0.050449822 0.07336939 0.11352323 0.011703009 0.08528175 -0.06975716 0.04659875
0.11767225 -0.09815883 -0.10266649 -0.049290948 -0.07049357 -0.109985456 0.1290476 0.09203321
-0.036317267 0.041963622 0.065454796 -0.112937085 -0.11300536 0.054047972 0.09210738 -0.10508478
0.0076906374 -0.11477422 -0.06816937 -0.10987067 0.083600506 -0.02913428 0.044406965 0.08168713
-0.043562695 0.0022508246 0.08212769 -0.017678706 -0.068727046 0.09523861 -0.070613384 -0.084798135
-0.061517715 -0.056987982 -0.13470621 -0.03553583 -0.101873614 -0.039317265 0.009054398 0.003336984
-0.03622926 -0.11617921 -0.10694516 0.009999316 -0.095967434 0.10283869 0.08126879 0.021789841
0.13217096 -0.08845195 0.124455 -0.06851279 -0.13425526 0.0042076316 0.08692417 0.055004854
-0.06156739 0.07579879 -0.04803607 0.115031675 0.074677795 -0.026882125 0.031461664 0.03494052
0.12037814 -0.118711025 -0.06390337 0.121217825 0.059933566 0.12289637 0.034645136 0.04307611
0.014532528 -0.029896636 -0.110818036 -0.07500751 0.08542817 0.09012596 -0.110643834 0.07605077
-0.03461191 -0.071056716 -0.10143977 -0.06679044 0.0050113327 -0.00010603005 -0.01474375 -0.026054598
-0.016323209 -0.07113838 0.071855836 0.049127728 -0.10108932 -0.0049931444 0.00413602 0.13638557
-0.012788164 -0.13487689 0.11941771 0.041220054 -0.09022033 -0.05492401 0.12607948 0.027794046
0.046869203 0.054080397 0.042788062 0.05546318 0.009533335 0.04975937 -0.1001048 -0.14108874
0.06965424 -0.08629192 -0.07453268 -0.0835917 -0.0330995 -0.059614178 -0.0011984572 0.008866296
0.02430954 0.023528041 -0.07043268 0.015097454 -0.07153113 0.043219212 0.0027642588 -0.108454354

lstm.weight_hh_l1 f4 [256, 64]
00000000: 95c4 b83d d3e0 e1bd 8593 e2bd 56a5 d4bd
00000010: 008c dfbd 45fc a73c b92e f6bd 7132 d63d
00000020: 27a4 b0bc 4fce 5fbd 48f3 0ebb 1423 533d
00000030: 2262 f5bd 553b 023d 0345 e23c f3e1 d03d
00000040: 3287 0abd c3ef 15bd d051 213d 0d80 eb3d
00000050: 2f01 a83c f5a3 a5bd 4f11 463d a785 1ebd
00000060: 6422 f83c dba0 233d edf1 183c 2d8b 01bd
00000070: aef5 76bd 6edb 863d f5d5 5b3c 4e27 e6bc
00000080: 4b35 853d 3b1d 3ebc e6ae 793d e5e9 c9bc
00000090: 8496 323c c0c8 af3d 8298 0a3c 9b3a ce3d
000000a0: a496 f6bc a601 683d 21ff 90bc 9dee 0cbc
000000b0: 2af0 e63d 6981 85bd 124e 1d3d d433 973d
000000c0: 8ead ba3c 6418 1d3d e334 783d 543d 023e
000000d0: a4a2 b13d d30a e53c 04f4 e13d 91eb 483c
000000e0: 6da7 c03d 37bb d93d 98ff f63d 6866 81bd
000000f0: 4fcd e83d d484 a3bc 5125 da3d fa3f 00be
00000100: e521 113d 2758 223d 0190 3abd 9cca aa3d
00000110: 3f33 4fbd c177 b7bd 7ee5 afbd 2b9d 713d
00000120: b6f7 d8bd 010b 1abd 0a7d d8bd b553 343b
00000130: b2ff febc a036 c5bd 607d 113d 25b1 93bd
00000140: c48c d9bd 4940 073e 1d39 86bd ff5d 12bd
00000150: 265d 18bc fff7 a13d b6b3 11bd 2c13 6ebb
00000160: 3544 f0bd de59 a7bd 3870 d93d 1f2e 13bc
00000170: ff03 cdba 917c 06be 1a15 d0bd 308e 443d
00000180: 3458 f03d b07f 973d 60ad e83d efe9 0bbd
00000190: cfba 86bc b090 943c af02 c73c d9e2 07bc
000001a0: 54e2 abbd 4677 7ebd 927c 94bd 94d9 3dbc
000001b0: cc69 833d 44c9 9e3d 3fa6 063d 8738 e43b
000001c0: 3a14 bebb eae5 8dbd 690e 093d 7bf2 b53d
000001d0: 1abe 203d d316 f33c ca4f 09bc b4d5 2f3a
000001e0: 698d 01bc 5a67 ffbd cfe2 8b3d d60d e1bd
000001f0: cecc 7fbc 1d69 f4bc 5053 fa3c cb91 21bd
00000200: 3e72 da3c 1bde 903d 4f25 c1bd ed8a ffbd
00000210: 1f7a d33d 75c5 ecbc 2815 90bd 4f9a 39bd
00000220: 0934 06be 55e4 23bd 88ea 39bd 0701 58bd
00000230: 4734 57bc bae4 94b9 843b 493b 1171 863d
00000240: b5b8 eb3c 06cd c13d 961c e33b a9d0 a0bd
00000250: 925f a03c 812f c7bb 8f02 88bd 1d88 edbd
00000260: bdd9 2fbd 150f 3ebd c506 e13d 02ef 98bd
00000270: 0d94 43bb b3e4 6b3d 287d f43d 871f 2a3c
00000280: 0090 c2bd 4581 2cbc b6c5 aebd 6a56 b1bd
00000290: d23c f13d cc94 b0bd 9ae7 dc3d 4e5a 9f3d
000002a0: 659d fc3d ad7a 943d 3faa 91bd 180c 933d
000002b0: 3d92 95bd f003 893c dc60 b93c 8446 c93c
000002c0: 6fab d3bd ccc0 b2bb 4c58 83bd b56e a03d
000002d0: 09ad 2bbb 8580 a03d 25a1 dcbd 77af 003d
000002e0: 7afd 523d 4d47 0abe c2f4 44bd 3187 293d
000002f0: 06c2 ed3d e67b cfba e6cb 863c 90ad 6dbd
00000300: d853 983c a29f cebd 284d cd3d 3085 b93d
00000310: 7cbb 033c 3240 993d 3c35 d73c 15ac 623d
00000320: 0fb7 f2bd 7ed6 a73d 1c35 853d cd54 bd3d
00000330: 2f40 013d 7bef 7d3d 1df1 03be 1cb7 8a3d
00000340: 1fca af3d 2728 c0bc 535e 053d 3eb2 0e3d
00000350: e832 153c 24c8 983d 9851 eb3d 89d2 05be
00000360: da11 af3d d87c ed3c f6cd ad3d d280 d33d
00000370: 2d37 9ebd 40d8 71bd fedc e83c 6dce d1bd
00000380: 24ec b03d 964e e0bd a576 5a3d 3706 073d
00000390: a184 2abd 540c c93c 5ea5 633c 3b74 d23d
000003a0: d1ad 963c a8f4 bcbd b5a7 d6bd db2d 29bd
000003b0: 2c36 503d ee11 013c 7e33 8d3d 9310 b3bd
000003c0: b65e 17bc 5b1c 65bd a6db 9e3d 4dad 8fbb
000003d0: 4679 793d cd09 83bd 9e88 8abd b4b6 edbc
000003e0: 1d86 413d f581 933d a89d 0c3e 49c5 0c3d
000003f0: d03b 9ebd 83d2 b9bd 057d b1bd 8063 01be
0.0902187 -0.1102921 -0.11063293 -0.10383098 -0.10915375 0.020506034 -0.120206304 0.1045884
-0.021562649 -0.05464011 -0.0021812487 0.051547125 -0.11981608 0.031794865 0.027620798 0.101993464
-0.03382034 -0.036605608 0.039384663 0.11499033 0.020508377 -0.08087913 0.04835635 -0.03870168
0.030289836 0.039948326 0.009335023 -0.03162687 -0.060292892 0.06584822 0.013417711 -0.028094914
0.065043055 -0.011603649 0.06095781 -0.024647662 0.0109001435 0.08583212 0.008459212 0.10069772
-0.030101128 0.056642197 -0.01769978 -0.008601812 0.112762764 -0.06518824 0.03840453 0.07382932
0.022787835 0.03835334 0.06059731 0.12718707 0.08673599 0.027959263 0.110328704 0.012263195
0.09406934 0.106314115 0.120604694 -0.063183606 0.113672845 -0.019960798 0.10651649 -0.12524405
0.035432715 0.03963485 -0.04554749 0.08339426 -0.05058598 -0.08958388 -0.08588694 0.058987778
-0.10594122 -0.03760815 -0.10570724 0.0027515714 -0.031127784 -0.096295595 0.035519958 -0.07211522
-0.10622552 0.13208117 -0.06553862 -0.035734173 -0.009299552 0.079086296 -0.035571776 -0.0036327345
-0.117317595 -0.08171438 0.10617107 -0.008983164 -0.001564145 -0.13133456 -0.10160275 0.047987163
0.117355734 0.07397401 0.11361194 -0.034158643 -0.0164465 0.018135399 0.024293272 -0.008293831
-0.08392778 -0.062125467 -0.072503224 -0.011587519 0.064166635 0.07753232 0.03287339 0.0069647464
-0.005800751 -0.06928618 0.03346101 0.0888414 0.039243795 0.02967397 -0.00838084 0.00067075645
-0.00790725 -0.124708846 0.0683037 -0.10988967 -0.015612794 -0.029835278 0.030557305 -0.03944568
0.026665803 0.07073613 -0.09430944 -0.1247767 0.10326027 -0.028902749 -0.07035285 -0.045313176
-0.13105787 -0.040012676 -0.045389682 -0.052735355 -0.0131350225 -0.00028399174 0.003070564 0.065645345
0.028774599 0.09462933 0.006930898 -0.07852299 0.019576821 -0.006078661 -0.06641113 -0.11598227
-0.04293226 -0.046401102 0.10987619 -0.07467462 -0.0029842884 0.05759115 0.11937934 0.010383493
-0.09500122 -0.010528867 -0.08533804 -0.0865906 0.11779179 -0.08622131 0.10786362 0.07780896
0.12334708 0.07249961 -0.0711255 0.07180041 -0.07303283 0.01672551 0.022629194 0.024569757
-0.10335433 -0.005455112 -0.06413326 0.07833616 -0.0026195666 0.07837013 -0.107729234 0.031417336
0.051511265 -0.13503762 -0.04808498 0.041388694 0.11609273 -0.0015829771 0.016454648 -0.05802685
0.018594667 -0.10089041 0.10024482 0.090586066 0.008040305 0.074829474 0.026270501 0.05533989
-0.11851322 0.08195208 0.065042704 0.0924469 0.03155535 0.061995964 -0.12884946 0.067732066
0.085834734 -0.023456646 0.032560658 0.034837954 0.009106375 0.07460049 0.11490172 -0.13068594
0.08548327 0.028990194 0.084865496 0.10327305 -0.07725368 -0.059044123 0.02842569 -0.10244451
0.0863879 -0.10952489 0.053335804 0.03296491 -0.04163039 0.024542011 0.013894407 0.102760755
0.018393429 -0.09226352 -0.10481206 -0.041303497 0.050832912 0.00787781 0.06894587 -0.08743396
-0.009238889 -0.055935245 0.07756738 -0.0043846727 0.06090667 -0.06398354 -0.06764339 -0.029017784
0.04724704 0.07202522 0.13732016 0.034367833 -0.07726252 -0.09073355 -0.08666424 -0.12635612

lstm.bias_ih_l1 f4 [256]
00000000: 5ca8 ae3d 41f2 b1ba 6402 a03d 0b5c 113e
00000010: a53c 123d 3842 e53d ee8c c3bc b214 b23c
00000020: 6584 cdbd fafe d13d 1000 88bd e096 84bb
00000030: 6ff7 ad3d abc7 ccbd e3d6 60bd 0af2 983d
00000040: 2fdd 21bd 8d2c 85bd 64e8 bf3d e1d5 3c3d
00000050: 61a2 663c 38d0 bc3c 1202 c73d e83e 6ebd
00000060: 8da9 a23c 1b66 70bd e5f6 e23d 829b 82bc
00000070: c21f 00bd 1d4b f63c d173 23bd 0482 aa3c
00000080: c87a cc3d 935d 393d dc91 233d 9dab 7cbd
00000090: e122 a33d 23a0 d6bd a205 46bc 6280 933b
000000a0: d50f e6bc 1fda 52bd 758f 083e dc5d 32bc
000000b0: 0c53 8d3d f940 453d debf 81bd 7b0d 863c
000000c0: b6bb 363d 1712 c5bc a677 8ebd a464 053e
000000d0: 8609 4dbd 1644 bd3d cb07 12bd 3c19 fb3d
000000e0: 539f eebc 6d3d 92bc 440a 9f3d 93bc 643d
000000f0: bfb1 9cbd 8204 083e 2663 e2bd 62d5 34bc
00000100: f382 b63d a478 dd3d 75fe c33d 5f76 cf3d
00000110: b25a 05bc c933 b73c e379 e03d 515d 663d
00000120: 4cab d93d 2cbd fa3d 595d 9f3d f63c cf3d
00000130: 9870 f2bd 7c25 e83d d25e 99bd 39b6 35bd
00000140: 6ea0 d43d bb49 fd3d b977 d83d 6c6c 97bd
00000150: 0789 973d 8355 473d 3e3f b9bb 3ae8 ed3c
00000160: 4d30 0b3d 1f8d 87bd 67ce cdbd 4c84 bc3d
00000170: 6635 113e a396 b23d 9941 013e 1bc0 8f3d
00000180: 4352 493c 1d5b 94bc 27f9 403d 532d 173d
00000190: e996 003e e7b6 b6bd 72ff d7bc 8a00 14bd
000001a0: 6d03 d23b b8a3 a9bd 199c 1c3c fb29 99bd
000001b0: a7d2 fd3d 9164 8c3b 0055 853d f6e3 013d
000001c0: 9003 083e 3479 c93d b0ae e63d 3a05 9dbd
000001d0: 3717 b53d c411 cb3c f193 00bd 0d91 adbd
000001e0: 9233 7ebd eac3 403d 7637 41bc 8952 90bc
000001f0: 5265 aabc 602d 08bb 1802 a3bc 2ffe d4bd
00000200: 1f73 44bb 7c3a 02be 5fe4 b53d 39d2 133d
00000210: affd da3d e602 35bd 1bab e1bc d76a 823d
00000220: 52a7 0a3d a5f5 153d 4c07 8abd 551d 8dbd
00000230: 6e5f d9bd c252 cf3d 3d8a 603a 3eb4 cfbd
00000240: 85b4 d5bd 99f4 fa3c 8823 9cbd c61c 3ebd
00000250: 0768 ab3d cabe 043d 146a f53d 291b 07be
00000260: 7683 9aba 0e88 5e3c 9f2e 413d 2043 6d3c
00000270: 9f01 b83c 7429 30bd eb6e dcbc 18aa 8b3d
00000280: bd1c cdbd de18 10bd 60f6 cfbd 4d96 d63d
00000290: 7539 c83d a197 c53d 8c66 14bd 3b22 62bd
000002a0: dcf1 1bbd 4db0 b53d a4c4 e5bd 9f0e cabd
000002b0: db13 e33d 68a8 313d 22d2 edbd 60b7 d83d
000002c0: 7a0e 04bd 4783 183d 861e ec3d f62c 003e
000002d0: 7044 64bd 6a5d d1bc b567 053e 38c8 7f3c
000002e0: b614 b33b 0e72 223c 2aa4 093e 8ce4 093e
000002f0: aa7d 6a3d 5afb b63d a5df edbd c9b8 59bd
00000300: 8e50 15bd 1eab afbd e750 b33d f2fa c2bd
00000310: cd15 593b 45dc 023e 0912 b83d 1547 653c
00000320: d820 b0bd 5e4a d63d 2025 0bbd d3ee d4bd
00000330: 759a 80bd 8b8a 28bb eeb9 b0bd 5404 a3bc
00000340: 77fc f4bb 1a8c ee3d d4dc d63d c667 823d
00000350: eacc d1bd b6f0 45bc 9433 37ba 642b b43c
00000360: 10b9 fdbd da7c 933d 7136 f1bb 3fa8 943d
00000370: 570b d8bc 1933 6f3d 7955 cf3c 6876 6f3d
00000380: bc1f 5cbd a3d5 e23b cc67 013e 717c 9c3d
00000390: 18d6 eebd 692a 913d 0315 bebd 4c90 003e
000003a0: 724b 963d 4bb3 8fbc 12b3 9abd 8abf 6bb9
000003b0: d219 ef3d 8891 dcbd 0858 643d d068 56bd
000003c0: aee7 c7bd 16cc 64bd 3372 ad3d bbe3 92bd
000003d0: b77d 28bd daf2 6abd 07dd 043b 2a70 3abd
000003e0: 161b ffbd 819c 953d 2744 74bd 8945 33bd
000003f0: 9e93 a83d 4f70 3c3d d914 febc ceb1 043c
0.08528206 -0.0013576226 0.07812956 0.14195268 0.035702366 0.11194271 -0.023870911 0.021738384
-0.10035018 0.10253711 -0.06640637 -0.004046306 0.0849446 -0.09999021 -0.054892432 0.0746804
-0.039517578 -0.06502638 0.09370497 0.04610241 0.0140768 0.023048505 0.09717192 -0.05816546
0.019856239 -0.058691125 0.11082248 -0.015943293 -0.031280287 0.030065114 -0.039905373 0.02081395
0.09984356 0.045255255 0.039934024 -0.0616871 0.07965637 -0.104797624 -0.012086304 0.0045013884
-0.028083721 -0.051477548 0.13335975 -0.010886636 0.069006056 0.048157666 -0.06335424 0.01636385
0.04461261 -0.024056477 -0.06956415 0.13026673 -0.05005791 0.09241502 -0.035651963 0.122606725
-0.029128706 -0.017851556 0.0776563 0.0558439 -0.0765109 0.1328297 -0.11054067 -0.011037203
0.08911695 0.10814026 0.09570018 0.10129999 -0.008139299 0.02236356 0.10960748 0.056241337
0.106283754 0.12243113 0.077814765 0.10119049 -0.11837882 0.113352746 -0.07488789 -0.044363234
0.10382162 0.123675786 0.1056971 -0.07393727 0.07399183 0.048665535 -0.005653291 0.029041398
0.03398161 -0.066187136 -0.10049134 0.09204921 0.14180526 0.08720138 0.1262268 0.07019063
0.012287679 -0.018109852 0.04711261 0.03690846 0.12557568 -0.089216046 -0.026366923 -0.036133327
0.0064091 -0.0828318 0.009558701 -0.0747871 0.12393694 0.0042844494 0.06510353 0.03171154
0.13282609 0.09837571 0.11263788 -0.076670125 0.088423185 0.024788745 -0.031391088 -0.08474932
-0.0620609 0.04706184 -0.011793008 -0.01761748 -0.020800266 -0.0020778999 -0.01989846 -0.10400044
-0.0029975844 -0.12717623 0.08881449 0.036089156 0.106929176 -0.044192217 -0.02754741 0.06368034
0.033850975 0.036611218 -0.06739673 -0.0689036 -0.10613905 0.10123207 0.0008565521 -0.101418
-0.10434822 0.030634211 -0.076239645 -0.04641416 0.08369451 0.032408513 0.119831234 -0.13193955
-0.0011788446 0.013582243 0.047163602 0.014481336 0.02246171 -0.043008283 -0.026908359 0.06819552
-0.10015247 -0.035179965 -0.10154414 0.10477886 0.09776584 0.096480615 -0.03623061 -0.055208426
-0.038072452 0.08871517 -0.11219147 -0.0986607 0.110877715 0.043373495 -0.11612345 0.10581851
-0.03224037 0.03723457 0.115292594 0.12517151 -0.05572933 -0.025557239 0.13027842 0.015611701
0.0054651154 0.009914888 0.1344153 0.1346609 0.05724875 0.0893466 -0.116149224 -0.05315474
-0.036453776 -0.0857756 0.08755665 -0.0952052 0.0033124567 0.12779339 0.08987815 0.013993998
-0.086000144 0.10463403 -0.033970952 -0.103971146 -0.0627946 -0.0025717344 -0.08629213 -0.019899525
-0.007476385 0.11647816 0.10491338 0.063674495 -0.102441624 -0.012081316 -0.0006988582 0.021993347
-0.123888135 0.07201548 -0.0073612262 0.07258653 -0.026372595 0.05839834 0.025309311 0.05846253
-0.0537412 0.00692244 0.12637252 0.07640923 -0.11661929 0.07088167 -0.092813514 0.12555045
0.07338609 -0.017541548 -0.07553686 -0.000224827 0.11674847 -0.107699454 0.055748016 -0.05234605
-0.09760986 -0.055858694 0.084690474 -0.071723424 -0.041135516 -0.057360508 0.0020273344 -0.045517124
-0.12456338 0.073052414 -0.059635308 -0.043767486 0.08231281 0.046005543 -0.0310158 0.008099033
