save_results/lstm_long_term_365d_run3.pt (torch, 312341 bytes, 10 tensors)

lstm.weight_ih_l0 f4 [256, 12]
00000000: 52ee 9cbd 08fe 0b3b cac6 bd3d e2ff d5bd
00000010: 17f9 88bc 54fd 153d 43b0 1ebd 85de c2bd
00000020: 5f82 993d 809e 65bd 9564 2b3d 5651 31bd
00000030: 5560 c0bb d5f0 71bd b323 b73c f2e0 a1bd
00000040: 8892 32bc 2e82 1b3d f6c7 5b3d 6cc6 de3d
00000050: 73ac 973b 87f1 a9bd a575 23bb 1cbc 8c3d
00000060: b96d 233d 017b 023c 1c4a 22bd 7457 c6bd
00000070: 18a8 923c 660f a3bd c2a7 b6bc 18bd 9fbd
00000080: 0a95 b43d 623e d2bd 19d7 3abd fc91 053e
00000090: a1b3 cdbd f041 cbbd 0fde f43d 592c 6f3d
000000a0: c4ce f8bd d55c 403c bce1 cf3d 5afd b1bc
000000b0: f870 bcbc ffe7 98bd 8a2e d93d 62ab ae3d
000000c0: 93db 333a 3a61 e8bd 81bb ffbc afc0 f73d
000000d0: 1e42 193d 3907 31bd 82f0 ecbb 9770 d6bd
000000e0: 573d 63bd 34fd f5bd a5a3 aebd 9d94 c1bc
000000f0: 358c 2e3d 47ac c53d da4f 083d 1fb9 abbc
00000100: 58cd 903d d533 a2bd 935a 4f3c 733e a93d
00000110: 5b72 f2bc 5919 cbbd 5575 413c abaf 4e3d
00000120: 3d6f 893c abc8 ddbc 32e0 b53d 1481 e0bd
00000130: eca0 9e3d 9b3a 57bc 6e5a 863d b171 22bc
00000140: 4afb d13d 61f1 993c caf4 013e d0f2 223d
00000150: 57be 58bc 50b8 0e3d e0d2 353c f740 353c
00000160: d15c 50bd f8b9 5dbd f2a4 3bbc ac2e 9bbc
00000170: ce64 003d 2b27 30bd f5f0 5d3d 119e 503d
00000180: a3ce 713b d21d 17bd 7f97 db3c 8485 dcbd
00000190: 98fa b2bb f517 2c3d d2d4 223d 9291 ff3c
000001a0: 0dc4 93bd f6b9 4bba a7e1 893d 21e4 223d
000001b0: b33b 74bb 17af 8ebd c9af f03d 5115 6e3d
000001c0: 3596 283d 4a9d f7ba de5b 8f3d b9e1 32bd
000001d0: dbb4 0ebe 934d 4e3d af94 14bd 6b8d adbd
000001e0: 142d 7f3d 3d58 4bbd 4f2f 923d c5b2 b5bd
000001f0: e0fb 3cbd 1cce bf3c cf80 5f3d 6791 063d
00000200: ec23 6abd 0851 afbc 21b4 b63d 7bf6 30bc
00000210: c9fe f4bc cd41 b13d fd4c 1dbc f5d9 bb3d
00000220: 954e 8a3d 56f0 f13c 89ba c43d d537 ef3b
00000230: ad84 17bd f31b d4bd 6eea cabd 44c8 d13d
00000240: 9422 803d 49ef 0a3e 7059 e83c 2668 70bc
00000250: 3fea 093e 5670 09bb 554e cb3d 0661 9d3d
00000260: 70a8 bfbd 1b05 9a3d 1333 703d 89ae bebd
00000270: 090a a2bd b5c6 bc3b ac10 a23d 71ce 903c
00000280: 2d8a a1bd bc40 43bd 73de 9cbc 2067 993d
00000290: 4591 adbd 6a98 983c 0240 67bd bede 5dbd
000002a0: 0471 343d 74cd e13d 0db0 013d 3143 bd3d
000002b0: 5620 9c3d 3a1e 9ebd 403f 4a3d a9b9 c63d
000002c0: 3550 e0bc 97f4 843d bd96 273b fd43 003e
000002d0: 6f76 24bd 3929 cf3d f5c1 d9bc 960c d6bc
000002e0: 51e5 833d 4dba bd3d 61e8 d83d 3880 ff3d
000002f0: 212f 2b3d 57e3 40bd ef4d 0b3c 23d9 0c3d
00000300: deab c7bd b3c1 acbd 8082 c13c eed7 913d
00000310: c652 583d 080f 07bd 99b1 2f3d b856 bcbd
00000320: fede e73d 51b7 103d 91a1 22bb c134 b53d
00000330: 15a2 bb3c 8ebd ec3a c241 b03c 0d67 083d
00000340: dd4f 8e3d 43c9 ce3d 45df a2bd 72b6 de3d
00000350: 2a0d 553d d238 a2bd a6e4 c4bd 7760 e73d
00000360: 1853 f43c d221 3dbd c5ef f1bd 6346 c93d
00000370: 879d 08bd b8f4 f13d 34ae f2bd 988a 4bbd
00000380: e53d 79bd 0702 963b 3686 c03c 33ac c03d
00000390: b32e 4f3d c638 f8bd 96e5 d0bd 9823 a0bd
000003a0: 9b8e cfbd c0fb afbd e3a4 eebc bb49 473d
000003b0: 508d 9dbc 053c 89bd 28d6 e5bd 1c55 333d
000003c0: 56e1 813d 4ff3 853d 63e8 953d fc02 cc3c
000003d0: 3757 f03d be29 cf3c 0cb9 1dbb 1ef1 71bd
000003e0: 416a 88bd d819 ebbd decb 863d ddf9 90bd
000003f0: b120 c4bd b051 e1bd 4ba6 9f3d 6466 30bd
-0.076626435 0.0021361131 0.09266432 -0.104491964 -0.016720338 0.036618546 -0.038742315 -0.095150985
0.074955694 -0.05605936 0.04184397 -0.04329046 -0.0058708587 -0.059067566 0.02235589 -0.07904233
-0.010899194 0.037965946 0.053657494 0.1087769 0.004628712 -0.08298021 -0.0024941948 0.068718165
0.03989956 0.007963897 -0.039621457 -0.09684649 0.017902419 -0.079619214 -0.02229679 -0.07799739
0.088174894 -0.10265805 -0.04561529 0.1304397 -0.10044027 -0.09924686 0.11956417 0.058391903
-0.121488124 0.011740883 0.10150477 -0.021727253 -0.023003086 -0.07466125 0.1060458 0.085287824
0.0006861027 -0.113466695 -0.031217339 0.12097298 0.03741657 -0.04321978 -0.007230819 -0.104706936
-0.05547842 -0.12011185 -0.085273065 -0.023630435 0.04261418 0.09652 0.033279277 -0.020962296
0.07070416 -0.079200424 0.012655872 0.08263864 -0.029595545 -0.09916944 0.011807759 0.0504605
0.016776675 -0.027073225 0.088806525 -0.1096212 0.07745537 -0.013136531 0.06560217 -0.009914801
0.10253008 0.018791856 0.12691036 0.039782345 -0.013228974 0.034843743 0.01109764 0.011062852
-0.050869767 -0.05413243 -0.0114529 -0.018943153 0.031346135 -0.043006103 0.054184873 0.050931994
0.0036896847 -0.036893673 0.026805637 -0.107676536 -0.005462002 0.042015035 0.039753743 0.031197343
-0.07215128 -0.0007771546 0.06732493 0.039768342 -0.0037267029 -0.069669895 0.11752278 0.058125798
0.041158874 -0.001889148 0.06999944 -0.043672297 -0.13936178 0.05036695 -0.03627461 -0.08474239
0.06229885 -0.049644697 0.0713793 -0.08871988 -0.046138644 0.02341371 0.0545662 0.03285351
-0.057163164 -0.021400943 0.089210756 -0.010800953 -0.029906647 0.08655129 -0.009600875 0.091724314
0.067532696 0.029533546 0.09605891 0.007300357 -0.036991764 -0.103568934 -0.09907995 0.10243276
0.06256595 0.13567843 0.02836296 -0.014673268 0.13468264 -0.0020971498 0.0992705 0.076845214
-0.09358299 0.07520505 0.05864246 -0.09310634 -0.0791207 0.0057609924 0.07913336 0.017676564
-0.07887683 -0.047669157 -0.01914904 0.07490373 -0.084749736 0.018627364 -0.056457527 -0.0541675
0.044053093 0.11025515 0.031662036 0.09241331 0.07623355 -0.07720609 0.049376726 0.097033806
-0.027381996 0.06491964 0.0025572025 0.12525935 -0.04015201 0.101152845 -0.026581744 -0.026129048
0.06440223 0.0926405 0.10591198 0.12475628 0.041792993 -0.04709181 0.008502468 0.034386765
-0.09749578 -0.08435383 0.023621798 0.071212634 0.052813314 -0.03297332 0.04289398 -0.09196228
0.11321829 0.035331074 -0.002481554 0.08847953 0.022904435 0.0018061863 0.02151573 0.033301402
0.069488265 0.100969814 -0.079527415 0.108746424 0.052014507 -0.07920994 -0.09613924 0.11297696
0.029824778 -0.04617483 -0.118133105 0.09827878 -0.033353355 0.118142545 -0.11849633 -0.04969272
-0.060850043 0.0045778784 0.023501497 0.094078444 0.050581645 -0.12120204 -0.1020004 -0.07819289
-0.10134622 -0.085929394 -0.029131358 0.0486543 -0.019232422 -0.06700901 -0.11222488 0.04378234
0.063418075 0.06540548 0.07319715 0.024903767 0.11735385 0.025288459 -0.0024066595 -0.059067838
-0.06660891 -0.11479539 0.06581853 -0.07078908 -0.09576548 -0.11001909 0.0779539 -0.043066397

lstm.weight_hh_l0 f4 [256, 64]
00000000: c96b d9bd dc5f 793d 285e 92bd 62a7 803d
00000010: cffc cc3c e1db acbd 15d9 9abd d534 233d
00000020: 1dca c83d d241 cdbd e770 96bc c4e2 20bd
00000030: ebc6 b03d b6cc e1bd 7525 abbd 7633 a2bd
00000040: 5207 963d 31c0 91bd c318 4abc b692 1fbd
00000050: 6deb babd 114c f3bd 3049 60bc 13c5 c4bd
00000060: 9a33 07be ab56 a7bd 8d5e e3bd 6850 34bd
00000070: 7ad8 963c e7ce 583d bfe4 863d 2bba 00be
00000080: 9950 fabc be21 9fbd 5286 06bc fb3d 16bd
00000090: 69c4 a3bd e3cb 04be 71e2 493d 7a16 203d
000000a0: 974d 733c 89a1 b63d 87be 90bd c9b9 de3d
000000b0: 7c40 1abd c5a9 dbbd 7cf0 44bd 3925 a0bd
000000c0: 5fb0 a3bd 8370 71bd 3342 023e fa65 debd
000000d0: 4e8c 00be e615 bfbd ee8a 37bd 4fc0 7abd
000000e0: edf7 b63d c4c0 103d caf3 bfbc 186a 8abd
000000f0: 3b25 d13d e47b b53c 78b1 93bc 2703 203c
00000100: 4231 e6bc df34 ccbd 282c 563d ff77 b8bd
00000110: aac9 873d 64fc b53d 8148 ad3d 6041 e23d
00000120: b5f7 413c a2e9 8cbd c9c8 bdbd 3961 3bbd
00000130: 6dc5 fdbc e9df 1b3d 2e08 99bd 5ee9 7f3d
00000140: 8ca7 8bbd 0ec2 e7bd d059 f53c 1b45 e53d
00000150: 4994 43bd feff c4bd 41bc 2d3c 69aa 87bd
00000160: 2d97 18be 1d36 b4bd 6ad1 c73d 5d79 f5bb
00000170: 0abf 383d 8a4b f5bc b10f 2abd 6b2c 19bd
00000180: 7a98 d9bb fe6d f7bd a517 d3bd eb53 d1bd
00000190: a248 8dbd 86db 81bb bc93 7d3c 9022 ed3d
000001a0: 3b49 6cbd 5dd6 5238 a02b b6bd 1044 b13c
000001b0: 017e d23b fb7a 33bd 0594 33bd e627 953d
000001c0: c982 4e3c 117a 003e dd2f 003e fa06 363d
000001d0: 5623 a13d b882 143d aa1e a43c 0406 88bd
000001e0: 7864 e83d 4c08 90bd 8e55 eebd 2d5c 9abd
000001f0: b0c9 7b3d 777b 95bc 0f1a 8dbc cf99 b9bc
00000200: 00c1 063e f342 cabd cdb4 f93d f722 edbc
00000210: 942b 1f3d 6845 06be afa5 4c3d 6d45 40bd
00000220: 6346 3e3d ad5b 0a3e a6fc d8bd 176e d4bd
00000230: 6a3a 123e 7fa6 c83d 38f7 3fba 9ab8 d03c
00000240: ecc1 82bd acbb 91bd 9d48 083e 000c 723d
00000250: 75eb d0bd 901d 833b 0413 e53b 3fb9 37bd
00000260: 65a4 50bd 2768 fabb 9741 4cbd f0f1 3fbd
00000270: 1d75 5d3d 58ef f73d 4800 c73d 7bb5 f03c
00000280: 8231 ffbc 6c04 91bd 3e2a 05bc a7cb 90bb
00000290: 6e55 523d 7b51 cfbd fc88 363d 3de6 31bd
000002a0: 3ec2 a23d 74ee 8c3d 6ae5 cb3d cb1f 60bd
000002b0: fb46 ff3c cf33 46bd 67d2 debc e229 aebb
000002c0: 4372 023d 587d 1c3e a69f d5bd a586 093e
000002d0: 383a fabd 2ccc a33c a69e 123c f642 07be
000002e0: 1fd4 433d b425 a9bd 0262 68bd 0156 bcbd
000002f0: baba 143d 3c9a 593d d84e 5e3d c4ef 6f3d
00000300: 99b8 98bd aa14 633c 11f3 c23d 76a2 9b3c
00000310: 7da2 49bd 391a 56bd 51a4 ad3d fb0d 28bd
00000320: 36b5 aebd 5176 5fbd 351e 52bc 72d7 263d
00000330: 82ac 7d3a fea7 dfbd 3a3e 1ebd 4dfe 053e
00000340: b9e2 263d 3cbf a2bd 7c62 803d a280 d93d
00000350: f450 ba3d 5aa7 983d ed01 d13d 5a88 b63d
00000360: 7be6 2bbd 6333 003e 0d8d c3bd 4dd8 ea3c
00000370: d55e 353d 2e5e f83d 50f8 473c 3bda d2bd
00000380: ff1d 8e3c 2497 9cbd 5cc8 adbd 5fc7 08bc
00000390: 9b70 db3d 53ff 36bd 41d1 783d 8883 4cbc
000003a0: c5b1 07bc 70de 28bb 2f18 90bc c858 dfbd
000003b0: 8eb3 123d 2478 873d 835c d3bd 27f2 d1bd
000003c0: 09e4 d83d 1a04 ac3d 5f5b a4bb 39d3 043e
000003d0: 2b6f bcbd ec88 e4bd 9a9c bfbd 3a5e 903d
000003e0: e59c 473d b885 ff3c 8464 cdbd a9b0 993d
000003f0: 9408 db3c 5912 31bd 8a03 bebd f84b f53c
-0.106162615 0.060882434 -0.07146865 0.06281926 0.025022892 -0.08440376 -0.07560936 0.039845306
0.09804175 -0.1002232 -0.018364383 -0.03927876 0.086316906 -0.11025374 -0.08356754 -0.07919972
0.07325615 -0.07116736 -0.012335005 -0.038958274 -0.09126935 -0.11879743 -0.013689324 -0.096079014
-0.13203278 -0.081708275 -0.111020185 -0.044021994 0.018413771 0.052931692 0.065865986 -0.12571017
-0.03055601 -0.07770108 -0.008210735 -0.036680203 -0.07996447 -0.12968402 0.049288217 0.039083935
0.014850042 0.08917529 -0.0706759 0.108752795 -0.037659153 -0.1072574 -0.048080906 -0.078196
-0.079926245 -0.05894519 0.12720565 -0.10859294 -0.12553522 -0.09330349 -0.044810228 -0.061218556
0.08934007 0.035340086 -0.023431677 -0.06758517 0.10212179 0.022153802 -0.01802896 0.009766377
-0.02809966 -0.09971022 0.052288204 -0.090072624 0.06630261 0.0888603 0.08461095 0.110476255
0.011838843 -0.068804994 -0.09266812 -0.045747016 -0.030977929 0.038055334 -0.07472263 0.062478416
-0.068190664 -0.1131631 0.029950052 0.111948214 -0.047748838 -0.09619139 0.010603965 -0.066243
-0.14901419 -0.08799384 0.097567394 -0.0074912743 0.045104064 -0.029943246 -0.04151887 -0.037395876
-0.006640491 -0.12081526 -0.10307244 -0.10221084 -0.06898619 -0.003962937 0.015477117 0.11578858
-0.057687026 5.0267543e-05 -0.088950396 0.0216389 0.0064237122 -0.043818455 -0.043842334 0.07283001
0.012604424 0.12546565 0.12518258 0.044440247 0.07868068 0.036257476 0.020034153 -0.066417724
0.11347288 -0.070328325 -0.11637412 -0.075371124 0.06147164 -0.01824735 -0.01722434 -0.02265635
0.13159561 -0.09876051 0.12192688 -0.028947337 0.03885992 -0.13112414 0.049962696 -0.04694121
0.046453845 0.13511534 -0.10595064 -0.103725605 0.14280096 0.097973816 -0.000732291 0.02547865
-0.06384644 -0.07115874 0.1330895 0.059093475 -0.1020116 0.004001327 0.006990792 -0.0448544
-0.05093803 -0.0076418105 -0.04986724 -0.04686159 0.054066766 0.12106198 0.097168505 0.029383412
-0.031151537 -0.070809215 -0.008127747 -0.0044188085 0.051351003 -0.10122963 0.044564232 -0.043432463
0.07947205 0.06881419 0.09955867 -0.05471782 0.031161776 -0.048389252 -0.027199937 -0.0053150514
0.03184725 0.1528219 -0.10430841 0.13430269 -0.122181356 0.019994818 0.008948958 -0.13209137
0.047809716 -0.082591444 -0.056734093 -0.091960914 0.03631089 0.053125605 0.05427441 0.058578268
-0.07457084 0.013859907 0.095190175 0.018998366 -0.049227227 -0.0522711 0.084786065 -0.041028958
-0.08530657 -0.054556195 -0.012824585 0.04073281 0.000967689 -0.10920714 -0.038633563 0.1308529
0.040743563 -0.07946631 0.062687844 0.10620238 0.09097472 0.07453795 0.102054454 0.08912726
-0.04196785 0.12519602 -0.09548388 0.028667593 0.044279892 0.12127338 0.012205198 -0.102955304
0.017348288 -0.07646015 -0.08485481 -0.008348315 0.10714837 -0.04467709 0.060746435 -0.012482531
-0.00828213 -0.0025767349 -0.017589657 -0.109056056 0.035815768 0.06614712 -0.103203796 -0.10251265
0.10590369 0.0839922 -0.005015775 0.129712 -0.09200891 -0.11158928 -0.09356041 0.07049222
0.04873361 0.031191692 -0.100289375 0.075043984 0.026737489 -0.04323039 -0.09278019 0.029943451

lstm.bias_ih_l0 f4 [256]
00000000: d7cb a5bd dfe0 bf3d fe99 80bd ec33 05bb
00000010: 82a5 0b3e 3800 7fbd e132 debd 79ed e5bd
00000020: d628 cdbd 205c a43d 331c ad3d fbf1 cc3b
00000030: 4d26 c63d 2d62 7cbc d4be 51bb 04db 3a3e
00000040: a02b 3fbc 490d 473d 6a15 a23d d96c 6a3d
00000050: 7a0c ff3d 902f 693d 6591 353d f5d8 133c
00000060: 567c f63d f7af 34bc 1f4d 5bbc dda2 3dbd
00000070: 2781 6a3d ed2b 043e 59ef b63c 4cd5 003d
00000080: 2fa4 423d 5b3b 71bc 2103 a03d 5c05 103d
00000090: c7b6 613d 4643 9d3d 2079 aebd c09e 863c
000000a0: 3c7e 093d 2b41 df3c 8956 f23d 9586 7cbb
000000b0: 5dc9 173d 5185 c23d c705 06bd 7af6 543d
000000c0: 9753 d93c 0c46 283e 57cb 6b3b 67c8 cebd
000000d0: a61c 0dbd 4d5c aebd 6837 80bc 2731 a5bc
000000e0: b24b b6bd 1e29 bfbd e869 ca3d 3e45 a13d
000000f0: e891 b3bd 31a0 043e e16f 4a3d 530f e8bb
00000100: 93a8 e33d d599 8c3a db4d 4b3d 55fc 343d
00000110: 44de 103d 1416 53bd 203c df3d e199 ca3c
00000120: d029 cc3d ba0a b1bc ac94 c7bd a16f 83bd
00000130: 5d6b 5a3d 4131 893d 9255 c9bb df1f 89bc
00000140: cc07 cd3d bf65 443d c48d c23d 10f0 bc3d
00000150: d9c3 68bd b03a 96bd fc3d 003e c011 8d3d
00000160: 03a4 2c3c addb 4c3d 61c5 67bd 417e c6bd
00000170: 23be e03c 600e 8ebd b37f 05bd b2b4 9f3d
00000180: 9550 663d 28b4 bcbd 302c 4c3c 8330 a63d
00000190: 131a 82bd 1ca5 0ebd f678 1839 b24f 8d3d
000001a0: 2f4c d0bd e102 053e 0b1d b93d d3a5 973d
000001b0: aa44 363d 4da6 21bd f2de 4b3b 650b d93d
000001c0: 197c df3d 7503 233e fd47 19bc 7b57 80bd
000001d0: d4f1 663d e193 093d 2291 3fbd 508d 1a3c
000001e0: e861 923c 974d f63d 07a4 54bd b178 da3c
000001f0: 500f ccbd bee7 953d aa82 68bd 964d d73d
00000200: 4e69 473d 16fc 0a3d cf77 273d 1299 cd3d
00000210: 9d78 e4bd b66d c0bd 495a c93d 8704 b93d
00000220: 9410 fd3d e2a0 ec3d 8157 4d3c 3d5c 37bd
00000230: 089e 813d 516b f63c da22 2dbd 6457 b13d
00000240: 0786 133d 7651 a1bb ed6f ff3d f7e7 643d
00000250: f749 083e a945 c7bc cbdc a7bc cd29 0bbe
00000260: 53d3 5dbd 8961 e63d f1b1 803b 8f05 babd
00000270: 21b8 70bd a57d 0d3e fddd d4bd e026 03be
00000280: 0ecd 403d a0d9 e2bd 42bb 523d 2c04 b8bd
00000290: 16c0 cebd 1266 aebd 1a56 d8bc 4bd1 85bc
000002a0: 1fc1 e23c 7410 003e b5c6 25bd 62ef cfbc
000002b0: 1843 82bd a61f eebc 2d39 aebd 9f67 c0bc
000002c0: d6d6 29bd ecda a53d 0a6a 063e 1cf5 d33d
000002d0: a735 b43c 40b5 f7bd a08f f0bd fe90 08bd
000002e0: f30e b23c 3364 5ebd b0fe fe3d 1425 c4bd
000002f0: e9ae a3bd e4ff 9ebd 0347 cc3d f62b 76bc
00000300: 136e 873d 6376 d83d 6d57 e93d a693 e63d
00000310: 93d6 42bd 82f7 523d 3c3f 0d3e f6b1 833d
00000320: 2eaf 9c3d 47d1 063d 29d5 cebd 95ed a73d
00000330: 5dce 41bd 2d67 90bd 3cd0 353d deac 983d
00000340: f04a 983c ee0d e3bd b5a1 9c3d 9521 fdbc
00000350: 3d86 fabc 4860 fbbb d60f abbc 7ddd 34bd
00000360: 349f 0b3c 924c a7bc 18fc 9dbd eab1 d7bc
00000370: b0e9 dd3d f75e 95bc a89c 99bd 1a4f 3cbd
00000380: 9bb5 303d fef3 a53d d5bf 02bc cd1c 9b3d
00000390: db6c a03d af58 053e 6d31 f33d 148f 823d
000003a0: effa ed3c 0fc3 c43b 4168 65bd 7b97 b73d
000003b0: 38af 9ebb d8ef e23d 025c e6bd a8d6 62bd
000003c0: dcfa e2bd 7fd2 14bd 92d1 f03d f99b 993b
000003d0: 453a b7bd ca32 14bb 3cb1 d6bd ee1c 99bd
000003e0: 3753 013e b8b3 973c 3a3a 4a3d c7ef 7cbc
000003f0: 8127 3fbd 9680 c63d 41b2 003e cb18 d83d
-0.0809552 0.09369063 -0.06279372 -0.0020325137 0.13637355 -0.062256068 -0.10849548 -0.11226935
-0.100175545 0.08025384 0.08452644 0.0062544323 0.09675274 -0.015404266 -0.0032004612 0.1824761
-0.011668116 0.048596654 0.07914241 0.05723271 0.124535516 0.056930125 0.044328112 0.009023895
0.12035434 -0.011028281 -0.013385086 -0.046297897 0.057252076 0.12907381 0.022330927 0.031453416
0.04751986 -0.014723624 0.07813097 0.03516136 0.05510595 0.07678847 -0.085191965 0.01643312
0.033567652 0.027252754 0.118329115 -0.0038532366 0.03705727 0.09498084 -0.032720353 0.05199287
0.026529117 0.16432971 0.0035979354 -0.100968175 -0.03445115 -0.08513699 -0.01565142 -0.02016504
-0.089011565 -0.09334014 0.09883481 0.07874535 -0.08768064 0.12951733 0.049423102 -0.007081905
0.11116137 0.0010726998 0.049634796 0.044185955 0.03536822 -0.051534727 0.1090014 0.024731578
0.099689126 -0.02161156 -0.09745154 -0.06417776 0.053325046 0.066988476 -0.006144234 -0.01673883
0.10011253 0.047948595 0.09499696 0.09225476 -0.0568274 -0.073354125 0.12523645 0.06888151
0.01053715 0.050014187 -0.05658472 -0.0969205 0.027434414 -0.069363356 -0.032592487 0.07798137
0.056229193 -0.092140496 0.012461707 0.081147216 -0.063526295 -0.03482543 0.00014540911 0.06899966
-0.10170781 0.1298938 0.09038743 0.07404675 0.044499077 -0.039465237 0.0031108228 0.105978765
0.109123416 0.15919288 -0.009355542 -0.062666856 0.05638297 0.033588294 -0.04676927 0.009433106
0.017868951 0.12026518 -0.05191424 0.026668878 -0.09963858 0.07319592 -0.056765236 0.10512845
0.04868441 0.033931814 0.040885743 0.100389615 -0.11155818 -0.09395926 0.09831674 0.09034067
0.12356678 0.115541235 0.01253307 -0.0447657 0.0632897 0.03008047 -0.042269565 0.086592466
0.03601649 -0.004923041 0.1247252 0.05588528 0.13309465 -0.024325209 -0.020491024 -0.13590164
-0.054156613 0.11249072 0.0039274623 -0.090830915 -0.05876935 0.13817461 -0.103939034 -0.12807798
0.047070555 -0.11076665 0.051448114 -0.08985171 -0.10095231 -0.08515562 -0.026408244 -0.01633515
0.027679978 0.12506276 -0.040472705 -0.025382701 -0.06360453 -0.029067826 -0.08506999 -0.02348691
-0.04146465 0.08098397 0.13126388 0.10349485 0.02199824 -0.120951176 -0.11746144 -0.0333414
0.021735644 -0.054294776 0.124509215 -0.095773846 -0.07992346 -0.07763651 0.09974482 -0.01502513
0.06612792 0.105694555 0.11393628 0.112586305 -0.047567915 0.051505573 0.13793653 0.06430428
0.076506004 0.032914426 -0.10099251 0.08199612 -0.047315944 -0.07050929 0.04438804 0.07454847
0.01859042 -0.11086641 0.07648031 -0.030899802 -0.030581588 -0.0076713897 -0.020881575 -0.04415654
0.008521844 -0.020422254 -0.07714099 -0.026329953 0.10835588 -0.01823376 -0.07500583 -0.045973875
0.043141942 0.081031784 -0.007980307 0.07573853 0.078332625 0.13022111 0.118746616 0.06374946
0.029050319 0.006004698 -0.056007627 0.089644395 -0.004842665 0.11080903 -0.11248018 -0.055380493
-0.11083004 -0.036333557 0.11758722 0.004687783 -0.08946661 -0.002261328 -0.104830235 -0.07476221
0.126294 0.018518314 0.049371935 -0.015438027 -0.046668533 0.096924946 0.12567998 0.10551604

lstm.bias_hh_l0 f4 [256]
00000000: 9d04 23bb 0b4c b43d 013c 99bd 8258 8dbd
00000010: 2771 87bd 2028 643d 0af1 2abd 4248 0dbd
00000020: 0efa 493d de53 4ebd d3dd cdbc 945a 87bd
00000030: c60c 41bd 686a fb3d a821 24bd c7ec 5c3d
00000040: fdd9 b33c 2933 febc dcb4 3abd e89d a6bd
00000050: 2ae8 16bd 780c 263d b736 1f3c d67b d5bd
00000060: a665 54bd 31ec a83d 537f 8ebd 8f47 cbbd
00000070: 3c83 2ebc 12c1 f0b9 e78b 77bd 2fe5 fb3d
00000080: 21dc 41bd df40 1abd 39f5 cf3d 2169 d83c
00000090: 1210 633b 32a1 da3d 8791 673d 2c7a e43c
000000a0: c51d a53d ce28 bebd bf56 7a3d 20da a03c
000000b0: 3108 debd 2b7d 68bd eaaf e3bd 8653 d6bd
000000c0: f3e5 8d3c 038d 323d 409b e63d 289b 523c
000000d0: 04c6 c4bd 3faa bdbd ab6d 603d a2da 853d
000000e0: 8212 dc3c a0b3 9e3d c3af 673a c29a 2e3c
000000f0: 9983 913d 41da 923d ad33 d1bd 6c96 fc3c
00000100: 4d99 6a3d 6e99 903b e41b fbba 9d0b d83d
00000110: ad4f d33d 47ac f93d 5a77 13bd 9d20 ba3d
00000120: 20aa 8abd 6074 8f3d 0c6a b53d 117d dfbd
00000130: 33a5 1a3e cb0c 79bd 6930 dfbd 45d8 ca3d
00000140: f229 bfbd af41 233d 0d78 ccbc a5a2 313d
00000150: 3234 fb3d 6050 be3d 3615 2c3c 0cdc 8abd
00000160: 775a 52bc 0974 053e 42be c73d 306c 6bbd
00000170: 7554 0f3e 9ade c43d 877a f23d 76a5 9a3d
00000180: 39a2 6cbd 699a 79bd 49e7 e13c 60ce 3fbd
00000190: eb13 433d 9459 3e3d e316 90bd 992c 773c
000001a0: 7532 c43d e2c4 7a3d ffd6 64bd b15a 763d
000001b0: 301a c43c 6265 bd3d c6a3 3d3d b6c3 8c3d
000001c0: 78a2 a53c e1ab 0b3e f68a f4bc ad5d f9bd
000001d0: bf19 acbd 36a7 043e ec35 c93d 2431 cbbd
000001e0: 9702 16bd 5fa1 82bd a6e9 dc3d b3ec 34bd
000001f0: 4f16 863d 2766 7e3d 97c3 1e3d 8be5 aabc
00000200: a2e5 b73d 228a 183d 8d1e af3d 4ded 8fbc
00000210: e1be afbd cc31 a6bd 5f8f bb3d 177b 93bd
00000220: f4bb 90bd 9012 3bbc 1950 f5bc 48eb 893c
00000230: b3bc d33d cfa6 c03d b7e6 82bd 2e19 9d3d
00000240: 922b 74bd 4c91 ba3d a9f4 5fbd 4ad9 483d
00000250: fac9 cf3c 5e61 403d fff1 7ebd cffd a9bd
00000260: 70a2 fe3c 59bf 3abc 1a2d 043c a440 39bd
00000270: fcd6 02be bd45 e73d bb0d 05be 3a2f 7abd
00000280: 8580 813d 84a9 aa3a 0bd7 c83d 9ccf 0c3e
00000290: a611 a3bd 5596 69bd dc41 f1bb 0691 d4bd
000002a0: 5965 b83d 2321 253b abfb 583d f7d5 bc3d
000002b0: 0147 afbd 72ba a13a 5f59 cfbd 41f8 0c3e
000002c0: bebf 8c3c b2ea 91bd 4b69 ecbc 72a7 15bd
000002d0: 54a3 a9bd 9cfa 43bd 732b 8ebc 34cf d5bd
000002e0: d48d 893d 0aa5 b2bc 9a3c a8bd e1ce dcbb
000002f0: b35a 68bd 5f90 b43c 6ca9 c93c a905 48bd
00000300: 621f a73d 3dff ebbd a160 f63d 060a b23d
00000310: 3a8e 80bd 1cc4 c43c 0145 f83d 5cc8 b03d
00000320: ca53 6e3d c728 9b3d b9de da3c 4d70 c03d
00000330: 6d9c b13d 615a 10bd 50d1 2dbd b9a3 003e
00000340: 8eda ca3c 5087 43bc 2a47 093e 63fe 473c
00000350: 4aac b23d e95d 3a3c a698 15bd d334 f33d
00000360: eed6 053d e87d b23c 5080 f13b cc85 f83d
00000370: ef68 e5bb 01f8 983d 6b4c 0a3e e846 0e3d
00000380: 8414 65bd 74c7 393d 3613 e0bd a4fc 083e
00000390: 2d25 d1bd 1f4d e83d a7e4 aa3d e32f ca3d
000003a0: b34e 96bd 9fea ccbd 850d 9fbd 30ea e73c
000003b0: 903f 5dbd d805 c1bd 0983 ccbc 7cfe 40bd
000003c0: 515b 18bd dcfa 1c3e 38e3 8e3c d170 74bd
000003d0: b72f f3bd 5628 013b 6697 28bd d033 703d
000003e0: cc0a ec3c 93a2 74bd 9e59 c53d 8280 dc3d
000003f0: 6a32 8f3c 142b d13d e018 9dbd d191 9d3d
-0.0024874576 0.088035665 -0.07482148 -0.06901647 -0.06613379 0.05570233 -0.04173378 -0.03449274
0.049310736 -0.05037295 -0.025130188 -0.06609073 -0.047131322 0.12276155 -0.04007116 0.053936746
0.02195453 -0.031030254 -0.045582637 -0.08135587 -0.036842503 0.040539235 0.009717635 -0.104240105
-0.051854752 0.08248175 -0.06957879 -0.09925758 -0.010651406 -0.00045920216 -0.060436156 0.12299573
-0.047329072 -0.037659522 0.101541944 0.026417317 0.003464703 0.10675277 0.05653527 0.027890287
0.08062319 -0.092851266 0.061117884 0.01963526 -0.10841406 -0.056759994 -0.11117537 -0.104651496
0.017321562 0.04359151 0.1126008 0.012854375 -0.09608081 -0.092609875 0.054792088 0.065358415
0.026864294 0.077491045 0.0008838141 0.010657014 0.071051784 0.07170535 -0.102149345 0.030833445
0.057275105 0.0044128215 -0.0019158092 0.1054909 0.10317931 0.121910624 -0.036002494 0.09088252
-0.0677073 0.07004619 0.088581175 -0.109125264 0.15102081 -0.060803216 -0.108979054 0.099045314
-0.09334172 0.039857563 -0.024959588 0.043368 0.12265815 0.09292674 0.010503104 -0.06780252
-0.012838951 0.13032545 0.09753086 -0.057476223 0.13997062 0.096127704 0.118397765 0.075510904
-0.057771895 -0.060938273 0.027576106 -0.046827674 0.047626417 0.046472147 -0.07035615 0.0150863165
0.095799364 0.06122292 -0.0558691 0.060145084 0.023938268 0.09247853 0.046298765 0.068732664
0.020219073 0.13639785 -0.029851418 -0.1217607 -0.08403348 0.12954411 0.09824738 -0.09921482
-0.036623564 -0.06378435 0.107867524 -0.044171046 0.06547224 0.06210914 0.038760748 -0.020861408
0.08979346 0.03724111 0.08550749 -0.017569209 -0.08581329 -0.08114967 0.09158205 -0.07201212
-0.07067099 -0.011418 -0.02994542 0.016835824 0.10338726 0.09406816 -0.063916616 0.07670818
-0.059611864 0.091097444 -0.054676685 0.049035348 0.025364865 0.046967857 -0.062242504 -0.08300363
0.031083316 -0.01139816 0.008067394 -0.04522766 -0.12777323 0.112925984 -0.12993519 -0.061080195
0.06323341 0.001302049 0.09806641 0.13751072 -0.079623505 -0.057028133 -0.0073625874 -0.103792235
0.090037055 0.0025196753 0.052974384 0.09220498 -0.08558465 0.001233889 -0.10124468 0.13766576
0.017181274 -0.07124843 -0.028858801 -0.03653664 -0.082831055 -0.04784642 -0.017354703 -0.104399115
0.06716505 -0.021807212 -0.08214684 -0.006738529 -0.056727123 0.022041498 0.02461692 -0.048833523
0.08160283 -0.11523292 0.12030149 0.08693318 -0.062771276 0.024019293 0.121225365 0.086319655
0.058185376 0.07576137 0.02671753 0.0939642 0.08672414 -0.035242442 -0.042435944 0.12562455
0.024762418 -0.0119341165 0.13406053 0.012206647 0.08724268 0.011374929 -0.03652253 0.1187531
0.032675676 0.021788552 0.0073700324 0.12134895 -0.0070010344 0.07469178 0.13505714 0.03473559
-0.05592777 0.04535623 -0.10941164 0.13377625 -0.10212169 0.11342835 0.08344393 0.09872415
-0.073392294 -0.10005688 -0.077662505 0.028309911 -0.054015696 -0.09424943 -0.024964826 -0.047117695
-0.03719646 0.1533007 0.01744233 -0.059677903 -0.11874335 0.001970788 -0.04116001 0.058643162
0.028813742 -0.059725355 0.09636234 0.107666984 0.017480094 0.102132946 -0.0767076 0.07693828

lstm.weight_ih_l1 f4 [256, 64]
00000000: 0ed5 d33b 55b1 1a3c c787 a43d 3156 75bc
00000010: dee0 d53c 9d33 8fbd c8ae 313d dea8 edbc
00000020: 686d e33d 05fa 923d 1595 ddbd 4c5b 6a3a
00000030: c1b7 e43d 64a1 e2bc d72c d43d cd9e 823d
00000040: 0fd9 043d 3517 753d 3bdf d9bd 086d e7bd
00000050: 4117 af3d 52c2 aabc c2b1 f3bd 9527 ee3c
00000060: 186f 153d 7b1d ef3d b794 c1bd 962f b2bd
00000070: f2b0 383c 9ebf 42bd 193c ed3c dbdd babd
00000080: a8a4 dbba a1f6 dfbd c80d 893c 9024 6c3c
00000090: 427a 953d 614c e63d cccd 143d 14e9 af3d
000000a0: 2be7 e03c 5ec5 7ebd 7a94 5d3b 740e 003b
000000b0: 83a3 9abc 6139 8f3d e506 e4bb b39d 823d
000000c0: 4104 94bc e8a0 adbd 62d2 523d 6eb2 4e3d
000000d0: e6e4 f2bd 34a3 73bd f196 843d 3ac7 ed3c
000000e0: 6702 c1bd 2010 363d 7ad7 b3bd 0c10 ad3c
000000f0: e6c3 99bd 9cb5 193d 63ef 4ebc 5c05 913d
00000100: de32 d43d d04b 06be 3a35 2a3d 0de8 8bbd
00000110: 67f2 b33d 1b33 b53c da5d d0bb cf0e b13d
00000120: d599 0f3d e73b d8bd f418 03be d045 12bc
00000130: 6b11 093d ed60 e8bd 1d6f e7bd 2899 1d3e
00000140: 2fea 33bd 0a48 81bd 5af8 d53c b7c1 213d
00000150: fe20 3d3b 3496 7bbc 3609 cdbd b43e 2dbd
00000160: 3375 0e3b b1ff ec3c ccdf a7bd 8040 c3bd
00000170: 63d8 453d b967 d83d 0221 06be 498a e33d
00000180: ceea 24bd 93bb 243d 42ae 4f3d ac92 dbbb
00000190: 7be2 5c3d d531 bf3d 3cfc b13b d760 de3d
000001a0: 575c c13d 1717 ae3c 056a a93d 1f52 01bc
000001b0: fe93 803d c2fc 8fbc cded d83d e316 ab3d
000001c0: 1981 953c 5c55 6b3d 00e2 b33d 11ef a6bc
000001d0: 18dd 7d3d fc14 23bc f0e2 b4bc 4b19 81bd
000001e0: 31af 0e3d 43c2 89bd ede1 4c3c 31ff 453d
000001f0: 915f febd b663 433d 2e01 bf3c 6c24 b7bd
00000200: 7ed1 03bc 8a78 a23d e636 02bd 07f0 aebd
00000210: 8fef a4bd 7899 643d a5a1 3fbd 4dcb 963b
00000220: 127c aa3d c0fb 343d 2a91 5cbd e240 eb3d
00000230: 5159 65bd afe1 d7bc b000 2a3d f963 71bb
00000240: c64a 1fbd 8ffc 233d 27a7 e53d 53be 253d
00000250: df8e 043e 9cc9 06be effa 3d3d 7b03 5bbd
00000260: 8a0e c13c 87e5 aebc 5811 a33d 5fa8 e23c
00000270: 4633 bc3d a8e1 b13c ff44 8dbd a80c 3dbd
00000280: db10 fdbc 5146 713d ac08 1ebd 1c80 d03c
00000290: 5830 86bc 5896 1dbd a7f6 94bd ad2b b43d
000002a0: f143 833b b6e5 4e3d 6046 f63d e789 d03d
000002b0: ca67 613d e814 4fbd 76b8 e1bd c58f 943b
000002c0: b116 e83d dfbd 7abd 6913 e63d 2e76 663d
000002d0: df75 68bd af0b 06be 27e2 3e3d 243b 3d3d
000002e0: ea06 c6bd 23dd 4f3d 9ead 0e3e 36af 83bc
000002f0: 2b67 86bd 471e 89bd c949 edbc e574 1a3d
00000300: c9f0 28bd 0156 e6bd 2d25 823d 2d25 353c
00000310: 8d24 bcbc 7574 8b3d 12a2 ce3d 8dbb 7b3d
00000320: 3504 69bd 9bb1 e8bc 715b 00bd 2bd2 9e3d
00000330: ad40 3f3d 6df4 ed3d b528 f3bd 8e0a 313e
00000340: 79d2 94bc d542 7e3d fc66 bd3d 408a 17ba
00000350: 5e13 a33d 5372 01be 5522 39bd 7616 8a3d
00000360: 1bb2 803d 101a c33c b3ce 76bd 62bd bcbd
00000370: 3a4d 583d f4ca ca3d 803f d0bc 3875 aa3d
00000380: b794 6b3d 401b e63c 9da5 b43d 6962 663d
00000390: 13ee 98bd a41b a0bd b6d0 4b3d fc99 bebd
000003a0: 6da4 78bd 9454 943c a421 e9bb 98ff e43d
000003b0: c050 1fbc 88ad 42bd c514 0a3c ebf6 4abd
000003c0: 170b 853d da29 2b3d e8c2 6cbd 0baf 843d
000003d0: c88f d93d 55f6 78bd 3ca8 dcbd 8071 acbd
000003e0: f5f6 9ebd 50ec aa3c 812c ef3d e67d 0e3d
000003f0: 46f8 c23d 8d46 9c3c 7cb8 053d 4299 a03a
0.006464607 0.009441693 0.0803371 -0.014974163 0.026108202 -0.06992266 0.043379575 -0.029011186
0.11104852 0.07176594 -0.10819451 0.0008939996 0.11167861 -0.027664848 0.10360115 0.06377945
0.032433566 0.059836585 -0.10638281 -0.11300093 0.08549357 -0.020844612 -0.11899139 0.029071609
0.0364829 0.11675545 -0.09452193 -0.087004825 0.011272656 -0.04754602 0.02895932 -0.09124347
-0.0016757445 -0.109357126 0.016730204 0.014413014 0.072987095 0.11245037 0.036329076 0.08589378
0.02745398 -0.062199943 0.0033810423 0.0019539865 -0.018876797 0.06993366 -0.0069588297 0.06377735
-0.018068435 -0.08477956 0.051470168 0.050463133 -0.11860065 -0.059481815 0.06474102 0.029025663
-0.09424286 0.04444897 -0.08781333 0.021125816 -0.07508068 0.03752671 -0.012630316 0.070811
0.10361265 -0.13114858 0.041554667 -0.068313695 0.08786469 0.022119096 -0.006358844 0.08645403
0.035058815 -0.105583005 -0.12802488 -0.008927777 0.033463877 -0.11346612 -0.1130049 0.15390456
-0.043924507 -0.063125685 0.0261194 0.03949138 0.0028858776 -0.015355635 -0.100115225 -0.042296126
0.0021737337 0.028930517 -0.08196983 -0.09533787 0.048302066 0.105666585 -0.13098529 0.1111036
-0.04026299 0.040217947 0.050703295 -0.0067008343 0.053926926 0.093356766 0.00543168 0.108583145
0.094414406 0.021251244 0.08272175 -0.007893114 0.06278227 -0.017576579 0.10592232 0.08353975
0.018250035 0.057454452 0.087833405 -0.020377668 0.06197843 -0.0099537335 -0.022080868 -0.063036524
0.034835044 -0.067265056 0.012505037 0.048339073 -0.124205716 0.047702514 0.023315992 -0.08942494
-0.008045552 0.07933147 -0.031790636 -0.08541875 -0.08053505 0.05581042 -0.046785016 0.004601872
0.08324446 0.0441854 -0.053849377 0.11486985 -0.055993382 -0.026352732 0.041504562 -0.003683327
-0.03888967 0.04003578 0.112135224 0.04046471 0.12945126 -0.13162845 0.046381887 -0.053470116
0.023566503 -0.021349682 0.079622924 0.027668176 0.09189467 0.021714047 -0.068979256 -0.046154648
-0.030891826 0.05890495 -0.03858249 0.025451712 -0.016380474 -0.038473457 -0.07273608 0.08797393
0.004005902 0.05051204 0.12025142 0.10182553 0.05503062 -0.050557047 -0.11021511 0.00453374
0.11332453 -0.06121623 0.11234171 0.05626505 -0.056753036 -0.13090394 0.046602394 0.04619898
-0.096692875 0.050748 0.13933417 -0.016074758 -0.065626465 -0.06695228 -0.028965848 0.037709136
-0.041245256 -0.11246873 0.06354747 0.011056227 -0.022966648 0.06809322 0.10089506 0.06145816
-0.056888778 -0.028405001 -0.031337205 0.0775493 0.04669254 0.11618886 -0.118729986 0.17289183
-0.018166767 0.062075455 0.09248158 -0.0005780794 0.079626784 -0.12641267 -0.045198757 0.06742565
0.06283971 0.023816139 -0.060255717 -0.092158094 0.052808024 0.099019915 -0.025420904 0.08323139
0.057514872 0.028089166 0.08820651 0.056246195 -0.07467284 -0.07817772 0.04975959 -0.09306714
-0.060703684 0.018106736 -0.007114606 0.11181563 -0.009723842 -0.047528774 0.008427803 -0.049551886
0.06496256 0.04178796 -0.057803065 0.06478699 0.10623127 -0.060781796 -0.10774276 -0.08420086
-0.07761947 0.020864636 0.1167841 0.034788035 0.09520011 0.01907661 0.03264664 0.0012252706

lstm.weight_hh_l1 f4 [256, 64]
00000000: f184 e1bd dd68 873d af46 373d 8385 743d
00000010: 9d44 0f3c f62e 67bd e07c 4c3b 3ee0 fabd
00000020: 4619 013e 9724 9b3d 5135 0e3d a8e9 dfbd
00000030: 2d0f 15bd 4266 c9bc 283f 033d f2ba b83c
00000040: e345 0d3d 5d0e 14bd ab1e d5bd 8cda c6bd
00000050: 05e9 a8bd a7bc 593d 825e 333d 00f0 01be
00000060: 4018 123d 0b0b acbd de2d 113d 4d21 c0bc
00000070: fb17 8cbc 73a8 27bd 75e3 e8bd 2ffa d03d
00000080: ec8f 773c 8b6d 89ba 2fdb be3d 788c e6bd
00000090: fd7a cb3d 8191 be3d 5d2d 8f3d da20 1e3d
000000a0: 8572 e4bc 3f1e a3bb 4c22 493b ef81 06ba
000000b0: 478a 083e efd3 503d b357 cbbd 9ec0 96bc
000000c0: 0e5e e3bb d8b0 35bd cfb6 e33c b5a3 773d
000000d0: 9efa 83bc 0c40 a93d f54a d5bd ea22 f8bc
000000e0: e7e6 cc3c e417 7a3d 0d09 273d 3a8c 29bd
000000f0: 2fed 903d 7d82 fbbd 5bda fe3b 3947 603c
00000100: c34c af3d d747 33bd e244 20bc c457 a13d
00000110: 58be a83d 3e11 863d 4427 093d c98c 9bbd
00000120: 462d 19bd 3b50 823d db78 9f3b 930f 113d
00000130: 3371 533d f0d3 763c 95da b1bb 93d7 64bd
00000140: 95b1 50bd d815 0d3e ec36 f2bb dc3c d63d
00000150: 6a23 92bc 2df9 353d 8e64 05be e2d8 693c
00000160: 08ec 603d 0cb1 8f3d 3a32 c9bc f677 ac3d
00000170: c7a0 513d 2bf8 9e3d c215 953c 3f13 b0bd
00000180: 7cb7 73bd fac2 2ebd 14e4 abbc 3f55 933d
00000190: cec3 8f3c 4d43 91bc 10d6 c73d 6267 cc3d
000001a0: 422b f93d 0f00 49bc e3a3 14bd d81e 893d
000001b0: 54ee 92bd f408 63bb 692c 0b3e 6167 c6bc
000001c0: fb2c 05be c76e d2bd 66ab ad3d 7c27 d33c
000001d0: de02 1e3d 95f9 c1bd da11 c5bc 5d10 bfbd
000001e0: d933 97bd 16fb aebc ff7c 96bd 5b7f ac3d
000001f0: be68 c13d a797 b63d 3581 adbd 478a 8a3d
00000200: b04b 5dbb 3d3f a4bd 47d2 513d 5aa0 ecbd
00000210: bd6d 60bd c5a7 bd3d f768 c9bd f02e 6abd
00000220: fe51 bb3d ad82 c0bd 364d a7bd 37f8 933d
00000230: 2a6e 8dbc 8dd8 b9bd 0af3 fbbd b47f 94bd
00000240: 9be5 77bd 0c35 a0bd 1430 6dbd 5093 febc
00000250: 6f3e 7b3d 759e 963d 67c0 e6bd 6fa0 cbbc
00000260: 33c3 00be 0ca3 f2bd 70ee 38bd 0e38 ad3d
00000270: c5db 8d3d 8a30 c43b 3c44 33bd dd36 c7bd
00000280: 6f50 3f3d 4308 07be c1d1 54bc 969d 8d3d
00000290: ed14 733c 76df b2bb e898 93bb 730b 4d3d
000002a0: 44e7 023e 6c3d c4bc aaac 0abd 3957 39bd
000002b0: a8ef 21bc 2a57 2ebd a0be 5bbd 1b52 40bd
000002c0: dbb9 e9bc 2546 24bd b1e6 e23d c6e4 76bb
000002d0: 397d d0bd d794 5fbc a0fb 113d 4839 903d
000002e0: fdba aa3b 39b7 0a3e 7704 a0bd 6061 ca3d
000002f0: 6609 af3d 30d7 cdbd 29b5 aa3d 8665 0f3d
00000300: 4cf8 c4bd db6a 5d3c 212f a03d 1de2 9e3c
00000310: b143 403d b87a d73d 7baa 86bd bff4 c93d
00000320: 736a d73b cad3 11be b56a dbbc d74a b6bd
00000330: 0245 cabd e10e 60bb fa31 65bd 0960 ea3d
00000340: b5b0 dd3d 79eb b93d 532c 5abd 1760 b0bd
00000350: 4e2c 8fbc 9a70 84bd 426a 9fbd 458c c0bc
00000360: c5e8 1bbd e14e e4bc 178f 833d 08f7 10be
00000370: 822f 32bd 6960 2d3d 789c c9bc 1bc0 33bc
00000380: 3bc9 46bd eacb b0bd 28c4 963d daeb e7bc
00000390: 0022 123e 02c8 a8bd 1ffe 52bd ae2c c0bd
000003a0: ed96 8b3d d38c 10be 3eb2 9c3d f9e2 cbbd
000003b0: 3e58 443d 8e38 80bd 44f4 9ebd e1c3 a1bd
000003c0: a3bc 10be 0683 b7bd b1d9 15bd 3d94 7d3d
000003d0: 85a1 51bd b2a9 973d b91c 5ebd 1435 a33c
000003e0: b9e7 383d 95a9 0d3e 30d5 a13d 7ee0 9dbd
000003f0: 4b09 69bc 2cdd 34bb 317a 00be 62db 81bd
-0.11011685 0.06611798 0.044745144 0.05969764 0.008744386 -0.05644127 0.003120236 -0.12249802
0.12607297 0.07575338 0.034718815 -0.10933238 -0.036391426 -0.024584893 0.032042652 0.02255008
0.034490477 -0.03614651 -0.1040624 -0.09709653 -0.0824757 0.05315843 0.0437913 -0.12689209
0.035667658 -0.08400544 0.035444133 -0.023453379 -0.017101279 -0.04093213 -0.11371509 0.10203969
0.015109997 -0.0010484917 0.0931915 -0.11257261 0.099355675 0.093050964 0.06991074 0.03860555
-0.027886638 -0.004977971 0.0030690609 -0.0005131056 0.13333999 0.050983366 -0.09928837 -0.018402394
-0.0069387024 -0.044358104 0.02779713 0.060458858 -0.016110715 0.08264169 -0.104146875 -0.030290086
0.025012447 0.06105794 0.040780116 -0.041393496 0.07076489 -0.12280748 0.007777495 0.013688856
0.08559563 -0.043769684 -0.009782048 0.07878068 0.0823943 0.065462574 0.033484712 -0.07595212
-0.03739669 0.06362959 0.004866702 0.035415243 0.051621627 0.015065178 -0.0054276683 -0.05586965
-0.050950605 0.13777864 -0.007391801 0.10460827 -0.017839152 0.044427086 -0.1302664 0.0142729
0.054912597 0.07016191 -0.024560083 0.08421318 0.05117872 0.07762178 0.018198851 -0.08597421
-0.059501156 -0.042666413 -0.02098278 0.07193994 0.017549422 -0.017732287 0.09757626 0.09980656
0.12166454 -0.01226808 -0.036289107 0.06695336 -0.07174364 -0.0034642788 0.1359116 -0.024219217
-0.1300544 -0.10275035 0.08479957 0.025775664 0.038576953 -0.09471432 -0.024056364 -0.09329293
-0.07382936 -0.021359961 -0.0734806 0.08422729 0.09443806 0.08915644 -0.0847191 0.067646556
-0.0033767037 -0.08019874 0.051225927 -0.11554022 -0.054792155 0.09260515 -0.098344736 -0.05717367
0.09146498 -0.093999244 -0.08169024 0.072250776 -0.017264444 -0.09074507 -0.123022154 -0.0725092
-0.060521703 -0.07822618 -0.05790718 -0.031076103 0.06133884 0.07354442 -0.112671666 -0.024856774
-0.12574463 -0.11847505 -0.045149267 0.08457957 0.06926683 0.0059872316 -0.043766245 -0.09727261
0.046707567 -0.13186745 -0.012989462 0.06914823 0.014836532 -0.0054587675 -0.004504312 0.050059747
0.12783533 -0.02395507 -0.03385607 -0.045249198 -0.009883799 -0.042563595 -0.05364859 -0.046953302
-0.028531006 -0.040105958 0.11079157 -0.003767298 -0.10180134 -0.013646326 0.03564036 0.070421755
0.005210279 0.13546456 -0.078133516 0.09881854 0.085467145 -0.100508094 0.08335335 0.03500893
-0.09617671 0.013514246 0.07821489 0.019394929 0.046939556 0.105214536 -0.06575485 0.09861135
0.006573969 -0.14240947 -0.02678428 -0.08900993 -0.098764434 -0.0034188556 -0.055955864 0.114440985
0.1082472 0.09078116 -0.053264927 -0.08612078 -0.01747718 -0.064667895 -0.07783939 -0.023504386
-0.038063783 -0.027869644 0.064237766 -0.14156735 -0.04350234 0.042328272 -0.024610743 -0.0109710945
-0.048531752 -0.086326435 0.073616326 -0.028310705 0.14270782 -0.082412735 -0.05151188 -0.09383522
0.06815896 -0.1411622 0.076511845 -0.09955401 0.047935717 -0.06260787 -0.07761434 -0.07898689
-0.14134459 -0.089605376 -0.03658456 0.06190895 -0.051179428 0.07405414 -0.05422661 0.01992277
0.045142863 0.13834222 0.079019904 -0.07708834 -0.014223407 -0.002759765 -0.12546612 -0.06340672

lstm.bias_ih_l1 f4 [256]
00000000: b12c 35bd ded2 25bd 5aef 1b3c eaf1 96ba
00000010: 3c06 c5bd 5ec2 c23d 8294 933d fcca 1a3d
00000020: 820a 013d 2870 f83d d2d1 32bc e1e8 aabc
00000030: 32dd 973d b94a 4d3d 9df6 0a3e 54d1 7abd
00000040: 6bff f6bd f882 a5bd d899 a4bd 2aea 6fbd
00000050: 9bef 043d 70dc d2bd 12a8 f93b 2548 b6bd
00000060: d3e3 023d e47c b2bb b24c ecbd 4beb 743d
00000070: 63a1 dbbd d561 c9bd f2c7 a3bd 19e5 d83d
00000080: 64fe 963d a45f d5bc 8796 46bc 4f0f 063e
00000090: 2f4e c4bd 7b58 0e3e a1ec b3bd e8a2 72bd
000000a0: fcad cfbd 9829 933d af08 b63d 97aa 273d
000000b0: bc2c 073e 4208 cc3d 30d5 aabd 5c39 d0bd
000000c0: b4c2 ae3d 78e5 b23d 3b10 4c3d 7b40 593b
000000d0: 7013 f53d 2271 8d3d 4c34 bbbd 3d33 393d
000000e0: d3f4 fb3d a6f9 9bbd b423 17bd a88f b23d
000000f0: b721 0a3e ab38 3e3d 4f7d 223c 2ba0 fcbd
00000100: 25c2 abbd 4b10 90bd fddb c1bd 20ae b1bd
00000110: e3a9 a6bd 0c28 f7bd b0e1 243c c74e ce3d
00000120: 57f8 8c3c 36fb d83d 09e1 973d a280 cb3d
00000130: 10e7 693d d6f5 9cbd 1dce b93b a952 6dbc
00000140: 0781 76bc 4bce 83bd 05cd 84bc b906 9bbd
00000150: 7512 063e b34f 833d 2ea1 873d 9b88 c0bc
00000160: c85a 9b3c d787 ad3d a4c5 84bd d4d6 dd3d
00000170: 120e afbd f9af e93d 584b 8fbd 3fed cd3d
00000180: 2273 f83d 1a9d acbd d991 67bc 8c95 ab3d
00000190: 1a91 783d d805 e93d 5aea 92bb 54f3 013e
000001a0: 9b82 f43d 1bc9 633d 2348 eabc 2d5c 083e
000001b0: 581d 5dbc a3bf 99bc dd75 a7bd dca4 673d
000001c0: 81eb 2c3d 1a8c 923b c7be 53bd 42ac 02bd
000001d0: dedf 47bd 16a5 883c cf57 fd3c 0944 8fbd
000001e0: f79f b4bd 232a eebc f43a cb3d a724 b03d
000001f0: 70f7 df3d 3f68 cb3d bb3b abbc a142 c63d
00000200: 7d31 eebd 8f1c 85bd 6226 8abd 32c9 bebd
00000210: e2b5 b1bd 5073 d43d cbee f43d b8ad 1a3d
00000220: 962e bb3d 3862 b23d 121f 523d e25b b03b
00000230: c588 cdbb 9e97 dfbd cd35 c7bd 82e4 89bd
00000240: c676 093d 9e01 d33c fa10 1fbd 22f9 b4bd
00000250: f005 09bd edf6 90bd cf70 e0bd 0dd4 d4bd
00000260: 8ced bd3d 0c18 dc3a 2303 a4bd 484c 36bd
00000270: 204e 05be 51f1 46bd 4498 e9bb 5118 53bd
00000280: a6eb 38bd 88e2 57bd ecb3 17bd 201f 553d
00000290: b1a9 f43d a26b 963d e731 e8bd 4877 01be
000002a0: 662c c03c cdfc 04be 5f5b 8e3d 70b5 02be
000002b0: 3e2e af3b d9a9 ed3b 02c5 b43d 96c1 babd
000002c0: b59f fa3c e0ac f03d 2b63 f73b 5a53 9fbd
000002d0: d615 c2bc d2f3 f8bd 0599 ae3c abe2 3d3c
000002e0: 5c88 afbd 73b9 ccbc ef4c 2dbd 4cc2 263d
000002f0: 446a 67bc e74d e6bc b59b e2bd 5cf5 02be
00000300: 1bbb a3bc 61c2 6fbd b16f 0c3e b9f7 d93c
00000310: 18c5 87bb 17a4 f83d d1a7 34bd 4c3d 763d
00000320: 150f e63d 52cb 1cbd 0f16 d0bc 1e6b ba3d
00000330: 763a 92bd 102e bebc 4a82 813d 3f1f 87bd
00000340: 1285 b13d ffb4 023e 6a5b e0bd 5bf6 603c
00000350: 69d8 c5bd 4467 423c 1017 df3d 8e07 e43d
00000360: 4caa 093e de6e 89bb 65c7 b83d 1812 c8bd
00000370: 1c88 a3bd 7122 e73d 816e 1dbd 5f45 d63d
00000380: 590e b8bd eb64 4fbd 3a59 52bd f30f 61bd
00000390: 09e5 b8bd 8623 ea3d 559c e3bd 6011 e83d
000003a0: 1701 c93d 19dd 393d 1ac6 c73d 60f2 be3c
000003b0: c314 3ebd 34dd 83bd 8b11 323d 884f dcbd
000003c0: 894d cbbd 9ff3 2fbd 6f11 d13c 69b4 e1bc
000003d0: 76c8 de3c 7e5b cebc 2880 9b3d 8dbd 30bd
000003e0: c60b 573c eb4a 0f3d 2bfe 583d 726e bbbd
000003f0: a9c1 893d f390 c5bd 970c 48bc c447 a7bd
-0.044232074 -0.0404843 0.009517515 -0.0011516188 -0.0962033 0.09509729 0.0720606 0.037791237
0.03150416 0.12130767 -0.010914283 -0.020862998 0.074152365 0.05012009 0.13570638 -0.061234787
-0.12060436 -0.08081621 -0.08037156 -0.058572926 0.032455068 -0.10295951 0.0076189125 -0.08900479
0.03195555 -0.005447017 -0.11538066 0.059794705 -0.107241414 -0.09833113 -0.07997121 0.10590572
0.0737274 -0.026046582 -0.012120849 0.13091777 -0.09585225 0.1390094 -0.08785368 -0.05923739
-0.10140607 0.07185668 0.08888375 0.04093417 0.13200659 0.099625126 -0.083414435 -0.101671904
0.085332304 0.08735174 0.049820166 0.0033150006 0.11966598 0.06906344 -0.09140834 0.04521488
0.12302556 -0.07615976 -0.036899284 0.087188065 0.13489424 0.04644076 0.009917571 -0.12335237
-0.083866395 -0.07034358 -0.094657876 -0.0867579 -0.08137872 -0.12068185 0.010063574 0.10073619
0.017208261 0.1059479 0.07415969 0.09936644 0.057105124 -0.07664077 0.0056703226 -0.01448504
-0.015045411 -0.06435832 -0.016211042 -0.075696416 0.13092978 0.06411686 0.066225395 -0.023502639
0.018964186 0.08473175 -0.064830095 0.10831991 -0.085476056 0.11410517 -0.069967926 0.10055017
0.12131335 -0.08428402 -0.014133894 0.08378133 0.060685255 0.11378068 -0.0044835033 0.12690479
0.119389735 0.05561171 -0.02859885 0.13316412 -0.013495766 -0.018768137 -0.081767775 0.056553707
0.04221678 0.004472268 -0.05169561 -0.03190256 -0.04879748 0.016680282 0.03092566 -0.069953986
-0.088195734 -0.029072827 0.09923354 0.08600741 0.10935867 0.09931993 -0.020902505 0.09680677
-0.11630533 -0.06499588 -0.06745602 -0.09315719 -0.086772695 0.103735566 0.11959609 0.037763327
0.09139745 0.0871014 0.051299162 0.005382047 -0.0062724077 -0.109175906 -0.097270586 -0.067330375
0.033560537 0.025757607 -0.03883455 -0.08836581 -0.033452928 -0.07078347 -0.109590165 -0.10392008
0.09273824 0.0016791834 -0.08008411 -0.04450634 -0.13018084 -0.04856998 -0.007128747 -0.05153686
-0.045146607 -0.05270627 -0.03703682 0.052031636 0.119464286 0.07344748 -0.11337643 -0.12643158
0.02345867 -0.12987061 0.069510214 -0.12764525 0.0053460887 0.0072529134 0.08826639 -0.09118955
0.030593732 0.11751723 0.0075496635 -0.0777957 -0.023692053 -0.1215588 0.0213132 0.011589686
-0.0857093 -0.024990773 -0.042309698 0.04071264 -0.014124457 -0.028113319 -0.11064855 -0.1278891
-0.01998668 -0.058534984 0.13714482 0.026607381 -0.0041433685 0.12140673 -0.044105355 0.06011705
0.112333454 -0.03827984 -0.025401143 0.09102462 -0.07140057 -0.023215324 0.06323679 -0.065977566
0.08667959 0.12764357 -0.10954936 0.013730611 -0.096604176 0.011865441 0.10893071 0.111342534
0.1344387 -0.0041941246 0.090224065 -0.09769076 -0.07984945 0.11285866 -0.038435463 0.1046245
-0.089871116 -0.050633352 -0.051354624 -0.05494685 -0.0902806 0.11432557 -0.11113802 0.11331439
0.09814661 0.04537687 0.09754582 0.023308933 -0.04640652 -0.064386755 0.04347376 -0.10757357
-0.09926898 -0.042956945 0.025521008 -0.027551847 0.027195197 -0.025190111 0.07592803 -0.04314952
0.013125366 0.034983557 0.05297677 -0.09151925 0.06726391 -0.096467875 -0.012210033 -0.08167985
