save_results/lstm_short_term_90d_run4.pt (torch, 546325 bytes, 10 tensors)

lstm.weight_ih_l0 f4 [400, 12]
00000000: 6806 70bd b46d 543c 0a7a 993d 2b5e 4d3d
00000010: 2412 983d 799f ff3c 4eed 603d 2c5d 823c
00000020: 4fa1 1cbd 5b92 013d 778d 673c a9eb f53d
00000030: 5a9f 413c 1c99 cbbc c1cb 933d 8949 b0bc
00000040: f71f b93d 7285 4cbc 2171 de3c 96a4 9dbd
00000050: 0f5a 74bd 7378 8d3d 4963 143d c977 283a
00000060: 9bdf 52bd b82f e2bc aab1 ba3d 9792 653d
00000070: d026 6b3d dc57 3abd 1cb2 873b d03e 7dbd
00000080: 4fed e03a 4542 173c 7087 263c d576 3fbc
00000090: 98ab 2d3d ea15 9b3d b2a8 193d 0616 413c
000000a0: 07b3 f4bc 0732 8f3d 4934 0fbd 0d67 24bd
000000b0: 4e1b 59bd 95b1 673d 95b6 a5bc 7da5 e83d
000000c0: 2299 a8bc 4a21 02bd 1ec7 8cbd 52c4 bfbc
000000d0: e0a5 123d 2b79 abbc 8c87 2a3c 532c 68bd
000000e0: aed3 8ebd dfd6 24bd 49fa 42bd 1d07 103d
000000f0: fa77 9ebd b306 fabb 051e aabb 2f23 2db8
00000100: af94 8bbd 1e63 4bbd ca32 90bd db26 8c3c
00000110: b970 c4bd a9f2 c83d 2418 8ebd 08c6 84bc
00000120: dd60 953c c0b7 9e3c 9062 9cbd 2ac8 9d3d
00000130: 25c0 edbc 1964 aa3d 9359 c23d cecf aa3d
00000140: 440c 73bd d29d 9e3d f4ae 953d 3306 2c3d
00000150: 650d 7fbd 2a67 e13b c65c 9e3c ba9e 243c
00000160: 4ae4 d13c ab72 69bd 8419 a63d d03b 8e3b
00000170: 4dc4 01bd fda5 88bd 3bd5 3ebd 80d0 583d
00000180: e1a7 aabd 082b 103d 16f1 a3bb e430 f9bd
00000190: 9000 333d 4bf5 44bb 8aee 52bd bfd3 503d
000001a0: b986 8fbc 6ff3 02bd 8f31 1fbc eef1 613d
000001b0: eee7 f8bc 4a85 df3d d3b6 cbbc 1df5 debd
000001c0: 2a0b 1e3c c05a 123d 9ae3 1d3d f84d d33d
000001d0: e4ff 08bd c026 71bd 08a7 9b3d 0921 66bd
000001e0: cff2 333c 6e5e 793d 7f3c 9cbd b8b1 f93c
000001f0: cecd 103b 607f 11bd 0219 683d 5e7e 1abd
00000200: 2314 0ebd c9f4 f03c 59a1 23bd 7188 a13b
00000210: 1ca5 8bbc 2dd2 4ebd b7a9 2fbd 286c ca3c
00000220: f5e1 cb3d 9c04 b7bd f8e7 bfbd be5d a43d
00000230: 5284 a6bd f12a c9bc ef97 9e3c c25d 383d
00000240: 9c90 843d 30a3 e7bc 6bcf 183d b211 e1bb
00000250: 8456 be3d 4545 32bd b0cb 92bd d37e d1bc
00000260: abb3 a6bd 190e 3cbc 5dbc cbbc 8a40 e43c
00000270: 6a4c 013c eac5 233d 200a 453d 5b6a ae3d
00000280: 117f 9bbd 9ce4 f0bc 4a8e 923a 42db 233a
00000290: c8df b2bc d344 97bd 30c8 06bb 87e6 d33d
000002a0: ae7b a6bd 16a3 8f3d 9d20 673d 5456 a3bc
000002b0: 3c0b 6a3d a2fa 75bb 3899 c53d 6bdf 73bb
000002c0: 421c dfbd a584 9abc eab7 adbd f827 343d
000002d0: 4a47 503d c50a d1bd 425e 80bd a4ec 973d
000002e0: cc57 8cbd 9da9 d7bd 2a39 07bd 2c46 893d
000002f0: 927f d33b 1082 e6bb 8879 5ebd 7ad4 0dbd
00000300: 87da 25bd 7f0d 323c 5550 63bd 7a14 d53c
00000310: 599d 84bd 8198 4c3d c6f9 bc3d d491 173d
00000320: eb54 82bc cd93 45bd ec9f 1a3d cde9 e1bc
00000330: e371 8abd ec88 bc3d a8ec 8b3d 07ae 83bd
00000340: 2212 8e3d 9041 a5bd f987 863d 2668 383c
00000350: 34bb db3c 6011 3cbd d623 a4bd 555c 8f3d
00000360: 33c5 d23d 720d 64bd 0cf9 37bd 79a6 a0bd
00000370: 0d62 5f3d 8c92 84bd a24e 883d 8b39 7ebd
00000380: 3bc0 76bd 3adc 56bd 098f d13d 4aa0 b13d
00000390: 8172 003a a0db 67bd 4bfa cb3a a3a3 6bbd
000003a0: 7d7e c7bc 8d71 823b 47d5 21bd 87ff f73b
000003b0: 6147 7dbd ead6 e0bc f04d 29bd 4713 d4bc
000003c0: c78f a2ba 1702 90bd e1cf 8a3d a48d ca3c
000003d0: d5e2 a73d e6b3 0dbd 8d22 3e3d 36ae b5bc
000003e0: 0a01 cc3c 9586 3c3d cabf 063d caac 60bd
000003f0: c989 2bba b88a f03c 0f23 bf3d a41e 2ebd
-0.05859986 0.012965608 0.0749398 0.050138634 0.07425335 0.031203972 0.05491381 0.015913568
-0.038239773 0.031633716 0.014132849 0.12007839 0.0118177775 -0.024853282 0.07216597 -0.02151944
0.090393 -0.012482988 0.027153553 -0.07697408 -0.0596562 0.069077395 0.0362275 0.0006426541
-0.051482778 -0.027610645 0.09115918 0.056048002 0.05741006 -0.045493945 0.0041411053 -0.06182748
0.0017160567 0.0092321085 0.010164127 -0.011686047 0.042399973 0.07572539 0.037514396 0.011785036
-0.029870523 0.06991964 -0.034961972 -0.04013734 -0.053004555 0.05656584 -0.020228663 0.113596894
-0.020580832 -0.03177003 -0.06873916 -0.023409043 0.035802722 -0.0209318 0.010408293 -0.056682896
-0.069739684 -0.04024398 -0.04760197 0.035163034 -0.077377275 -0.007630193 -0.005191567 -4.127918e-05
-0.068154685 -0.049655072 -0.07040937 0.017108371 -0.09591813 0.09811909 -0.06938198 -0.01620771
0.018234665 0.019374728 -0.07635987 0.07704194 -0.029022286 0.08319873 0.09489741 0.08340417
-0.05933787 0.077449456 0.0730876 0.0419981 -0.062268633 0.006878753 0.019331347 0.010047609
0.025621552 -0.05699412 0.081103355 0.0043406263 -0.031681348 -0.06672285 -0.04659007 0.052933216
-0.083328016 0.035197288 -0.005003105 -0.12167528 0.04370171 -0.0030053433 -0.05149702 0.050983187
-0.017520295 -0.031970438 -0.0097164055 0.055162363 -0.03038403 0.10914095 -0.02486745 -0.108865954
0.009646216 0.035731077 0.038547136 0.10317606 -0.03344716 -0.058874846 0.07600218 -0.05618385
0.010983183 0.06088107 -0.07628726 0.03048025 0.0022095325 -0.035521865 0.056664474 -0.03771817
-0.034687173 0.029413598 -0.039948795 0.004929595 -0.017046504 -0.050493408 -0.042886462 0.024709776
0.09955207 -0.08936426 -0.093704164 0.080256924 -0.08130707 -0.024556609 0.019359557 0.04501129
0.064728945 -0.028276056 0.037307184 -0.0068685645 0.09293845 -0.04352309 -0.071677566 -0.02557317
-0.08139738 -0.0114779705 -0.024870092 0.027862806 0.007891754 0.039983667 0.04810536 0.085163794
-0.07592595 -0.029405884 0.0011181321 0.00062506285 -0.021835223 -0.07386174 -0.0020566098 0.10346704
-0.08129059 0.07013528 0.056427587 -0.019938625 0.05713962 -0.0037533422 0.09648365 -0.0037212025
-0.108940616 -0.018862078 -0.084823444 0.04398343 0.050849237 -0.10207132 -0.06267978 0.074181825
-0.068526834 -0.10530398 -0.0330135 0.06702837 0.0064544166 -0.0070345476 -0.05431512 -0.03462646
-0.040491607 0.0108674755 -0.055496532 0.02601074 -0.06475324 0.049950127 0.09227328 0.037004307
-0.015909633 -0.048236657 0.03775017 -0.027577305 -0.067600034 0.09205803 0.06832248 -0.064296775
0.06937052 -0.08069146 0.065689035 0.0112553 0.026822664 -0.045915008 -0.08014648 0.07000033
0.10291519 -0.055676885 -0.044915244 -0.07844252 0.054536868 -0.06473264 0.06655623 -0.062066596
-0.06024192 -0.05245612 0.1023236 0.08673151 0.0004899875 -0.056605935 0.0015562264 -0.057529103
-0.024352307 0.0039808215 -0.039510038 0.007568303 -0.06183565 -0.027446229 -0.041334093 -0.025888098
-0.0012402468 -0.070316486 0.06777931 0.024725743 0.08197562 -0.034595393 0.04641967 -0.022177797
0.02490284 0.046026785 0.032897748 -0.054852284 -0.0006543664 0.029363021 0.09332859 -0.04250969

lstm.weight_hh_l0 f4 [400, 100]
00000000: 1181 663c 8198 9d3d 94a7 5fbd 946b 113d
00000010: 2ec2 7d3d d812 ae3d bc9e 053c ae90 6d3d
00000020: a462 f23c fa9f 953c ef60 133c 73f2 42bd
00000030: 1e9f 853d b688 063d 9996 853d 3a41 6f3d
00000040: 105d d5bc 7f97 a43c d059 eb3c a8bc f2bc
00000050: 9671 173b d5cb 993d e876 be3d f977 973b
00000060: b505 3cbd bc7b babd f02d 9a3d da00 31bb
00000070: 9d72 adbc 256c 183d 47d3 bc37 5c49 a43d
00000080: 983e 49bd 6674 8f3d 5c1e 963c 20fb a0bd
00000090: f28c c4bd bc67 0abd bc8c ccbc 6505 0c3d
000000a0: 6a2a 07bd 94ab 1abd c7da 9abd 5bce 33bb
000000b0: 18a5 9dbd 4335 c5bc 14cd 3fbd e3db d6bc
000000c0: 3841 4b3d 51c5 aa3d be53 603d 8930 983c
000000d0: 74ec 04bd 8d0b 33bd 5071 0dbd 0c19 b83d
000000e0: d69b 523d 7998 023c 85ae 3d3d b66a 2abd
000000f0: ad33 b2bd 0dcc 84ba 5c36 0d3c c4af d73c
00000100: 98b9 243d d40e c73d aaaf d8bd b41a 0dbd
00000110: d9d4 173c 6c7b e33c a092 073d deca 32bd
00000120: 8e5b f43c 6ebd 27bd c92c a43d a14b 78bc
00000130: 5494 b83d 8711 be3d e4f7 603d c23c 87bd
00000140: a18d c73d 49b4 843d 955c a93d 5774 cbbb
00000150: 516d b6bd 812f 58bc cbbc 33bd e8f3 45bd
00000160: 133c 8f3c 84b8 93bd 5945 d6bc 023e 9e3c
00000170: 4d81 793d 2c7c c63d 6874 0abc d7fb 653d
00000180: b103 883d 6d29 a43c c9d1 c03d 81e6 aa3c
00000190: 619c 82bc 77e4 953d 8fab 7ebd e9b2 e03c
000001a0: eb30 c33c ac55 b23d c550 cd3a 6b43 39bd
000001b0: 6448 fd3c 90cf 13bb a3cf 0cbd 4c5f 36bd
000001c0: c1d3 b93d 76e7 943d e7bc 213d c318 1cbd
000001d0: 42e9 ddbb c0ab 5b3d 8117 9a3c 2ac0 d83c
000001e0: 4f9f b4bd b694 73bd 1707 14bc 23b0 9abd
000001f0: fdc4 813d f174 ad3b 473a b2bd bb25 89bd
00000200: 608a 673d a105 76bd a3e2 3a3d 3228 3cbd
00000210: 3ae2 b33d bd69 b43c 43bd c03d 6bfa 8a3d
00000220: c94d c43d cd03 e4bc d205 723d 73ef d23d
00000230: db23 7b3c 30f3 31bd d34c ac3d 40e0 983d
00000240: ca8b b2bd 2bac b63d 736c 593c a2be cfbd
00000250: d3ee a7bd 44d6 b3bd a322 87bd 407c f5bc
00000260: 4a8e 9cbd 0f81 29bd c9d6 74bd 817e 39bd
00000270: 79a5 ca3c 495f 883d 65fc 80bd 34eb 82bd
00000280: c5d1 b6bd ce21 8cbd 1c6d 543d e440 adbd
00000290: 5b2b d6bb 9718 87bd f6aa 9b3c 797f 01bd
000002a0: 94ce 4cbd 8938 6abd 035a 7a3d 5548 b7bc
000002b0: 57bc 8fbd 8421 b33d 3146 65bc 65a4 343d
000002c0: 40fa e1bc 36a9 d13d 44b9 8b3d eebc ba3c
000002d0: 26d8 b03d 92b3 d5bc a5bf c1bd 8bbf d5bd
000002e0: aca9 803d fecb 83bd 0649 a6bd fdd9 113d
000002f0: cf28 10bd 7555 a4bd 7db2 433d 4cba 3b3d
00000300: 5327 8bbd 20ff aebc 0849 763c 79f1 5cbd
00000310: 9581 a4bc d7ee e83c 28b8 22bd 1666 2d3d
00000320: 8dee 8fbd a283 41bd edfb da3c 80f5 833b
00000330: 634a 07bd bfd9 a03d a0bf cbbd 0127 65bc
00000340: ab74 be3c 350e cb3a 53b3 5f3d 1bec 46bd
00000350: 83a1 8ebd bef6 8dbd 961f ac3b 673d b43d
00000360: 4963 75bd 44a2 9b3c 3177 a33b 6d61 4f3d
00000370: 59cb 7ebd 0d00 bdbd 814e 5cbc 1b00 673d
00000380: 0c54 823d 2fe1 563d 78a6 91bd 4781 a43d
00000390: 018c 76bd 0bac 47bc 6187 833c 91c6 77bd
000003a0: 5587 3bbc 4020 bf3d f72c 68bd bee2 b8bd
000003b0: f42a 923d ccd5 0ebd 5000 f9bc eaf2 60bb
000003c0: d056 b5bd 8e23 433d 9ae7 9ebd 8212 433d
000003d0: 63e9 8b3c b88b 47bd 72f9 3abd 1f76 333b
000003e0: 4750 8abd e630 3d3c cca4 c4bd c25e 47bb
000003f0: 20bb b0bd a2b1 8cbd 7f87 85bd a0f9 a23d
0.014068858 0.076951034 -0.054603174 0.035502985 0.061952762 0.08499688 0.008155521 0.057999305
0.029588051 0.01826476 0.008995279 -0.0475945 0.0652449 0.03284522 0.06522865 0.058411814
-0.026045352 0.02009177 0.02872935 -0.029630974 0.0023108474 0.07509581 0.09300023 0.004622456
-0.04590388 -0.09105632 0.07528293 -0.0027008564 -0.021172816 0.03721251 2.250973e-05 0.08021805
-0.04913196 0.07004623 0.018325023 -0.07860398 -0.09597196 -0.033790335 -0.024969451 0.034184832
-0.032999434 -0.037761286 -0.0756126 -0.002743623 -0.07697505 -0.024073249 -0.046826437 -0.026227897
0.049622744 0.08338416 0.054767363 0.01857783 -0.03245206 -0.043712188 -0.03453189 0.08989152
0.051418148 0.007970923 0.046309013 -0.041605674 -0.087012626 -0.0010131613 0.008618917 0.026328929
0.04021606 0.09719625 -0.1058038 -0.034449294 0.009267055 0.027768813 0.033098817 -0.0436505
0.029828813 -0.04095214 0.080163546 -0.01515475 0.09012666 0.09280687 0.054923907 -0.066033855
0.097438104 0.06479699 0.08269612 -0.006208937 -0.08907569 -0.01319492 -0.04388122 -0.04832831
0.0174847 -0.07212928 -0.026156114 0.019316677 0.060914326 0.09691653 -0.008450605 0.056148376
0.06641329 0.020039285 0.09415013 0.020861866 -0.015943708 0.07318967 -0.06217533 0.027429061
0.023827037 0.08707747 0.001566433 -0.04523031 0.030918308 -0.0022554137 -0.034377705 -0.044524476
0.09073592 0.0727071 0.039486792 -0.038109552 -0.0067721913 0.05363059 0.018810036 0.026458818
-0.08819448 -0.059467994 -0.0090348935 -0.07553127 0.06336401 0.0052934815 -0.08702522 -0.0669665
0.05652845 -0.060063962 0.045626294 -0.04593677 0.08783384 0.022023076 0.09411099 0.06786045
0.09585149 -0.027833844 0.059087582 0.102995776 0.015328373 -0.043444812 0.084130906 0.07464647
-0.08718069 0.08919557 0.013270485 -0.10143782 -0.08199849 -0.08781102 -0.06598403 -0.029966474
-0.07644327 -0.041382845 -0.059775148 -0.04528666 0.024737107 0.06658799 -0.062981404 -0.06392518
-0.08926729 -0.06842385 0.051861867 -0.084596425 -0.00653593 -0.06596487 0.019002419 -0.031615708
-0.050001696 -0.057182822 0.061120998 -0.022373358 -0.07018345 0.08746627 -0.013993786 0.04410209
-0.027585149 0.102373526 0.06822446 0.022795167 0.08634977 -0.026086602 -0.094603814 -0.104369245
0.06282362 -0.06435393 -0.08119397 0.03560828 -0.035195168 -0.08024112 0.04777764 0.045831963
-0.0679461 -0.021361887 0.01503206 -0.053941224 -0.02008132 0.0284342 -0.039726406 0.042333685
-0.07027922 -0.047244675 0.026731456 0.0040270686 -0.033029925 0.07854032 -0.09948659 -0.01398635
0.023248991 0.0015491905 0.054614376 -0.04856501 -0.069644 -0.06931828 0.005252789 0.08800774
-0.05990914 0.018998273 0.004988574 0.05063002 -0.062205646 -0.09228525 -0.013446451 0.056396585
0.06363687 0.052460846 -0.071118295 0.0803247 -0.060192112 -0.012187014 0.016055765 -0.060492102
-0.01144584 0.09332323 -0.056683507 -0.09027623 0.07137099 -0.03487186 -0.030395657 -0.0034324476
-0.08854449 0.04764133 -0.07759018 0.047625072 0.01707906 -0.04871723 -0.045648046 0.0027383638
-0.06753593 0.011547303 -0.09601745 -0.003042147 -0.08629441 -0.06869818 -0.065199845 0.079577684

lstm.bias_ih_l0 f4 [400]
00000000: 7bb9 edbc 3c66 b5bb 76c4 d83d 3529 67bd
00000010: 4b3d 693d 67fa 903d 4fbf d93d fe12 783d
00000020: c033 aa3c 7e39 963d f7a1 8fbc 0667 afbc
00000030: 0769 693d 4149 5d3d 0a56 25bd 1770 4fbd
00000040: 0680 ed3c fbb9 a6bd 0567 5a3d 515a 9f3d
00000050: 8e42 da3c 77eb 293d 0510 f6bc 3608 9c3d
00000060: bc48 95bd ae9d 51bd 11f2 d43d f61f 90bb
00000070: a8d8 77bd 4eba aabd f21b 23bc 35db 963c
00000080: e739 97bd c2eb 9dbd abc1 573c 2e0c 3c3d
00000090: 37f7 c2bd f8df c83c 3939 8b3c d5e4 d53d
000000a0: 71fd d0bb bfbb c63c ece3 b1bd b144 0f3e
000000b0: 0b1c 88ba 89e2 66bc 751b ab3d 921b b13d
000000c0: 1653 2fbd d979 0dbd c8a9 0fbd e303 bd3d
000000d0: 9248 15bd e353 99bd afed 21bd ab4f 44bd
000000e0: 890e d7bc de34 d13d 540d 3a3d 8968 eabc
000000f0: 3010 d03d b4cb e33b 3d9a 27bd 8412 f13c
00000100: d078 a4bd 938a 083d ccdc 003d f0e8 acbd
00000110: 5df8 cb3c d1aa 1b3c 4e6c 31bd 81aa 3cbd
00000120: 21f3 8a3d df05 c83d fa7b 653d 4f60 103d
00000130: 3a60 723d 0d5c 3fbb 1407 913d 49bb 65bb
00000140: 1a9c 903c 0990 cc3d 510d 69bc b46e 823c
00000150: 830d f1bb 2e2d bb3c 63a3 91bb 7325 a63c
00000160: e88d 923d 9db4 893d 7cbe 97bd fc47 96bc
00000170: 59a6 b0bd 59bc 3dbd a1b0 723b 540d 1a3d
00000180: 7124 8abd 70e2 b7bd 7ca3 c93d 0b8b 8c3d
00000190: 5321 7bbd b391 a8bd 3445 713d b654 30bc
000001a0: 0fab 733d d9c0 e3bb a14c 353d e1b9 1d3d
000001b0: e21c 19bd 9100 68bd 21cd 813c 688c 403d
000001c0: 30e2 80bd 22f1 37bc eaac 01bd 8537 6ebd
000001d0: 1009 663d d74a 9f3d 896f acbd d803 ff3c
000001e0: 2bd6 7ebd de73 eb3c ec6b 9fbd 1cf7 39bc
000001f0: 82ae 713d 3d0b cb3d 4974 873c 64f1 403d
00000200: a43b 1dbc 8b11 723d 2895 a23d 02d4 a2bd
00000210: 84e0 04bd b82d 15bd 4e58 843d d4d1 68bd
00000220: fcab 9d3d 2ac0 43bb a9de 5a3d 0559 8fbd
00000230: 0883 643d 5a1e 863c 3286 fd3c 445b 3bbc
00000240: fe0b 083d 5eb0 9f3c f0d3 383d c327 b13d
00000250: f316 f83d c7fd 0e3c d032 033c 7ffe f5bc
00000260: f027 4dbd 9b49 6bbd 3f5b a33d 5d1b c43d
00000270: 2abd 9b3d 6960 9a3d 4bd1 473d c718 aa3d
00000280: 2093 edbc 19ad e03d 06ca 75bb 579c c8bc
00000290: 7064 d63d 7d88 de3d 6d2a 543d 374d 9ebd
000002a0: 98e7 bfbc b96f 893c 28a3 79bd 8313 033d
000002b0: b63d 503d 9f7d 2abd a02e cbbc c57b 353c
000002c0: e851 3c3d c26c a8bd a919 89bd 89d8 8bbc
000002d0: 6343 993d 1b26 0cbd f901 a83d a261 7a3d
000002e0: b984 af3c d56e e63c b4e5 a63d f2ce 41bd
000002f0: 489b c83d 8373 963d 8cf9 06bd ffaa b1bd
00000300: 62bb 093d 099f d8bb 0986 f4bc e60c 3a3d
00000310: 5f92 4abd 5a3c 3a3d 36ac 073c 9afe 273d
00000320: f164 643b 3701 b6bc 83bb 62bc 43bf aa3d
00000330: 7fa0 e0bc 2717 45bc 7c1b 6b3c 9428 bebd
00000340: 1801 2fbd b30c a93c c63e b0bb 96b9 bcbd
00000350: 2e8c 8fbd 73e0 25bd 0c5c babb d697 a83d
00000360: f281 393d 705b 253d d31e 66bd 5d0b 763d
00000370: 3734 12bc 3275 cd3c f9ec 3bbc 6c56 b7bd
00000380: 3cc5 8b3d 4ce5 9f3c fbf5 acbd 4d2d 31bd
00000390: c2fe 9fbd 3839 163d 064c f5ba 0111 9abd
000003a0: 7779 c6bc a199 9a3d 1f96 133d e80f c2bc
000003b0: 8e99 3b3d 152c bebd 50fd 82bd 6b2b 74bb
000003c0: d2e3 57bc 10e0 323c 01ba 8f3d f32f a9bc
000003d0: 4894 28bc 929f 68bd 5b7b bd3d 14b6 7a3c
000003e0: 4f69 243d aadc 9ebd 3c98 59bd fcf2 91bd
000003f0: 3426 b1bd c602 5739 7bd1 9a3d c827 293d
-0.029019108 -0.005535869 0.10584347 -0.056435782 0.05694322 0.070790105 0.10632192 0.060564987
0.02077663 0.073351845 -0.017533286 -0.02141143 0.056984928 0.05402494 -0.040365256 -0.050644007
0.02899171 -0.08140942 0.053320903 0.07780898 0.026643064 0.041484322 -0.030036936 0.076187536
-0.072892636 -0.051175766 0.10397733 -0.0043983413 -0.060509354 -0.08336316 -0.009955393 0.018415073
-0.07384091 -0.07710983 0.013168733 0.045910053 -0.09519809 0.02452086 0.01699506 0.10444037
-0.006377869 0.024259446 -0.08686051 0.13991047 -0.0010384334 -0.014092096 0.083548464 0.08647837
-0.042803846 -0.03454003 -0.035074025 0.09229257 -0.03644616 -0.07486703 -0.039533313 -0.04792754
-0.026252048 0.10215162 0.045422867 -0.0286143 0.101593375 0.0069517735 -0.040918577 0.029427774
-0.08030856 0.03333528 0.03146057 -0.08442867 0.024898702 0.009501175 -0.043316178 -0.046061043
0.067846544 0.09766745 0.056026436 0.035248097 0.0591738 -0.0029199154 0.07081428 -0.0035054258
0.01765256 0.0998841 -0.014224366 0.015921928 -0.007356347 0.022848692 -0.004444526 0.020281529
0.07155973 0.067239024 -0.07409379 -0.018344872 -0.08625478 -0.0463222 0.0037031549 0.037610367
-0.06745232 -0.089787364 0.09845635 0.06862458 -0.061311077 -0.08230915 0.058903888 -0.010762384
0.059489306 -0.0069504795 0.044262532 0.038507346 -0.03738106 -0.056641165 0.015844883 0.0470089
-0.06293142 -0.011226924 -0.031659044 -0.058158416 0.056160986 0.077779464 -0.08419711 0.031129763
-0.062215965 0.028741773 -0.07784256 -0.011350419 0.059004314 0.09914253 0.016534941 0.047105208
-0.009596739 0.05909876 0.079386055 -0.079505935 -0.032440677 -0.036420554 0.06462155 -0.056840733
0.07698819 -0.0029869177 0.053435 -0.06999401 0.055789024 0.016371895 0.030947778 -0.011435334
0.03321456 0.019493278 0.045123994 0.08650162 0.12113752 0.008727497 0.00800772 -0.03002858
-0.050086915 -0.057443243 0.07976388 0.09575532 0.076044396 0.0753792 0.04878358 0.08305507
-0.029000819 0.10970516 -0.0037504449 -0.024488611 0.10468376 0.10865877 0.051798273 -0.07729571
-0.023425862 0.016776906 -0.060946614 0.03200103 0.050840102 -0.041623708 -0.024802506 0.011076872
0.04597655 -0.08223869 -0.066943474 -0.017071025 0.07483556 -0.034216028 0.08203501 0.061128266
0.021425592 0.02812902 0.08149281 -0.0473165 0.097952425 0.07346251 -0.03295283 -0.08675193
0.033625968 -0.0066107553 -0.02984907 0.045422457 -0.049455997 0.045467712 0.008280804 0.04101429
0.0034850205 -0.022217376 -0.013838652 0.083372615 -0.02742028 -0.012029446 0.0143498145 -0.092850834
-0.042725652 0.020635938 -0.005378577 -0.09215085 -0.07009159 -0.040497255 -0.0056872424 0.082320854
0.04528994 0.040370405 -0.05618174 0.06006943 -0.008923582 0.025080297 -0.011470073 -0.089520305
0.06824729 0.019518517 -0.084453546 -0.043256093 -0.07812263 0.03667566 -0.0018714673 -0.075227745
-0.02422784 0.07548834 0.03603184 -0.023689225 0.045800738 -0.09285752 -0.06395972 -0.0037257324
-0.013176875 0.0109176785 0.07017899 -0.020652747 -0.010289259 -0.056792803 0.09252044 0.0153022
0.040139493 -0.07756932 -0.053123698 -0.07126424 -0.08649865 0.00020505031 0.075594865 0.041297704

lstm.bias_hh_l0 f4 [400]
00000000: 4ea6 1e3d 025d 213c e6e8 a93d 433b 07bd
00000010: 03c6 7b3d 942d d4bc 2666 48bd 1a12 a03c
00000020: 54de e7bc 7983 293b b04b 9ebd d943 29bd
00000030: b39b f53c 4e68 3cbd a848 003c 3139 2ebd
00000040: e799 223c 0783 393d 1faa c53c 7720 a3bd
00000050: c65e 9a3d f383 673d 1a3b 03bd 355e 1d3d
00000060: c8b5 96bb 7564 c83c a714 d13b 7364 adbc
00000070: 96e8 22bd 087e cf3d 63b7 5d3d dcb4 6d3d
00000080: d435 97bd 5c58 3e3d 8085 9c3d ac53 1ebd
00000090: eb2f 973d 1636 9ebd 1a3e ce3c 6b8d 73bd
000000a0: 1525 6fba e64b 373c b9b2 623c 15cf 573d
000000b0: 4470 00bd 258e db3c 9327 bbbc e4bf af3d
000000c0: ff09 afbd 5ae3 fc3c 443e 843d 3d50 b53d
000000d0: 8851 60bd 8347 cd3d 0423 e73b 1988 66bd
000000e0: c1cd 1a3d cfc4 7f3c 1de5 88bd 1ac1 613c
000000f0: af38 813c fab3 fe3d e691 833d ac62 533d
00000100: 6051 edb8 1539 31bd ac2d a63c 62f8 3cbd
00000110: 20d6 453b 09a4 86bd aa6e 8e3d d9fb 193d
00000120: 70a7 c9bc 094b 6b3d 2e56 b6bd 7bbf 4e3d
00000130: a3eb 0dbd 07c4 53bb a036 b0bd bbe8 bb3d
00000140: e013 fdbc 256e e13d 13dd a03d a335 a73d
00000150: 8239 10bd ac43 97bd a75e 403c 3191 b1bc
00000160: 20bb 103d dbd9 903b 3e43 babc 76cb 24bd
00000170: 7843 95bd 5d64 443d 046c cc3d 9ac7 64bd
00000180: 1b81 f5bc 983a ea3c 14e6 d13d db79 06bd
00000190: 18f0 ba3d 9b6f 813d 1ca9 453d e810 ea39
000001a0: ff9e 683c a578 05bd 48f0 863c ef7e ca3d
000001b0: 103b 793d e12f 1f3d fe76 88bc 7ff3 20bd
000001c0: c68c 8b3b 8dec 3ebd df29 a7bd 41e2 6bbc
000001d0: 8995 65bc 8f37 883d 32ed 333c 83d9 853d
000001e0: 7bed 053d 8ae7 5b3d 6e7d 85bd 3b2d 823d
000001f0: f508 fc3c 779b 2abd 3088 ca3d 311f a23d
00000200: 37d5 a53c 7b33 71bd b0c6 c93d 4216 acbd
00000210: 9ba1 97bd 1c90 88bc 1587 593d bb33 ac3d
00000220: 059e 723c 7deb 9b3c 40d9 35bc d877 843c
00000230: 48a3 a5bc a7d5 9b3c e88f ec3c 5180 d83d
00000240: 88a6 fabc 29cc a23d 5a26 a53d 7b45 383d
00000250: 5faf 85bd 38e3 85bd d48f 273d 1f1b bf3d
00000260: aa42 c83d 7e68 05bd 8509 e33c e13c 953d
00000270: f7d8 043d 4039 e73c 44f1 873d f3a4 bd3d
00000280: 1677 47bd 7d3c dc3d a977 a93d 8471 3abd
00000290: 548d 06bd cf65 8cbd 09ec 623d d34c be3d
000002a0: 806c a33d 55de ddbb 8f23 9c3d e01c 3abc
000002b0: 78dd 68bd 6e1b 833d b78b 703d 9955 a63d
000002c0: 04de 653d 2204 9ebd 0b58 a1bd 9150 103d
000002d0: b099 923d 3736 293d 188b ebbc 83f8 0cbc
000002e0: 3992 153d 9ee5 5dbd f214 d43c 8fe7 c93d
000002f0: 3d14 babc f45c 463c f529 663c b6aa 38bc
00000300: 7a8f 6c3d e8f4 cd3c f0bf 96bd c787 b8bd
00000310: 1720 b1bd 91f3 a3bb 4bc3 b73d 26bd 123d
00000320: 4d46 5f3d b93a d23d faf5 d13c dd54 6e3d
00000330: e5a4 49bd 2713 713c b9d1 60bd b067 8abd
00000340: 3529 0abb 0520 1dbd 2006 753c 7818 93bd
00000350: 643c 8a3d a374 0fbd 4f8c 373b 2bc3 31bd
00000360: 6add 063d 08e3 8d3c 18bd 72b7 4fda 7f3d
00000370: b325 81bd e67a be3c 51f6 6abc d405 3e3d
00000380: 200d 9f3d 8fa7 853d a0bd 4f3d 7049 16bd
00000390: a3c6 a63d 96cd c7bd db79 96bd 0d6a a03c
000003a0: 4388 ccbd 4792 c43d 89b6 c93c 51cc 163d
000003b0: c64b 8b3d 883f 4abd f977 bfbc 801e 9f3d
000003c0: 55de b13d 73e0 e13b 175c 213d faf4 863d
000003d0: 7271 3a3a 4ef9 643d d672 f3bc ecbe 47bd
000003e0: 1b3e 8abd 7796 4bbd c6da f7bb 5133 b6bd
000003f0: 46ab 5c3b dcb5 ff3b d55b febc 9339 c03d
0.03873282 0.009848835 0.08296375 -0.0330155 0.061468136 -0.02590064 -0.04892554 0.019539881
-0.028304256 0.0025865717 -0.0772928 -0.04132447 0.02998147 -0.04599791 0.007829823 -0.04253501
0.0099243885 0.045290973 0.024128972 -0.079651766 0.07537608 0.05652232 -0.032038786 0.03841992
-0.0045993067 0.024461964 0.006380636 -0.021166062 -0.039772592 0.101314604 0.05412997 0.05803381
-0.07383314 0.046470985 0.076426506 -0.038654014 0.073821865 -0.0772516 0.025176097 -0.05946104
-0.0009122652 0.011187529 0.013836556 0.052687723 -0.031357065 0.026801178 -0.022846019 0.08581522
-0.085468285 0.030870128 0.06457189 0.08853195 -0.054765254 0.100234054 0.0070537347 -0.056282137
0.03779388 0.015610888 -0.06684325 0.013778949 0.0157741 0.124366716 0.06424312 0.051607773
-0.00011316198 -0.04326733 0.02028545 -0.046135314 0.0030187443 -0.06574256 0.06954701 0.037593696
-0.024615973 0.057444606 -0.08903156 0.05047558 -0.03464855 -0.0032312886 -0.08604169 0.09175249
-0.030893266 0.110073365 0.078546666 0.08164527 -0.035211094 -0.07385954 0.011741317 -0.021675678
0.035334706 0.0044205016 -0.022737142 -0.040233098 -0.07288259 0.047947276 0.0998154 -0.055854417
-0.029968789 0.028592393 0.10248962 -0.032831054 0.091278255 0.06320115 0.04825698 0.00044644554
0.014198064 -0.03258576 0.016471997 0.09887492 0.060847342 0.03886402 -0.016658302 -0.039294716
0.004258725 -0.04661231 -0.08162283 -0.014397205 -0.014012703 0.06651222 0.010981845 0.06535628
0.032697182 0.05368761 -0.065180644 0.06356283 0.03076599 -0.04165217 0.09889257 0.079161055
0.02024327 -0.058886986 0.0985235 -0.08402683 -0.07403871 -0.01667028 0.05310734 0.08408304
0.014808183 0.019033188 -0.01109916 0.016170427 -0.02021946 0.019022776 0.028877214 0.105713494
-0.030596986 0.07949097 0.080639556 0.044988137 -0.0652759 -0.06537479 0.04090865 0.09331345
0.0977834 -0.032570355 0.0277145 0.07287002 0.032433476 0.028225541 0.06637815 0.09259977
-0.048697554 0.10753725 0.082747765 -0.045518413 -0.032849625 -0.06855356 0.055400882 0.09291997
0.07979679 -0.006770889 0.0762397 -0.011359423 -0.056851834 0.06401716 0.058726992 0.08121795
0.056119934 -0.07715632 -0.07878121 0.035233084 0.0715822 0.04131147 -0.028752849 -0.008604172
0.036516402 -0.05417406 0.025888894 0.098586194 -0.022714728 0.012107123 0.014048089 -0.011271169
0.057754017 0.025141194 -0.07360828 -0.090102725 -0.08648699 -0.0050034006 0.08972796 0.035824917
0.054510403 0.10265107 0.025629986 0.0581864 -0.04922952 0.014714039 -0.054887507 -0.06758058
-0.002108169 -0.038360614 0.014955074 -0.071824014 0.067498 -0.035023343 0.0028007214 -0.043399017
0.032926 0.017320171 -1.4468351e-05 0.062464055 -0.06306019 0.023251962 -0.014340953 0.046392277
0.07766175 0.065261 0.05071795 -0.03669113 0.08143356 -0.09756009 -0.07347461 0.019581819
-0.09986927 0.09598213 0.024623172 0.036815945 0.06801562 -0.049376994 -0.023372637 0.07769489
0.086849846 0.0068932115 0.039394464 0.06589694 0.00071122416 0.055901818 -0.029717844 -0.04876606
-0.06750127 -0.04970404 -0.0075639216 -0.088965066 0.0033671423 0.0078036617 -0.031049648 0.093859814

lstm.weight_ih_l1 f4 [400, 100]
00000000: eb60 56bd 1396 b7bd 4182 ac3d 69df c83d
00000010: 344d c5bd 0d70 893d 25e0 a23d 465f 8bba
00000020: f8b8 9abd 1c9c 22bd 7573 b33d 8415 d1bd
00000030: ed81 e83c a346 9bbd b1a2 d1bd 09c6 dd3c
00000040: 23cf 43bd 60b5 90bd e905 4ebd 2a2e f63c
00000050: 1658 063d 3078 843d 3d27 11bd 08dc c8bd
00000060: 9af5 fbbc 4c8c c2bd b07d be3a aa5d ff3a
00000070: 2b51 b93d 99d5 1c3d 9a7a 3e3c 979b 26bd
00000080: 11c2 063b 4f65 9c3d c256 b7bd e4b0 163d
00000090: c0b9 bfbd 1b03 85bd 657d a2bc efe7 803d
000000a0: 36ec b43d 3bde 2abd 03ef 993d e0a2 1dbd
000000b0: 1ef9 8f3d cab3 993b 5379 b03d 1f1b c13d
000000c0: 6539 99bd 1f3d 3abd f91f a2bd 39f5 babd
000000d0: 3d2e 6bbd 0f05 98bd 26d4 4f3d b9ad 8b3c
000000e0: 18a8 24bd e885 7c3c e265 0c3c bfa6 a73d
000000f0: beae b1bb 2631 8b3d 07fd 9e3d aaec b8bd
00000100: 20c2 76bc 9829 c63a 0ec3 95bd 099a acbd
00000110: cf36 0abd 5986 a8bd f21a 513d 6ce4 d43a
00000120: 64c0 85bc c74e 993d b54b 80bd a3b3 733d
00000130: d8d3 7fbd 5fae 733d 4ef8 0cbd 35dc cdbb
00000140: a78c 60bd 6860 8f3d 0e9c 973d 3420 44bd
00000150: 274f 733d cbae 81bb 0b99 82bc 68d6 943d
00000160: aade 99bd a8b6 41bb 5027 dcbc ce46 1cbc
00000170: 5a1e 9abd a102 a2bd 8915 36bd 88fd 10bd
00000180: 081e 36bc 27e4 cebd 854c 713d 7c74 883d
00000190: 82a7 403b eb81 6f3d a0ac 9e3d 5cab 453d
000001a0: df77 a93d 043d 223b e044 bb3c d5f6 143d
000001b0: a450 b13d 792f 57bd f3db b5bd 1b35 6dbd
000001c0: 557e c03d 4ead be3d d4c9 8b3d c2e4 943d
000001d0: 6ad3 1d3d 423b 0dbc 4916 903d 9eb4 ac3d
000001e0: 4005 923d 4bc6 b4bd 0d47 c03d bffc f93c
000001f0: 8034 cabd 8f05 babd 3bdc babd 0775 793d
00000200: 07bd 333c 8d53 b43d e46a 343d a57a a4bd
00000210: 5d8e 9cbd 8bf4 d2bd f8ce dc3c 7675 85bd
00000220: e8af 813d 1d01 24bd 9ced 4bbd ed12 62bd
00000230: 6f4a 88bc 8cd8 bdbd 80a3 563d 4f5e afbd
00000240: 5a6c 853c ab75 8ebc b553 97bd b7c7 a43b
00000250: d54d 863d 7d30 cbbc 9d7b f2bc 3eb6 39bd
00000260: 8350 af37 d488 e5bc 9a63 77bd 755c 4cbd
00000270: c82a 193c 5b39 c23d dfd0 b0bd 2ad2 6cbc
00000280: 9b7b 83bd bf64 d73d e991 a2bd 7cb9 b93c
00000290: 9dc8 90bc f2c5 b9bd afa2 bfbd 3abf 9dbd
000002a0: fff2 4bbd 3a5a bfbd 1d50 9dbb ea8c c13b
000002b0: c1fe abbd 53a5 4c3d 2d62 f6bc c725 023d
000002c0: 4f90 bd3d 1801 da3c 5710 80bd c2bb c43d
000002d0: 83bd 913d 339b aa3d abfb d43c 9457 a7bd
000002e0: 095c 673d 1adf a1bd 09ad 333d 30b9 c8bd
000002f0: 5ee8 21bd 35fb 67bc 641d 17bd 5b68 9cbd
00000300: 5e6b 11bd 52a6 ccbd 7c34 cfbd 1cc4 a93c
00000310: 1508 403d ccd2 3dbb a959 cbbd fde2 933c
00000320: 6d97 d5bc 0820 c6bc 7eb2 21bb 2696 7cbc
00000330: 5e72 a6bd 57eb 503d 0d56 893d 4bd8 03bd
00000340: d747 9a3d 92ea f83c 9321 d53d e900 323d
00000350: c90d 843c 5c47 37bd 59fa d3bd 3559 cc3d
00000360: 570e 90bc 4117 5f3d 14d6 c8bc ef13 92bd
00000370: c8f4 59bd 274a 753d de31 8abd ce1e c23c
00000380: 243c a53c 1bee 803c dfcd 99bd 7681 f0bc
00000390: 675b 9ebd c750 35bd 8d60 2bbd f4a3 953d
000003a0: 092e d0bb a3f7 8f3c 2f5c adbc c7f0 11bd
000003b0: 7748 8c3d 3ad0 aa3d bba3 c7bc 61aa c83c
000003c0: f21d 333c 80f6 d5bc bfa4 a4bb 0b1a af3d
000003d0: 0c93 37bd 4646 97bd 30fd b03d 79b3 263d
000003e0: d530 7abd bb4a d83c f87a 143d 4600 133c
000003f0: f1bb cfbd fb55 533d f2ec 40bd 160c 97bc
-0.052338522 -0.08964171 0.084232815 0.09808237 -0.09633866 0.06710825 0.079529084 -0.0010633252
-0.07554811 -0.03969966 0.08762256 -0.10209182 0.028382266 -0.07581832 -0.10236109 0.02707197
-0.047804963 -0.070658445 -0.050298605 0.03005131 0.03279885 0.064682364 -0.03543781 -0.09807593
-0.03075676 -0.09499416 0.0014533307 0.001948287 0.09048685 0.03828964 0.01162591 -0.040675726
0.002056245 0.076365106 -0.089520946 0.03678979 -0.09361601 -0.06494733 -0.019835183 0.06294238
0.08834116 -0.04171584 0.07516291 -0.038485408 0.07029937 0.004690622 0.08616891 0.09429001
-0.0748165 -0.045468446 -0.079162546 -0.09128804 -0.057417143 -0.0742284 0.05073943 0.01705061
-0.04019937 0.015412785 0.008569213 0.08186101 -0.005422442 0.06796484 0.07763105 -0.09029515
-0.015060931 0.0015118597 -0.07312594 -0.084278174 -0.033743676 -0.0822875 0.051051088 0.0016242391
-0.01632709 0.07485729 -0.0626444 0.059497487 -0.06245789 0.059492465 -0.03441649 -0.0062823542
-0.054821637 0.0700081 0.07402812 -0.047882274 0.059401657 -0.0039576045 -0.015942117 0.07267457
-0.07513173 -0.0029558334 -0.026874214 -0.0095383655 -0.0752532 -0.07910658 -0.04445413 -0.035398036
-0.011115558 -0.1010211 0.058910865 0.06662843 0.0029396717 0.05847351 0.07747769 0.048259124
0.08274817 0.0024755606 0.02285999 0.03636821 0.08657959 -0.052535508 -0.088798426 -0.057911973
0.09399096 0.09310399 0.06825605 0.072701946 0.0385317 -0.008620085 0.070355006 0.084328875
0.071299076 -0.08826884 0.09388552 0.030516027 -0.09873295 -0.090830915 -0.09124037 0.06090262
0.010970361 0.088049985 0.04404725 -0.08031205 -0.07644341 -0.10300549 0.02695416 -0.065165445
0.063323796 -0.040040124 -0.04978715 -0.05519383 -0.016637055 -0.09269819 0.05240202 -0.0856291
0.016287018 -0.017390093 -0.07389013 0.0050286907 0.06557814 -0.024803394 -0.029599959 -0.045339815
2.0899117e-05 -0.028019346 -0.06039772 -0.04989286 0.009348579 0.09483596 -0.08633589 -0.014454404
-0.0642006 0.10517263 -0.079379864 0.022671454 -0.017673785 -0.09070958 -0.09357201 -0.07702489
-0.049792286 -0.09343381 -0.00480081 0.005906691 -0.083982 0.049962353 -0.03007611 0.03177431
0.0925604 0.02661185 -0.062531166 0.096061245 0.071162246 0.08330383 0.02599891 -0.08171001
0.056484256 -0.07903881 0.04386619 -0.09800947 -0.039528243 -0.0141590135 -0.036893263 -0.07637092
-0.035502784 -0.099926606 -0.101174325 0.020723395 0.046882708 -0.0028964756 -0.09929211 0.018052572
-0.026073182 -0.024185196 -0.002467304 -0.015416658 -0.081272826 0.051005688 0.06705866 -0.032188695
0.075332336 0.03038529 0.104067944 0.0434579 0.016119855 -0.044745788 -0.103504844 0.099779524
-0.017584963 0.054465536 -0.024516143 -0.07132708 -0.053211957 0.05988517 -0.06747793 0.02369633
0.020170279 0.015738538 -0.0750997 -0.029358607 -0.07732277 -0.04426649 -0.041840125 0.07306662
-0.006353144 0.017574137 -0.02116212 -0.035630014 0.06849759 0.08340497 -0.024370065 0.024495305
0.0109324325 -0.026118517 -0.005024522 0.08549889 -0.04481797 -0.073864505 0.08642042 0.040698502
-0.061081726 0.026402822 0.036250085 0.008972233 -0.10143269 0.05159567 -0.04710097 -0.01843838

lstm.weight_hh_l1 f4 [400, 100]
00000000: 2b6b 823d f391 9e3d 37e3 bf3d 8ad1 54bd
00000010: c4dd 7abd ec44 2a3d fc3c 823c 978f a3bd
00000020: 3285 923d b3e7 ccbc aa7e a4bd 4331 b93d
00000030: fbb1 94bd e5ce bbbd 47b2 46bd e98d 98bd
00000040: 5523 a43d 3707 80bc c6e0 ac3d 8d9b 91bd
00000050: 6e21 573d 3d2c 97bd 3e71 8dbd 8828 a23d
00000060: 5eba fb3c 8975 40bd f12f 443d 0cc5 843c
00000070: d9a3 2ebd 8f08 2a3d 201e d93c 7bc8 103d
00000080: 7a37 8e3d 11ee 85bc 700a 8dbc 8bc8 39bc
00000090: 6168 9dbd 6171 d03c 96f0 3abd 93e2 24bd
000000a0: 7509 2fbd a522 143d 3301 b03b e533 723d
000000b0: e79a c6bd b22d 59bb 7d37 b63c 72bd 8fbd
000000c0: babb 523b 9b95 b8bc 81e9 bbbd 1c44 7fbd
000000d0: 3925 863c 256a 083d cfba cebb a211 a73d
000000e0: 9f18 91bd 6197 92bd f10b 8c3d 111a b7bc
000000f0: c8b1 9dbc 71db 9abd 8771 b6bd 344c bfbd
00000100: dc19 a7bd 5539 c33d 1520 833d 9913 903c
00000110: 503b 7b3d 9e85 a83d fdeb af3d 31bf b33c
00000120: 71b7 35bc 32b7 563d 3fa9 bb3d 5d8f 913d
00000130: e348 b53d 4132 a13d 30ff b1bd 93e3 c2bd
00000140: e19e 5f3d 307b bfbd 8f44 233d 27f8 e5bc
00000150: b6cb 8dbd a511 3bbd 01f8 afbd 60d2 a6bd
00000160: 1115 5cbd 50b7 0bbc b21e 6e3c f0de 56bc
00000170: 88e8 a13d 45a4 c33d d2e7 443d b975 e83c
00000180: b75b be3d 4fe1 fb3c b908 babd 4d67 ab3d
00000190: 385d 80bc cd2c 693c f5a5 75bd c3f1 a13d
000001a0: c8f4 423d aa5f 80bd 8ddf 723d a1ad 8bbc
000001b0: 6357 64bd c2c6 abbc d59e 8e3d 74cb 43bd
000001c0: b975 813d 15b6 743d 8a36 e03c 8095 78bd
000001d0: de68 c0bd ba8e 9cbc 83a5 163d 5a5f c03d
000001e0: 2b7f 0bbd c4c3 babd 4b7b 90bc b1de 4ebb
000001f0: ef8d 8c3d 461c 8abc 7b20 293b 197c 4f3d
00000200: a10a 763c 79d1 923c 1029 5e3d cfe3 73bd
00000210: 5a79 f53c 5049 0ebc 7b32 88bd 9305 1ebd
00000220: e827 69bd 37f7 e7bc f63a c1bc ef8d ca3d
00000230: d008 b7bc 47f6 bbbd b659 98bd 7067 543d
00000240: 0ab1 27bd 2b95 0ebd a0d5 06bc d85d 56bd
00000250: 2158 9b3d 9bc6 ac3a 893e 95bd 0222 63bd
00000260: 9abd bebd d73c c1bd 3fa0 1abd 9c33 ccbd
00000270: 6fb4 9ebc db44 193d 8716 d1bd fd6e 7dbd
00000280: 87cf a43c c632 7b3d d71d 8dbd 4a77 943c
00000290: 43ea 423d bb5c 68bd 59d7 e1bc cf00 b53d
000002a0: 2334 ca3d b873 08bd 1b23 463d a785 54bd
000002b0: f170 83bd 2937 933d da7b c13c 0845 43bd
000002c0: dc83 133d c98e 233d c3ef b53d 92d4 56bd
000002d0: a99c 99bc 26d7 ca3c e486 49bc 3d6f 8cbd
000002e0: 92fb 023d dfdb 1bbc 0aff c03d dabf a2bc
000002f0: 6bae 483c d934 823d ff66 aa3d 8bd7 423d
00000300: 5e27 6b3c 2fcf 973c b55f 90bc eae3 96bb
00000310: 3ae9 3d3d 4b77 fa3c d6a8 bebd 9d97 0c3c
00000320: e6f1 bebc c247 d1bd 323b bebd d43b c73b
00000330: 14c4 85bd 1e98 c53d 98a7 a8bd 3396 17bd
00000340: bef8 54bd f29b 83bd 44f9 c0bd 2a50 833c
00000350: d241 b13d 4354 eebb 7b80 4c3d 1e44 bf3d
00000360: 4f32 b1bd 4fe6 0dbd 4c74 74bd 32d5 a2bd
00000370: 881b ec3c 38a5 8b3d fc20 dfbc 552b 84bd
00000380: 4155 60bd 3a2f da3b 5be0 93bd 2690 ef3c
00000390: 4947 7d3c 2bbf 04bc b51d 30bd 4de0 cfbc
000003a0: 484f 573d 3fa6 2b3d 4594 68bd 76fc 06bd
000003b0: b0e9 c7bc dd11 81bd 579c 7a3d 2542 83bd
000003c0: 582f 88bd 89fb 813b cdeb 8e3a 4490 77bd
000003d0: 38b6 17bd 5f9a 39bd 08f5 7b3d 33f7 a3bc
000003e0: ed65 673d 9875 47bb d04a bf3d c913 b03c
000003f0: 742d 8bbd 8ee7 b1bc 2b4c ee3c 7066 413d
0.06368097 0.07742681 0.0936951 -0.051957645 -0.06124665 0.041569635 0.01589822 -0.07986372
0.07154311 -0.025012827 -0.08031972 0.09042599 -0.072605096 -0.091703214 -0.048509862 -0.07448942
0.080145516 -0.01562844 0.0844131 -0.07109747 0.052522115 -0.07381485 -0.06906365 0.07917887
0.030728515 -0.04698709 0.047897283 0.01620724 -0.042636726 0.04151207 0.026503623 0.035347443
0.06944175 -0.01634887 -0.017216891 -0.011339317 -0.07685924 0.025444688 -0.045639597 -0.04025514
-0.04273363 0.036165852 0.0053712367 0.05913152 -0.09697514 -0.0033138809 0.022243256 -0.07018556
0.003215535 -0.022532275 -0.09175397 -0.062320814 0.016375171 0.033304352 -0.0063088904 0.0815766
-0.07084774 -0.071577795 0.06838215 -0.022351297 -0.019249812 -0.075613864 -0.08908372 -0.093407065
-0.08159229 0.095324196 0.064026035 0.01758747 0.06133586 0.082286105 0.08589933 0.021941753
-0.011091099 0.052420802 0.091631405 0.071074225 0.08851793 0.07870913 -0.08691251 -0.095160626
0.054594878 -0.09349668 0.039860304 -0.02807243 -0.069236204 -0.045671124 -0.08592225 -0.081455946
-0.053731028 -0.008527592 0.0145336855 -0.013114676 0.0790568 0.09552816 0.048072644 0.028376447
0.09294837 0.030747084 -0.09083695 0.083693124 -0.01566945 0.014231873 -0.059972722 0.079074405
0.047596723 -0.062682465 0.059295226 -0.017050566 -0.0557474 -0.020968799 0.069638886 -0.04780145
0.06321282 0.05974396 0.027369756 -0.06068945 -0.09395002 -0.019111026 0.036778938 0.09393187
-0.034056824 -0.091193706 -0.017636916 -0.003156584 0.06863009 -0.016859185 0.0025806713 0.050655458
0.015017183 0.01792215 0.05423838 -0.059543427 0.029965091 -0.008684471 -0.066502534 -0.038579535
-0.056922823 -0.028316123 -0.023587685 0.09890353 -0.02234307 -0.09177833 -0.07438986 0.05185646
-0.040940322 -0.034810226 -0.008229643 -0.05233559 0.07585169 0.0013181748 -0.07287318 -0.055452354
-0.093135074 -0.094354324 -0.03775048 -0.09970781 -0.019373147 0.03741918 -0.10209375 -0.061873425
0.020118488 0.06132772 -0.06890457 0.018123288 0.04758669 -0.05672906 -0.027568506 0.08838045
0.098732255 -0.033313483 0.048373323 -0.051885273 -0.06418026 0.07188255 0.023618627 -0.047673255
0.036014423 0.039931092 0.088836215 -0.052448817 -0.01875146 0.024760794 -0.012300227 -0.068571545
0.031978197 -0.009512871 0.09423645 -0.019866873 0.012248616 0.06357736 0.08320426 0.04756884
0.014352648 0.01853141 -0.017623762 -0.004604806 0.046365 0.030574461 -0.09309547 0.008581069
-0.023308706 -0.10218765 -0.09288634 0.00608013 -0.065315396 0.09648155 -0.08235091 -0.037008476
-0.05199503 -0.064262286 -0.09422544 0.016029436 0.08655132 -0.0072732284 0.049927216 0.09339164
-0.08652174 -0.034643468 -0.05968122 -0.0795082 0.028821722 0.06818622 -0.027237408 -0.064535774
-0.054768804 0.006658462 -0.07220527 0.02924354 0.01545889 -0.008102219 -0.04299708 -0.02537551
0.052565843 0.04190659 -0.056782026 -0.03295561 -0.024403423 -0.06302235 0.061184254 -0.064091004
-0.06649655 0.003966753 0.0010904014 -0.060440317 -0.03703901 -0.045313235 0.061512977 -0.020015335
0.05649369 -0.0030435082 0.09340441 0.02149381 -0.06795779 -0.02171686 0.029089054 0.047216833

lstm.bias_ih_l1 f4 [400]
00000000: 5032 463d 7417 7c3b 09de 4f3d 06a7 8e3d
00000010: 37dd ce3c 5412 4d3d 73d4 7c3d de07 c0bc
00000020: 4374 683d 61a8 263c 38ea 9dbd 5b6f 633d
00000030: dd02 c6bc fc20 c73d 862f 5a3d b7db 61bd
00000040: 6143 3c3d f263 8e3d f3f7 8dbd 8751 843d
00000050: cfd5 833b d50a 4e3d 3954 113d e1b5 a1bd
00000060: e310 a03d 67e6 b9bc 385c c939 fde5 993d
00000070: 7b6f 863d ea9d b63c 6bce e4bc d402 3dbd
00000080: a092 58bd 37ed 2bbd 8d6a f03c 3e7d 5e3d
00000090: dfb4 82bd 5759 4b3c b645 a4bd bcbe 4c3d
000000a0: 4247 2e3c 6ad5 31bc 29aa 5fbd f766 cb3c
000000b0: 4809 7b3d 4612 4dbd 18ec 2fbd 4f60 a6bc
000000c0: c466 42bd 9416 48bc 3668 a23d 8d69 b9bd
000000d0: b128 a8bc ccb6 bf3d 123b a03c ca4d 653c
000000e0: 1bfb 0fbc ddfb f1bc 301c e3bc 38e7 32bd
000000f0: 2b37 593d e037 4cbd 27a2 c23d 4b19 9dbc
00000100: fffc d83c f1de 903c 0471 823b 3a4a a5bc
00000110: 4d97 863d 8007 b13d f430 9d3b 4a11 52bd
00000120: d672 c33d 96d4 2abd 60cf 11bd f4dc d1bc
00000130: 08d0 86bd e5d5 8dbd 67a4 d2bc 1321 883c
00000140: 13d3 103d 8282 773d 52c6 74bd b46e cabc
00000150: 88b1 a23d 3427 e6ba 9f2d f4bb cf09 00bd
00000160: e89b dd3b 48b6 753d e87e 393d 8508 87bd
00000170: 2382 41bd 412b b9bc 12d7 313d b185 6b3d
00000180: 0313 f2bc cf8b 5b3d 25f5 053e de81 62bd
00000190: b0d7 babd e920 bfbd 091d 053d 8007 b2bc
000001a0: f48c 663d 503f 54bd c956 3dbd e122 babc
000001b0: f088 543d 61d0 133d 3cda ce3c bab9 ca3d
000001c0: 2fe8 81bd 3288 96bd 27a0 133d 0f66 22bd
000001d0: d383 80bb 868c acbc 532a 9d3d ca95 d3bc
000001e0: bfb2 a73d de7d bc3b ffff 2dbd 68ee 7dbc
000001f0: 64d6 b53c 11cd 703d 11b5 80bd 9ea1 e13c
00000200: 10cb 08bd f75f 8fbd fd7e ec3c 7cd0 823d
00000210: 6953 0a3d 0807 873b d269 083c c4fa 35bd
00000220: b417 bb3d a47d 6cbb ad07 97bd d67d d23c
00000230: a9a1 fb3a 5309 ba3d ec63 4fbb a8ac 0cbd
00000240: 8646 2e3c cc60 4d3d a60a a8bd 9719 953d
00000250: f8d1 c3bd 0971 933d 158e 853d 2c45 94bd
00000260: 8e5f a6bc db11 b6bd bf4e 9fbd ed0a 4f3d
00000270: b0b0 c13d f1f1 273d d1dc ab3d 1545 823d
00000280: 9aa5 033d db67 e5bc fc53 1d3d b922 123d
00000290: 3575 283d 7ce2 d7bd e18e 3f3d d689 cdbc
000002a0: bbd4 8e3d fb3c 0d3d 7439 89bd d7d7 94bd
000002b0: 1224 94bd 044e a53d 45ff 733d ea2a bd3d
000002c0: 8df6 e6bc 14f1 50bd 4f98 71bd c886 88bd
000002d0: 8c23 dbbc 34a8 c4bb 9ff5 93bc 1fa8 8e3d
000002e0: fca1 793c cd3a 893d 186a 903c 4290 bb3d
000002f0: 8c2a ba3d af00 623d 6f5a 7dbd 38a2 d8bc
00000300: aa8f 8ebd f760 c23d 417c d53b 1a46 8fbd
00000310: c2ee a03d 1260 023c 5b16 333d a8a3 59bd
00000320: 52ef 8e3d 294c 60bc ede1 86bc 22f3 94bd
00000330: 14d9 483d 0ba2 953d a536 973d d734 b63d
00000340: 5613 ca3b 58e8 aa3c fb4b 47bd d98f 9c3d
00000350: 5ddb ddbd d64d bebc 96fb 87bd 30aa 653d
00000360: 8512 54bd 0dae a7bd c4c7 813d 2611 14bd
00000370: 7306 e03d d89a 223d 8db4 a3bc cd7b 37bb
00000380: 14e4 1e3d 7b27 3abc 0b3a b5bd 04ca a33c
00000390: 6cd7 25bc 46bb 943c 5d7e b5bd f566 813d
000003a0: a60a 5bbd 9a1c b6bd 9f54 24bd 2d3c a63d
000003b0: 8044 5c3d 5d7d 5b3d 6d25 abbd d70a d2bc
000003c0: ac04 4e3d 5391 493d b310 003c 8095 6c3d
000003d0: 16c6 b9bc b453 42bd b069 aebd 8e25 2fbd
000003e0: 73f6 0cbd fefc a5bc 7796 9b3d 09fb b6bd
000003f0: f711 14bc 4c14 58bd 8cf6 23bc ba33 893d
0.048387825 0.0038466128 0.05074886 0.06965451 0.025251968 0.050066307 0.061726045 -0.023441251
0.0567515 0.010171981 -0.07710689 0.05552612 -0.024171287 0.09723088 0.053267978 -0.055141177
0.045962695 0.06952657 -0.06932058 0.064608626 0.0040232907 0.0503033 0.03548071 -0.07896019
0.07815721 -0.022692872 0.00038406416 0.0751457 0.06564232 0.022292096 -0.027930459 -0.046145275
-0.052874207 -0.041974273 0.029347682 0.05431866 -0.06382155 0.012411437 -0.08021109 0.049986586
0.010637106 -0.0108541045 -0.054605637 0.02482937 0.06128815 -0.050066255 -0.042949766 -0.020309595
-0.047461286 -0.012212414 0.07930033 -0.09053335 -0.020527216 0.093610376 0.019559417 0.013995597
-0.008787896 -0.029539043 -0.027723402 -0.04367754 0.053031128 -0.049857974 0.09503584 -0.0191771
0.026487825 0.017684432 0.0039807577 -0.020176996 0.06571827 0.08644009 0.0047970954 -0.05128602
0.095433876 -0.041706644 -0.03559816 -0.025618054 -0.065826476 -0.06925563 -0.025713159 0.016617334
0.035357546 0.060427196 -0.059759445 -0.02471099 0.07944018 -0.0017559291 -0.0074517275 -0.031259354
0.0067629702 0.05998829 0.045287043 -0.06593422 -0.04724325 -0.022603633 0.043417998 0.057500545
-0.029550081 0.05360013 0.13081796 -0.055299632 -0.091231704 -0.09332449 0.032498393 -0.021732092
0.056286767 -0.051818192 -0.046225343 -0.02272171 0.051888406 0.036087397 0.025250547 0.09898706
-0.06343114 -0.07350196 0.036041405 -0.039648112 -0.0039219647 -0.0210631 0.07674088 -0.02582826
0.0818839 0.005752309 -0.042480465 -0.015498735 0.022196956 0.058789317 -0.06284536 0.027542885
-0.03339678 -0.07000726 0.028869146 0.063874215 0.033770952 0.0041207112 0.008326011 -0.0444286
0.091353804 -0.003608563 -0.07374511 0.025694769 0.0019197959 0.0908381 -0.0031645251 -0.034344345
0.010636931 0.05014114 -0.08205156 0.072802715 -0.09561533 0.07199294 0.065212406 -0.07239756
-0.020309236 -0.088901244 -0.077786915 0.05054753 0.094575286 0.041002218 0.08391727 0.063608326
0.03214035 -0.028003624 0.038410172 0.035677645 0.041127402 -0.10541245 0.04676712 -0.02509014
0.06974169 0.034481984 -0.067004114 -0.07267731 -0.07233442 0.08071521 0.059569616 0.09236701
-0.028193736 -0.05101116 -0.058983143 -0.066663325 -0.026750349 -0.0060014967 -0.018061457 0.0696566
0.015236374 0.067006685 0.017628714 0.09158374 0.090901464 0.055176433 -0.061853822 -0.02644454
-0.069609955 0.09491151 0.0065150564 -0.06995793 0.078580394 0.007957475 0.04372249 -0.05313459
0.069792405 -0.013690033 -0.016465152 -0.072729364 0.049035147 0.07306298 0.073834695 0.08896797
0.006166856 0.020862743 -0.048656445 0.07644624 -0.10832856 -0.023230474 -0.06639783 0.056070507
-0.051775474 -0.081874944 0.063369304 -0.036149167 0.1093873 0.03969845 -0.019983554 -0.0027997375
0.03879173 -0.011361952 -0.088489614 0.01999379 -0.010122161 0.018155705 -0.088619925 0.063184656
-0.053476952 -0.08892174 -0.040119763 0.08116946 0.053776264 0.053586353 -0.08356748 -0.025639934
0.050297424 0.049210858 0.007816481 0.05775976 -0.022677463 -0.047443107 -0.08516252 -0.042760424
-0.03441472 -0.020262238 0.07597058 -0.089346 -0.009037486 -0.05275373 -0.010007512 0.06699319
