save_results/lstm_long_term_365d_run1.pt (torch, 312341 bytes, 10 tensors)

lstm.weight_ih_l0 f4 [256, 12]
00000000: 448b ff3d abe0 5e3d 0ac8 cb3c ff85 963d
00000010: 1218 e03d 751f 613d 0026 21bd f42c 9fbd
00000020: 4c3c b53d e243 0d3d 97a2 843d e16e 8c3d
00000030: c849 1a3d f106 8abd e515 3a3d 29b2 c6ba
00000040: a8c0 163c 0285 353d 983e c03b 9a6a 01bd
00000050: cddb 633d a6fa dcbd e1d3 9d3b b54b 05bd
00000060: 209f 59bd aecf ff3d 8291 13bd d7bf 333d
00000070: 155e 703c 248c bbbd ae02 643d d892 293d
00000080: b9a2 bfbc da6a c43d 84d1 bf3d 90bc cdbd
00000090: e410 8cbd 1edf ca3d ff4f cb3d 4eda 1cbb
000000a0: 8b8b c8bd 86ac 95bc 1b54 7abd 414a a0bd
000000b0: 4370 3d3d 53c7 c8bd 770c 503d 07ee 3abc
000000c0: 9b75 b5bd da6a e2bd 952e 68bd b3c2 683d
000000d0: 2549 823c 670d 00be 3aa5 bcbc d8c6 263d
000000e0: 3969 b3bd 6c18 ce3d 1633 d0bd 4da3 c03d
000000f0: bb67 9f3b 8d3f 713d 9264 3d3d 1d78 0ebd
00000100: 0195 69bd 3372 6fbd 6330 c23c c8d1 793d
00000110: aa3c d83c 4065 0ebc 4c58 c63d 7e46 b7bd
00000120: fde0 b5bd d29d b2bd 43c5 9abd 3fcc 79bd
00000130: 15cb dabd 1086 023e 9bc9 f13d 0453 853d
00000140: 96ab b1bd db05 a1bd 9fa1 883d 0f11 2b3d
00000150: 0560 e3bd c943 9ebd 0d45 d5bd 7fbd fa3d
00000160: 01b1 be3c ea0d e2bd cfd3 c33c c1ff 5a3d
00000170: 6e24 9b3d 2c6c c23c c007 c53c 30be a63d
00000180: ea7d d33d 0531 733d e6f0 383d 8701 fb3d
00000190: d2e5 ff3d abf6 67bd 0e83 63bd 3462 8d3d
000001a0: cdff d83d f56b c23b f195 cbbd 1593 e6bd
000001b0: 34ca a83d 385a c5bc 3715 1d3d 0529 e7ba
000001c0: fc48 ebbc 6376 f7bd e2df 893d 2ca2 a03c
000001d0: ec36 643d b69c a7bc 6c43 e1bd 0df4 febd
000001e0: 8bf1 783c e658 90bc 8da4 993d 59a9 f0bc
000001f0: bf03 42bd 66ae b9bd 6a7d 833d 730b 023d
00000200: 378c 8dbc de09 163c f87d dbbc 7e28 9bbd
00000210: bf73 c73d a5f7 c3bd ae8c 89bd a5da f33b
00000220: 75e4 bfbd c27b 04bd 9235 a43c 07b1 623d
00000230: 7aa5 f33c cd9e 473d 52cf 3fbd 3e6f fb3d
00000240: 47cf 983d 51ff 283b 093f 113d fecd 4f3d
00000250: 4297 fe3d 9496 6a3c d8b3 8ebd 25ae cebd
00000260: 6598 3c3c 9fa8 d03c 8d87 fbbb 1a51 db3d
00000270: 3645 a9bd 2f62 f93d eff0 d9bd 8696 833d
00000280: f0fb b33c 1427 ab3d 1e31 a23d 5f59 5fbd
00000290: 1ac2 bdbd 033b 85bc b648 403d 9f9c a4bc
000002a0: ca42 f73d 65d0 ea3d 11e5 5bbc e4b5 47bd
000002b0: 1a93 203d 2fd2 0dbb 4513 67bc a151 bdbd
000002c0: df62 90bd 5ace 91bd c9f0 debd d0e9 8e3d
000002d0: d44f fd3c 961c 963d 733a ae3d f935 6f3b
000002e0: b6c3 9ebd 43bb fe3d 83e9 1fbd 0668 e7bc
000002f0: ed15 96bd 4e4b 873c 10c0 f2bd c4a1 c23a
00000300: d48f b03b 75d0 aa3d b80d c1bd c19c 893d
00000310: 63f6 dabd 3666 08bc 877e 503d 8376 b13d
00000320: 2edd e8bd 762a f3bb 6b59 aebd 5a0b 113d
00000330: 2388 6fbd ffc3 88bd c04b 4ebd 3738 33bd
00000340: e761 e5bd b4ba d9bd 50af 53bc ec27 70bb
00000350: 35aa fc3d b028 a63d 558b 21bd e383 bb3d
00000360: e09f a0bd c026 d6bd 72f5 023e 01c0 403d
00000370: 4238 38bd 080b f33d faef 8d3d 766c 033e
00000380: 7929 c63b 334d e4bc a30e bbbd 26dd adbd
00000390: 5fa8 8b3d c2be 073d 14a8 68bd dfe0 9c3d
000003a0: d6a5 c93d e7d3 113d 0097 52bd 15a3 b5bd
000003b0: 5f04 e4bd d29a aabd 26f6 2d3c c551 efbd
000003c0: 2686 93bd 9072 39bd ff1c 87bd b390 da3d
000003d0: c392 bc3d 9490 073e c1cc f13c 4dc0 753b
000003e0: 186f d23d 8f8c 2dbb c799 4cbd 0ffe 663d
000003f0: ca18 0f3d b505 c9bd 7a0a 853d ae17 d23d
0.12477735 0.05441348 0.02487566 0.073497765 0.10942091 0.05496164 -0.03934288 -0.07772246
0.08849391 0.034488566 0.06476324 0.06857086 0.03766802 -0.06739605 0.045431037 -0.0015159297
0.009201206 0.0443163 0.0058668368 -0.031595804 0.05562954 -0.10789995 0.0048165177 -0.032542903
-0.05313027 0.12490784 -0.03602744 0.043884125 0.014670868 -0.09157589 0.055666618 0.041399807
-0.023393022 0.09590693 0.09366134 -0.10045731 -0.06839159 0.099058375 0.099273674 -0.002393383
-0.09792241 -0.018270742 -0.061115365 -0.07826663 0.04624964 -0.09803643 0.050793137 -0.011409289
-0.08860322 -0.110555366 -0.05668505 0.056826305 0.015904019 -0.12505113 -0.023028005 0.040716976
-0.08760304 0.10063252 -0.10165994 0.09406147 0.0048646606 0.058898497 0.04623849 -0.034782518
-0.057026867 -0.05845852 0.023704713 0.06099108 0.026396114 -0.008691132 0.0968481 -0.08948992
-0.08880804 -0.08721508 -0.07557156 -0.0609858 -0.10683266 0.12746453 0.11806031 0.065099746
-0.086753055 -0.07862445 0.06671452 0.041764315 -0.11102299 -0.07727773 -0.10413561 0.12243175
0.023277761 -0.1103781 0.02390471 0.053466562 0.07575308 0.023733221 0.024051547 0.08141744
0.103267506 0.05937292 0.045151614 0.12256151 0.124950066 -0.056631725 -0.055544905 0.069034964
0.10595665 0.0059332796 -0.099407084 -0.112585224 0.08241692 -0.024090871 0.03835031 -0.0017636126
-0.028721325 -0.12083127 0.067321554 0.01960858 0.05571644 -0.020460468 -0.10999188 -0.12448893
0.015194307 -0.017620515 0.07502089 -0.029377626 -0.047366854 -0.09066467 0.06420405 0.0317492
-0.017278774 0.009157626 -0.026793465 -0.07576083 0.09738874 -0.09568719 -0.06716286 0.007441836
-0.093697466 -0.032344587 0.020045076 0.055344608 0.029741991 0.04873543 -0.046828575 0.12277077
0.0746141 0.0025786946 0.035460506 0.05073356 0.12431194 0.014318127 -0.06967896 -0.10091809
0.011510943 0.02547103 -0.007676071 0.10708828 -0.08265154 0.1217693 -0.106416576 0.064251944
0.02197072 0.08357063 0.079195246 -0.05452859 -0.092655376 -0.01626349 0.046944343 -0.020094214
0.12073286 0.11465529 -0.013421313 -0.04875745 0.039202787 -0.0021640172 -0.014103715 -0.09244085
-0.07050108 -0.071194366 -0.1088577 0.0697819 0.030921854 0.07329671 0.08507242 0.0036500676
-0.07752173 0.12438061 -0.039041054 -0.028247844 -0.07328401 0.0165154 -0.11853039 0.0014849235
0.0053882394 0.08340541 -0.09426445 0.067193516 -0.10691526 -0.00832515 0.050901916 0.086651824
-0.11370312 -0.007420833 -0.08513149 0.035411216 -0.05847944 -0.06678008 -0.05036521 -0.043754783
-0.11200314 -0.10631314 -0.012920216 -0.003664489 0.12337152 0.08113229 -0.039439518 0.09156015
-0.07842994 -0.1045661 0.12788942 0.04705811 -0.044975527 0.118673384 0.069305375 0.12834343
0.0060474244 -0.027868843 -0.09133651 -0.08489446 0.068192236 0.033140905 -0.056800917 0.07660078
0.09846084 0.035602476 -0.051413536 -0.08868996 -0.11133646 -0.08330311 0.010617768 -0.11685518
-0.07203321 -0.04527527 -0.065973274 0.106721304 0.0920768 0.13238746 0.02951658 0.0037498653
0.10275096 -0.0026481485 -0.04995134 0.056394633 0.03493575 -0.09815542 0.06496139 0.10258423

lstm.weight_hh_l0 f4 [256, 64]
00000000: 1366 6abd 4be6 43bd a368 983c 6b06 c73c
00000010: 240d 9abd e7d6 7b3d 376b cd3c aaf1 aebd
00000020: 43c1 cabd 963f aabd d154 ef3d 4673 18bd
00000030: b2e6 d93d d8b0 993c 8d7d 153d 58db b3bd
00000040: e845 0a3d b81c b7bd d117 b33c 2125 563d
00000050: e8d5 babd 7a34 77bd f1c5 1f3b eeab 7e3c
00000060: e9dc f73d e960 ce3c f73e dc3d b7e1 de3d
00000070: d640 b2bd e7dd d1bd beec 803d 5356 4d3d
00000080: 8ca6 33bd 935f 663d 98d9 093d 2169 583c
00000090: c2bb cb3d fc0c 233c 0592 663d 9de5 4dbd
000000a0: cb0c a73d e1ec a7bd 3e10 23bd 41bc 2bbc
000000b0: bf64 313d d3d5 d23d 2771 15bd fc48 983d
000000c0: 31ad fc3c 2fe2 b03c 7994 a93d 7993 dabd
000000d0: 2dfc 483b 0131 913c 9a40 46bc 0e83 e8bc
000000e0: 578c 00be be8c 80bd 1376 57bd b5ad 4dbd
000000f0: 0a10 783c a186 aa3b 6925 cb3c 73d5 4dbd
00000100: ab20 5b3b f9bc 163d ec84 afbd 6c60 e83c
00000110: 1b68 36bc a727 3a3d aa55 ad3d 360b 8cbc
00000120: c9b7 633d ac3b 03be 7b66 ba3c 2575 3b3d
00000130: 916e de3b f388 bebd b1aa 263d 670d ebbd
00000140: f460 d6bd a7c1 e03d 3b1e 003e d7b8 a1bd
00000150: 2390 e33d 574b a0bd 20bc fb3d 413a 033e
00000160: 7710 debd 0e5c 8d3d b415 883d 1b9e 0d3c
00000170: cf9d c0bb 69d8 7b3d 44b1 d33c b5d7 ec3d
00000180: 719d 003d bd94 7cbc c5b3 b63d bc4b f0bd
00000190: 4c9e f73d 2c9e ce3c 44e8 e83c d31c c83d
000001a0: 9f7e 333d 33e7 bf3d e394 debc 468b eabd
000001b0: bbfe 403c 6412 0a3e 04ef e13d 71dd 83bb
000001c0: 668a f1bc 75e0 693d bbda d8bb 40ca 873b
000001d0: 4876 ec3b e326 bcbc cd9d ec3d fd04 ebbd
000001e0: b44c 5b3d 04fa 42bd c184 cc3d 8824 58bd
000001f0: 45aa d13d 341c eebd a688 eb3c 819f dbbd
00000200: b39c fbbd f742 323d a7e5 e1bc a234 b43d
00000210: 74af fabd 55de d33d dc57 68bd 94a5 853d
00000220: bb0d aabd 1cc0 b5bd 49ca 093e 949b d2bd
00000230: 1060 433d 273d c5bd f6b3 7bbc 6d0f c53d
00000240: 9ecc a3bd 90f9 6a3d 656c 4c3d 58f3 a8bd
00000250: ae6f 3b3d 0598 dcbd 08fd c3bd 4faf 4f3d
00000260: 642d 6ebd 4723 bdbd 00f6 343d 19eb a7bd
00000270: f0be ce3d 0be0 d23c 2165 083e 3169 babd
00000280: 9f9d 973d b650 eebc ae17 97bd 1431 36bc
00000290: 3814 23bc 99e5 ca3c 435a d9bc 24f7 2d3c
000002a0: 2e52 53bd 9542 57bd e6c5 753d 4a8e 893d
000002b0: e92a d83d 0613 0d3d cca8 6d3d 2322 aebc
000002c0: b0a8 353d 573c 1f3d 2b1d 5d3c a061 c23d
000002d0: 2795 7b3d 505c 183d 2723 70bc 52e8 4bbd
000002e0: c911 c43d 9ad0 013d d67e 21bd 7774 873d
000002f0: 92c8 55bd a3d4 583a 917e 763d bb01 303d
00000300: d50e d73d f193 3ebd 3ab1 61bd b5e4 d9bc
00000310: 40ed d5bd 5849 b33d 9d09 57bd 4374 8e3c
00000320: d731 653b 1d59 c03d 74e7 0d3e 152f 2ebc
00000330: f0fa e23c 8b95 683d c17a d93d dbcc b9bd
00000340: c6c6 353d d482 563d ff27 0ebc 8dbd 6b3d
00000350: 7c61 89bc 7976 c1bd c7bd 9e3d c054 a33d
00000360: 55c8 58bd cc4c c53d c526 ce3d 80e9 e4bd
00000370: 7c8f f03d 3ab5 c43c 4240 b63c 387c ccbd
00000380: 18b7 90bd c4e4 80bd 97f6 c7bd 3bd0 bebd
00000390: fa91 cdbd c6c3 a6bd f650 c9bd bc07 9bbd
000003a0: fe8a d23c b57a 55bd 1f3f ea3b 46f4 043e
000003b0: caff 513d 9ece 5a3a 88fe 733d 276c c7bd
000003c0: 5a40 09bc 7f0a 82bc 817c 88bd 5c8a 9fbd
000003d0: 79f8 8d3d 8287 a4bd d7b8 cf3d 73d7 c6bd
000003e0: 909d b5bd c0fb bbbc 2da6 4a3d 1af1 8a3c
000003f0: 3c14 fcba 7f43 ecbb 0fee b03c e7ce aabd
-0.05722625 -0.047827046 0.018604582 0.024295053 -0.075220376 0.061484244 0.025075538 -0.085421875
-0.09900143 -0.08312909 0.11686099 -0.03721931 0.10639705 0.018761083 0.036496688 -0.08782071
0.033758074 -0.089410245 0.021861942 0.052281503 -0.09122831 -0.06035278 0.0024379457 0.015543921
0.12102682 0.025192695 0.10754197 0.108828954 -0.08703773 -0.10247403 0.06295155 0.050131153
-0.043860003 0.05624349 0.03365478 0.013208658 0.09947921 0.009951826 0.0562916 -0.050267804
0.08156737 -0.08199478 -0.03981041 -0.010481895 0.04330897 0.1029469 -0.036484864 0.07435796
0.030844303 0.021592228 0.08280272 -0.106726594 0.0030667887 0.017723562 -0.012100363 -0.028382804
-0.12553535 -0.062768444 -0.05260284 -0.050214488 0.015140543 0.0052040373 0.024798112 -0.05025239
0.003343622 0.036801312 -0.08570275 0.02836629 -0.011133219 0.04544797 0.08463605 -0.01709519
0.055595193 -0.12815732 0.022753945 0.045766015 0.006788083 -0.09303465 0.040690128 -0.11477166
-0.10467711 0.10974436 0.12511532 -0.078965835 0.11111476 -0.0782687 0.12291741 0.12815191
-0.10842984 0.06902324 0.066447645 0.008643652 -0.0058781873 0.06148568 0.025841363 0.1156458
0.031400148 -0.015416321 0.08921007 -0.11733195 0.120907396 0.025221907 0.028431065 0.09771123
0.043821927 0.093702696 -0.027170604 -0.114523456 0.0117794825 0.13483578 0.11031917 -0.0040242006
-0.029484939 0.057098825 -0.0066178716 0.004143983 0.0072162487 -0.022967761 0.115535356 -0.11475561
0.053539947 -0.047601715 0.09986258 -0.052769214 0.102375545 -0.11626473 0.028751682 -0.10723782
-0.122857474 0.043520894 -0.027575327 0.087991014 -0.12240496 0.10345141 -0.056724414 0.06525722
-0.083034 -0.088745326 0.13456072 -0.102835804 0.047699034 -0.096308045 -0.01536273 0.09622083
-0.07998012 0.057366908 0.04990806 -0.08249539 0.045760803 -0.10771183 -0.09569746 0.050704297
-0.058148757 -0.09235244 0.044179916 -0.08199138 0.10095012 0.025741598 0.13319828 -0.09102095
0.07403111 -0.02909122 -0.073775634 -0.0111201 -0.009953551 0.024767684 -0.026532298 0.010618005
-0.051592045 -0.052553732 0.060003184 0.067165926 0.105550595 0.03444197 0.058022305 -0.021256512
0.044350326 0.038875904 0.013495724 0.09491277 0.06142154 0.03719741 -0.0146568185 -0.049782105
0.09573705 0.03169308 -0.0394276 0.06614011 -0.052193232 0.00082714314 0.060179297 0.0429704
0.10500876 -0.046527807 -0.055100657 -0.026598314 -0.104456425 0.087542236 -0.052499402 0.017389422
0.0034972334 0.09391997 0.13857824 -0.010631342 0.027707547 0.05678324 0.106191166 -0.09072276
0.04437902 0.05237086 -0.008676528 0.057553817 -0.016770117 -0.09446425 0.07751041 0.07975149
-0.052925427 0.096337885 0.100659885 -0.11177349 0.117461175 0.024012197 0.022247437 -0.0998463
-0.07066172 -0.062936336 -0.0976383 -0.093170606 -0.100376084 -0.081428096 -0.09829895 -0.075698346
0.025701042 -0.052118976 0.007148638 0.12983808 0.05126933 0.00083468284 0.05956891 -0.09737425
-0.008377159 -0.015874146 -0.06664372 -0.07790062 0.06932158 -0.080336586 0.10142677 -0.097090624
-0.08867943 -0.022947192 0.049474884 0.01696067 -0.0019232105 -0.0072101946 0.02159789 -0.08340245

lstm.bias_ih_l0 f4 [256]
00000000: 6de0 e2bd 6c53 fc3d 632a f1bb 2fb8 1f3d
00000010: 0707 9f3d 2be1 d2bd c507 b5bc 065c a3bc
00000020: 7396 163d c975 24bd f91e 6cbd 2364 de3d
00000030: bf38 e43d 6409 1ebc efb6 8cbc 542d 20bd
00000040: bf73 813c 4e63 88bd ce12 d8bd af63 7dbd
00000050: 9bfb dabd f1c1 9dbd 6f67 8abd bbf0 a43d
00000060: 1eb9 8e3c 0c85 afbd 49c7 a1bc 5511 ce3c
00000070: 742e 8c3d bca7 13bd 50f1 9a3c 3363 413d
00000080: 82ff a5bd 633a e8bd 1a6b eabd 956e 95bd
00000090: d40d 9dbd efad 413d 1399 243d 2d53 653d
000000a0: 666c 2a3c 002a 723c 3e28 23bd 24bb c33d
000000b0: 4e99 e6bc 170a 91bd fe68 0dbd 1b71 45bd
000000c0: 1ebd 323d 0ed1 0a3e 1768 47bd 0845 623c
000000d0: 61da c8bc 7ab0 84bc 8d8a 3e3d 0f91 023e
000000e0: 8556 62bd e8a4 9cbd e799 f23d d103 8abd
000000f0: 9f55 e43d bbc9 e73d 2bad 223d 9b73 9c3d
00000100: 69d4 c5bc 263d 8f3c 8bb6 86bd 3dd8 f43b
00000110: 5bc7 dd3d 7034 d93d 9add 933d ded1 18bd
00000120: 08e6 0c3d 79b9 75bd 0d31 a63b 97de a1bd
00000130: bc3e 99bd 9958 533d c588 ce3c bb94 a93d
00000140: eb86 433d a326 b6bd 3480 013d 949f f73c
00000150: 05f1 0f3d cb94 f03d bf14 233c 5f5b 77bd
00000160: f8f2 94bd 7925 e53d 1966 bfbd f01c c03d
00000170: 02bc 8abc d1ff 8e3d 588e dcbd 06fc 7e3d
00000180: 920d 843d facd d8bd 8ea0 453d 58bc 3abd
00000190: af08 d83d ca9c bfbd b00a eabd 12bd 4fbc
000001a0: a316 023e 5361 a6bd 578b f13d f02d d83c
000001b0: b536 7c3d 3d9e 0a3d 7c2b d23c 3b68 a2bd
000001c0: 7ab9 e9bd 39d5 eabc 19e5 8d3d 8f2b 4e3c
000001d0: 51d5 b83d 8ff9 27bd 6974 1c3d 4492 20bd
000001e0: 55fe a1bd b964 adbd 5f89 d2bd b117 6dbc
000001f0: aba8 aa3a 5fbf dc3d 6452 963d d2ef e63d
00000200: 7670 b6bd b0e5 f0bd 3159 acbc b921 8c3d
00000210: 4b32 973d 7963 fb3d b82c 01be 1dea 06bc
00000220: 6de6 b0bd fdfa 68bd df3c 8a3d fe59 b8bd
00000230: c950 223d 4216 6c3c 8908 053e aab9 8a3d
00000240: f0ed 943d 1114 82bd 1801 da3c 7401 c43d
00000250: 9244 163d 1711 513d ac61 af3d 733f 6dbd
00000260: 4577 e73d 2fbf 08be 483b 84bd 225c 363d
00000270: 72f9 afbc ab9d 033e fef8 ec3d 4492 06bd
00000280: d370 84bd afbb f13d b7f8 04be b337 efbd
00000290: f364 d33d 99e4 58bd d98d c2bd 7920 273c
000002a0: 578a 9d3b fc83 72bd ba3b 94bd 1d1d 4bbd
000002b0: 9347 80bd a7d9 733d dee3 c3bc 3b86 f2bd
000002c0: 289b f63c a6b8 dc3c 04c3 44bd 28ac c63d
000002d0: a6b1 543d 7072 323d e0e8 ebbd dbfc 803d
000002e0: e3ec 0ebe e49e e2bd f9a1 e73d 8e6b f3bd
000002f0: 2d47 b2bc e348 b83d b7a8 edbd c75e 00be
00000300: b911 a83c 823d 093e 9941 9f3c 9800 35bd
00000310: 82d3 d23d 3782 593d c658 e03c 8835 3fbc
00000320: 0ca4 cdbd 323d 573d 4470 413d d82e 9dbd
00000330: 7306 873b 2b32 81bd 5401 e33b 66a2 e83d
00000340: 2743 44bd e1a1 c7bc 65bd 653d 91dc 9cbd
00000350: eb62 9fba d65e 5dbd 4fb2 acbd 7c5f 213b
00000360: de61 8638 97da 90bd 7b20 c83c 0581 8e3b
00000370: a0fb 03bd dc3f a33d 2cf2 21bd 4bec 813d
00000380: 8a19 0a3d a06c 0d3b 9842 593d 5f3c 763d
00000390: 92a5 8f3d 332a 063e 78a7 4d3d 8d1c 993d
000003a0: a02a 9b3d 2e2d 233d d700 5bbd 21ab b2bd
000003b0: 3807 d83c 7132 3e3d 7882 a23d bde8 c03d
000003c0: e881 a8bd cd64 d13d abbe d93d d0b0 653d
000003d0: ce6e 33bd 1b7e ffbd 60b4 003d b51d 503d
000003e0: 3983 073e 063f d43d ba53 373d 7f3d dabd
000003f0: 181b bbbd cc14 84bd 7547 3cbc 013b f43d
-0.11077962 0.12320599 -0.007359789 0.03899401 0.07765012 -0.10296854 -0.022098431 -0.019941341
0.036764573 -0.04015139 -0.057646725 0.10858943 0.11143636 -0.009645794 -0.017177073 -0.03910573
0.015802262 -0.06659566 -0.10550462 -0.061862644 -0.10692521 -0.07703007 -0.0675801 0.08053728
0.017422255 -0.085702986 -0.019748347 0.025154749 0.06844798 -0.036048636 0.018913895 0.047213744
-0.08105375 -0.113392614 -0.11446209 -0.072964825 -0.07668653 0.047285017 0.040185045 0.055987526
0.010401821 0.014780521 -0.0398333 0.095571786 -0.028149273 -0.070820026 -0.034523956 -0.04820357
0.043637387 0.1355631 -0.048683252 0.013810404 -0.024518194 -0.016197432 0.04651885 0.12750648
-0.055258293 -0.07648641 0.11845761 -0.06739009 0.111491434 0.11317774 0.039715927 0.076392375
-0.024149137 0.017485213 -0.06577786 0.0074720667 0.1082904 0.10605705 0.072200015 -0.03730952
0.034399062 -0.059991334 0.0050717653 -0.07903784 -0.07482669 0.051598165 0.025211701 0.08280321
0.04773609 -0.08894088 0.031616405 0.03022746 0.035141964 0.1174713 0.009953677 -0.060389873
-0.07272905 0.11188788 -0.093456455 0.093805194 -0.016935352 0.06982387 -0.107693374 0.062252067
0.06447901 -0.10586162 0.04824882 -0.045589775 0.10548531 -0.09356077 -0.1142782 -0.012679355
0.12703948 -0.08124032 0.11794155 0.026389092 0.06157561 0.033842314 0.0256555 -0.07930037
-0.1141233 -0.028666126 0.069284625 0.012583627 0.09025062 -0.041009482 0.038196955 -0.03920199
-0.07909838 -0.08466477 -0.10280108 -0.0144709805 0.0013020238 0.10778689 0.073399335 0.11276211
-0.08908169 -0.117625594 -0.021038624 0.068423696 0.073826395 0.12274832 -0.12614715 -0.008234528
-0.086377 -0.056879986 0.067498915 -0.0900154 0.039627824 0.014409604 0.12991537 0.06773694
0.072719455 -0.063514836 0.02661185 0.0957059 0.036686487 0.05104169 0.08563551 -0.057921838
0.11302046 -0.13354181 -0.064566195 0.04452146 -0.02148125 0.12853114 0.11570929 -0.032854334
-0.06466832 0.11803376 -0.12985502 -0.11680546 0.10321989 -0.052952383 -0.094997115 0.010200613
0.004807751 -0.0592079 -0.072379544 -0.04958831 -0.06263652 0.05953374 -0.023912366 -0.11842009
0.030103281 0.026943516 -0.048037544 0.09700805 0.05192723 0.043566167 -0.11519027 0.06298228
-0.13957553 -0.11065462 0.11310191 -0.11885749 -0.021762455 0.08998277 -0.116044454 -0.12536155
0.020516263 0.1340237 0.01944046 -0.04419002 0.10294248 0.0531027 0.02738608 -0.011670478
-0.10041055 0.052548595 0.047226205 -0.0767495 0.004120642 -0.06308397 0.0069276486 0.113591
-0.047915604 -0.024369182 0.056088824 -0.07659257 -0.0012160217 -0.05404552 -0.08432447 0.0024623564
6.407847e-05 -0.07072943 0.02442955 0.0043488764 -0.03222239 0.079711646 -0.039537594 0.063438974
0.033715762 0.0021579638 0.053042024 0.060116168 0.07014002 0.13102035 0.05020854 0.07476149
0.075764894 0.03983801 -0.053467598 -0.087240465 0.02637063 0.046434823 0.07935041 0.09419391
-0.08227903 0.10224304 0.1063207 0.056076825 -0.043806843 -0.124752246 0.03142202 0.05080958
0.13233651 0.10363583 0.044757582 -0.10656261 -0.09136027 -0.06449279 -0.011491646 0.119253166

lstm.bias_hh_l0 f4 [256]
00000000: dbe8 d93d 8447 8dbd 8bbe 92bd 004e 9b3d
00000010: c183 ee3d c3ef a7bd 0db0 773d 13bc 57b9
00000020: 965e 5c39 d783 bd3d 15d7 3bbd 6abd 30bc
00000030: 7d00 7aba 18d7 af3d 7ed2 383d 5231 a63c
00000040: 1028 abbd d78c 473d 30a0 5b3d 6ccc 71bd
00000050: fb4e 13bd d1af b73c 74d8 003e e1f0 3e3d
00000060: ae49 8f3d 5681 063e 08ca b03d 6539 d53d
00000070: 902e 81bd 4651 ea3b 6e9b b4bc e321 493d
00000080: e041 ed3d b559 c6bd 4fd7 833d fd58 933d
00000090: 064c d03d 254b 30bd ed90 21ba eabd ed3c
000000a0: aa34 eabc 3ee4 20bc 6f6f 2c3d 4445 c6bd
000000b0: e1f0 a3bd 212a b93d 492e 9b3d 82a9 0e3e
000000c0: af3f dcbd 585f c1bc bc43 8c3d 1dd3 dc3d
000000d0: 0a33 b13b 4c38 c0bd 2932 563d 0ac6 273c
000000e0: cb50 95bd aabd e03b 5b49 9a3d c99a ef3c
000000f0: 74b8 5abc 53e4 d23d 80fb 9e3d 202a 2b3d
00000100: 28ad d93d d75e 42bd 7554 f53c b7e4 bebd
00000110: a9f7 c23d 39ee d7b9 f5b1 013e 2fb3 cbbd
00000120: 057c fd3c 823a 9f3c b644 bb3d 9dc8 aa3d
00000130: 1ac5 063e 4e29 b5bd 5be2 963d ed72 db3d
00000140: 6424 fdbb 7fa9 4abd ba67 a7bb 7161 1b3a
00000150: 5c6a f53c 8b9c ff3d 1572 fabc 48a9 65bd
00000160: 004c 0b3d 2bee 123d 2564 973d b4e3 a5bd
00000170: aa9d 5ebb 2ff1 0b3d c7eb b2bb c322 c33c
00000180: 9570 2a3d 0bf4 fc3c 84c5 d4bd 78f0 15bd
00000190: 1020 4fbd 2cef e73d a5f0 b1bc 6e0f 873d
000001a0: 2843 b43d fae1 5a3d 513a 2d3d f0c8 ae3d
000001b0: a594 e2bd 8296 b6bc b3e4 c4bc 493c 81bd
000001c0: afdb dabb 1fa5 82bc ce19 7b3b b640 5fbd
000001d0: aba4 023e 9ffb e13c 5204 e83c fddc dcbc
000001e0: 65d4 ad3d c395 b2bd 357d 88bd 9c4d 453d
000001f0: 1939 3fbd 30e1 3b3d a9e4 1f3d 88c1 b4bd
00000200: 1cd0 59bd ea9a a73d 61eb 47bd fd47 9e3c
00000210: 1724 cebd 9f1a 943c 2133 4dbd f6e6 94bd
00000220: 81fc dd3d bd0a 053b 1192 603d aad7 c23c
00000230: 5f6b b6bc f032 b73d 8dcc fc3d 3b0d 05be
00000240: 4c5e 3bbd 3cc7 08bd ead5 823d fbb7 58bc
00000250: ecc6 fb3d 364d 52bd 10f0 cb3d 392f 083e
00000260: 8b85 a23d 95f1 6b3d 66f1 d23d 4170 06be
00000270: c5c4 3ebd 47f1 743d 888a bc3d 6818 9e3d
00000280: abce 683d b9a0 d13d f0ba 2c3d 21ba 97bd
00000290: 59b4 fabd 9a21 b23c d7b3 f4bb ceef 073e
000002a0: 65a6 8c3d 6221 8d3a 5001 4bbc ba3a 0c3e
000002b0: 1a63 f33b 8f2a 993d dffd 423d 916d 9a3b
000002c0: 27f2 20bd 572d d93d f073 89bd 00b5 853b
000002d0: 162e 3f3d 7aa9 8a3d 3267 93bd bf9d e7bd
000002e0: 1bd8 6d3c 7489 93bd 91b9 b53d b4cb ddbd
000002f0: abfc 003e 045f 0c3e f248 d7bc 6308 01be
00000300: 00a6 43bd a98e b63d 58c7 93bd 4f4c b53d
00000310: 00be 013d 4809 d4bd e06a a23d 83c5 d0bd
00000320: 4c04 f7bc 5227 31bc 1715 42bc a866 dcbd
00000330: 9fbb d33d 59b9 aebc a324 6d3d abe7 b03b
00000340: 1e87 e23d a3c4 863a 6967 5e3d 1180 82bd
00000350: ff84 0fbc a7e6 9dbd 7b22 3ebd b3d2 a5bc
00000360: 2f06 b1bb a7c8 f33d 66cb 3c3d 72da 29bc
00000370: 986b a6bd 00c2 5a3d 5e80 7ebc bd0a 14bd
00000380: 6a95 003c d80c f43c 34b2 423d 1d19 1abd
00000390: 70e2 bebd fc6d 283a 2c2e 613d 1654 dd3c
000003a0: 140c 88bd 8ce0 91bb f221 683d 7f3d 173d
000003b0: 7af6 a1bd 85f7 963d 4f51 3fba 2531 513d
000003c0: e3df 8b3c 4b43 ef3c be96 34bd 32b4 b43c
000003d0: 06fe 94bd 6b48 fabc eb68 da3d 315d a9bd
000003e0: f7ed 983c d6e4 f0bb a46c 9fbd 4a97 5e3c
000003f0: 62a5 a2bd c96b 373d b025 f73d 61f4 c3bd
0.10640117 -0.06898406 -0.071652494 0.07583237 0.11646224 -0.08200028 0.06047063 -0.00020574061
0.00021016071 0.09253662 -0.045859415 -0.010787347 -0.0009536816 0.08585948 0.045122616 0.02028719
-0.08357251 0.0487183 0.053619564 -0.059032843 -0.035963994 0.022422703 0.1258257 0.04661644
0.06996475 0.13135275 0.086322844 0.10411338 -0.06307709 0.007150802 -0.02204677 0.049104583
0.1158483 -0.09685079 0.06437551 0.071947075 0.1017075 -0.043040413 -0.0006163258 0.029021222
-0.028589565 -0.009820042 0.04209846 -0.0968118 -0.080049284 0.090412386 0.075771876 0.1393185
-0.10754334 -0.023605034 0.06848857 0.10782454 0.0054076957 -0.09385738 0.05229393 0.010240087
-0.07290801 0.006858547 0.07533523 0.029248612 -0.013349641 0.10297456 0.077628136 0.04178822
0.1062873 -0.047453728 0.029947499 -0.09320968 0.09519894 -0.00041185485 0.12665541 -0.09946286
0.030942926 0.019437078 0.09143965 0.08339045 0.13161126 -0.08845769 0.07367393 0.1071528
-0.0077252854 -0.04947805 -0.0051088007 0.00059273007 0.029957943 0.1248103 -0.030571977 -0.056069642
0.034008026 0.035871666 0.07392148 -0.081000715 -0.0033968487 0.034165557 -0.0054602358 0.023820287
0.041611273 0.030878088 -0.103892356 -0.036606282 -0.050567687 0.11324915 -0.021721194 0.0659474
0.088018715 0.053438164 0.042291943 0.085344195 -0.11063508 -0.022288565 -0.024034834 -0.063103266
-0.0066790204 -0.015947876 0.0038314941 -0.054505073 0.12758128 0.027585803 0.028322373 -0.026960844
0.08487777 -0.08719971 -0.06664506 0.048169717 -0.046685312 0.045869052 0.039036427 -0.08825976
-0.053176984 0.081838444 -0.04880846 0.019321436 -0.10065477 0.0180791 -0.05009759 -0.07270615
0.10839177 0.002030059 0.0548268 0.023784477 -0.022267995 0.089452624 0.123437025 -0.12993328
-0.045744225 -0.03339313 0.06388457 -0.013227458 0.12293801 -0.051343165 0.09957898 0.13299264
0.079356275 0.057603437 0.10299949 -0.13128759 -0.046574373 0.059800413 0.0920611 0.07719499
0.05683772 0.102357335 0.042170465 -0.07408548 -0.1224143 0.021744538 -0.0074677276 0.13275072
0.06867675 0.0010767395 -0.01239045 0.13694277 0.0074275853 0.074788205 0.04760539 0.0047127684
-0.039293434 0.10604351 -0.067115664 0.004080415 0.04667481 0.06770606 -0.07197417 -0.113093846
0.014516856 -0.072039515 0.088732846 -0.10829869 0.12596385 0.1370812 -0.0262799 -0.12600856
-0.04776573 0.08913929 -0.07215756 0.08852445 0.03167534 -0.10353333 0.07930541 -0.10193922
-0.030153416 -0.010812597 -0.0118458485 -0.107617676 0.1033852 -0.021328615 0.057896268 0.0053987107
0.11060928 0.0010281991 0.05429784 -0.06372083 -0.008759736 -0.07710009 -0.046419602 -0.02024207
-0.0054023485 0.11903506 0.046092413 -0.010367023 -0.08125991 0.05340767 -0.015533535 -0.036143053
0.007848123 0.02979128 0.04753323 -0.037621606 -0.09320533 0.00064250804 0.054975674 0.027017634
-0.06642929 -0.004451817 0.056672998 0.03692388 -0.0790834 0.07371429 -0.00072981877 0.05107226
0.017074531 0.029206892 -0.04408907 0.02205858 -0.072750136 -0.03055211 0.10664543 -0.08269728
0.018668158 -0.007351498 -0.077843934 0.013585875 -0.079417005 0.044780526 0.12067735 -0.09568096

lstm.weight_ih_l1 f4 [256, 64]
00000000: 048b 443d bdd2 e53c 0b1e a83d d9d1 513d
00000010: 4abe 7cbd 1805 03bd 9d5f 7b3d 46bd fabd
00000020: 2156 8cbc d336 3bbd dee0 81bc 93cf e4bd
00000030: a595 e33d 2cdb c0bd 306b 973b 2078 9cbd
00000040: c797 bcbb 0814 93bd e8d9 c0bd a74b 893d
00000050: ff9a f6bc 7c0b 83bd cea2 aa3d b8a1 8c3d
00000060: 9cec a13d aa39 e83c f016 a63d 5e54 d1bd
00000070: 56d3 d13d c2a1 d03d b244 88bd 1a2d eabd
00000080: a782 95bd 7f59 aa3d 21a6 fcbc cf88 2b3d
00000090: 5129 4c3d 5c47 f539 75bc f9bd 9bb6 bcbd
000000a0: de29 a43c fdd0 df3d 97a0 29bb 95a7 7e3d
000000b0: 2b33 4ebc f215 81bd 6a7d 73bd 44a3 ad3d
000000c0: 8813 e23d 3a98 893d 96c1 e8bd 580a c53d
000000d0: e569 d6bc 9d46 003e 02df cabd 5ce0 fbbb
000000e0: c250 a23d ec14 d3bd cc8d 95bd c7ac 963c
000000f0: d1a6 f63c 5942 1bbc a6e7 c8bc 3274 46bc
00000100: 6fcc 94bc be65 95bc 3916 01bc 1faf e1bd
00000110: ee5d df3d ee3c b43d 6fe2 d3bc c32a 33bd
00000120: 9630 583d b9b5 0e3c 097c f03d 73ea 963d
00000130: 1fa1 cebd eda0 58bd e979 43bd 0d52 313d
00000140: 6bc9 283d ebc8 e53d a61d 71bd 6e03 f63d
00000150: 40ea 873d b1d0 de3c 9e04 493d d540 d83d
00000160: ecfe 9a3d 7af2 363d 1e7b 16bd 4133 713d
00000170: 1def da3d 8a9b 0f3e ec3c 993d fbec e4bd
00000180: 6741 a33d 4986 48bd ab4c b0bd fc60 bfbd
00000190: 8c4e 85bd 115e 70bd e8be 7ebc f474 4c3d
000001a0: 069b 52bb 5f32 7b3d 7a9d a4bb cf11 e13d
000001b0: c4bf 553c 2a5d 223d 0c06 bbbd 27e7 a43c
000001c0: 568b 84bd 5c41 b5bc 7845 07be 0472 61bc
000001d0: a9b5 a33d 0c20 ecbd 8be9 8c3b b974 95bd
000001e0: e4bf 80bd 4a2f fdbb 58f9 fbbb 35ca d9bd
000001f0: 760a 033e 8abe a7bc 95fb d3bb c541 7bbd
00000200: d41e b1bd 324a 5bbd 13e1 803c 8c7c 4fbd
00000210: 12b7 ea38 f455 8e3d 7202 b63c 7012 8c3d
00000220: a389 233d 0266 5ebd c1aa bb3d f978 c1bd
00000230: 811d 083e 3cea 043e 8daf 653d b81d 07be
00000240: c55c a6bd 3d28 a3bc 3da0 683d be95 063e
00000250: de5d f03c 824e a4bd 4277 a23d eb7a 8fbb
00000260: 7e01 1e3c 6d48 943d 4b06 78ba 4f0f c3bd
00000270: f8c3 663c b184 56bd c149 ac3d aa49 aebd
00000280: 3493 21bd 887c 1b3d a26d a43b 7fa4 eabc
00000290: 8d86 b3bd 502d cabd 71ef 3c3d 8664 c83d
000002a0: 6b63 803d b9b0 573c 6053 f0bd 88ae 0ebd
000002b0: 867c e1bc 2b62 53bd 92d1 26bd 087c 9b3c
000002c0: 71bb 20bd b77c 5a3d 74aa d73c 9161 963d
000002d0: 8884 e2bb 5ff1 013d d13f a63d 6677 a0bc
000002e0: 2788 92bd 0c30 e0bd ba0b 71bc c9a7 2abd
000002f0: eec1 363c dd9d 96bd ee07 8c3d f27a 87bd
00000300: 153f 1b3c 5292 b93d 47ad 0d3d 8c5d c23c
00000310: 354c 4cbd 9841 1fbd 1252 e6bd 6fbc 90bd
00000320: 4368 24bd ce24 863c 2c89 23bd 3802 cb3d
00000330: ad35 e53d bccf 053e 6f48 c93d a544 52bd
00000340: eaa9 4ebd 2b66 3d3d 372a aabd b715 e4bd
00000350: 05c0 d9bd ff4c a33d f7c5 933d 1541 1a3d
00000360: c4f4 b93d 89b0 ddbd dc11 35bd 58d4 17bd
00000370: 08c5 e8bd 5d28 10bd cd45 893c 6395 c13d
00000380: 700e d3ba f0ed 7b3d 7cff f6bd 6c22 18bd
00000390: 43dc b53c e3c6 b7bd 9267 9ebd da96 973c
000003a0: 7efa 0a3d dfe8 e2bd 66c9 923d cb4c e5bc
000003b0: cd77 f43d d7f0 233d b76d 123c 9ae0 c7bc
000003c0: 7ad3 cf3c 0741 b8bb 6352 dfbd bedf a33d
000003d0: 2dd2 d63d d43b 4c3d a5a4 b8bd 87ca fcbd
000003e0: a136 353c 9096 86bd e463 e3bd 973f 563d
000003f0: 7056 ffbc 3c76 abbd 3aa3 803d 2e08 efbd
0.047984138 0.02805459 0.08208855 0.051225517 -0.06170491 -0.03198728 0.06137048 -0.12243132
-0.017130913 -0.04570658 -0.015854295 -0.11172404 0.11112527 -0.09416804 0.004620932 -0.076400995
-0.005755398 -0.07181555 -0.09416562 0.06703883 -0.030103205 -0.06398675 0.08331834 0.06866783
0.07906458 0.028347809 0.08109844 -0.1022117 0.10245387 0.10187103 -0.066537276 -0.11434384
-0.073003106 0.08317851 -0.030840935 0.041878518 0.04984409 0.00046783208 -0.121941485 -0.09214517
0.020039495 0.10928533 -0.0025883073 0.062171537 -0.012585442 -0.06303014 -0.059445776 0.08478406
0.110388815 0.06718488 -0.113650486 0.096211135 -0.026173541 0.12526937 -0.099058166 -0.007686658
0.079255596 -0.10306725 -0.07302436 0.018392934 0.030108841 -0.009476268 -0.024524521 -0.012112664
-0.018163888 -0.018236991 -0.007878833 -0.1101973 0.109065875 0.08800684 -0.025864808 -0.043741953
0.05278071 0.008710318 0.11742408 0.073689364 -0.10089325 -0.052887846 -0.047723684 0.04329114
0.041207712 0.11219963 -0.058866166 0.12012373 0.066364765 0.027199121 0.04907667 0.10559241
0.07568154 0.044664837 -0.036738507 0.05888677 0.106901385 0.14024177 0.07482323 -0.11178013
0.07971459 -0.04895619 -0.08608373 -0.0934467 -0.06509122 -0.05868346 -0.015548445 0.049916223
-0.0032135858 0.061327334 -0.0050236555 0.10989725 0.013046209 0.03963963 -0.09132013 0.020129753
-0.06471889 -0.022125892 -0.13210094 -0.013760094 0.07993633 -0.1152955 0.0043003014 -0.07297654
-0.062866 -0.0077265846 -0.007689636 -0.10634271 0.1279696 -0.020476598 -0.0064692 -0.06134202
-0.08648458 -0.053537555 0.015732324 -0.050655887 0.00011192089 0.06949988 0.022217963 0.06839454
0.039926182 -0.0542965 0.09163428 -0.09446902 0.13292505 0.12979978 0.05607562 -0.1319493
-0.08123163 -0.019916648 0.05679344 0.1314306 0.029341634 -0.08022787 0.07932903 -0.0043786666
0.00964391 0.072403766 -0.0009461387 -0.09524404 0.0140848085 -0.052372638 0.08412505 -0.08510144
-0.039447024 0.03796056 0.005017952 -0.028642891 -0.08765898 -0.09871924 0.046126787 0.09784798
0.062689625 0.013164693 -0.117346525 -0.034834415 -0.027525198 -0.051607292 -0.040727206 0.018980041
-0.039241258 0.053341594 0.026326396 0.07342828 -0.0069127716 0.03172433 0.08117641 -0.019588184
-0.07154875 -0.10946664 -0.0147122685 -0.04166392 0.011154635 -0.07354329 0.0683745 -0.06615247
0.009475489 0.090611115 0.03458908 0.023726247 -0.049877364 -0.038880914 -0.112461224 -0.07067191
-0.040138494 0.016374972 -0.03992574 0.099125326 0.111918785 0.13067526 0.09828269 -0.051334996
-0.05045501 0.046240013 -0.08308833 -0.11136954 -0.10632328 0.0797367 0.07215493 0.037659723
0.090798885 -0.10824687 -0.044206485 -0.03706774 -0.11365706 -0.035194743 0.016756916 0.094523214
-0.0016102325 0.06150621 -0.120604485 -0.037142202 0.022199756 -0.089734815 -0.07734598 0.018504549
0.033930294 -0.11079573 0.0716732 -0.02799072 0.11936913 0.040024605 0.008937291 -0.02439909
0.025369395 -0.0056229862 -0.10904386 0.0800166 0.104893066 0.049861744 -0.090157785 -0.123433165
0.011060388 -0.06571686 -0.11103037 0.052306738 -0.031169146 -0.08372161 0.06281133 -0.11671482

lstm.weight_hh_l1 f4 [256, 64]
00000000: 1f62 b3bd d046 103c 5596 713d 86d4 2f3d
00000010: 9834 02be e691 66bd 3844 91bc f3f8 d83d
00000020: a6a0 f3bc a953 45bc ed29 9ebd b68b 093d
00000030: a5b2 723d 540d d13d 34e9 6e3c 260c 3cbc
00000040: 0506 8dbb 5312 0cbc 1f5c 773d 8134 243d
00000050: 9d89 14bd 0dc4 093d af17 d23c f2cd 523d
00000060: 9b35 7abd 99b6 9b3d 532b e5bd c5ca 8ebd
00000070: 9978 55bd 36d1 c0bd b089 25bd 3c9f 3ebd
00000080: d723 763d 1983 86bd 02e4 723d 039e 4f3d
00000090: 9eaf 19bd 5236 b53c c611 0ebe 858b be3c
000000a0: 46a6 0d3d 3167 d4bc 1c6d d3bd f2fe 97bd
000000b0: 5826 e3bd 0bed b13d 4c4a 85bd a708 7c3d
000000c0: 03d0 74bd 86ce 11bd d6bd ac3d de13 05bd
000000d0: 3b97 cebd e076 67bd c2b0 353b d56a 46bd
000000e0: d6ed 1ebc c764 9e3b 4fdc 24bd 404b 973c
000000f0: 168a f0bd 911e 50bd 113a 3d3d 8ea9 8f3d
00000100: f142 8abd 1b11 03be d472 ce3d ca34 8e3d
00000110: 90b8 e63a 8b91 70bc 5e4d 73bd 6302 0c3d
00000120: 87f6 a3bd 08d2 04be 5c74 22bd 7807 0d3d
00000130: 8ba2 60bd 9e1d b1bd 728e 90bd fd11 563d
00000140: ecc4 4e3c 1e46 d13d 7ea1 d33d 9b4b ddbd
00000150: 8285 b5bd b663 693d c319 43bc 04ca d8bd
00000160: 61c8 b8ba af43 4dbd c4ee 8b3d 230d 20bc
00000170: 89e4 08be c6aa 8cbd fec6 cebd a9db 91bd
00000180: a61a b23d 331e c63d 8af1 983d f55a aa3d
00000190: a3f2 913d 40dc fe3d 6f76 863d 90ab 1e3b
000001a0: 9c79 0bbe 0ac1 673d dd45 f13d 3b9b 073e
000001b0: 7dd2 f33d e27a 573d f081 bdba 9cd5 bd3d
000001c0: 281f 98bd c1c7 d93d 93e8 6cbd 3bb9 c4bd
000001d0: 9bb4 81bd a4f8 5e3d ebc6 ac3d 806a bf3d
000001e0: d13e ba3d 741e 063b 7563 563d 66f3 e0bd
000001f0: a95c 5dbd 86e7 1cbc da94 4e3c a82f 0abd
00000200: 7d67 76bb 573f a2bd db87 2cbb 34b5 18bd
00000210: d3b6 883c df76 e2bd 300b 88bc 211c b8bb
00000220: 2a5e 26bd 96ff 1d3d 1529 50bb 94ae b33d
00000230: a840 dcbc 671a 46bd 899b 70bd 7b75 b7bd
00000240: a9b3 593d 76fd ad3d d1a3 e83d fc26 e0bd
00000250: 250b c33d ba1c 8bbd 8050 a03c 9732 3abd
00000260: 4cd4 c63d fd3d 883d cce8 713d df99 fcbd
00000270: 0ef4 dcbd f888 38bd 7747 083e a4a9 8e3c
00000280: 6393 afbd 19c8 653d dc5c 8f3d 872a f7bd
00000290: d15e c53d 72cf afbd eeb7 843d a48b a7bc
000002a0: b1bb 98bd c590 d23d 9732 ccbb a9fb d3bd
000002b0: 0b6a 3dbd 57af 66bd 6014 e93d 184b a6bb
000002c0: 67be 923b 1c05 4e3d 1826 783d e21f dfbd
000002d0: 18b9 bcbd 5a55 3a3d a98c dcbd 9cc7 03bd
000002e0: 6f74 a93b d116 9abc 6776 8abd 171a 7e3c
000002f0: 6950 b23d d2b2 b0bc b499 60bd 4a8d 80bd
00000300: dee2 debd e9b7 d73d d6cc 67bd b399 99bd
00000310: 82a6 0abd d1d9 d8bd 11ff 42bd 83ad d0bd
00000320: efe7 93bd 5680 d23d 8fd1 9bbd 31bb e23c
00000330: f80f 013e b697 893d ab78 453d 4f58 b93c
00000340: 1feb cc3d 01b8 b7bd 94ec c5bd e2de 94bd
00000350: 5269 863d 936f e5bd 5035 91bc e9d9 383c
00000360: 1c04 29bc a0cf 873d bbba d13d 622d 80bd
00000370: d83c 3cbd 5f3a 81bd 5910 d03c f449 053e
00000380: cc76 8c3d 1d67 0cbe e1e0 673a bba4 84bc
00000390: 7200 223d a4b0 d93d ba4d 4f3d 3f77 05be
000003a0: 6d91 be3c 9778 233d 8b0f 863c 540e 24bd
000003b0: a368 afbb 0d7b 89bd e5ea 053e df15 cdbd
000003c0: 2ddb 843d bc2a 513d fbfa 88bd 3403 d93d
000003d0: 0908 b93c 809c 3d3d 196e d63d daa1 18bd
000003e0: 0076 b5bd b680 cf3c caa2 e0bd 5fc9 62bd
000003f0: 5d0d e5bd 16bf fbbd a2ab 4f3d 72ed ac3d
-0.087589495 0.0088059455 0.05898126 0.042927288 -0.12715375 -0.056291483 -0.017732725 0.10594358
-0.02973969 -0.012043872 -0.077228405 0.033580504 0.0592524 0.1020762 0.014581967 -0.011477506
-0.004303696 -0.008549291 0.060390588 0.040089134 -0.03626405 0.033634234 0.025646059 0.051465936
-0.06108628 0.07603187 -0.11189904 -0.06972269 -0.052116964 -0.09414904 -0.040414512 -0.046538576
0.060092773 -0.06567974 0.059299476 0.0506878 -0.037520997 0.022120629 -0.13873968 0.023259887
0.0345824 -0.025928112 -0.10323545 -0.07421674 -0.11091298 0.086877905 -0.06508312 0.06153169
-0.059768688 -0.035597347 0.08434646 -0.03248965 -0.10087439 -0.056509852 0.0027723764 -0.048441727
-0.009700259 0.004833791 -0.040249165 0.0184685 -0.11745088 -0.0508104 0.046197955 0.07014762
-0.06751049 -0.12799494 0.100804955 0.069436625 0.0017602611 -0.014683138 -0.059399955 0.034181964
-0.08006006 -0.12970746 -0.03966175 0.03443095 -0.054842513 -0.08648227 -0.07058419 0.05226325
0.012620192 0.10218452 0.103335366 -0.10805436 -0.08863355 0.056979857 -0.011907998 -0.105854064
-0.0014097804 -0.050113376 0.0683265 -0.009768757 -0.13368429 -0.0686851 -0.100965485 -0.07121975
0.08696489 0.09673729 0.07467945 0.0831813 0.071263574 0.12444353 0.06565558 0.0024211146
-0.13620609 0.05658058 0.117809035 0.1324281 0.11905382 0.052607425 -0.001445828 0.092692584
-0.074278176 0.10633803 -0.057838988 -0.096056424 -0.06333276 0.05443634 0.08436378 0.09346485
0.090940125 0.0020464929 0.052340943 -0.109839246 -0.054043446 -0.009576684 0.012608731 -0.033736855
-0.0037598305 -0.07922237 -0.0026326093 -0.037282184 0.01668874 -0.11057829 -0.016606897 -0.0056185876
-0.040617146 0.038573824 -0.0031762768 0.087735325 -0.0268863 -0.048365023 -0.05874208 -0.089579545
0.053149853 0.084956095 0.113593705 -0.10944936 0.0952361 -0.067925885 0.019569635 -0.045458402
0.09708461 0.06652448 0.059059903 -0.12334036 -0.10788737 -0.0450525 0.13308512 0.017414875
-0.08573034 0.05609903 0.070001334 -0.12068658 0.096372254 -0.08584489 0.06480394 -0.020452328
-0.07457674 0.10281519 -0.0062316167 -0.10350735 -0.04624371 -0.05631956 0.11380839 -0.00507487
0.004478264 0.05029784 0.060583204 -0.10894753 -0.09214991 0.045491554 -0.10769016 -0.032172784
0.0051713507 -0.018809708 -0.06760865 0.01550915 0.08706743 -0.021569643 -0.054834083 -0.06276949
-0.10883115 0.10533125 -0.05659183 -0.07500019 -0.0338502 -0.1058842 -0.04760653 -0.10189345
-0.07221972 0.102783844 -0.076083295 0.02767715 0.12603748 0.0671839 0.04821078 0.022625117
0.10005783 -0.08970643 -0.09664264 -0.07269074 0.06563057 -0.11202922 -0.017725617 0.011282423
-0.010315921 0.06631398 0.10240694 -0.06258656 -0.045956463 -0.063099615 0.02539842 0.13016492
0.06858596 -0.1371121 0.000884546 -0.01619183 0.039551206 0.10629395 0.050611235 -0.1303377
0.023262704 0.039909925 0.016364833 -0.040052727 -0.00535305 -0.06712923 0.13077886 -0.10013937
0.06487117 0.051066145 -0.06688496 0.10596314 0.02258684 0.04629183 0.10470218 -0.03726373
-0.08860397 0.025329929 -0.109685495 -0.055367824 -0.111841895 -0.12292306 0.05070079 0.084437266

lstm.bias_ih_l1 f4 [256]
00000000: d440 abbd 3311 093e dff1 003e e473 bfbc
00000010: cbeb a9bd a6d0 95bd 479f 443b fc01 c73d
00000020: 4e2b 18bb 58d2 a8bd ca79 a0bd 869f cf3d
00000030: dd90 e53d c317 78bd 29c1 e83d f07d 4d3d
00000040: d127 7cbd 077c d03d be2c 983d 50b0 c73d
00000050: 11c3 213d 4753 9cbd 89fa b5bd e930 cfbd
00000060: d2e4 e73d 353f 473d d29c b93d b4e5 efbc
00000070: caf0 003d bf02 bd3d 198d aabd c7e2 b13d
00000080: 3d6f c6bd daef 1a3c 4222 1b3d 0e12 473d
00000090: 088c 533d 91c4 5fbd 4e0c 7abd a5b5 533d
000000a0: 3777 d13d 7ea7 053e eca4 fa3d ff44 833c
000000b0: 03ed e8bd 4c33 8ebd 1f88 de3d 4157 513d
000000c0: 297b f13d 355f 43bd 080d c7bd 6be6 c5bd
000000d0: c7d0 a0ba 182e a4bd 0dee 053e ba36 a2bd
000000e0: 2b77 883d 11c3 4ebd 22de cb3d bf58 83bd
000000f0: 98af 54bd 93c4 b1bc 84a5 b6bd 63f8 a4bc
00000100: bcee a2bd e391 003d 0cd4 7b3d 9239 d6bd
00000110: b458 c6bd 1cf6 63bd 804a d7bd e408 853c
00000120: e17e b6bd 0802 41bd e020 7a3d 854a 813d
00000130: 39e3 7e3c b25b a3bc e578 743d a035 9cbc
00000140: dbd4 c5bb 6385 553c 9073 523d c2de 7b3d
00000150: 3e11 7bbd ced0 dc3d d812 91bd b82a acbd
00000160: b8ed e73d 58e0 a83d a44b 29bd 85a2 9c3d
00000170: 0e3b f3bb de18 103b 8ceb bbbc 40d2 d23d
00000180: da68 bebd 5b9f 6f39 e7a6 d6bd 68e6 38bd
00000190: 0f7e bdbd ffbe 9c3d d69c 7a3c fabc 25bc
000001a0: 2216 923d 6ed2 233d 65f1 93bd 8d25 83bb
000001b0: 1192 c93d 2ed0 a9bc 813f c43d b872 9fbc
000001c0: c8db 023e e835 8c3c 040e 0b3e 310b 553c
000001d0: b18b 8dbd ab99 b5bc 4144 35bd 2e13 adbb
000001e0: be39 773d 16da f7bc c602 81bd e0ac 893d
000001f0: caed 783d 01b7 063e 72d1 9f3c f15b 113d
00000200: 2397 b93d be87 c53d b0d6 8a3d 81b6 9bbd
00000210: e24f 90bd 6eee 113c b732 8b3d 1347 9d3c
00000220: 66c7 21bd 778a 9cbd 4f4c 90bb d703 a0bd
00000230: bb97 0b3d d6a5 e8bb 8dd2 80bc 509d a0bd
00000240: 5323 a63b 3ecb 543d 2ec4 803d 19f6 2ebd
00000250: a390 f3bd 9580 06be 689d a0bd 2209 053e
00000260: 1505 cfbc 06ef 773d ae5f f6bc 69a5 05bd
00000270: 104b eebc 037a 40bd 552b 37bd 2443 583c
00000280: 9bf5 433d c37f d4bd f371 253d 0ae6 1cbd
00000290: 0b36 413d 4d83 953c f55f f0bd 7074 9ebd
000002a0: 6305 d1bd f757 c13c 3a99 093c 8dd2 e9bc
000002b0: 5b22 a13d 94f3 9abd 58b0 7dbc d3c6 8fbc
000002c0: 9c3f f23d c921 b93b e4dd 8c3d c046 9abd
000002d0: c585 9dbd adb4 bebd 9415 a5bd 9fff 00be
000002e0: 61f5 b43d 3bd3 bcbd 5d58 b23c a2c8 0bbc
000002f0: 676d d6bd 3a07 053c 9937 87bd f69f e3bd
00000300: 3fd8 71bd 16cd f43d bac9 f43d 53cc 723d
00000310: 18f0 af3d 7d3f 133d a743 8f3d 76b6 66bd
00000320: 7f7c 0b3e d0aa b03d a9a9 3d3d a5b8 3dbd
00000330: 2a0f ddbd b90e 9ebd c53d b33d 1ea5 9b3d
00000340: e610 463c 3b40 d33d 6867 d33d da1e c1bd
00000350: 880c b23d 6823 f83d 2fab 633a 905e 38bd
00000360: 998e 503d cb8e f63d e295 cebc 86f0 ce3d
00000370: 32f2 c6bc a1f5 a0bd 96be 6c3d bc48 bb3d
00000380: 6076 0f3d 04ef 5a3d da66 0e3d 2f65 963d
00000390: 8a64 693d bb4d 81bd a26d 4f3d 9254 9e3c
000003a0: 49b4 88bd b1a2 cd3d defb 99bd 926f dabd
000003b0: e229 8fbd 6b57 f23d babb 62bd ddac b73d
000003c0: bb2b 00bb 077c 083d 4f89 a1bc a7a3 b23d
000003d0: 0bef 8bbd 8761 fb3c 4a55 d93d 0b4e 8abc
000003e0: ce47 b8bd d9c8 e8bc e4d5 f9bc 2965 b1bd
000003f0: ab63 91bd 9055 d53d f40a 433b 95b0 f23d
-0.08361974 0.13385467 0.12592266 -0.02337069 -0.08296927 -0.07315187 0.0030002163 0.09717175
-0.002321917 -0.08243245 -0.078357294 0.101378486 0.11209271 -0.060569536 0.113649674 0.05016893
-0.06156141 0.10179906 0.07430409 0.09750426 0.03949267 -0.076330714 -0.088856764 -0.10116751
0.11322941 0.048644263 0.09063114 -0.029284336 0.031479634 0.092290394 -0.083276935 0.086858325
-0.09689186 0.009456599 0.037874468 0.048601203 0.051647216 -0.05463082 -0.06104689 0.0516869
0.102278166 0.13052174 0.122384876 0.01602411 -0.113733314 -0.06943378 0.10865807 0.051108602
0.11791069 -0.04769822 -0.097192824 -0.09663089 -0.0012269252 -0.08016604 0.1307909 -0.079205945
0.066633545 -0.050479 0.09954478 -0.06413411 -0.05192527 -0.02170018 -0.08918288 -0.020137971
-0.07955691 0.03138913 0.06148152 -0.104601994 -0.096848875 -0.05565463 -0.105122566 0.016239591
-0.08910919 -0.047121078 0.06106651 0.063130416 0.015557104 -0.019941185 0.059685607 -0.01906854
-0.0060373372 0.01303229 0.05137974 0.061491735 -0.06129574 0.10782014 -0.07083672 -0.084065855
0.11324638 0.08245915 -0.041331902 0.07648186 -0.0074228114 0.0021987478 -0.022939466 0.10294008
-0.092973426 0.0002285218 -0.10481053 -0.045141608 -0.092525594 0.07653617 0.015296182 -0.010115856
0.07133128 0.039995603 -0.07223777 -0.004002279 0.09842313 -0.02072915 0.09582425 -0.019463882
0.12779152 0.017115548 0.13579565 0.0130031565 -0.0691141 -0.022168001 -0.044254545 -0.0052818274
0.0603578 -0.030255359 -0.06299357 0.067224264 0.06077365 0.13155748 0.019509051 0.035488073
0.0906203 0.096450314 0.0677923 -0.07603169 -0.070464864 0.008906944 0.067967825 0.01919893
-0.0394968 -0.076435976 -0.004403628 -0.078132324 0.03408025 -0.0070998473 -0.015725398 -0.07842505
0.005070129 0.05195164 0.06287418 -0.042715166 -0.11892822 -0.13134988 -0.07842523 0.12991765
-0.025270978 0.060530685 -0.03007492 -0.03262845 -0.029088527 -0.04699136 -0.04471906 0.013199601
0.04784165 -0.10375931 0.040391874 -0.03830532 0.04717068 0.018251086 -0.11737052 -0.077370524
-0.102061056 0.023601515 0.008398348 -0.028542781 0.07867881 -0.0756599 -0.015483938 -0.017550861
0.11828539 0.0056497795 0.0687826 -0.07533026 -0.0769153 -0.09311805 -0.08060756 -0.12597512
0.08835865 -0.092199765 0.02177065 -0.008531721 -0.104700856 0.008119399 -0.06602401 -0.111144945
-0.05904412 0.119531795 0.11952539 0.05927689 0.08590716 0.03594922 0.069953255 -0.056326352
0.1362171 0.0862633 0.04630438 -0.04631867 -0.10793908 -0.07717652 0.08752016 0.07599853
0.01208899 0.10314985 0.103224576 -0.094297126 0.086937964 0.12116128 0.0008684871 -0.045012057
0.05091724 0.12038954 -0.025217954 0.1010447 -0.02428541 -0.0785935 0.057798944 0.09144732
0.035025 0.0534506 0.034766056 0.07343518 0.056980647 -0.06313654 0.050641663 0.019327436
-0.06675012 0.100407965 -0.07518743 -0.106658116 -0.069904104 0.1183308 -0.05535481 0.08968518
-0.0019557315 0.033321407 -0.019718794 0.087226205 -0.06832703 0.030686153 0.10611971 -0.016882917
-0.08998071 -0.028416084 -0.030497499 -0.08661873 -0.07099088 0.104167104 0.0029761167 0.118500866
