save_results/lstm_short_term_90d_run1.pt (torch, 546325 bytes, 10 tensors)

lstm.weight_ih_l0 f4 [400, 12]
00000000: 4fd6 edba 108b bd3d ca9e 143c 28e9 893d
00000010: bd54 343d 3cd4 9cbb 595a d03c 0b2b 51bd
00000020: 9883 9abd 1b21 8e3d 8dd9 ca3d bbe5 8c3d
00000030: dae0 ad3d f8c2 3bbc 0ad1 90bd cc43 4d3d
00000040: 3a99 f7bc 4cd8 cabb 7551 213d c1f9 80bd
00000050: d7ab c43c f1e0 b4bd 85a6 fb3c 5239 6ebd
00000060: 2ead 63bd d56e 4a3d 2fbb a83d 5ae1 63bd
00000070: a584 13bc 71d2 8c3d 5bac 93bd e6fa 0c3d
00000080: e31f 22bd 94b2 6abd 9ebf 1b3b 3212 3c3d
00000090: bb09 963c 53e4 6bbc 37fa 8b3d c515 913d
000000a0: 2adb 4c3d b92e a93c c453 42bd 444d 433b
000000b0: ac1a 84bc 912e b0bd 94a6 a3bd 4654 e23d
000000c0: a87d d93c 6695 873d 2b40 e4bc 97bb 573d
000000d0: 4a69 8a3d 0052 b83d b6a2 a13d a50d 83bd
000000e0: efa4 b73d 023b 3abd 2a27 0e3a 34fd 463d
000000f0: 3696 513d e8d2 4e3d 016c b8bc 2f7b adbc
00000100: 8cb2 103d 7c7c e23b 901b 883d 285c 9a3d
00000110: d541 72bd d257 b43d 2ae9 803d 4f46 e5bc
00000120: c275 a13c 6f39 993d c953 c8bc de1a 2a3c
00000130: 1b3e 023d 996e 6c3d 82dd c33d 413a 913d
00000140: bd11 463c a34b ad3d 616b 293d 1910 dd3d
00000150: d0fa b3bc c840 843d d966 dd3d 9bfa 5d3d
00000160: 1bd1 bd3b 1587 b1bd 76e5 14bd 3d06 ba3d
00000170: f0e9 0e3d e47c 163d 0ccb 9a3d b5a0 0dbd
00000180: 6156 cf3d 3d0d d63d 2880 f43c 6d7c bd3d
00000190: d15d 8f3d fe51 41bd 263e babd 4117 543d
000001a0: 1dd5 bb3d 2525 8fbd 4a37 8fbb cbe8 4dbd
000001b0: 0b54 743b 106d a73b 06b1 9e3d 1512 1fbd
000001c0: f7bb a4bd 5e36 70bc 4842 0c3d 4b26 35bd
000001d0: ee21 8e3d 9e97 0fbc f37f 743d 0942 a13c
000001e0: 78b9 fe3c 8769 b43d 93b6 d23d a7b9 2ebd
000001f0: b4b7 6ebd c2b2 223d 7b22 8fbd 4b93 a4bd
00000200: 2476 8b3b bd8f 40bd 7db3 57bd 7ea7 6ebd
00000210: d29d 58bd 69d4 12bd 64e0 b23d 7d73 9cbd
00000220: 8ffd 14bd d28f 6e3d 4665 53bd bb0f b4bc
00000230: d178 54bd 4225 a53d 7891 bb39 dca6 84bd
00000240: 8d9f 9abd 2391 e7bb dc06 6b3d c218 11bd
00000250: 289d b5bd c57f ab3d 3c38 903d 1110 3abb
00000260: cce5 98bd c6cc b63c ef19 c8bd c071 d4ba
00000270: 2752 6dbd 7b6d adbd 4697 45bd 8302 8fbd
00000280: 841d 7cbb 7efc a7bd dd85 ba3d 47b2 7a3d
00000290: a5a0 78ba 2f46 ba3c 3ac4 193d eb6e 0b3d
000002a0: 2f0a 7fbd 4eee 983d 2d1f 863d 6865 af3d
000002b0: b46d 033c 1cb7 a83d b77b 253c 4fef a03d
000002c0: aae1 0c3d 3598 8f3d cc20 333d c7d1 cfbb
000002d0: 5427 9bbd 0c28 fa3c 1786 a53d 8fcc 513d
000002e0: 272f 5bbd 3c02 f1ba f20e 26bd 9e5a 663d
000002f0: 6991 213d c14a b83b 0611 67bd 01ef 83bc
00000300: faff c3bc 0c6b 14bd f50f 993d a21f e53c
00000310: dd24 4d3d 5a47 473c b323 513d c8f1 7ebd
00000320: 1eb0 9e3c 3fad 533d 37a1 a73d 8b55 a53c
00000330: 2cf4 b9bd a181 31bc b9bd 163c 2d9a dd3c
00000340: 9451 1fba 38b7 9abc 75c1 8e3d 38d6 6bbd
00000350: b6f2 16bc 9fee b33d 4a1e 82bd 5d8a ee3d
00000360: 0044 8d3d 4601 82bc 9fcc d53d 6937 80bc
00000370: fa03 a03c 5a8d 56bb c81e 8ebc b1d8 c93c
00000380: bdab bb3d e624 c7bd 8847 a6bd ca5f fd3d
00000390: 1cde 203d f7cf 343d 0e22 8bbd e437 bcbd
000003a0: 6a6e 0c3d 2c86 1b3d dd38 0a3d 1ede d93c
000003b0: 9192 a33d cc69 97bd cd1b 49bd 285d 84bd
000003c0: 8fa7 a63d 6ff9 2c3b bb73 1b3c 97cb 89bd
000003d0: 1e2e e7bc 3ee7 96bc f7aa 343d c486 cc3d
000003e0: e2b8 18bd 0810 87bd 205c c93d 0bf4 a2bc
000003f0: cff3 a23d 92cc 133d 25bf aabb baba e1bc
-0.0018145534 0.0925504 0.009071061 0.06733924 0.044026125 -0.0047860425 0.025433706 -0.05106644
-0.07544631 0.06939908 0.09904776 0.06879755 0.08490153 -0.011460058 -0.07071121 0.050113484
-0.030224431 -0.0061903354 0.039384324 -0.06297637 0.02400772 -0.08831967 0.030719051 -0.058160134
-0.05558508 0.049422104 0.082388274 -0.055634834 -0.009003793 0.06876076 -0.072106086 0.034418963
-0.03958119 -0.05729921 0.0023765336 0.04591579 0.018315187 -0.014397698 0.06834834 0.0708423
0.0500137 0.020652162 -0.047443166 0.0029800693 -0.016126 -0.08602632 -0.07990757 0.1105123
0.026549175 0.06620292 -0.027862629 0.052669134 0.067583635 0.09000015 0.07892363 -0.06399087
0.089670055 -0.04546643 0.0005422706 0.048581317 0.051168643 0.050494105 -0.022512438 -0.021176903
0.035326526 0.0069118124 0.06645882 0.07537109 -0.059144814 0.08805813 0.062944725 -0.027987627
0.019709472 0.07481658 -0.024454014 0.010382382 0.03179751 0.05772266 0.09563734 0.07091189
0.01208919 0.08461692 0.04136217 0.10794086 -0.021970183 0.064576685 0.10810632 0.054194074
0.0057927496 -0.08668343 -0.036351644 0.09083221 0.03489107 0.0367402 0.07558259 -0.03457709
0.10123897 0.10451744 0.029846266 0.09252248 0.07000316 -0.047197334 -0.09093885 0.05177999
0.091715075 -0.06989507 -0.0043706046 -0.050270837 0.0037281539 0.005109437 0.07748608 -0.038835604
-0.08043664 -0.0146614 0.0342429 -0.044225972 0.06940065 -0.008764176 0.059692334 0.019684808
0.031094298 0.0880919 0.102887295 -0.04265752 -0.05828066 0.039721258 -0.069889985 -0.080359064
0.004256027 -0.04701208 -0.052661408 -0.0582652 -0.052884884 -0.0358471 0.08734205 -0.07639215
-0.036374625 0.058242626 -0.051610254 -0.021980157 -0.051873032 0.08063747 0.00035775802 -0.064771384
-0.07549963 -0.007066862 0.05737959 -0.035424 -0.08867866 0.083739795 0.07041976 -0.0028390924
-0.07465705 0.02231444 -0.097705714 -0.0016208217 -0.057939675 -0.08468147 -0.04823997 -0.06982901
-0.003846974 -0.08202456 0.09107564 0.061205175 -0.0009484387 0.022738544 0.03754065 0.034041326
-0.06226557 0.07467328 0.06548915 0.085642636 0.008021761 0.0823805 0.010100297 0.078581445
0.034394898 0.07011453 0.04373245 -0.006342146 -0.075758606 0.030536674 0.08082216 0.051220473
-0.053511765 -0.0018387507 -0.040541597 0.056238763 0.039445315 0.0056241457 -0.05641272 -0.016105177
-0.02392577 -0.0362349 0.07473747 0.027969185 0.050083984 0.012163008 0.051059436 -0.0622423
0.019371089 0.051678892 0.08185046 0.020182392 -0.09079775 -0.010834129 0.009200507 0.027051056
-0.0006077525 -0.018886194 0.06970493 -0.05757734 -0.00921314 0.08785748 -0.063534334 0.116474845
0.068977356 -0.015869748 0.10439419 -0.015651422 0.019533146 -0.003273806 -0.017348662 0.02463946
0.09163616 -0.09723835 -0.08119112 0.12371786 0.03927432 0.044143643 -0.06793605 -0.09190348
0.034284987 0.037969753 0.033745635 0.026595172 0.0798694 -0.07393226 -0.04909878 -0.06463081
0.08137428 0.0026393791 0.0094880415 -0.06728285 -0.028220233 -0.018420812 0.044108357 0.09986642
-0.037285693 -0.065948546 0.098320246 -0.01989176 0.07956659 0.036083765 -0.0052107745 -0.027554858

lstm.weight_hh_l0 f4 [400, 100]
00000000: 0d73 babd 483a e4bc 8f45 e3bc aee0 c43d
00000010: 4d6c be3d 46f0 933d fb87 613d 619d b4bd
00000020: 6aed b2bd 2972 013c cf15 b73d dfac b73d
00000030: ef28 21bd 02fd 74bd 2f68 af3d 4d86 c2bd
00000040: a764 18bd 6892 41bc 1306 d4bc 18f4 c93d
00000050: 8049 4b3d 20ce a43d aeb0 b13d caab 283d
00000060: 88cf c9bd ae66 8b3d 54ea 783d 3fae 57bd
00000070: 7a9c 4f3d 17c7 60bc 8ec6 41bd 88a2 753d
00000080: 49d7 b93d bb8f 843d 022f 8f3d c484 e53c
00000090: 5c1a 3cbd f33e c0bc 96b9 483d 0c82 25bd
000000a0: d5b3 89bb e9f4 3abd 05b8 223b cc2b 753c
000000b0: 6ce1 a1bd 5ce4 0cbd 24ac dfbc 3676 9e3d
000000c0: ceb8 b83d e410 b8bd 060e d7bd a174 47bd
000000d0: 7c54 153c 90f8 d73c 5963 12bd cc20 dabb
000000e0: fabc 8fbb 6326 c4bd 2bae 95bd d54d 04bd
000000f0: 8102 c4bc 1b1c a0bd c910 b03d 6678 a9bd
00000100: c28f b13d e919 a3bb b148 283d 8f51 983c
00000110: c167 67bc 65d1 5b3d 2b3f a3bd cb9a dcbc
00000120: d7cf 00bc 62b0 a5bd 73ac 9f3c d108 f3bc
00000130: e3ed ebbb 6014 9a3d 5309 173d 0689 43bd
00000140: 9565 ed3c a213 1cbd 563e 473d dfd9 923d
00000150: 5cf5 fc3c 3985 d93d a82c 83bd 9ec0 913d
00000160: ba10 22bc ef29 953d 099d 26bd 7069 e9bc
00000170: 239b c4bd c1db 8f3d 19d2 8b3d 0085 953d
00000180: 8a9d bf3d bf21 6ebd ea13 283d c75d 0d3d
00000190: 1b72 0bbd efec 5c3d b523 93bc 2cb0 583d
000001a0: 66f2 54bb 9943 3c3d fa33 abbd 49cd 0b3d
000001b0: 697d 50bc c9eb c13d 9822 d33d 3670 abbd
000001c0: 9f2c d4bd 9cfe 703d bf41 3bbd b5de 1bbd
000001d0: af4d fbbc 2d84 bb3c bd16 d13d 5302 20bd
000001e0: fcf6 f93c 006b 853d 72cf afbc 3724 a03d
000001f0: 4a1d 5ebd 244a 6cbd a629 87bd bce9 7cbd
00000200: c1a1 2e3c 1e30 9abd 37a1 553d ea02 bebd
00000210: 2192 be3d 4b67 f3bc 2248 2abd cb90 d0bb
00000220: 9c76 b03d 3b53 c53c 81e6 8abd af3d d6bd
00000230: 06dc 84bc dc3b b13c 4415 7a3d 92c0 2fbc
00000240: 93c3 ca3c dfa8 973d 3d72 a8bd f05c 2dbd
00000250: da2f 78bd 8476 b4bd d424 a7bd b24c 8c3d
00000260: 1d28 53bd 0f1d 7abd 7df9 09bc f5cc 2c3d
00000270: eaa8 7f3d d636 973d 2d7c cb3d ddca c13c
00000280: 71cc c53d ce31 63bd 3c23 53bc a00a 793d
00000290: 1513 873d d0cb 203c e244 a7bc 0c50 4dbd
000002a0: 92da cc3a 63c6 ce3d e150 313d 9daf bbbd
000002b0: b939 6a3d b5dd 473d 8384 883d 964d 35bd
000002c0: 781a 93bd e302 803d c2cd 89bd 4985 ad3d
000002d0: 7578 023c 4e1b d0bc 54af c43d 496c 823d
000002e0: 2c5e 2cbd 8322 bfbc 05a9 b63d 6776 e33d
000002f0: 42bc f43a ab1e 4bbd dec4 7fbc 24d7 30bd
00000300: ab81 8bbc 681e 3a3d 2cb1 d53c 2e55 73bd
00000310: 89b5 873d bd3d b53d b8c6 de3c 9b9f 493a
00000320: 93d3 cebc 07e3 9abd 2d9c d8bc 4e9f 983d
00000330: efa2 97bc 8bfc ba3d ae1f ffbc 0733 b7bd
00000340: e806 36bd bc84 d73c d79d b33d 00f1 27bd
00000350: 2aa5 a93d 85d4 66bd 34c5 cb3c 22a8 67bd
00000360: c51e a63d 4d70 85bd 3f94 033d 072f bd3c
00000370: 2753 c03d 11a6 93bd 0711 183d e392 2a3d
00000380: f097 4ebc 738b 333d f1da 8d3d 8e30 03bd
00000390: 3c6d ec3b 517a d6bc a86b 9abd 0a81 2bbd
000003a0: 0c83 6b3d 99b8 8d3d ffcc 23bd d7f9 6b3d
000003b0: 75c6 ae3d 711a 1cbd 74a7 8f3d 2dce 90bd
000003c0: 097a 3ebc f90e a93d 521d b03d 413c 5b3d
000003d0: 6fe3 033d 77cc 8f3d 723c 77bd d290 bbbd
000003e0: 65bf 98bc 5669 cd3c 31b5 1cbd d857 1a3d
000003f0: 940a 5abd 0f55 25bd 70af 94bc 0014 2d3d
-0.091039754 -0.027859822 -0.027743129 0.09613167 0.092980005 0.07223563 0.05506132 -0.0881908
-0.087366894 0.007900753 0.089397065 0.089685194 -0.039345678 -0.0598116 0.08564793 -0.09498272
-0.037205365 -0.011814691 -0.025881803 0.0986101 0.049630642 0.08047128 0.08676277 0.041179456
-0.098540366 0.06806694 0.060770348 -0.05265641 0.050686337 -0.013719342 -0.047308497 0.059969455
0.090742655 0.06472727 0.06991388 0.02801741 -0.045923576 -0.023467517 0.049005114 -0.040407225
-0.004202346 -0.04564372 0.0024828922 0.014964055 -0.07904324 -0.034397468 -0.027303763 0.07737391
0.09019624 -0.08987597 -0.10500722 -0.04869521 0.009114381 0.026363641 -0.035739277 -0.0066567417
-0.0043865414 -0.09577634 -0.073086105 -0.03230079 -0.023926975 -0.07817861 0.085969515 -0.08274917
0.08669998 -0.004977454 0.04108495 0.018593578 -0.014123858 0.05366649 -0.07971033 -0.02692928
-0.007862053 -0.08090283 0.01949141 -0.02966729 -0.007199989 0.075234175 0.036874127 -0.047738098
0.028979102 -0.03810466 0.048643433 0.07170462 0.030878715 0.10621113 -0.06405002 0.07116817
-0.009891683 0.07283389 -0.040677104 -0.02849266 -0.095999025 0.070243366 0.06827182 0.07300758
0.0935622 -0.05813765 0.041034617 0.03451326 -0.034044366 0.053936895 -0.017961362 0.052902386
-0.0032493114 0.045962904 -0.08359523 0.034131322 -0.012725213 0.094688006 0.103093326 -0.08371012
-0.10360073 0.058836564 -0.045716997 -0.038054187 -0.03067669 0.022890175 0.10209415 -0.039064717
0.03051328 0.06514549 -0.021461222 0.078194074 -0.05422715 -0.057687894 -0.06599741 -0.061746344
0.010658682 -0.07528709 0.0521557 -0.092778996 0.093052156 -0.02971234 -0.041572697 -0.006364917
0.08616373 0.024087539 -0.067822464 -0.10460984 -0.016218197 0.021634988 0.061055437 -0.010727065
0.02475146 0.074052565 -0.08224914 -0.04232496 -0.06059251 -0.088116676 -0.08161321 0.06850566
-0.051551927 -0.06106287 -0.008421299 0.04218765 0.06241695 0.07383506 0.09935794 0.023656303
0.09658135 -0.05546742 -0.0128868185 0.06080115 0.065954365 0.009814218 -0.020418588 -0.050125167
0.0015629104 0.10096433 0.043290023 -0.09164355 0.057183955 0.04879542 0.066658996 -0.044263445
-0.07182783 0.062505506 -0.06728698 0.08472688 0.0079632895 -0.025403645 0.09603754 0.0636831
-0.042081997 -0.023331886 0.08918957 0.11106568 0.0018671828 -0.049589794 -0.015610902 -0.043173924
-0.017029604 0.045439154 0.026085459 -0.059407406 0.06626422 0.08849666 0.027194366 0.00076913246
-0.02524737 -0.07562833 -0.026441658 0.0745226 -0.01851031 0.091302 -0.031143036 -0.089452796
-0.04444018 0.02630841 0.0877034 -0.04100132 0.08283456 -0.05635502 0.024874307 -0.05655683
0.081113376 -0.0651556 0.0321238 0.023093713 0.0939086 -0.07209409 0.037125614 0.04164399
-0.012609467 0.04383416 0.069265254 -0.032028727 0.00721517 -0.026181372 -0.07540065 -0.041871108
0.057498023 0.06919975 -0.03999042 0.057611313 0.085339464 -0.038111154 0.07014361 -0.07070575
-0.011625775 0.08254809 0.085993424 0.05352426 0.03219932 0.070214204 -0.06036038 -0.09158482
-0.018645952 0.025074642 -0.038258735 0.03768143 -0.053232744 -0.04036432 -0.018150061 0.0422554

lstm.bias_ih_l0 f4 [400]
00000000: 371d 94bd 7ace 033d a8b5 c0bd 43ad 273c
00000010: 503c bbbd c33b 473d f726 273d 6674 843d
00000020: a772 63bd 23ed bd3a 279e 963d f415 50bd
00000030: ac36 d8bc 6444 a5bd b4c3 2cbb 70cd d23d
00000040: 8a0a ba3c 4c80 e4bc dd71 b23d b5dd 6dbd
00000050: d77d 55bd 134e ab3d 03f5 c23d 37dd 49bd
00000060: a035 263d 3843 a13d 20ca 3dbd fd3d 9abd
00000070: de06 223d 1f46 9e3c f2da 44bd 0502 10bd
00000080: cc5c 333d 2aaf c0bd 01eb 56bd 958b 463c
00000090: 255b a2bc 6d7f ae3d 1a2f a53d 497d c23d
000000a0: 50c1 b6bd 7c78 c73b 8639 3c3d e0da 70bd
000000b0: 0eee 923d 3708 82bc 1ac7 0dbd e8f4 b539
000000c0: a5a2 54bb d385 d03d c2ed 43bc 712e bebd
000000d0: 5bd9 e9bb c849 30bd 4c72 9fbd f162 27bd
000000e0: e7f7 b9bd e3f2 4f3d e57e c03d 016a 1cba
000000f0: 6ec2 8d3d 0ffa d33c e2b9 503d f587 a4bc
00000100: 321f b03d 5d09 f0bc d039 a9bc 8767 2a3c
00000110: f81f 543b c021 733c 4d80 c9bc 7c58 65bd
00000120: f017 fd3b 0a59 af3c ddbb 083c e623 ccbb
00000130: 377e 29bd fd28 e4bc 943b 8d3d 3a07 22bd
00000140: dcfa 08bd 9c73 adbd a4c8 23bd 0d35 b53d
00000150: 086b 973c 11b1 623d 3fee c8bd c069 3bbc
00000160: 346c 2d3d 6db8 8a3d f683 933d c890 9abd
00000170: e73a 1e3d 7c01 e73c c69b 003c 8028 993d
00000180: d5c9 c3bd bbfc 1f3c 3fc1 86bd 200e d9ba
00000190: 8096 b0bd 967f 8e3c cf02 4ebd e0bb 2ebd
000001a0: 9b5a 283d 997b c13c 20fd 6e3d e5a7 6ebd
000001b0: ccd3 283d 344b 8abd ab04 c63b 1153 bebd
000001c0: d995 5abc 0edd 713d 110b a83c 5eb4 f23c
000001d0: 6914 5a3d da6c 16bd d526 cc3d 9f23 26bd
000001e0: 8459 b43d a804 c0bd c8d5 c53d 84c2 b23c
000001f0: 5437 863d 6911 a3bd 519c 07bb 17e6 95bd
00000200: a18d e4bb e062 a73d afc0 85bd a0b2 56bc
00000210: 944c 89bd 608d 9c3c 8e23 d8bc 19dc c13c
00000220: bcde 7cbd 190c ce3d b042 6abb 6578 36bb
00000230: fa99 da3c 6392 993b 0f67 0e3c 39f7 8ebc
00000240: 2e91 b2bd 482d 70bd 66a3 1b3d be55 7e3d
00000250: 5534 503d d6ee 7ebd 57ae 51bd 15d8 783d
00000260: d632 993d b624 ed3c 6d79 57bd 3ce0 e6bb
00000270: 653b e73b b8bd 553d 5158 8c3d 67c4 b63b
00000280: a28d febc 7a8a eaba b6f9 5a3d 34bb a03d
00000290: e159 85bd a238 6d3d 6926 863c 5c76 4bbd
000002a0: ae39 493d e6d0 a1bd d69f 683d 8126 9dbd
000002b0: 3dfe 813d 5a08 f6ba b075 cf3d 9d7f 90bd
000002c0: 60ec d439 61ea f5bc ed35 20bd 174f 953d
000002d0: e14a 883d 9a7c abbd b1f5 e4bd ff51 0d3d
000002e0: 48bd 6d3d 7b7b 8f3c e46d acbd 14fa 9dbd
000002f0: 2617 babc c07f d93c de69 933d fc8e bdbc
00000300: af5e 1abd 3598 893d 19e2 143c dcb8 31bb
00000310: 89e6 a83d bc3a 87bd ab40 6e3d 9079 883d
00000320: e151 d63d cc8b 673d edc1 d43d a4e1 333d
00000330: 778c c43d d17c 9fbd fcc9 5cbd 5da6 833d
00000340: c5be 213d d6a4 8f3d 42f4 e13c 6516 993d
00000350: 8bcc 20bd 49cd d2bd 10f1 8d3c b43b b4bd
00000360: 481f 253d 4b8e d3bc 91f3 c93d cd1d 19bd
00000370: 58b0 cabd 4414 0abd eb28 b6bd 75ae 69bd
00000380: 036c c9bd feea a53c 212e cfbc 2caf 08bc
00000390: 3bed 98bd 1350 1e3d 01b3 93bd a239 993d
000003a0: 74d7 583d d513 0bbd 900b 97bd 17f5 8abd
000003b0: 195e 773d 2374 2f3d 8fe4 e73b 54ae d7bd
000003c0: ab5c 00bd 1c91 bb3d a136 95bd d5f1 083c
000003d0: 158e 9bbd 41f5 653d ddff b53d f847 d0bb
000003e0: 72ea 8abd 8361 083c 8f30 25bd d400 343d
000003f0: 06d7 4b3d 02d0 6b3c 7adc ecbb bcac ec3c
-0.07232135 0.032179333 -0.09409648 0.01023418 -0.09142363 0.048640978 0.040808644 0.06467514
-0.055529263 0.0014490228 0.07354384 -0.050802186 -0.026393257 -0.08069685 -0.0026361765 0.1029309
0.022710104 -0.027893208 0.08713124 -0.058072764 -0.052121963 0.08364501 0.095193885 -0.049283233
0.040578485 0.07874149 -0.04633534 -0.075313546 0.03955733 0.019320546 -0.048060365 -0.035158176
0.04378967 -0.0940841 -0.05247021 0.01211824 -0.019818852 0.08520398 0.080656245 0.094965525
-0.0892359 0.006087361 0.045953296 -0.058802485 0.071743116 -0.015873058 -0.034613706 0.0003470548
-0.0032445577 0.10181775 -0.011958541 -0.09286202 -0.0071365065 -0.043039113 -0.07785472 -0.040865842
-0.09080487 0.050768744 0.09399203 -0.00059667235 0.0692185 0.025876073 0.05095852 -0.02008436
0.085997 -0.02930134 -0.02065745 0.010400659 0.0032367688 0.01483959 -0.024597311 -0.05599259
0.007723801 0.021404762 0.008345571 -0.0062298654 -0.041380133 -0.027851576 0.06896129 -0.039557673
-0.033442363 -0.08469316 -0.039986268 0.08848009 0.018483654 0.055344645 -0.09811067 -0.011438787
0.04233952 0.06773458 0.07202904 -0.07547146 0.038630392 0.02819895 0.007849639 0.07478428
-0.09559981 0.0097648455 -0.065798275 -0.0016559996 -0.086224556 0.017394822 -0.050295647 -0.04265964
0.041102033 0.023618506 0.058346868 -0.058265585 0.04121761 -0.06752625 0.006043037 -0.092931874
-0.0133413905 0.059048705 0.02051309 0.029627021 0.05324212 -0.036724903 0.09968344 -0.040561315
0.08806136 -0.09375888 0.09659916 0.021821268 0.06553522 -0.07962305 -0.0020692537 -0.07319277
-0.0069748913 0.08173156 -0.06530892 -0.013104111 -0.06704059 0.019110382 -0.026384141 0.023664521
-0.061735854 0.10060901 -0.0035745315 -0.0027842757 0.02668475 0.00468664 0.008691563 -0.01745187
-0.08719097 -0.058636934 0.037997626 0.06209349 0.050831158 -0.06223949 -0.051191654 0.060752947
0.07480399 0.02894817 -0.052606035 -0.007045774 0.007056641 0.052182883 0.068527825 0.005577612
-0.031073395 -0.0017894052 0.0534608 0.07848206 -0.06511284 0.057915337 0.016375737 -0.049673423
0.049127273 -0.07901172 0.056793056 -0.0767336 0.0634732 -0.00187708 0.10129869 -0.0705559
0.00040611904 -0.030018987 -0.039113928 0.07290476 0.06654907 -0.08373375 -0.111796744 0.034502026
0.05804184 0.017514935 -0.084193975 -0.07713714 -0.022716116 0.026550174 0.07197927 -0.02313947
-0.037687954 0.06718484 0.009087109 -0.0027118241 0.08247096 -0.066029996 0.05816714 0.06663811
0.10464836 0.056529805 0.10388551 0.04391636 0.09597104 -0.07787479 -0.053903565 0.06428216
0.039488573 0.07013862 0.027582292 0.074749745 -0.039257567 -0.10293061 0.017326862 -0.0880045
0.040313035 -0.025824687 0.0986091 -0.037381936 -0.09896916 -0.033710733 -0.08894523 -0.05705114
-0.09835055 0.020253655 -0.02529055 -0.0083425455 -0.07467123 0.038650583 -0.07211877 0.07481696
0.052939847 -0.03395446 -0.07375252 -0.067850284 0.060392473 0.042835366 0.007076807 -0.10531297
-0.031338375 0.09158537 -0.0728581 0.0083584385 -0.07595459 0.056142095 0.08886693 -0.0063562356
-0.06782998 0.00832403 -0.040329512 0.043946102 0.04976561 0.014392855 -0.0072284313 0.02889096

lstm.bias_hh_l0 f4 [400]
00000000: db89 46bc 7d03 aa3b 75a6 fcb9 51f5 683d
00000010: 8bc4 7e3d fbf2 23bd ea58 00bd a22e 9cbd
00000020: c6ca 543d f1bc 633d 3b30 ba3d a0ff f03c
00000030: ec7f 803d fe12 a73d 4f3e 96bd 02f2 003c
00000040: 42d4 90bc 9b75 6abd 05e1 5a3d 6316 31bc
00000050: d187 7e3d 964d 543d 1b2c a33d 43af 343d
00000060: 5dc2 b6bd 7953 a1bc 5041 5b3d 3a3d cbbd
00000070: c2f7 393d b071 89bd 7c29 a5bd 36c9 b1bd
00000080: 49ca 19bd aa21 b0b9 687a 9a3d ed1e 8c3d
00000090: 4924 303c b247 5a3d 1cee 8a3d 921d 0abd
000000a0: 92eb ba3d 6e8d d13d c004 9ebc 9c81 5f3d
000000b0: 7ab9 ca3b f8c4 b43c 90c3 ffbc 9d33 c73c
000000c0: cc52 bebc 8de4 263d c2bf adbd 6df6 9f3b
000000d0: bb68 8bbd 0c52 b2bd d02e 1abd 4471 2fbd
000000e0: edf6 35bd ad65 463c 59a8 293c a611 2bbd
000000f0: 0eb5 94bd 735c ac3c 0cc8 80bd ef6a be3d
00000100: ca45 bf3c 9f3d a4bc b728 9abd 2f68 b03d
00000110: dd07 32bd 577b 183d 8089 643c cafd 80bd
00000120: 06c3 273d 30fc 56bd a309 cc3c 337e 803c
00000130: a7a1 92bd 7491 a1bc d28e cabd 60fa 4d3d
00000140: 4d9a 2ebc 6375 c03c a9f1 2cba 1780 b33d
00000150: f7ee 3d3d e9a8 9bbd d18c 9b3d c114 6f3c
00000160: 47ec b0ba aab4 04bd 6106 293b 01a8 02bc
00000170: 8e47 6dbc 432e a5bd 2877 4abd 170f 6cbc
00000180: 1ea0 243d 1214 a6bc e6e2 b13d 0444 a3bd
00000190: b876 ca3b ca7b d03d ef58 05bd 1714 1f3d
000001a0: d5a1 81bd 2439 05bd 5005 393d c526 863c
000001b0: 5ed0 6dbd a5a1 75bd 0d82 2cbd c484 0bbd
000001c0: 0af8 ca3c 9dae ab3c 3e83 343c 98e9 773c
000001d0: a523 9abd 8033 f13c 3217 96bd 3f2d a5bc
000001e0: 5c08 ccbc e1b4 623d 4768 5bbd 7fa5 663d
000001f0: d906 42bd 3bfd ad3d 4a81 633d 2708 0b3d
00000200: 1ba4 7f3d e806 8e3d 7ccf ae3d bbbb 16bd
00000210: c30c 09bd 9c67 bd3d 0941 183d ff59 b0bc
00000220: 86be 0cbd ca30 403d cfaf d13d 9601 573d
00000230: da45 c33c acff babd cc7b 9c3d 4af2 c83d
00000240: f53e 193d fa98 ae3d 645c a63d 3689 b93d
00000250: f953 77bd 5850 8c3d d8f1 7a3c 64b0 8ebd
00000260: 18ab bebd 8e57 973d c624 98bd 6b0d a93d
00000270: 1f73 0b3d 1b99 87bd 9066 b03d d4a8 fb3c
00000280: 3d99 3c3d d5c4 593d 95f2 35bd 5508 e7bc
00000290: 1704 4ebd 86f4 7d3d ec48 b7bd 2571 a3bc
000002a0: 7dc5 29bd 21f4 b1bd d8e8 983d 2a1d 513d
000002b0: 022e 253c f569 f63b 6032 5f39 6283 3ebc
000002c0: d8f1 743d 65fa 303c fced 07bb eb21 d43d
000002d0: 4750 99bb 0f07 b43b 0818 a33c 61b6 22bd
000002e0: bc1f b63d e29d b6bd 9b27 8fbc 485e a13d
000002f0: 1ab2 f13c 04fb 99bc da49 6b3d 510b abbd
00000300: d305 673d f1d1 6bbd 1c40 b53d 1384 68bd
00000310: 79b5 943d b808 9cbc 5374 683d b748 b43d
00000320: ef09 933d 4bf7 023d 5723 b1bd 040c b13d
00000330: 9da8 893c d648 dfbd 74bc 9abd 6ac6 1ebd
00000340: ca0c 09bc 01c6 523c 6bb4 773d de06 4bbd
00000350: 7d03 bdbc 0500 e0bc 75eb 973c 5ed3 d63c
00000360: 7784 8f3d 643d 9fbd f5a4 a83d 9f54 6c3d
00000370: 180b 07bc 93d8 82bd 691b 9abd e726 103c
00000380: 311a 713d f69e b83d 774b b8bc c17e a5bd
00000390: 115a b4ba eb14 3fbd 0a09 733d 84a7 ed3c
000003a0: d823 85bd 7056 b23c 672a 6bbd 3fd0 b0bd
000003b0: 91a8 b53d a27e 5abd 1486 f33c 97ec a43c
000003c0: 2036 80bd c6c7 d23d f855 093c 7820 f83c
000003d0: 96e2 8f3d d9e7 3c3d 24a9 bfbd 87f7 9f3d
000003e0: e25b c3bd 4710 3b3b 2fe3 83bc f95f edbc
000003f0: 63ba 84bd eb87 92bd d010 4abd 9c8b fa3c
-0.012117828 0.005188404 -0.00048189206 0.056874577 0.062199157 -0.040026646 -0.031334795 -0.07626082
0.051951192 0.05560011 0.090912305 0.029418766 0.06274399 0.08157919 -0.07336103 0.007870199
-0.017679337 -0.057241064 0.05343725 -0.01080856 0.062141243 0.051831804 0.07967397 0.044112455
-0.089237906 -0.019693123 0.053529084 -0.099237874 0.045402296 -0.06711137 -0.08064553 -0.08680956
-0.03754643 -0.00033594418 0.075428784 0.06841836 0.010750839 0.05329103 0.06783697 -0.033719607
0.09126963 0.10232054 -0.019289374 0.054566965 0.0061866613 0.022066578 -0.031221181 0.024316603
-0.02323284 0.040745307 -0.084838405 0.004881671 -0.06807085 -0.087070554 -0.0376423 -0.042832628
-0.04442494 0.012109202 0.010355079 -0.041764878 -0.07261096 0.021040177 -0.06288156 0.0929774
0.023348708 -0.020048914 -0.07527297 0.086136214 -0.04346453 0.037227 0.013948798 -0.062984064
0.040957473 -0.0524866 0.024906939 0.015685176 -0.07159739 -0.019722678 -0.09890522 0.050287604
-0.010656905 0.023493474 -0.00065972895 0.087646656 0.046370473 -0.076005764 0.07595218 0.01459235
-0.001349815 -0.032398857 0.0025791156 -0.007974626 -0.014482392 -0.08065464 -0.049430043 -0.014407895
0.040191762 -0.020273242 0.086858556 -0.07971957 0.006178703 0.10179861 -0.032555517 0.03883752
-0.06329695 -0.032525197 0.045171082 0.016375909 -0.058060043 -0.05996861 -0.042116214 -0.034062162
0.024776477 0.020957286 0.011017619 0.015131377 -0.0752633 0.029443502 -0.07328643 -0.020163177
-0.02490633 0.05534828 -0.053566243 0.056310173 -0.04736981 0.084955655 0.05554322 0.03394332
0.062412363 0.06934911 0.08535668 -0.036800127 -0.033459436 0.092482775 0.037171397 -0.021527288
-0.034361385 0.04692153 0.10238611 0.052491747 0.023837019 -0.09130797 0.076408 0.09811838
0.037413556 0.08525272 0.08123091 0.09059374 -0.060382817 0.06851262 0.015316449 -0.069672376
-0.09309977 0.073897466 -0.07428889 0.082545124 0.034045335 -0.066209994 0.08613312 0.030720152
0.046044577 0.05316623 -0.044420797 -0.028202215 -0.05029687 0.062000774 -0.089494556 -0.019951412
-0.041448105 -0.08689142 0.074662864 0.051053204 0.01008177 0.0075199553 0.00021285703 -0.011628004
0.059800953 0.010801886 -0.0020741215 0.10358032 -0.0046787593 0.0054940055 0.01990892 -0.03972471
0.088927716 -0.089168325 -0.01747494 0.07879311 0.02950387 -0.018796451 0.057443477 -0.08351768
0.05640204 -0.057573263 0.088501185 -0.05676658 0.07261176 -0.019047126 0.05675156 0.08802932
0.07179629 0.03197412 -0.08649319 0.0864487 0.016804034 -0.10902564 -0.07555476 -0.03876344
-0.008364866 0.012864591 0.060474794 -0.049567096 -0.023072952 -0.02734376 0.018544892 0.026223835
0.070076875 -0.07775381 0.08234588 0.05769789 -0.008242391 -0.063889645 -0.07524759 0.008798338
0.05886287 0.090146944 -0.022496922 -0.08080817 -0.0013759752 -0.04665081 0.059334792 0.029010542
-0.06500977 0.021769732 -0.057413485 -0.0863347 0.08870042 -0.053343423 0.02972702 0.020132346
-0.062603235 0.1029201 0.008382313 0.03028892 0.0702564 0.046119545 -0.09358433 0.07810884
-0.0953901 0.0028543638 -0.01609954 -0.028976427 -0.06480863 -0.071548305 -0.04933244 0.030584149

lstm.weight_ih_l1 f4 [400, 100]
00000000: 742b 3dbd 5fb2 b73d d26d 5d3d 2ef0 b9bd
00000010: d4af 79bd b71f 783c 4cf5 8abd 3dcd 3dbd
00000020: f354 4d3c fa73 683d c1ae 47bd 6803 67bd
00000030: ac23 05bd 04d6 4bbd 577a 4a3d 9c37 e33c
00000040: 3957 be3d e56b 7c3d 0c83 e4bc 1792 14bc
00000050: a78c 9cbb e582 293d cd34 833d 0e34 a7bd
00000060: 04a6 95bd 30df b63d ddd8 723d f62a 0abc
00000070: 23a9 093d a5cd 973d 18b9 fe3c 833c 2abc
00000080: f778 5a3d c828 1a3d a072 233d 1971 a93d
00000090: d020 84bd 63a4 5bbc 2903 213c b046 1ebd
000000a0: 799c 71bd e629 81bd ff18 c8bd b2ff a3bc
000000b0: d628 a43d 8fa9 0bbc 9cc1 db3d cfb0 d03d
000000c0: dc85 ccbd 0d50 81bd 5e9c 94bc 1b33 a83d
000000d0: 78bc b73d 98de bc3c 2698 80bd 7ea5 d53d
000000e0: f4b5 fc3b 1384 d6bd 8c67 85bd 4ac6 5dbd
000000f0: 9f56 553b ccf2 cdbd 51be 4fbc b02e f7bb
00000100: f019 ebbc adce 963d 5af8 b53d 4296 383c
00000110: 8cef 3fbd 5956 123d 79fd 01bc d34b 9abd
00000120: 4070 bcbc 69ac 9e3d 52ed 4c3d 1fa5 cd3d
00000130: d152 a93c 1de0 963c ea14 0b3a 2d59 e43c
00000140: 8012 aabd 40b4 4ebd 8566 453d 8959 a33c
00000150: 8ca4 a8bd 963f 91bd a848 e0bd eb68 23bd
00000160: 5160 8fbd 951f b33d dec8 4bbd 8def a7bd
00000170: 72b7 5e3d 1b6e 10bb b959 4ebd 3e7c cfbd
00000180: 4748 b03d a43f c0bd 285c a4bd 433b 6f3c
00000190: c064 40bb e419 93bd 855a ac3d f35e a13c
000001a0: dcac 1abc 2fe6 dfbd 4b7b 14bd 3523 92bd
000001b0: 53f2 a9bd 2fb8 61bd 26c8 283d c2e8 473d
000001c0: 82d7 db3c adc8 81bd 2f2a 983d 006a da3c
000001d0: 097d d93c 14c6 c73d 9686 423d 9921 aebc
000001e0: 59a2 75bc 28e4 533d 571f bf3c 132e 493d
000001f0: f9d2 a5bd 5827 723d 4105 89bd e19e 953d
00000200: 4ed6 09bd d991 4e3d 48ee a0bc 4f9a 6cbd
00000210: 321b 56bd 8bab a9bc 6a42 8b3c e13d 033d
00000220: 11e3 97bd e1b8 393d 3ff9 c83c 9cbb ae3d
00000230: 979e 063d cf0c 733d 11aa dabd 555d 67bd
00000240: cecd cb3c b590 a3bd d312 4a3c 0cc1 acbd
00000250: b06b 88bd 4812 f3bc 3bd3 9fbc 6a85 cb3b
00000260: 72d6 5e3d 0539 d93c 13d7 0f3d ae82 edbb
00000270: 9800 a73d 9998 5ebc e3eb 373d 91ef d13c
00000280: 895d 79bd 2e7f 0a3c da11 8d3d b6b0 b6bd
00000290: a40d adbd fc8c 8e3d 01b8 7a3c 705f a33d
000002a0: b837 2a3d ae37 023d 7e9a a23d 790d 883d
000002b0: 6fd6 e93d 6ad2 56bd c6d8 89bd 12e3 3abd
000002c0: 99db c13d 2d6f 98bd 520b 833d 3b25 cd3d
000002d0: 9c95 45bd e586 783d 0ffe ba3b 4d04 ab3c
000002e0: 9c6c ebbc c04e ac3c 6988 9e3d 89eb 613c
000002f0: 00d3 dd3c 631f 6abd 0c2f 6c3d 2e58 a13d
00000300: 6fa5 acbd 4015 2b3d 0605 afbd f10b 98bc
00000310: 9b78 4abc 7ae4 613d e1a3 e3bd 79a1 4a3d
00000320: b7b9 c9bd 6509 333d 901c 0ebd 8643 70bd
00000330: e9ec b4bd 2b16 ce3c 5c88 633d c367 b4bc
00000340: 2a54 5abd 7727 aebd 7124 943d 515e a9bd
00000350: 13e9 9dbc 710c 38bd e3a4 c63d e491 46bc
00000360: 0330 dcbc 5f4b a5bd 2b32 d63c ce16 8fbd
00000370: 0b3b c9bc d987 16bd 9aff 113d bdcf ddbb
00000380: 5017 71bc 6084 d43c 7356 923d 308b 803d
00000390: f1d1 d2bc ac2b 9c3d e86f 12bc 2111 a6bd
000003a0: 060f 2bbc c914 fabc 35e4 263d 69f3 a1bd
000003b0: 717b 9abc da38 8dbd 952a 67bd e075 263d
000003c0: aaa8 a13d da1c 553d 334e 1e3d cca1 14bd
000003d0: 196f 48bd 2b97 b7bd 14d4 a23d 7c08 e23c
000003e0: b40d bebc a222 763d efbf 9e3d e0eb 573d
000003f0: 5150 ed3b e720 93bc 67a8 333c 7bc5 4f3d
-0.04618402 0.089695685 0.05405981 -0.09079014 -0.0609587 0.01514428 -0.06785068 -0.04633831
0.0125324605 0.05675123 -0.048750643 -0.056399733 -0.032504722 -0.049764648 0.04943308 0.027736478
0.0929398 0.061626334 -0.02789452 -0.009068034 -0.0047775093 0.041384596 0.06406555 -0.081642255
-0.073070556 0.089292884 0.05928885 -0.008433094 0.033608567 0.074122705 0.031094119 -0.010390404
0.053338017 0.03763655 0.039904237 0.08273525 -0.06451571 -0.013405892 0.009827414 -0.03864163
-0.058987115 -0.063068196 -0.097703926 -0.020019386 0.08015601 -0.008524313 0.107302874 0.101899736
-0.09986469 -0.063140966 -0.018140968 0.082128726 0.089714944 0.02305536 -0.0627902 0.10431956
0.00771212 -0.1047441 -0.065138906 -0.05414418 0.003255285 -0.100560755 -0.012679652 -0.0075434074
-0.028698891 0.07363639 0.0888526 0.011266293 -0.04685931 0.03572688 -0.007933968 -0.075339936
-0.023002744 0.077477284 0.050031014 0.1004126 0.020669373 0.018417412 0.00053055456 0.027874554
-0.0830431 -0.05046487 0.048193473 0.019940155 -0.0823451 -0.07092206 -0.10951358 -0.03989498
-0.07000793 0.08746258 -0.04975211 -0.081999876 0.054374166 -0.0022038284 -0.050378535 -0.10131119
0.08607536 -0.093871385 -0.0802539 0.014601531 -0.0029356927 -0.071826726 0.08415703 0.019698596
-0.009440627 -0.10932576 -0.036250394 -0.071356215 -0.08298173 -0.05510729 0.0412065 0.04880596
0.02683616 -0.06337104 0.07429921 0.026661873 0.02654888 0.09754577 0.047491632 -0.021256255
-0.01499232 0.05173126 0.023330374 0.049116205 -0.080968805 0.059119552 -0.06690455 0.07305694
-0.033651643 0.05043206 -0.019644871 -0.057764348 -0.05227203 -0.02071168 0.016999442 0.032041434
-0.07416356 0.04534233 0.024532912 0.085318774 0.032866087 0.059338387 -0.10676969 -0.056485493
0.024878409 -0.07986585 0.01233359 -0.08435258 -0.06661165 -0.029671803 -0.019509902 0.0062109726
0.05440373 0.026516447 0.03511722 -0.0072482442 0.0815441 -0.013586187 0.044902693 0.02562693
-0.060880218 0.008453174 0.068881705 -0.08920424 -0.08449867 0.069604844 0.015302659 0.07977188
0.041557044 0.03179138 0.07939623 0.06643195 0.11417853 -0.05244676 -0.067307994 -0.045626707
0.09465713 -0.0744308 0.063986436 0.10016867 -0.04823838 0.06067552 0.0057065557 0.020876074
-0.028738312 0.021033645 0.07740862 0.013789066 0.027078152 -0.05715884 0.057662055 0.07878147
-0.084299915 0.041768312 -0.0854588 -0.018560382 -0.012357856 0.055149533 -0.11115242 0.0494704
-0.098498754 0.04371013 -0.034695208 -0.058658145 -0.088342495 0.025157055 0.055549964 -0.022022134
-0.05330292 -0.08503621 0.07233513 -0.082699426 -0.019276178 -0.04493374 0.096994184 -0.012119744
-0.026878363 -0.080710165 0.026146969 -0.069867715 -0.024564287 -0.03675065 0.03564415 -0.006769149
-0.014715031 0.025942028 0.07145395 0.06276548 -0.025734873 0.07625517 -0.008937813 -0.08108736
-0.010440594 -0.03052749 0.04074498 -0.07907755 -0.01885769 -0.06895609 -0.056437094 0.040639758
0.07893498 0.052029468 0.038648795 -0.036287114 -0.048934076 -0.0896438 0.07950607 0.027591936
-0.023199894 0.060091622 0.07751452 0.052715182 0.0072422405 -0.017960025 0.010965443 0.05072544

lstm.weight_hh_l1 f4 [400, 100]
00000000: de74 1fbd 3dd6 3ebd 0865 e4ba e703 3c3d
00000010: e465 513d 7338 b83c 3e88 27bd 9485 61bc
00000020: 3709 4e3d 1ba4 5c3d bde9 0cbb ee4d b13d
00000030: 2a1c 04bd 2f51 dcbc 5f5e 6ebd 58f6 90bd
00000040: c590 d33c 8708 06bd a0ab cd3d 4f60 00bd
00000050: 5907 5fbd 88d4 af3c 9c80 debc fda7 e93c
00000060: acd6 ccbd 1d5c 633d 0ce5 813d e3b9 c83d
00000070: 7cf8 90bd 3b46 9e3d 87bc 103d 683e 7c3d
00000080: a1e3 443d 2f5b d7bd 7a03 0abd f3e5 273c
00000090: 94d2 a6bd 06fa 543d 738d 90bc 8b2c 8b3c
000000a0: 0c18 d7bd ef9b 4e3c 6a0e c9bd aa76 ee3c
000000b0: 1aff b3bd f6fa 373d e74b 9fbd b1dc e03d
000000c0: 416f c23d 4eb5 58bd 6993 a63d a82f 0e3d
000000d0: 3d53 7c3d 087f 89bd 9c6f fe3b 1401 b83d
000000e0: 86e4 35bd 79fa 36bd db5c c4bc e35f 52bd
000000f0: 47e9 51bd 359b 5a3c 520a 973d a9ed a7bd
00000100: 0275 b33d 4a03 803d e123 b9bd 60b3 bc3d
00000110: 6cff a1bd 6111 22bd 7f0a 2cbd e84b f0bb
00000120: 2d28 34bc 677a 853d 6452 603d f0cb 863d
00000130: 9809 81bd cc43 b8bd 34bb 683d 3a0d 733d
00000140: 0dff 2f3d eee8 94bd 004d 843d 01a2 a1bd
00000150: 2c2d a9bd eea4 213d 33b4 93bd b8d0 66b6
00000160: cc3e 883d 090b ae3c 7dcb 9abd 2592 463d
00000170: 66e5 2ebd 3058 cb39 2371 383d f234 b5bd
00000180: d8ef acbd c732 83bd 2e18 093d 06e8 c7bc
00000190: 06a8 0abd 0b07 30bd 9bd1 1fbd 2543 9b3c
000001a0: 4d37 0abd 347e dbbb ff46 83bd 47db 51bc
000001b0: ec93 283d ddb4 673c 536a dabd 6627 9fbc
000001c0: 5408 fd3c 48be 7fbd 76c4 593d 3a78 953d
000001d0: 0914 873b 5c1e 713c cffa 9c3c 9650 b5bd
000001e0: 4f89 cfbc 6351 583d 7727 b33d d500 58bd
000001f0: 7e7d bb3c 5c2f 98bd 235c b03d 085c a43c
00000200: 6207 58bd dc1d 94bc 5ec9 5f3c f7a2 213d
00000210: dde2 00bd 7fb5 b63d 99a8 59bd 76fc 8c3d
00000220: e4bc 9c3d 65bc 513b 00af 863d de5c a8bd
00000230: ac5c 3a3b 8813 97bd 0a5d 923c c3d6 3d3d
00000240: a363 8ebc 0304 243d 163f f93c 0c94 d43d
00000250: 8822 fdbc 982f a9bd 96f2 493d 9173 02bd
00000260: a74b 293b 9f2b 6c3c d68a e13d e5b4 0c3c
00000270: e80a 2bbd ae25 58bd b38f e3bc b473 813c
00000280: 15d3 cf3c 8453 d03d 8a26 803d bc29 07bd
00000290: 743e 9fbd 5df2 ccbd a7ba 883d 2462 aabd
000002a0: 3457 1ebd 11e3 443b a312 20bd 72ac 96bd
000002b0: 47aa 3d3d 6485 b4bd 5bca 633d 7a61 19bd
000002c0: 23dd 57bc 3eff 62bd 331d b53d 308b dc3b
000002d0: d4a7 90bd 96c9 923d df7d 8fbc c481 933d
000002e0: 5b7c 693d ace7 433a 7603 78bd 8b32 33bd
000002f0: 763d 893d 6441 e4bc bb20 babd e1e6 a3bd
00000300: 26cd 47bd 72a1 7ebd 1d49 94bd 881e 78bd
00000310: 2117 aa3d dea9 b5bd dafc b33d 27f9 a6bd
00000320: a21a d73c fb32 c2bd 2092 853d 235a 65bd
00000330: 5a61 88bd b584 3dbc 074f afbd e3cd b2bd
00000340: 24f1 85bd ee7c 7cbd 5f35 c83d 6084 4e3a
00000350: d1c7 efbb d35f f13c 8b69 fbbc edda eaba
00000360: 83f6 b2bd 5569 8abc a041 563d 3cc9 babd
00000370: 4d42 df3c 10b8 753c 4b73 6b3d 9604 81bc
00000380: caa2 ff3c 63dd 163c 151b 62bd c1a3 c0bd
00000390: 8a79 c2bd 806d 87bc 7ebd 243d 4b2f 92bd
000003a0: 534d 093d ca4d 9ebd d961 c83d dd0d 8fbc
000003b0: 3937 e1bc 8a44 9dbd d344 973d 4810 67bd
000003c0: 177a a1bd 1580 10bd 09fd bdbd 33d9 8abc
000003d0: 1251 aabd 3d51 493d 9c2c eebc a68f 14bd
000003e0: 84d2 513c dc01 d63c 5470 6f3d 5fbc 88bd
000003f0: 46ea 8c3d 3602 1c3d 5c8b 0ebd 68a8 b43d
-0.038929813 -0.046591032 -0.0017425129 0.04590216 0.05112256 0.022487855 -0.040901415 -0.013764758
0.050301757 0.05386744 -0.0021501624 0.08657442 -0.03225342 -0.02689418 -0.058195468 -0.07078236
0.025825867 -0.032722976 0.100425005 -0.031341847 -0.054450367 0.021463647 -0.027160935 0.028522486
-0.10001883 0.055507768 0.06342515 0.0980108 -0.07078645 0.07728239 0.035336044 0.061582953
0.048068646 -0.10515439 -0.03369472 0.010247695 -0.08145633 0.051996253 -0.017645573 0.016989013
-0.105026335 0.01261042 -0.098172024 0.029109318 -0.08788891 0.04491707 -0.07778149 0.109795935
0.09493876 -0.05290728 0.08133585 0.034713417 0.06160282 -0.067136824 0.0077647697 0.08984581
-0.04440739 -0.044672463 -0.023970058 -0.051360976 -0.05124786 0.013342668 0.07375015 -0.08199627
0.08762552 0.06250627 -0.090400465 0.092139006 -0.07910046 -0.039567355 -0.042002197 -0.0073332675
-0.010995907 0.06517487 0.054766074 0.06581867 -0.06300658 -0.08997306 0.056819156 0.059338786
0.042967845 -0.0727099 0.06459999 -0.07892228 -0.08260569 0.03946393 -0.07212105 -3.439416e-06
0.066526026 0.021245496 -0.075583436 0.048479218 -0.04269924 0.00038784882 0.04502977 -0.08847989
-0.08444184 -0.064061694 0.033470325 -0.02440263 -0.033851646 -0.042975467 -0.039018255 0.018952915
-0.033744145 -0.006698394 -0.06410026 -0.012808627 0.041156694 0.014142242 -0.10664811 -0.019427966
0.03088776 -0.062437326 0.053165875 0.07298322 0.0041222614 0.014716711 0.019162564 -0.08853261
-0.025334029 0.05281199 0.08747762 -0.05273517 0.022886988 -0.07430908 0.08611324 0.020063415
-0.052741416 -0.018080644 0.0136588495 0.039462056 -0.031466354 0.089213364 -0.053139303 0.068840906
0.076532155 0.003200316 0.06576347 -0.08220838 0.0028436584 -0.07376772 0.01786663 0.04634739
-0.017381495 0.04004289 0.03042559 0.103798 -0.030900255 -0.08261031 0.049303614 -0.031848494
0.0025832446 0.014414697 0.11012809 0.0085880505 -0.041758448 -0.05277031 -0.027778482 0.015802242
0.025369206 0.10172179 0.06257351 -0.032998785 -0.07775584 -0.100071646 0.06676226 -0.083195
-0.038657382 0.0030042569 -0.039080273 -0.0735711 0.046304967 -0.08814505 0.055612903 -0.037446477
-0.013175282 -0.0554192 0.0884346 0.0067304596 -0.07063261 0.07167356 -0.017516075 0.07202485
0.05700336 0.00074731815 -0.060550176 -0.043749373 0.06701176 -0.027863212 -0.09088274 -0.08003021
-0.04877963 -0.062165685 -0.07240508 -0.060575992 0.08305193 -0.0887029 0.08788462 -0.08152991
0.026257817 -0.0948238 0.06522012 -0.055994164 -0.06659193 -0.011567284 -0.08559995 -0.08730676
-0.065401345 -0.06164258 0.09775805 0.0007878002 -0.007317521 0.029464638 -0.030689975 -0.0017918028
-0.08738425 -0.01689593 0.05230868 -0.09120414 0.027253294 0.014997497 0.057483 -0.015749257
0.031205554 0.009208056 -0.05520161 -0.094062336 -0.09495838 -0.016531706 0.040219776 -0.07137927
0.033521008 -0.07729681 0.09784288 -0.017462665 -0.027492153 -0.076790884 0.07386174 -0.05641201
-0.07884615 -0.0352784 -0.09276778 -0.016949272 -0.08316244 0.04914974 -0.029074006 -0.036269806
0.0128065385 0.026123933 0.058456734 -0.06676554 0.068806216 0.038088046 -0.034800872 0.088211834

lstm.bias_ih_l1 f4 [400]
00000000: 68f1 dd3c 343b e13d 2856 6bbd 8e7d 233c
00000010: 5bb6 95bd 90a5 973c 7295 bf3d 16e6 cd3c
00000020: 8c5f c93d f1f9 ae3d 7866 47bc 6e84 1dbc
00000030: 7621 2bbd dfe6 70bd 802e 46bd b527 bc3d
00000040: 05fd a7bd 36ba 97bd d1fb d0bc b5c3 353d
00000050: 34b4 ddbd 07de 1b3c 08ec 9f3d 788d 0b3c
00000060: e319 2d3d 81e2 cdbb d6d3 4e3d 10f8 54bd
00000070: 8703 93bd e018 8ebd 7f18 8cbd 52d2 59bb
00000080: fa5e d1bd ad72 183c f51f 8b3c f35d d4bd
00000090: 1d6f a43d 9e5a b7bd bb53 3fbd dfe8 a43a
000000a0: 6ca1 96bd b270 a63d 7f6b e83c ab3f bbbd
000000b0: 029d 2b3d 1bef 5f3d 05c2 b93a 9324 b53d
000000c0: 0002 c1bd 0476 883d 0e2b 183d 3b3a cfbb
000000d0: 13dd ca3b 85cc 5abd 07ea ffbc 093e c63d
000000e0: 5f06 113d 7b7b 4e3d e6f0 c73d 8828 83bd
000000f0: 3052 f73c bd4c c1bd ea9c 9dbc 4b82 cb3d
00000100: b3f6 6e3d 3fce 2dbd 97f9 0b3d 898e 853d
00000110: e32e 8abd 0229 b9bb c907 9d3d 2054 dfbd
00000120: 636a 923d d702 553c eae8 c03d 7eda abbb
00000130: dec1 483d 2563 b83d 4d61 1c3d 5bd1 1a3d
00000140: 49c1 7b3d 03ed 79bd 5176 8d3c 1340 85bd
00000150: 54b0 753d c362 973d b931 3fbd 9909 a2bc
00000160: 6f73 0fbb de2b 3b3d ac72 81bc f931 aabd
00000170: 50db 71bd 646a 4bbd aa9b 40bd d46c da39
00000180: 7fb6 423d 1683 403d 852d a6bd efb1 a6bc
00000190: c857 8cbd 12bd 64bd a98d db3c b985 d93c
000001a0: 387d d23d a2cf 413d 79ac 8e3d 0910 993d
000001b0: c2c7 8b3d 7be7 96bd 6b49 653d c743 c1bd
000001c0: 24e7 1b3d 04e7 2f3d 6ec9 40bd 5af5 afbd
000001d0: 8317 943c 4924 463d ce31 d13d fcbd af3d
000001e0: efad f33b e5af 98bd dbbb 713d a202 94bd
000001f0: fc9e 86bc 13cb b53c de8e 563d 0508 82bd
00000200: a20b 0a3d 7605 b0bd 22f7 b43d e547 42bd
00000210: 6e7d 573b 5329 c0bd 7327 79bd a0c9 673d
00000220: 572a c43d e918 043d e742 bebd 137a d63b
00000230: 2ff7 3ebd f65b 943d 8fee 9ebc 21fd 053d
00000240: 4c03 c73c 7205 5fbd 623e 643d 9add 653d
00000250: fe1f 99bd c1b8 083d 9381 653d 80da 96bd
00000260: 59d2 063d fb29 60bd 572f 03bc 13ab a43d
00000270: 4254 b73c deba eebc d91c 5b3d c40f a6bd
00000280: c39c d439 74f9 2e3d d91c b03d 3199 5b3d
00000290: bd98 703d 77a4 453d 2e0d 04bd 3c77 4cbd
000002a0: d663 6d3d 38a5 a73d ed96 8bbd 1f35 a93d
000002b0: ca52 c43d d829 a6bd 31f2 473d dcf5 df3c
000002c0: ffcb 94bd 7ea6 bc3d 2c8e 8b3c b444 6d3d
000002d0: ba4b bcbd c56a 51bd 9a23 a3bd 05c0 6bbd
000002e0: 98cf 773c 3f75 6fbd 1fa2 d6bd 9376 283d
000002f0: fcee 2ebd 74b5 acbd a3d5 da3d 3661 85bd
00000300: 633d e43c 6a48 e0bc 6e64 66bd 091b cf3b
00000310: 8625 bb3d dba7 62bc 7f0d babd 3b9f fbbc
00000320: c22f c93d 5928 823d b7f0 3f3d a072 943d
00000330: b5ce 45bd 8a18 5b3c 0a71 67bc f690 36bd
00000340: 27f2 403a b7a1 943d 76f4 c9bd f6d8 1cbd
00000350: 2043 afbd 39ef c53d 5c08 d0bd 2493 04bd
00000360: 8016 dfbc 4a5a a1bd 5906 503d 8f20 0c3d
00000370: ea8b 763d 4c34 ddbd 435a 28bd b15a 5fbd
00000380: 32b2 d6bd f5f6 553d cb61 0b3d 41fe 143d
00000390: 632a 67bd 2250 c13d b6cb 9ebd c448 0f3a
000003a0: 5b62 8e3d de19 b3bd e435 c43b 81f5 05bd
000003b0: d42d 1b3a 0b32 483d a6c6 3bbd af8e 353d
000003c0: e9cf 10bd dc59 c7bd f3c7 2c3d b672 a4bd
000003d0: 7297 90bd fe42 9c3d 302a e4bd e934 983c
000003e0: d815 813c 9dbc afbd ec5e 9f3d 55d2 b6bd
000003f0: 6c22 c13c a9ed d1bd eeb2 7e3d 8d75 a93d
0.02709265 0.1099762 -0.057455212 0.009978665 -0.07310172 0.018511564 0.09354676 0.025134128
0.09832677 0.08543766 -0.012170427 -0.009614093 -0.041779958 -0.058813926 -0.04838419 0.09187261
-0.082025565 -0.07408564 -0.0255107 0.044376094 -0.10825387 0.009513385 0.07808691 0.0085176155
0.042261016 -0.006283105 0.05049499 -0.051994383 -0.07178407 -0.06938338 -0.0684061 -0.0033236933
-0.102231935 0.009304685 0.016983012 -0.10369482 0.08029006 -0.08952831 -0.04671071 0.0012581608
-0.073550075 0.08126964 0.02837157 -0.09143003 0.04189778 0.054671388 0.0014172202 0.088448666
-0.094242096 0.06663135 0.037150435 -0.0063240803 0.006190905 -0.0534177 -0.031239523 0.09679801
0.035406467 0.05041073 0.097627446 -0.06404215 0.030190557 -0.09438465 -0.019239862 0.09936961
0.05834074 -0.04243302 0.034173574 0.06521327 -0.06747224 -0.0056506405 0.076675005 -0.109047174
0.07149198 0.013001165 0.09419425 -0.005244552 0.04901301 0.09003285 0.03817873 0.037797313
0.061463628 -0.061017048 0.017268332 -0.06506362 0.059982613 0.07391884 -0.04667828 -0.019779967
-0.0021888872 0.045696132 -0.01580175 -0.08310313 -0.059047043 -0.04966201 -0.047023453 0.00041661283
0.047537323 0.047000013 -0.08114151 -0.020348517 -0.068526804 -0.055844374 0.026800947 0.026553022
0.1027779 0.047317155 0.0696649 0.074737616 0.0682521 -0.0736837 0.05597822 -0.094367556
0.03806223 0.042944923 -0.0470671 -0.08591719 0.018077618 0.048374448 0.102145776 0.085811585
0.007436506 -0.07455424 0.059017044 -0.07227065 -0.016433232 0.02219156 0.052382343 -0.06349186
0.0337025 -0.085947916 0.08836199 -0.047431845 0.0032881158 -0.09382882 -0.060828637 0.05658877
0.09578388 0.03225032 -0.09290104 0.006545314 -0.04662245 0.07244103 -0.019400863 0.032712106
0.024293564 -0.054448552 0.055723555 0.05611954 -0.07476805 0.03337932 0.056031775 -0.07365894
0.032915447 -0.054727536 -0.008006892 0.08040442 0.022379044 -0.02914184 0.05349431 -0.08108476
0.00040552588 0.042718366 0.08599252 0.05361289 0.058739413 0.04825255 -0.03223913 -0.0499184
0.05795654 0.0818581 -0.06815896 0.08262085 0.09586103 -0.0811345 0.048814956 0.027338915
-0.07265472 0.09211443 0.017035566 0.05792685 -0.09194131 -0.051127214 -0.07965775 -0.05755617
0.015125178 -0.058461424 -0.10480141 0.041128706 -0.042708382 -0.08433047 0.10685279 -0.06512682
0.027861303 -0.02737828 -0.05624812 0.0063203615 0.091380164 -0.013833965 -0.090846054 -0.030715575
0.09823562 0.06355352 0.046860423 0.072484255 -0.048292834 0.01337255 -0.014126072 -0.04457184
0.0007360302 0.07257407 -0.0986108 -0.038292848 -0.08557725 0.09664769 -0.101578444 -0.032366887
-0.027232409 -0.078785494 0.050787304 0.034210738 0.060192026 -0.108009905 -0.041101705 -0.05452985
-0.10483207 0.05223747 0.03402881 0.036375288 -0.056436908 0.09439112 -0.077536985 0.000546586
0.069523536 -0.08745168 0.0059878696 -0.032704834 0.00059196097 0.04887585 -0.045843743 0.044325527
-0.03535453 -0.09733936 0.042182874 -0.08029692 -0.07060136 0.07629965 -0.11140859 0.018579917
0.015757486 -0.08580897 0.07781777 -0.089268364 0.023575984 -0.10250408 0.06218236 0.08274374
