save_results/lstm_long_term_365d_run2.pt (torch, 312341 bytes, 10 tensors)

lstm.weight_ih_l0 f4 [256, 12]
00000000: 3a3c cb3d c9fd a7bd 7f8f d03d 3d4c bc3c
00000010: 3665 55bd 07ba ff3d 0f60 f03c 152e b63d
00000020: 1ddb c93d 11bb d3bd d5d4 37bc 025c 383d
00000030: b349 cd3c 081e c5bd 4ab4 35bd 8b47 8ebd
00000040: 628e 8d3d c488 d53d f121 05bd 35a4 a9bc
00000050: acc1 5abd 2f09 8ebd 74b6 7b3d 9c92 cbbd
00000060: 5f06 c9bd f6df 91bd dc6e 36bc dc36 69bd
00000070: a57c ad3c 0e3f e63d 0d8e d93d 08ec e8bc
00000080: 8c74 8fbd b09f 013e b925 883d 32b9 313d
00000090: 8c4d ac3d 0427 b93d 60a6 513d 1917 e6bd
000000a0: abfa 81bc 927b 0a3d 7f8d 7b3c 854c cf3d
000000b0: 4eb3 d8bd a8a5 73bd 5d1f ae3d bc64 843d
000000c0: 4758 8fbd 6f6f fd3c 7bde e83d 1a46 f9bc
000000d0: 52d9 2abd 0c25 e53c 1078 9bbd 4bbd 933c
000000e0: fbc6 0cbc f722 3c3d 2876 173d a523 bb3d
000000f0: c071 103d 50e6 aebd c626 86bd 94fa bdbd
00000100: c0f7 c13d 455c 8b3d 267c 1a3d 80b5 9a3d
00000110: fd0d a73d 8cfd d9bd f36f a83d 410f 12bd
00000120: b5c8 f53c 87a2 8fbd 0bf3 23bd 6926 9bbc
00000130: 722b 84bc 8829 abbd cb92 c83d bf2b 733d
00000140: 149a 473d 4de9 f53d e849 a73d 4a93 aa3c
00000150: 35aa bd3d 0367 af3d c2f3 613c 34ef 233d
00000160: 3aec eebd 807f 6f3c 2554 30bd 62c5 443d
00000170: 9ba4 283d daf3 ecbd de95 fcbd 7a97 5ebd
00000180: 1d34 b8bd 4b70 babd 8ebf fc3d 326c 863d
00000190: e372 cc3d 28f7 813d 58a3 e6bd 9e4f ae3d
000001a0: c104 f9ba c8dd d3bb c722 733d c138 c8bd
000001b0: 65b1 253d fd96 733d 0ef1 25bd 51ce 91bc
000001c0: 8ca0 cabc 14b2 5d3c 8d64 803c 10ec cb3d
000001d0: 059e f93d 2447 c6bd fd0b 92bd 2662 08be
000001e0: abf8 873c 5af0 eb3d 03a5 1c3d b3ba bc3b
000001f0: a095 d33c 5540 d4bd 7bfb 613b fb15 a73d
00000200: d48f 08bd 5c12 babc 073b ddbd 9904 aeb8
00000210: b500 e73c a786 aebd 91fa 803a 1851 c0bd
00000220: 8b2d 5cbd 3aa4 43bc 5d52 7e3c db2c aabd
00000230: f580 3c3c d215 0bbe 30e8 4a3d a985 983d
00000240: 2f07 71bd 52d1 cb3d 4891 ec3d 63a8 91bd
00000250: b54b 0f3d dd99 a8bd fcbc fd3d 20c6 ec3c
00000260: 5fbe e0bd 55ff e33d e97b 9ebc 5b12 893b
00000270: 3d9f edbd 3d05 e93d 3588 ca3d 0088 363d
00000280: 337c ae3d d6a4 c9bd c2d3 0d3d e8f8 5f3d
00000290: b738 67bd a7c2 783d 2a43 083e e9ad ff3d
000002a0: 4025 e4bd bea9 d33c b467 babd 35f5 21bd
000002b0: 0956 e73d a53d 793d f83f f23d b1a5 9dbd
000002c0: 8273 e03d 8744 5d3d a4fd 84bd 9b66 e33d
000002d0: 2372 d5bd dbc6 f63d b0db bbbd 275c bfbd
000002e0: c2e8 80bd c152 213d b335 b93a 4905 04bc
000002f0: 7975 b5bd 142e 043e bc1f 003e 2645 c2bd
00000300: 2f4d b7bc d634 a23d eb64 ccbd 0610 c4bd
00000310: c828 fd3c 46ae adbb ba4b aebc 43bc 913c
00000320: 099b 8c3d dee8 33bd 0dd2 cfbd 23ef 043e
00000330: d48e 433d 9516 b9bd 63e5 713d c9c2 9ebd
00000340: 1255 92bc 78ce 11bd 1b2c e93d 8687 683d
00000350: 4fed c73d f504 edbd ba21 513d 0a67 7a3d
00000360: e3e3 b73b bbc7 5a3c c3d1 e43d 88e8 a6bd
00000370: f4ce af3d 615f ae3d ecad 233d 1ccc 0e3d
00000380: 3660 a43d e388 c63c d9aa 08bc b85d c83d
00000390: b67b b2bd 6f41 963d 5d7c 4f3d 97cb 483d
000003a0: 40a1 e63d 5c20 223d c859 873d 986d 8dbd
000003b0: bc7a bd3d a088 593c 2a6e 16bd fa69 fcbc
000003c0: ce92 1fbb 7e7d cfbd b0d9 acbc 9885 10bd
000003d0: 3796 743b ab82 ebbd 7726 2abd 2c4e 673d
000003e0: 5ad3 dfbd d986 8abd ada5 033d 03b8 8c3c
000003f0: ac38 00be fb78 b7bd 2164 28bd 41e4 d43d
0.09923597 -0.082027026 0.1018362 0.022985572 -0.052098475 0.12486654 0.02934268 0.08895508
0.09856246 -0.103384145 -0.011220177 0.04500962 0.025059557 -0.09624869 -0.04436139 -0.069472395
0.06911923 0.104264766 -0.032503072 -0.020708183 -0.053407356 -0.069353454 0.061453298 -0.09940073
-0.09815668 -0.07122795 -0.011134829 -0.056937084 0.0211776 0.112424955 0.10622797 -0.028432861
-0.070046514 0.12658572 0.0664782 0.043389507 0.084132284 0.09040645 0.05118406 -0.11234874
-0.015866598 0.033809252 0.0153535595 0.10122017 -0.10581075 -0.059484154 0.08502076 0.06464526
-0.069992594 0.030936925 0.1137056 -0.030428935 -0.04171116 0.027971767 -0.075912595 0.018034598
-0.0085923625 0.045931783 0.036977917 0.09137658 0.03526473 -0.085400224 -0.06550364 -0.092763096
0.09471083 0.068047084 0.037716053 0.0755415 0.08156965 -0.10644063 0.082244776 -0.03565908
0.030002931 -0.070134215 -0.040026706 -0.018939214 -0.016133998 -0.08357531 0.097936235 0.05936789
0.048730925 0.12007389 0.081683934 0.020822186 0.0926098 0.0856457 0.013791027 0.040023044
-0.116661504 0.014617801 -0.043048996 0.0480398 0.041172605 -0.115699485 -0.123332724 -0.054343678
-0.08994315 -0.091034494 0.12341224 0.06563605 0.099828504 0.063459694 -0.11261624 0.085112795
-0.0018998609 -0.0064656474 0.059359338 -0.0977645 0.04045238 0.059470166 -0.04051309 -0.017798575
-0.024734758 0.013531227 0.015672946 0.09957135 0.12188343 -0.09681538 -0.07131193 -0.1331869
0.016598066 0.11520453 0.038243305 0.005759561 0.025828183 -0.10363833 0.003448217 0.08158489
-0.03334029 -0.022713833 -0.10802274 -8.297823e-05 0.02819858 -0.08521777 0.00098403 -0.093904674
-0.05375437 -0.01194101 0.015522567 -0.08309337 0.011505355 -0.13582543 0.049537838 0.07447369
-0.05884474 0.09952034 0.11551148 -0.07112195 0.03498431 -0.08232472 0.123895615 0.028903067
-0.109738104 0.11132685 -0.019346194 0.0041830963 -0.11602638 0.11377952 0.09889261 0.044563293
0.08519783 -0.09845893 0.034625776 0.054680735 -0.056450572 0.06073251 0.13306871 0.124843426
-0.111399174 0.025837775 -0.09101811 -0.03954049 0.11295707 0.060849804 0.11828607 -0.07697619
0.10959531 0.05402043 -0.064936906 0.11103555 -0.104221605 0.120496474 -0.091727614 -0.093437485
-0.06294395 0.03938556 0.0014130383 -0.008057901 -0.08860297 0.12908202 0.12512106 -0.09485845
-0.022375671 0.07920234 -0.09980186 -0.09573369 0.030903235 -0.005300316 -0.021276344 0.017789965
0.06865508 -0.04392325 -0.10147486 0.12981848 0.047743633 -0.0903751 0.05905665 -0.07751996
-0.01786283 -0.035597295 0.113853656 0.05676987 0.0976206 -0.11573211 0.051057555 0.061133422
0.005611883 0.0133532835 0.111728214 -0.081498206 0.08584395 0.08514286 0.039960787 0.034862623
0.08026163 0.024235195 -0.0083415145 0.097835004 -0.08715002 0.07336699 0.05065571 0.049022283
0.11261225 0.03958164 0.06608921 -0.06905669 0.09251925 0.013277203 -0.036726154 -0.030812252
-0.0024348977 -0.101313576 -0.021099895 -0.035283655 0.003732098 -0.11499532 -0.04154059 0.056471035
-0.10928984 -0.067640014 0.032140423 0.017177587 -0.12521619 -0.08958622 -0.041111115 0.103950985

lstm.weight_hh_l0 f4 [256, 64]
00000000: 46aa 853b 55d5 673d bac8 2fbc 476b e8bd
00000010: f42e b53d 2fb8 6ebd 1dd1 6f3a b62b b9bb
00000020: 87f2 b9bd 0d2e 143d 973c 223d 9bf4 c13d
00000030: cec1 953d 1ba8 cebc 0ed6 86bc 10c1 ddbd
00000040: fb3c 26bd 2814 b83d 73ef 563d 1bc4 6bbd
00000050: 542c f3bd 2edb c23d 9c49 88bd 5763 013d
00000060: 5173 16bd dae7 bcbb 66bf 003c d3ae fb3c
00000070: 7b1a 6bbd a261 ce3d 7df4 72bd 0d86 89bd
00000080: f881 9ebc a81e 9b3d 60df e23d 3d09 78bd
00000090: 08bd 4d3d 4715 873d b560 f33c d7d5 79bd
000000a0: 57ef 2bbd 45e9 9b3d 37bb 31bd 8062 56bc
000000b0: 7e32 c13d 7a32 43bd f930 97bc 6a48 4dbd
000000c0: e131 ccbd d437 d83d f1c9 593d b5af c6bc
000000d0: 5662 97bb 23b2 9c3d abee cabd 9b46 a33c
000000e0: 6c00 dd3c 150d 493d f288 b83a bf71 003e
000000f0: c2ca d3bb f5cf c93d 2e9d e63c 4c60 34bc
00000100: be4e 903d 9f80 e3bc 704c 923d bd8f 7dbb
00000110: f4c6 a8bd 0f7c a3bc 32eb 72bd 6377 c33d
00000120: ffa3 31bd 6aa8 af3d b755 9a3b b00a 2f3d
00000130: a4cc 393d bf6f 92bd d838 69bd 0c39 29bd
00000140: 698d 323c 0b3f 703c 1cb4 023d 2d4c 5dbd
00000150: 22bc e93d 51bf b9bd ea89 d6bd b9b2 cdbc
00000160: 885a 97bd c358 99bc ed1d 8cbd 59e3 e1bb
00000170: 5a9d fabd 1b82 173c 811c 743d 78a4 4bbd
00000180: bee7 f7bd f0c2 713d 5b62 cabc bb34 de3b
00000190: af84 9bbd c692 53bd 2e41 b5bd bc6e f6bd
000001a0: 67ff c9bc 8b5c 2e3d 18dd 8dbd 736c d53b
000001b0: fb6b 69bd b35d fdbd 18cd cdbd 998c c83d
000001c0: b718 89bc 4ebc 55bd d199 bfbb d05d baba
000001d0: 32c0 2ebd f906 9d3c d995 043e dc82 b43d
000001e0: b57f d8bc 29ac d8bd 9807 d5bc e1e1 15bd
000001f0: 9b9d 96bd 17a7 98bd 5715 9a3d 37a5 9e3d
00000200: a50a cb3c 1155 cabc a49d 40bd 586f 03be
00000210: bccb bcbd 31f7 90bd 6703 dc3d 95aa d23d
00000220: 0b81 c2bd ec81 a73d 5ef7 3ebd 61da bbbd
00000230: 1437 b03d e7fe ba3d 3f04 253d c435 e23c
00000240: e10d a73c d705 18bd fff4 5dbd d845 5ebc
00000250: f257 963d 871e a43d d90d bc3b 6d10 5d3d
00000260: 6b9a fdbd 6813 bbbb 90e2 c6bd 91f0 b93c
00000270: 65c0 c6bd 114e e13c b889 e4bd 395a 74bd
00000280: 9f55 b9b9 5df0 d63d 950c 8abc 32e0 9dbd
00000290: f0dd 823c 668c c33b 6b1a c53d 9df8 b3bc
000002a0: 6fcc 253c 80cc bfbd f766 e73c 9653 e8bc
000002b0: 2493 99bc 7ca9 ff3c e1ef 073e 2b0f 87bb
000002c0: 5b17 78bd 79c8 57bd 28c3 f73c 717d 793d
000002d0: 5265 9e3a e6ea 133d 4dac 083d 007b bebd
000002e0: 406e 803d 202e da3d 5424 9f3d 147f 8d3d
000002f0: fb34 b03d 4075 9b3d 9c99 febc c65e ac3d
00000300: d14f 693d b92f 7f3d 9872 bf3d 017f 003d
00000310: 9b44 84bd 7905 8c3d 2c0b d0bd 6bc2 d2bd
00000320: 4ecb 8a3d aafa 97bd 74b7 8abd 4508 9cbd
00000330: 26d5 df3c 05e0 743d 16f5 ae3c fe42 cabd
00000340: 3bc2 23bd 049f 503d 6d58 25bd f911 bfbc
00000350: 0a6c 24bd 2953 48bd 89ce 97bd 5654 033d
00000360: 66ab c5bd 8af9 723d a05f 9fbc 1646 e6bd
00000370: dd83 f53d 2aab 39bd 7b2f 26bd 1593 99bd
00000380: b7f1 213d b17a 6c3d 19e5 a2bd 6ac3 4cbb
00000390: 453f 063e 0545 7dba 604e 9a3d 21e4 4bbd
000003a0: cd84 ebbd 873b d53d 4a79 ca3d 3e3e 103d
000003b0: 48bd 533d 9168 b1bd aef1 6aba 1ea2 b7bd
000003c0: 23a3 003e 2047 983d 41c9 9b3d 62e0 c83d
000003d0: 876e 2dbd 8a82 a2ba 0b2e be3d 4617 e5bd
000003e0: f6ef 79bd 3876 273d b01e d43c 27b3 2cbd
000003f0: 9b1a febd 5822 bcbc 0a21 f93d b622 a7ba
0.004079136 0.056599934 -0.010729009 -0.113485865 0.08846846 -0.05828112 0.0009148287 -0.0056509627
-0.090794615 0.03617673 0.039608564 0.09470483 0.07312356 -0.025226643 -0.016459491 -0.108278394
-0.0405855 0.089882195 0.05247445 -0.057560068 -0.11873689 0.095144615 -0.06654665 0.03158888
-0.036731068 -0.0057649435 0.007858133 0.030723011 -0.0573983 0.10077216 -0.059315193 -0.06715021
-0.019349083 0.075742066 0.11077762 -0.060555685 0.050229102 0.06595855 0.0297092 -0.06099495
-0.0419763 0.07612852 -0.043391433 -0.013085008 0.09433459 -0.04765556 -0.01845597 -0.050117888
-0.09970451 0.10557523 0.053171102 -0.024253706 -0.004619877 0.076511644 -0.099088036 0.019931128
0.02697774 0.04908474 0.0014078899 0.1254339 -0.0064633796 0.09854118 0.028151121 -0.011009287
0.07046269 -0.027771292 0.071434855 -0.003869041 -0.08241072 -0.019956617 -0.05930633 0.095442556
-0.04336929 0.08577044 0.004709925 0.0427348 0.045361176 -0.0715022 -0.056938976 -0.04131417
0.010897973 0.014663468 0.031910047 -0.054027725 0.114128366 -0.09069694 -0.10475524 -0.025109636
-0.07390314 -0.018719083 -0.068416454 -0.006893557 -0.12237044 0.009247328 0.059597496 -0.049717396
-0.12104748 0.059023798 -0.024705103 0.0067811883 -0.07593667 -0.051653646 -0.08850323 -0.1203284
-0.024657918 0.042568725 -0.06926936 0.0065131723 -0.056987744 -0.12371387 -0.10048884 0.09792442
-0.016735418 -0.052181534 -0.0058471938 -0.0014218632 -0.04266376 0.019168364 0.12947787 0.08814022
-0.026428083 -0.10579712 -0.026004598 -0.036592368 -0.073542796 -0.07453745 0.075236015 0.07746356
0.02478535 -0.024698766 -0.047025338 -0.12835443 -0.09218547 -0.07078398 0.107428364 0.10286442
-0.09497269 0.081790775 -0.046622626 -0.09172512 0.08604255 0.0913065 0.040287253 0.027613528
0.02039236 -0.037114944 -0.054188725 -0.013566457 0.07340993 0.08013635 0.0057389555 0.053970743
-0.123829685 -0.0057091005 -0.09711182 0.022697719 -0.09704665 0.027503045 -0.1115908 -0.059656356
-0.00035349742 0.104950644 -0.016851703 -0.077087775 0.015974969 0.0059676645 0.096241795 -0.021969134
0.010119542 -0.09365177 0.02824734 -0.02836017 -0.01874692 0.031208746 0.132751 -0.004121681
-0.06056915 -0.05268142 0.030244425 0.060910646 0.0012084639 0.03611269 0.033367444 -0.09300804
0.062710285 0.10653329 0.07770601 0.06909004 0.08603855 0.07590723 -0.031079106 0.08416514
0.056960884 0.06230137 0.09348029 0.03137112 -0.06458398 0.06836981 -0.10158381 -0.102909885
0.067770585 -0.07420857 -0.06773272 -0.07618765 0.027323317 0.059783954 0.0213571 -0.09876059
-0.039980154 0.0509329 -0.040367533 -0.023324 -0.040142097 -0.048907433 -0.0741244 0.03206285
-0.09651832 0.05932001 -0.019454777 -0.112438366 0.119880415 -0.04532925 -0.040572625 -0.07498757
0.039537158 0.057734195 -0.07953853 -0.0031244406 0.13110073 -0.0009661469 0.0753448 -0.049778108
-0.11499939 0.104117446 0.09886415 0.03521561 0.051694185 -0.086625226 -0.00089624047 -0.08966468
0.12562232 0.07435441 0.076067455 0.098084226 -0.042341735 -0.0012398523 0.09286126 -0.1118608
-0.06101986 0.040884227 0.02589354 -0.04216304 -0.12407418 -0.022965595 0.12164505 -0.0012751434

lstm.bias_ih_l0 f4 [256]
00000000: 1ad8 3b3d 5139 f23c 11c7 d1bd d3f4 903d
00000010: 120d a2bb 4c64 b9bc d2c8 afbc 3683 b3bd
00000020: 6872 55bd 12eb e93c f189 093d 231b 933c
00000030: 5ee5 7abd 30c3 8a3d 6bb3 d93d 970e 96bd
00000040: eac0 00bd e354 1abc 4a86 e8bc bc1a d7bd
00000050: 0f17 dfbc cc1b 4a3d eeec 37bd e050 803c
00000060: 29c8 c6bd e462 22bd 7c63 96bc a9b4 9e3c
00000070: 20e3 87bd 7b5b 153d dc12 43bd c70c ad3c
00000080: b4f5 1ebd 750c 17bb 7c73 d1bd f786 ddbd
00000090: 183a c03c 2a00 4dbc 8bab 8bbc 63f6 cbbc
000000a0: 7762 723d 982b be3d 6552 073e eb9d 3c3c
000000b0: 0db4 993c b380 e5bd a130 d23d 5502 113d
000000c0: 0f6c e4bd 9079 60bc 867d ddbd 1512 43bd
000000d0: 47bf 7dbc e0f2 97bd 979f 833d 0f3e b9bd
000000e0: 96b6 e0bc 4f47 cbbd 2dc6 b83d 82ac a13d
000000f0: 3084 51bc 847b 17bd 3a84 683d d4d6 b83d
00000100: f698 953d 2465 b43c 78dc 0abc 271a 47bd
00000110: 8cf9 d4bd a8e0 383d 4c6c 5b3d 2627 5e3b
00000120: 20bb c1bd 4d5e 25bc e697 30bc 60c7 313d
00000130: 2674 053e 8ec9 123c c6df a53d a1d1 f9bc
00000140: 5a3f 35bd aa09 e43c b5a7 f23d 13fc e23d
00000150: 5000 f23d 46ad 8e3d e484 92bd e8de c63c
00000160: 39ae a1bb 479d 73bc d9eb be3d cb1d 0b3e
00000170: b048 cd3d b7a7 adbc 81f1 31bd de83 1a3d
00000180: cedc 23bd 7c18 733d 26e9 d83a ad48 97bd
00000190: 9b58 1d3d bc9e 43bc ba0d e53d cba0 0b3e
000001a0: 6279 86bd 0575 5a3d a35a 3d3c f403 0d3e
000001b0: 7f7b da3d fb64 ccbb feb1 803d 74a3 b03c
000001c0: ca39 ff3c 0796 99bd d071 ec3c 7c99 cbbd
000001d0: 7c91 70bd 099e e23c 9dfe ee3d 4850 323c
000001e0: 3d63 ebbc eb25 be3c 9433 fa3d c0d0 98bd
000001f0: c049 85bd bbd8 873d 4141 f93d a675 e53d
00000200: c293 12bc c5b6 02be 8e98 a43d 9f60 c9bd
00000210: 1bc0 b0bd d035 8b3d ad52 293d ec1b 02bd
00000220: 16d5 d4bd 0c0a a7bd 54e6 c5bd fe7c 9bbd
00000230: baaf cf3d aeff 5b3d 8393 943d 849f e43b
00000240: 7338 4a3d 825c 713c 8041 663c cf2f e1bd
00000250: fca9 d3bc 8fa0 c9bd 0e98 05bc b498 0c3e
00000260: 0d66 0e3d b66f ad3d 7a1c b43c 88bd 4cbc
00000270: 593d 85bd f4eb 203d 9cc2 35bd a3a0 5d3c
00000280: 7126 373d 51a1 5cbc 408d 913d 6bc8 fd3d
00000290: 081a b33d 910b 173d 95df fb3d 38dd 15bc
000002a0: ed55 63bd 56c5 eabd 04ed fa3c 02c6 81bd
000002b0: f6fc 6a3d cc68 a6bd 4cb7 76bd 5b33 bf3d
000002c0: cdfa 31bd a6d1 043e 0bd2 e3bd 405f b83d
000002d0: 6fe6 24bd 3394 d03d 5c43 bfbc ae71 cebd
000002e0: e0f5 08be 63ca 0f3e c592 0d3e 5710 6c3c
000002f0: 8ece 35bd 9ad4 b13d ff84 2bbd 16e6 0f3e
00000300: ad4e adbc 0491 c2bd d8f1 493d 6766 31bd
00000310: baa4 ee3d 32e4 863d e748 cebd bdcd 3e3d
00000320: 4123 1a3c 3627 42bd 9238 843d 9b40 f13d
00000330: e356 033b fb24 a5bd 0377 d73c d961 e03d
00000340: 2a51 87bd 2e7c 85bd f7d8 093e 8c44 76bd
00000350: 5538 e2bd 56f7 cb3d c0ae 78bd 205e 0a3d
00000360: cae5 b33d 6cf9 aa3d 8681 953d f63e c03c
00000370: 1d0b 55bc 07ad 07bd 5c75 c5bd dce3 a7bd
00000380: c1ce bebd a51d 99bd acf9 863c e669 0abd
00000390: 1b41 97bd 62a4 b23c a561 d43d 27f2 063d
000003a0: 1add ecbd 19b1 dc3d 6069 ec3d 4cba 69bc
000003b0: 921e 98bd 906d f13d 66fe 0c3c 8fd0 533c
000003c0: 750b 123d 37c1 423d bb2f 91bd b790 dabc
000003d0: 77ec bd3d 8163 903c 1e49 d6bd ece1 eb3d
000003e0: be80 af3d 60e3 c0bd d3a5 6abd 6a9d 863d
000003f0: fc09 1abd 4b9a cfbd c784 e73d 73aa 3ebc
0.045860387 0.029568346 -0.10243047 0.070779465 -0.0049454058 -0.022630833 -0.021458063 -0.08765261
-0.05211106 0.028554473 0.033578817 0.017957276 -0.061253898 0.0677551 0.106299244 -0.073270015
-0.031433977 -0.009419653 -0.028384347 -0.10503146 -0.027232675 0.049342915 -0.044903688 0.015663564
-0.09706146 -0.03964509 -0.018357985 0.019373255 -0.066351175 0.036464196 -0.047625408 0.021124257
-0.03880854 -0.0023048196 -0.10227105 -0.10816758 0.023465201 -0.012512246 -0.017049571 -0.02489776
0.059175935 0.092856586 0.13215025 0.01151226 0.018762613 -0.11206188 0.102631815 0.035402615
-0.11153423 -0.013700858 -0.10814957 -0.047624666 -0.015487499 -0.074193716 0.06426924 -0.0904504
-0.027430814 -0.099257104 0.09022174 0.078942314 -0.012787864 -0.036983028 0.056766726 0.0902535
0.073045656 0.022020884 -0.008475415 -0.048608925 -0.1039916 0.045136124 0.053570077 0.0033897846
-0.094595194 -0.010093284 -0.010778403 0.04340303 0.13032588 0.008959187 0.08099322 -0.030495467
-0.04424987 0.02783664 0.11848394 0.110832356 0.11816466 0.06966643 -0.07154253 0.024276212
-0.004934099 -0.014869041 0.09322328 0.13585584 0.1002363 -0.021198137 -0.043443207 0.037723415
-0.040005498 0.059349522 0.0016548976 -0.07386909 0.03841458 -0.011939701 0.11184259 0.13635556
-0.06566121 0.053334255 0.011557254 0.13771039 0.10668086 -0.0062376237 0.06283949 0.021562316
0.031155486 -0.074993186 0.028862864 -0.09941384 -0.058732495 0.027663248 0.116696574 0.010883398
-0.028733844 0.02321144 0.12216869 -0.07461691 -0.06508207 0.06633135 0.12170649 0.1120408
-0.008946361 -0.12765034 0.0803691 -0.09832882 -0.08630391 0.06797373 0.04133861 -0.03176491
-0.103922054 -0.08156213 -0.09663072 -0.075922 0.10140939 0.053710632 0.07254698 0.0069770236
0.04937024 0.014731528 0.014053702 -0.10995447 -0.02583789 -0.09845077 -0.008153928 0.13730127
0.034765292 0.08468573 0.021986235 -0.01249636 -0.06505842 0.039287522 -0.044375047 0.013527068
0.044714395 -0.013466195 0.071070194 0.12391742 0.087451994 0.036876265 0.12298504 -0.009146981
-0.055501867 -0.1146342 0.030630596 -0.06336595 0.05737015 -0.08125457 -0.0602334 0.09335967
-0.043452073 0.129706 -0.11124047 0.090025425 -0.04025882 0.10184517 -0.02334755 -0.100802764
-0.13375044 0.14042048 0.1382552 0.014408193 -0.04438644 0.08683129 -0.04187488 0.14052615
-0.02115568 -0.09500316 0.049302906 -0.04331055 0.11652513 0.065864936 -0.10072499 0.046582926
0.009407819 -0.047400676 0.064561024 0.11779901 0.0020040802 -0.08063694 0.026301866 0.10956163
-0.06607278 -0.06517826 0.13461672 -0.060123965 -0.11045901 0.09959285 -0.06071353 0.03378117
0.08784063 0.08348355 0.07300095 0.023467522 -0.013003138 -0.033123996 -0.09641525 -0.081977576
-0.09316779 -0.07476357 0.016476475 -0.0337924 -0.07385465 0.0218069 0.10370187 0.03294578
-0.11565609 0.10775966 0.11543536 -0.014265608 -0.07427706 0.117884755 0.008605575 0.012928142
0.035655458 0.047547545 -0.07089182 -0.026680334 0.09273618 0.017625572 -0.10463165 0.115177006
0.085694775 -0.09418368 -0.05728705 0.06572993 -0.037607178 -0.10136851 0.11304622 -0.011637318

lstm.bias_hh_l0 f4 [256]
00000000: fae4 573d da17 0fbd c7fe 093e b2d4 563c
00000010: 10e2 c63d c37c 31bc 8b70 f73d 4803 723d
00000020: 04ed c2bd 507b cc3d 9fc0 e13d 29e2 8c3d
00000030: 09c5 a23d 05a3 583d e94c 9e3d c2fb debb
00000040: 2f5f 0d3d 4676 7fb9 e36a 94bc ada6 123d
00000050: 4fdd be3c 958b ec3d 0a1a 24bd 96a3 1b3d
00000060: 8f7d ba3d 08d6 723d 74ca 663b 59b5 ae3d
00000070: b6d5 e63d 28ff d8bc a0e5 733d 2ba0 a43c
00000080: 5704 a23c 9045 f2bc 4abe b6bd 9708 4bbd
00000090: 3f59 24bd f2a8 a4bd 6e28 86bb 9f7d b3bd
000000a0: 17ce bb3d 54e3 e4bd e4ae ffbb 96df e93d
000000b0: 99dc 84bd 6d73 ea3d 6dca cebd dcea 683d
000000c0: eabe de3c 9670 5cbd ae6a 14bd ed26 fd3c
000000d0: 47c7 6f3d 3792 0cbd 115b 37bd 39c3 a93d
000000e0: 9206 98bd 9ff8 b0bd ebb4 94bd 5122 0d3e
000000f0: 047d 893d f68d 6b3d 5e50 023e 0737 7d3c
00000100: 9c7c b6bd f2fc db3d 291f e0bd 705a 8cbd
00000110: 3665 1cbd 7082 f73d 8907 353c f811 43bd
00000120: 9f25 423d 66a7 bcbc e9fb c3bd 1e57 3cbc
00000130: 36a2 cf3d 3546 c93d e4b9 d8bd 3bd8 e2bd
00000140: 328b c33d 2679 94bc 04dd d13c dd41 b23c
00000150: 370e 00bd 7ca9 afbd 7b70 67bd 6a41 e33d
00000160: 9f02 2e3d ca63 313d d0a4 333d 66ee ebbc
00000170: 8aff c53d 95ac 8f3d 2f38 203d 7d11 4dbc
00000180: 87c1 d2bd f017 0d3e 47d1 823d 9a9b 0abd
00000190: ae3f d3b9 9c92 46bd 6810 90bd ef3b bdbd
000001a0: 48b6 c9bd 0c81 51bc 9260 063d 87b7 0b3e
000001b0: f13b 13bd d31b c7bd 508b d8bd 08e7 553d
000001c0: 4e2c b43d d9f2 acbd a2ca 953c f3bd 14bd
000001d0: 86a7 a7bc d5fc 123d f7ee 1dbb e2fb 073d
000001e0: 60e3 d0bd ac78 d4bd 4d04 9c3a 1a3d 3bbd
000001f0: ed95 4fbd 4588 a23d 4268 2dbd 97dc 33bd
00000200: 1d16 593d 48d8 10be 2c9b e6bd 85a5 3ebd
00000210: ce7d 0c3e a256 06be 1a80 e5bd 0d3e d83d
00000220: 9914 e8bc 5260 cf3d ba8a d7bd ca93 92bd
00000230: 8edc 5bbd e268 93bd 83b1 883d faec 893d
00000240: 74cf 0fbe 74fb 9a3c 8e71 9b3d b492 94bd
00000250: 0b15 273d 51c3 ca3d 4db2 a03d 3fa7 9f3d
00000260: b84a d1bd 2f60 1a3b 781d cebd 358f 7fbd
00000270: ec42 133d 2653 ed3d 8280 f53d 0bb6 96bd
00000280: 1904 f83c 9cd2 113d b7ad 1cbd 27a6 c9bd
00000290: 28e4 d13d 7c98 823d d4ef 3e3c 814f a7bd
000002a0: 84d6 dbbd c2c7 d83d d68f f63d 560b fb3d
000002b0: a6d6 603d 18c7 eabd c69d 053e 96bf ba3c
000002c0: 97c7 a13d 54fa 86bc eb5f ab3d f8ce ad3d
000002d0: c5ab 76bc 31e0 f53c 93d9 ac3d c6d0 803d
000002e0: d1bf 3e3d d1c9 3e3b 7f56 93bd 6b4a 223d
000002f0: 861f 54bd 37c1 8d3c 706c 723d 0dd0 a23d
00000300: 6671 fc3d 3667 d23d f4f6 03bd 577d 7dbc
00000310: 6c58 ad3c b1ef a63c c545 e43d 03e0 3cbd
00000320: 2a6e d3bd 9b69 893d a2ba 8cbb 74f8 be3d
00000330: 72c6 16bd a945 a43d a65f dc3d b652 ff3d
00000340: d864 9d3d 3270 b13d 0afc 393c 1a98 833d
00000350: 477c 72bd 1951 5bbc af0b 083e 3e0a cf3d
00000360: 2c43 34bd 7967 153e be27 ac3c d238 843c
00000370: 223a c2bd 2c47 9e3d 588a b7bd e4d7 d03b
00000380: 4718 e03d c1f0 6a3d 4cc8 d93c 57d9 893d
00000390: fd29 6bbd 443a 043e 0585 e43d 891d ce3d
000003a0: 2760 c7bc d1de ef3d d28f b5bd d0ac d2bd
000003b0: 3e2e bebd 80d4 1ebd 84d6 35bd 1bfd 753d
000003c0: bdaf d3bd 44f9 0d3e 17f4 f13d 87e3 e93d
000003d0: 9758 fa3d 872d 0d3e 89d0 fbbb 69bd 7d3d
000003e0: f3ca 343d 7c60 093d 89be c1bd 6a2c ce3d
000003f0: 7cbf 763d 534c e03b d3d0 24bd 57eb 0b3e
0.052708603 -0.034934856 0.13476096 0.013112234 0.09711087 -0.010832968 0.12082013 0.05908516
-0.095178634 0.099844575 0.11023068 0.06879074 0.07947738 0.052889843 0.07729513 -0.006804914
0.034514602 -0.00024362755 -0.018117374 0.035803486 0.023298888 0.11550061 -0.040063895 0.037997805
0.0910598 0.059286147 0.0035215886 0.08530683 0.11271231 -0.026488855 0.05954516 0.020095905
0.01977746 -0.029574186 -0.089230135 -0.04956874 -0.040124174 -0.08040036 -0.004094175 -0.08764195
0.09170168 -0.11176172 -0.007802831 0.11419599 -0.06487388 0.11447797 -0.100972034 0.056864604
0.027190644 -0.053818308 -0.03623455 0.03090235 0.058539655 -0.03431913 -0.044764582 0.08289189
-0.07423128 -0.08641171 -0.0726107 0.13782622 0.06713298 0.05750843 0.1272597 0.015455014
-0.08910486 0.10741605 -0.10943443 -0.06853187 -0.03818246 0.12085426 0.01104916 -0.04762456
0.04739916 -0.02302904 -0.095695324 -0.01149538 0.10138361 0.09827844 -0.10582331 -0.11076399
0.09548034 -0.018124174 0.025618084 0.021759922 -0.031263556 -0.085772485 -0.056503754 0.11096461
0.04248297 0.043308057 0.04385835 -0.0288002 0.09667881 0.07015339 0.03911608 -0.012516377
-0.10290819 0.13778663 0.06387573 -0.0338398 -0.000402925 -0.04847966 -0.07034379 -0.09239947
-0.098492205 -0.012787115 0.03280694 0.13644229 -0.035945836 -0.09722104 -0.10573447 0.05222228
0.08797513 -0.08444757 0.0182851 -0.036313962 -0.020465624 0.03588565 -0.0024098733 0.0331992
-0.10199618 -0.10374579 0.0011903137 -0.045712568 -0.05068009 0.079361476 -0.042335756 -0.043911543
0.052999604 -0.14145005 -0.112600654 -0.04654457 0.13719866 -0.13118985 -0.11206074 0.1055871
-0.028330134 0.101257935 -0.10524507 -0.07157095 -0.053677134 -0.07197739 0.06674483 0.06734653
-0.14043981 0.01891873 0.07590018 -0.07254544 0.040791553 0.09900535 0.07846508 0.077955715
-0.102193296 0.0023555865 -0.100642145 -0.062392432 0.035952494 0.11588125 0.119874015 -0.07358941
0.030275391 0.035601243 -0.038251605 -0.09846144 0.102485955 0.0637674 0.011653859 -0.08169461
-0.10734275 0.10584976 0.12039153 0.122580215 0.054892205 -0.11463755 0.13048467 0.022796433
0.07899397 -0.016476788 0.08367904 0.08486742 -0.0150556015 0.03001413 0.084399365 0.062898204
0.04656965 0.0029111991 -0.07194232 0.03962175 -0.051787876 0.017304046 0.059185445 0.07949839
0.123263165 0.10273592 -0.032217935 -0.015471778 0.021160327 0.020377966 0.1114612 -0.04611207
-0.103237465 0.06709596 -0.0042947093 0.093247324 -0.036810346 0.08021099 0.10760431 0.12466948
0.0768525 0.08663978 0.011351595 0.064254954 -0.05920055 -0.013386034 0.13285707 0.101093754
-0.044009373 0.14590253 0.021015044 0.016140375 -0.09483744 0.07728419 -0.08961934 0.0063733924
0.109421305 0.057358507 0.026584767 0.067309074 -0.05741309 0.12912852 0.11158184 0.10064227
-0.024337841 0.11712421 -0.08865322 -0.102868676 -0.09286164 -0.038776875 -0.04439403 0.060055833
-0.10336254 0.13864619 0.118141346 0.114203505 0.122239284 0.13786899 -0.0076847714 0.061948214
0.04413886 0.03353928 -0.0946017 0.10067065 0.060241207 0.006845036 -0.040238213 0.13663994

lstm.weight_ih_l1 f4 [256, 64]
00000000: 9805 86bd 508b 33bd e15c aabd 4e7b 493d
00000010: 8bd8 ae3d 23dc c2bd d29a 6d3d 9ebe d0ba
00000020: 66be 7ebc 8f4b b0bc 2dde c93b e375 53bd
00000030: a290 d0bd dc44 3bbb 3327 043e eeac 6cbd
00000040: c8fb 3b3b f450 d23d 6018 dabb aade bebd
00000050: 7199 8d3d 79fe e0bd 7983 d53d 50bf b83d
00000060: 3da3 eb3d 9b61 9c3b ccc9 cebd 8d9d f1bd
00000070: 797d f13c 8b02 abbb bf38 95bd 8c2b 933d
00000080: cf82 d6bd 5b62 8dbc 2e64 183e 94f5 cf3d
00000090: b46f af3d 74a0 6fbc 026a a7bd 06e9 37bd
000000a0: 8fe8 5b3d 7f38 9cbd 88e4 bc3c 5b50 c3bd
000000b0: 185d ae3c 2f24 323c 4308 3ebd f9fb 9e3d
000000c0: 1a13 0b3d 8bed 96bd 4c3c 9d3d 419d 4abc
000000d0: 4fd2 8a3d 9b9f 6bbd d88c 25bd 4b58 0fbd
000000e0: ee5d b63d d2ba 9ebd fd81 d53d 3213 5bbd
000000f0: 6914 0dbe 41b9 c0bd 6eb7 e7bd bf66 173d
00000100: 61f3 20bb e5f7 3c3d 18b5 1cbd 0c83 c6bb
00000110: 2c18 4e3d 8582 c73d b670 143d 1697 42bd
00000120: 4fce 00be e882 c53d 9e4b c43d f69b 63bc
00000130: a5d9 0b3d cb29 c23d bcd5 423d 0f33 98bd
00000140: 2fab 81bd c5ee 0dbc ccae a5bc 14ed 463b
00000150: 8a3e b03d e193 3d3d aae1 7fbd 41a9 ed3d
00000160: c5fc 0abe f56e c8bd e5bc 6e3d db63 be3d
00000170: 78ab f5bd 3ffe 293c 3f34 15bd e8be cdbd
00000180: 9999 b93d 3c0e d83d cc84 8ebd 18dc 0e3d
00000190: fda3 4abd 435d 4a3d f9de 6ebd 8b4b 7abc
000001a0: aca8 cdbb 4ce8 9dbd df41 42bd d3da 4f3d
000001b0: ffdd 55bd c41d 203d 33f4 e93d 1d7e 713c
000001c0: e594 873a 60b1 1d3d b858 763d 4aca 8dbd
000001d0: 2200 c8bd d6e6 7bbd d3a1 d13d 04f3 06be
000001e0: ee97 e5bd 8595 cabd 98be afbd 856c dc3d
000001f0: 0519 1c3d 574f 623d 066a 4dbd 6fee c83d
00000200: a586 173d cb77 ccbd 4e55 413c 9250 44bd
00000210: c310 b1bd cc5f 2dbd cf0b dbbd 4a41 9ebd
00000220: f4af ec3c 6375 8fbc ce0b 08be 6b11 53bd
00000230: e41b a93d fa82 8fbd 4a70 163d 4706 ef3d
00000240: 2580 86bd 4be8 903d 9231 a43b 9545 083d
00000250: 8a40 72bd a2eb 8abc 6b01 803c ae99 9f3c
00000260: adc0 50bd 3493 923d 2d59 483d 06ec 893d
00000270: e187 1a3d 029d e0bc e1bb b63d d84d 8a3d
00000280: cc68 bebd c86a 74bd d5c2 cb3d 74fd a3bd
00000290: e162 0a3c eedf b23d 4141 483d f3b9 9c3c
000002a0: 33a5 0ebc 295a 36bd f0aa b03c 0562 973c
000002b0: 775b 343d c3f7 1cbd 37a1 8dbd f1f3 c03d
000002c0: 0ca7 eb3d 07c3 a93d a901 29bc e401 8abd
000002d0: d9cb d43d a7a9 c2bd ddd8 43bd b455 813d
000002e0: 6b3f cebd bee7 743d b884 e93c 2a80 c03d
000002f0: 9356 4bbd 1510 1d3c 065a 8e3d 9644 19bc
00000300: 0b39 41bc ec1b 97bd 1bb6 e33d 3ce5 ac3d
00000310: 0586 06bd 7fdb d33c 0038 e7bd cc59 e43c
00000320: 5c90 143d 46e8 ed3d 4e70 9c3d 286e f73c
00000330: 8cc9 8fbc a286 ab3d 4008 a8bd f345 a63c
00000340: 2af0 2bbd 5d2a a2bd a55e 9d3d 97b7 c4bd
00000350: 1588 c13d ac1e b73d 1f5b 8abd 0b53 ae3c
00000360: 7b01 23bd cc91 243d 9a2a a33d 43b7 9ebd
00000370: 461f d93d f761 f53c b2d5 293d 55d8 653d
00000380: eb54 b3bc 9394 34bc e6f3 52bc 0190 3ebc
00000390: 32e9 1b3d 4325 b4bc 12eb e93d a261 223c
000003a0: 0195 5e3d 4bda e53c a9aa 99bd 9b6f 9abd
000003b0: 817b 923d 5411 8d3d 29ec dc3d 5951 643d
000003c0: 5229 ca3c 03ed cfbd 558d cfbd ae85 cabd
000003d0: 094e 7fbd 5383 c7bd 9093 e0bc ad0c f1bd
000003e0: d178 00be bef1 91bc 523a ca3c f2cc cf3d
000003f0: d803 473c 8406 88bd 6724 473d 3ba9 dd3d
-0.06544036 -0.04383403 -0.083184965 0.04918986 0.08537396 -0.09514644 0.058008976 -0.0015925949
-0.015548324 -0.021520404 0.0061605186 -0.051626097 -0.101838365 -0.002857498 0.12905578 -0.057782106
0.002868401 0.10269347 -0.0066557378 -0.093198135 0.06914032 -0.10986037 0.10425467 0.09020865
0.115057446 0.0047723777 -0.100970834 -0.117976286 0.029478775 -0.005218809 -0.07286214 0.0718604
-0.104741685 -0.017258814 0.14881966 0.10154262 0.085662276 -0.014625657 -0.08174516 -0.044899963
0.053688582 -0.07627963 0.023058191 -0.09536811 0.021284625 0.010872885 -0.046394598 0.07762904
0.033953764 -0.073695265 0.07677516 -0.012366594 0.067783944 -0.05752526 -0.040417522 -0.034996312
0.089046344 -0.07750477 0.10425184 -0.053485103 -0.13777317 -0.094103344 -0.11314283 0.03696322
-0.0024559128 0.04613485 -0.038258642 -0.0060581025 0.05031602 0.097416915 0.036240302 -0.047507368
-0.125787 0.09644109 0.09584735 -0.013892164 0.03414311 0.094806276 0.047567114 -0.07431614
-0.06331479 -0.008662884 -0.020224951 0.0030353712 0.086056784 0.046283606 -0.06247107 0.11604548
-0.13572986 -0.097867884 0.058285613 0.0929639 -0.11995596 0.010375558 -0.03642678 -0.10046178
0.090624996 0.1054959 -0.06958923 0.034877867 -0.049472798 0.049405348 -0.058318112 -0.0152768
-0.006276211 -0.07710323 -0.0474261 0.050745796 -0.052213665 0.039090887 0.114235304 0.01473954
0.0010344057 0.038499236 0.060143203 -0.06923349 -0.0976565 -0.06149944 0.10235944 -0.1317864
-0.11210619 -0.098918 -0.08581275 0.10762886 0.038109798 0.055251446 -0.05014994 0.098111026
0.03699364 -0.09983786 0.011800123 -0.0479284 -0.08645775 -0.042327687 -0.10695612 -0.07727297
0.028892495 -0.017512029 -0.13285753 -0.051530283 0.08257273 -0.07007404 0.03672818 0.11671119
-0.065674104 0.07075556 0.005010792 0.033269484 -0.05914358 -0.016958062 0.015625676 0.01948246
-0.050965 0.07156983 0.04891317 0.06734471 0.03772724 -0.027418617 0.08922554 0.06753129
-0.09297332 -0.059672147 0.09949271 -0.08007327 0.008446426 0.087341174 0.048890356 0.019131636
-0.008706379 -0.044519577 0.021565884 0.018479357 0.04403254 -0.03832222 -0.06915515 0.09421528
0.11506471 0.08289152 -0.010315337 -0.06738642 0.10390443 -0.09505015 -0.04781424 0.06315175
-0.1007069 0.05979132 0.028505668 0.09399445 -0.04964311 0.009586354 0.06950764 -0.009354731
-0.011793385 -0.073783726 0.11118718 0.084421605 -0.032842655 0.0258615 -0.11289978 0.02787485
0.036270484 0.11616568 0.07638608 0.030203894 -0.01755216 0.083752885 -0.082046986 0.020297026
-0.041977085 -0.079182364 0.07684068 -0.096053295 0.09449784 0.08941397 -0.06755661 0.021279832
-0.039796334 0.040178105 0.0796711 -0.07749798 0.10601668 0.02995394 0.04146356 0.056114513
-0.021891078 -0.011021751 -0.012875533 -0.011631013 0.03806419 -0.021990424 0.11421789 0.009910973
0.05434132 0.028058192 -0.07503254 -0.07540818 0.07152463 0.06888071 0.107872315 0.05574164
0.024677906 -0.10152628 -0.10134379 -0.098887786 -0.06233028 -0.09741845 -0.027414113 -0.11769996
-0.12546088 -0.017815467 0.024686012 0.10146512 0.0121469125 -0.06641868 0.0486187 0.10823294

lstm.weight_hh_l1 f4 [256, 64]
00000000: 5ce0 b83d 1593 b73d b22e 833d 2c79 e13d
00000010: 8a86 2f3d a322 ce3d bd07 fdbc a358 873d
00000020: 59fc 37bd ef23 bfbc e31f 82bd e209 8abc
00000030: d040 d5bd c19d 9bbc 142a b2bc f2f7 a83d
00000040: ae58 b3bd 6cc9 793c caf0 793d 7267 22bd
00000050: 79d5 71bb 4ad8 b0bd 9f68 e2bd 8b8a e5bd
00000060: e06c 83bd 8ccd 8dbd a4b6 563d 27f7 cc3d
00000070: 8a49 96bd 41a3 c63c 29ab 7d3d a155 f43d
00000080: b9a9 0f3e e78e e23c 9114 6b3c 0ea2 93bd
00000090: 757c febc e72b aebd d96d a4bd 7e75 21bd
000000a0: f84f cbbb aa52 a4bd 7cec 373d 9fbb b93d
000000b0: 0071 b7bd aa30 623d 988c d2bd a81c c63d
000000c0: ea60 a5bb 0df8 813c 11ce 6fbd 9b02 9bbc
000000d0: da2c 50bd 825a aa3d 8566 1c3d 0ded 70bd
000000e0: 36b4 05bd d03b 173d c784 803d fb6a 9f3d
000000f0: 12fa 9fbb f8c1 aabd 0702 a83d bc37 d63d
00000100: 508f 9dbd 21b4 ad3d ddbd eb3c 88c1 c8bc
00000110: ce37 bebd 2cd1 36bd 66d1 e73d 3640 af3c
00000120: 4f4c 5fbd 47aa 413d df41 9d3d 9277 bcbd
00000130: 2f1a 4f3d 4481 17bd d45e cebd aad5 af3d
00000140: 9b06 2b3d 59db 023e d292 793d 8ea6 463a
00000150: 1530 963c b77e 8c3d 2e72 163c baef c93d
00000160: b40c 8ebd 6be9 98bb 2e60 fd3c 6c8e f1bc
00000170: acec df3d 52da ae3d 97e8 9f3d d46c 87bd
00000180: cd91 5dbc 1ce3 c03d 78ac 0a3e 52a8 873d
00000190: 1c3c fc3b 4a51 b43d 0e2d 14be a5f0 e5bd
000001a0: 7492 d83d 8aa1 4a3c 982c 2f3c 1aa5 32bd
000001b0: 7a38 a6bd 177c 09be 100f 773b 7d1b 0c3d
000001c0: d771 ce3c b726 11be d10b 8e3d e62d f13d
000001d0: 9da9 b0bd a5cd cebd 6ee9 0abe 900a 68bd
000001e0: 3ad9 b9bd 3735 25bd 59f3 13be 2013 083e
000001f0: b000 9fbd 4cc2 3fbd 75fa 4bbd eb41 053c
00000200: f2b0 4f3d 288a 2d3d 9a4b c1bd 50b1 29bb
00000210: 3cd7 583d 4f6c 543d e2d1 0dbd 10f1 493d
00000220: abfd 93bd cea5 d3bd 101f 3dbd d00b afbc
00000230: bb03 0c3e db51 38bd 4696 f53c 4822 a73d
00000240: c903 71bc 130c e3bd c7ef abbd 3d18 8abc
00000250: 50d8 ab3b 036f 46bb 531c 933d de1d 59bc
00000260: 0979 843d 7d07 e53d bde6 20ba 11a9 dfbc
00000270: 600f e83d d023 653d fc39 9b3d 9967 9a3d
00000280: f10f 073e f9ea df3d f6bf ce3d 0f1b 6ebc
00000290: d3d3 183d 1d15 91bc 23f9 8c3d 11f5 cb3b
000002a0: e5dd 2e3d dc2e c8bd 6fac d63d 5d5c 083d
000002b0: 4588 64bd b316 5abc 4459 acbd 2da8 5cbc
000002c0: e8c8 b43d 8fc2 dcbd d2c6 293d 5a29 51bc
000002d0: cc83 f03b 56e1 6c3d 5543 0bbe c009 d73d
000002e0: 3fb4 a4bd ebab 813d 8429 793d 078f 01bc
000002f0: 6c1a b93d 5b95 89bc 7beb d23c 5045 023e
00000300: e683 483d e2ed 6b3a 69da 7f3d 5858 303c
00000310: b034 dd3d b183 9b3d b57f 583d ed9a 9a3d
00000320: 6c63 91bd ef02 fdbc 5de1 84bc 16bb a63c
00000330: a66d fc3c a983 29bd 6e23 96bd 7732 42bd
00000340: 5799 c0bd 3b65 8fbc 70b2 71bd d1ab dd3d
00000350: 4261 f1bc 15b4 e4bd 4cfe 613d 4552 fdbd
00000360: 6abf 42bc fa80 423c dd04 983d cf53 8ebd
00000370: 901a 023e 7c91 05be c700 b6bd cccd 813d
00000380: c75e 4c3d 265d ff3b 1218 92bc 03bc 5cbd
00000390: ad1e b93d 912e c0bd 1811 da3d fa16 9b3d
000003a0: e629 03bb 0ba5 bc3d eba2 33bd dff6 3d3b
000003b0: eee0 ce3d 9228 3e3d b500 77bd 834a 68bc
000003c0: c47d d63c 52eb 823c d58d d03c be35 a4bd
000003d0: f0f9 123d 6f5d 78bd 1705 9e3d 5402 f43d
000003e0: 54e8 5c3d d873 313d 328d 503d a043 453d
000003f0: a85e a03c e24e c8bd c487 e8bd a2e5 f53d
0.09027168 0.089636005 0.06405391 0.1100944 0.042852916 0.100652 -0.030887479 0.06608703
-0.04491839 -0.023332564 -0.06353738 -0.016850416 -0.10412753 -0.018996121 -0.02174858 0.08250417
-0.08757149 0.015245777 0.06102065 -0.039649434 -0.0036900921 -0.08635004 -0.11055111 -0.112080656
-0.06417251 -0.069239706 0.052420273 0.10008078 -0.07338245 0.024247767 0.06193081 0.11930395
0.14029588 0.027656032 0.014348165 -0.07208644 -0.031065205 -0.085044675 -0.08028764 -0.03941869
-0.0062046014 -0.080235794 0.044903263 0.09068989 -0.089571 0.05522219 -0.102807224 0.096734345
-0.0050469534 0.01586535 -0.05854613 -0.01892214 -0.050824024 0.08318044 0.038183708 -0.05881982
-0.032642566 0.036922276 0.06275325 0.07784077 -0.0048821056 -0.08337778 0.08203512 0.10459849
-0.0769335 0.084816225 0.028777057 -0.024506345 -0.09287988 -0.044633076 0.113192365 0.021392923
-0.054516133 0.04728153 0.076785795 -0.09202494 0.05056208 -0.03698851 -0.10076681 0.08585675
0.041754346 0.12778987 0.060931034 0.0007577919 0.018333474 0.068601064 0.009182496 0.09860177
-0.06936017 -0.0046664975 0.030929651 -0.029486857 0.109338135 0.08537735 0.07808035 -0.06612554
-0.013523531 0.09418318 0.13542354 0.066239014 0.0076975953 0.08804567 -0.14470312 -0.1122754
0.10574809 0.0123676155 0.010691784 -0.043614484 -0.08116241 -0.13426243 0.0037698187 0.034205902
0.025200767 -0.14174925 0.069358476 0.117763326 -0.08626101 -0.10097817 -0.13565609 -0.0566507
-0.09074636 -0.040333953 -0.14448299 0.13288546 -0.07763803 -0.046816155 -0.0497994 0.008133392
0.050705858 0.042368084 -0.09438248 -0.002589304 0.05293964 0.051861104 -0.034623988 0.04930216
-0.07226118 -0.10334359 -0.0461722 -0.021367937 0.13673298 -0.04499994 0.029978883 0.081608355
-0.014710375 -0.11086287 -0.08395343 -0.01685726 0.0052442923 -0.003027857 0.07183137 -0.01325175
0.06468398 0.11183069 -0.00061378983 -0.027302297 0.113310575 0.055942357 0.07579419 0.07539291
0.13189675 0.10933489 0.100952074 -0.014532818 0.037311386 -0.017710263 0.068834566 0.0062242826
0.042692084 -0.09774563 0.10482108 0.03329121 -0.05579402 -0.013311076 -0.084154636 -0.013467831
0.08827382 -0.107792966 0.041449375 -0.012766207 0.00733993 0.057832085 -0.13599904 0.104999065
-0.08042192 0.06331619 0.060830608 -0.0079076355 0.09038243 -0.016794851 0.025747051 0.12721753
0.048953913 0.0008999986 0.06246415 0.01076325 0.10801065 0.075934775 0.052856166 0.07549081
-0.07099041 -0.030885188 -0.016220743 0.020352881 0.030814003 -0.041385327 -0.073309764 -0.04741141
-0.09404247 -0.017504325 -0.059008062 0.10823787 -0.029465321 -0.111671604 0.055174157 -0.12369207
-0.011886457 0.011871571 0.074228026 -0.06949579 0.12705445 -0.13043779 -0.08886867 0.06338081
0.049895074 0.0077930866 -0.017833743 -0.05389024 0.09039054 -0.09383882 0.106477916 0.07572742
-0.0020013987 0.09211167 -0.043856543 0.0028986258 0.10101496 0.04642541 -0.06030341 -0.014177921
0.026183017 0.01598135 0.025458256 -0.08018063 0.03588289 -0.06063598 0.077158146 0.119145066
0.053932503 0.043323368 0.050915904 0.048160195 0.019576386 -0.09780671 -0.1135402 0.120066896

lstm.bias_ih_l1 f4 [256]
00000000: c3b6 763d 9bdb b1bc 2a0d 42bc a1f7 a7bc
00000010: ead6 45bd df3d 9abd 7545 0e3e f5e4 d5bd
00000020: 13d7 ce3d 01a0 30bd 6ce9 a1bd e7ac bf3d
00000030: 9f8b ac3c 7d91 7ebd db0a 91bd 7fab 513d
00000040: 3c1c cf3d 41be 7d3c 3c30 d13d f910 c13d
00000050: a17a a1bc f519 3abd d711 12bd be4b 38bd
00000060: ffc3 fc3d bd0b 9f3c 3f84 133e 49d5 be3c
00000070: 37c7 d3bd d438 ed3c b543 8cbd 7176 963d
00000080: cd63 993c 1453 29bd f885 7cbc 25a5 d83d
00000090: 1ce7 663b 9f1c bd3b f952 d5bc 4388 4dbd
000000a0: fdad 68bc b44d 053d 2804 393c 191f 063e
000000b0: cfac 053e 0dc0 d5bd 140d 88bd c544 b23d
000000c0: 71c6 213d 6ddd 02bc 2f73 943d a6ba eb3d
000000d0: 6cd8 37ba bed1 5bbd ddd3 a73d 7e78 123b
000000e0: 5c33 a2bd 07f9 8dbc 3210 f9bb cb97 d03d
000000f0: fd20 6cbd e3b8 2bbd 5409 223c 765f c03b
00000100: 3b8d 9d3c 9393 98bd 6824 e73c fbb9 a3bd
00000110: abd7 72bd a05e f23c bf99 a63d d1f6 9a3c
00000120: af47 fd3b 3f49 99bd a032 0e3e dabd c2bd
00000130: 188d 1d3d 619d c63d b376 023e ec6b dabd
00000140: 1370 2bbd 38ae af3d d76b 7a3d fdd0 c93d
00000150: eaca cebd 24ad c5bd b678 723d f138 2cbd
00000160: 8884 883d 20af cf3d 4874 76bd 4363 973c
00000170: 376a 20bd 9720 59bd 397b 0d3e abf5 ee3c
00000180: 6c2b 75bd 1825 c3bd dd66 6a3d 65c7 a73c
00000190: a95c b4bd 39ab f2bd b89c f23d 881e df3d
000001a0: 64bd c2bd 1978 e43d b004 cdbd ec2d 063e
000001b0: b6e7 b4bd 3c16 b93d 2992 e13d 8602 44bd
000001c0: 4153 ddbd 13e0 cdbb f6b9 573d 56b4 193d
000001d0: ec8b 30bd fbdb b83d 0ef8 9e3c e7ce 6e3d
000001e0: 9fe4 dbbd 3ac5 113d b02f a2bd 457d 863c
000001f0: 3be1 bbbd e35b 5abd 953b 72bd 2b34 0abb
00000200: 9d79 3dbd 17e7 6d3d ca7e a8bd 3064 0fbc
00000210: 8c4d f6bd 7379 923d 13c8 763d 3557 a63d
00000220: ebab 403d 7b35 66bc 4c82 d83d a2dd 8cbc
00000230: 6393 983c bee9 95bd b401 2cbd a5d5 c6bc
00000240: 9e29 02bc 8496 8a3d b6e9 0a3e 1b60 cd3d
00000250: 35ff 02be 3207 5a3c 36f1 c43d c6c0 f8bd
00000260: ff5e 053e c549 f93d 2f11 f13d 4027 b1bd
00000270: 1164 d13b 332e f43c 8865 9d3d 5c61 d23c
00000280: f37f 9dbd a26f 1b3d e763 313d aa94 dc3d
00000290: 539a f33d 535d 8abd aa96 06be b88c b3bd
000002a0: 4983 63bd 94b4 053e c068 a3bc baf4 d0bd
000002b0: a8d7 acbd c81d d6bc 8d58 09be b930 f53c
000002c0: df1d 5e3d a34d 0abe 793a 8bbd 7961 21bd
000002d0: 1339 013c d266 423c 5430 7ebc 4078 25bd
000002e0: 3a89 e73b 0beb 82bd 770f c9bd 63e3 a43d
000002f0: ad9a 993c 2607 0cbe ded4 4a3d 6c95 7c3d
00000300: a6a5 d93b 0630 7c3d e761 50bc 5eb2 97bc
00000310: 7721 fe3d 4d78 f93d 8ba7 0bbd 3aef 8d3c
00000320: c3b9 133e e36c 9e3d 5553 8bbc 3907 aa3d
00000330: f5f3 b0b9 0226 e13d 8151 5738 08ce 913d
00000340: 3d10 503d 483b 17bd b19a 8b3d a096 9ebd
00000350: b12c a7bd e96a 9e3d c27e afbd 3144 92bc
00000360: 0047 98bd 356a 7ebd 6e69 823d 117d b93c
00000370: 1f9d eebc 74d5 833d f9db 34bc ee30 bebd
00000380: 8262 163d edc5 88bd ceca 333d 42d2 16bc
00000390: ca1f 9cbd 339e 8fbd 7efa 83bd 379c debd
000003a0: 21b8 dfbd 9243 dabd 6fd5 e4bd eb4e cf3d
000003b0: 511d 893d 3e90 053e a370 a4bd 55d1 d6bd
000003c0: 0c44 92bd 5ef8 f03c 7c29 f53d 166d 8b3d
000003d0: d0ae e03d dfc1 cb3d 47d5 453d 908f ed3d
000003e0: 6aa1 ea3d bd7d 89bd a843 c83c 470c c93c
000003f0: 8622 e9bb 81b8 a6bd 0f7c fe3d 6547 a63c
0.06023289 -0.021711161 -0.011843959 -0.02050382 -0.04830066 -0.07531332 0.13893683 -0.10444061
0.10099616 -0.04312134 -0.0790585 0.093591504 0.02106267 -0.062150467 -0.07082149 0.051188942
0.10112807 0.015487255 0.10214278 0.094270654 -0.019711794 -0.04543491 -0.035661545 -0.04499411
0.12342071 0.019414777 0.14405917 0.023295062 -0.103407316 0.028957762 -0.068488516 0.0734681
0.018724347 -0.041338995 -0.0154128 0.10578374 0.0035232967 0.005771234 -0.026040541 -0.050178777
-0.014201638 0.032544807 0.011292495 0.130978 0.13054202 -0.104370214 -0.066431195 0.08704523
0.03949589 -0.007987362 0.07248532 0.1151021 -0.00070131454 -0.053666823 0.081947066 0.002234965
-0.07919952 -0.01733066 -0.0076008076 0.10185202 -0.057648648 -0.04192437 0.009889919 0.005870755
0.019232383 -0.074500225 0.028215602 -0.07994457 -0.05928771 0.029586136 0.081347935 0.01891652
0.0077294926 -0.07484674 0.138865 -0.095088676 0.038464636 0.096979864 0.12740593 -0.10665116
-0.04185493 0.085781515 0.061138 0.098543145 -0.100972965 -0.096521646 0.05919715 -0.04204649
0.06665903 0.10140824 -0.06016949 0.018479949 -0.039163794 -0.053009596 0.13816537 0.029169878
-0.059855863 -0.095285594 0.057227004 0.02048082 -0.08806736 -0.118490644 0.11846298 0.10894495
-0.0950878 0.11155719 -0.1001066 0.13103455 -0.08833258 0.09037444 0.11014206 -0.04785397
-0.10806895 -0.0062828152 0.05266758 0.037525497 -0.04310219 0.09026333 0.019405391 0.058302786
-0.107369654 0.03558848 -0.07919252 0.016417155 -0.09173819 -0.053310286 -0.059138853 -0.0021088223
-0.046258558 0.058081713 -0.08227308 -0.008751914 -0.1202651 0.07152071 0.0602494 0.08122102
0.047038954 -0.014050837 0.10571727 -0.017195527 0.018624967 -0.073199734 -0.04199381 -0.024271796
-0.007944493 0.0676699 0.13565716 0.10028096 -0.12792666 0.01330738 0.0961632 -0.121461436
0.1302452 0.121722735 0.11770856 -0.086500645 0.0063901027 0.029807186 0.07685381 0.02568119
-0.0769042 0.03794826 0.043308165 0.10770543 0.118946694 -0.067560814 -0.13143411 -0.08767074
-0.055545125 0.13057166 -0.01994741 -0.10202928 -0.08439571 -0.026137248 -0.13412686 0.02993046
0.054227706 -0.13506179 -0.06798262 -0.039399598 0.007887143 0.011865335 -0.015514452 -0.040397882
0.007065919 -0.06392487 -0.09817403 0.08051183 0.018750513 -0.13674602 0.049519412 0.061665937
0.0066420613 0.061569236 -0.012718654 -0.01851767 0.12408727 0.12181149 -0.03409533 0.017325986
0.14426331 0.07735612 -0.01700751 0.08302159 -0.00033751098 0.109935775 5.13359e-05 0.071193755
0.050796736 -0.03692177 0.068166144 -0.07743573 -0.08162821 0.07735235 -0.08569099 -0.017854782
-0.07435417 -0.062113006 0.06367765 0.022642644 -0.029127656 0.06437197 -0.011038774 -0.09286676
0.036715038 -0.06678376 0.04389458 -0.009205403 -0.07623251 -0.07012596 -0.06444262 -0.10869639
-0.10923792 -0.10657419 -0.11173522 0.10122474 0.06695045 0.13043305 -0.08029296 -0.10489146
-0.07141885 0.029415306 0.11970803 0.06807916 0.10970843 0.09949087 0.0482991 0.11599648
0.114565685 -0.06713436 0.024446324 0.024541987 -0.007114711 -0.0814066 0.12426006 0.020297715
